Assets/HideNSeek/Brain/MoveToHider-33586.onnx (onnx, 125748 bytes, 7 tensors)

action_model._continuous_distribution.log_sigma f4 [1, 2]
0	0x3a85ee98	0.0010218201
1	0xbc0301e3	-0.007996055

action_model._continuous_distribution.mu.bias f4 [2]
0	0x3b3a19ad	0.0028396652
1	0x3c186a56	0.009302696

action_model._continuous_distribution.mu.weight f4 [2, 128]
0	0xbc1fc135	-0.009750654
1	0x3bd3fc0f	0.0064692567
2	0xbc6f86ef	-0.014619573
3	0xba9b854a	-0.0011865285
4	0xbc95e1d3	-0.018296158
5	0xbc9397ee	-0.018016782
6	0xbbbbf64c	-0.005736148
7	0x3c9a29e0	0.018818796
8	0x3d3482cf	0.04407006
9	0xbcbef7df	-0.023311554
10	0x37447fd4	1.1712273e-05
11	0x3ca86c00	0.02055931
12	0xbb9d05c8	-0.004791949
13	0xbb202671	-0.0024436975
14	0xbcae8eb2	-0.021308277
15	0xbc83d920	-0.016094744
16	0xbcdb943b	-0.02680408
17	0x3a7bf215	0.0009610963
18	0x3c7c42e5	0.015396808
19	0xbccb3852	-0.024807129
20	0x3c1057dd	0.008810011
21	0xbc96c7da	-0.018405844
22	0x3d2ac6fc	0.041693673
23	0x3c281a42	0.010260167
24	0x3c409941	0.011755289
25	0xbcdefcfb	-0.02722024
26	0x3c948e82	0.01813436
27	0x3bf9fb00	0.0076287985
28	0x3bbfe7dc	0.005856497
29	0xbcd9ec5d	-0.026601965
30	0xbc9d5698	-0.01920633
31	0xbc8289b0	-0.015934795
32	0x3ab7848b	0.0014001293
33	0xbc313b1b	-0.0108173145
34	0xbc0d25a9	-0.008614936
35	0xbce7d9d7	-0.028302116
36	0x3be32421	0.006931797
37	0x3ba4fa24	0.005034702
38	0xbcf714fb	-0.030161371
39	0xbac85aa1	-0.0015285799
40	0xbc24d4c9	-0.010060498
41	0xbcdafcfd	-0.026731962
42	0x3b86426d	0.004097274
43	0x3c73d68a	0.014882693
44	0xbb8cb639	-0.0042941836
45	0xbc7a5735	-0.015279581
46	0x3abc6afc	0.0014375146
47	0xbc19c460	-0.009385198
48	0x3cbde5f0	0.023180932
49	0xbc8ee55d	-0.017443353
50	0x3d0ffaa1	0.035151128
51	0x3936c32c	0.0001742958
52	0xbc5624fa	-0.013070339
53	0x3cfd0a6e	0.030888762
54	0xbc2c1e86	-0.010505324
55	0x3d0f8442	0.03503824
56	0x3d0628c7	0.032753732
57	0xbb97852d	-0.00462403
58	0x3d4c20ef	0.049836095
59	0x3cbbec90	0.02293995
60	0xbd1e2189	-0.0386062
61	0x3cd3a3ea	0.025834996
62	0x3d10cf22	0.035353787
63	0x3c06926f	0.008213623
64	0x3c8dfa41	0.017331244
65	0xbcfb926d	-0.03070947
66	0xbc16ed81	-0.009211899
67	0xbc9cd79d	-0.019145781
68	0x3c82f612	0.015986476
69	0x3c63fcdf	0.01391527
70	0xbcc25a6a	-0.023724753
71	0x3ca4b6a6	0.020106625
72	0x3a4b9148	0.0007765484
73	0xbce743ef	-0.028230635
74	0x3c530d0b	0.012881528
75	0xbae75c37	-0.0017651384
76	0x3c0c6b26	0.008570468
77	0x3c01c3cc	0.007920217
78	0x3ccbd53d	0.024881953
79	0x3caee78f	0.02135065
80	0xbb622f7a	-0.0034513162
81	0xba3687f8	-0.000696301
82	0x3aff52c1	0.0019479619
83	0x3c88d303	0.01670218
84	0x3b1deacc	0.0024096249
85	0x3be19cac	0.006885132
86	0x3c809e08	0.015700355
87	0xbc394ece	-0.011310292
88	0xbcc0f77b	-0.023555508
89	0x3bac3fd6	0.0052566333
90	0x3ca6a6ca	0.020343203
91	0x3c58c21a	0.013229871
92	0xba2cad5e	-0.0006587113
93	0x3c2ef921	0.010679514
94	0x3cdb9551	0.026804598
95	0x3b391fef	0.0028247794
96	0xbccd65b4	-0.02507291
97	0x3b8e4b94	0.0043425057
98	0x3c0f4bae	0.008746071
99	0xbd316d82	-0.043317325
100	0xbccd7bfb	-0.025083533
101	0xbbd08f10	-0.0063647106
102	0xbcae126a	-0.021249015
103	0xbc06f963	-0.008238169
104	0x3c8eafeb	0.017417869
105	0x3bd89e5a	0.006610674
106	0xbb67fc72	-0.0035398272
107	0x3bfd2fef	0.0077266614
108	0xbb4ff08c	-0.003172907
109	0xbc96af10	-0.018394023
110	0xbc20d5ac	-0.009816568
111	0xbc9c942f	-0.019113628
112	0x3b463c2d	0.003024827
113	0xbc3fc4e4	-0.011704657
114	0xbc2f1be0	-0.010687798
115	0xbc8555df	-0.016276298
116	0x3c588ec2	0.01321763
117	0x3b9be03c	0.0047569554
118	0xbc98a170	-0.018631667
119	0xbca8b72e	-0.02059516
120	0xbc1830dc	-0.009288993
121	0xbc251561	-0.010075898
122	0x3c91ff86	0.017822038
123	0xbc914cf0	-0.017736882
124	0xba531227	-0.0008051716
125	0xbb9539a1	-0.004553989
126	0x3d5f88e6	0.054573916
127	0x3c8f5997	0.017498774
128	0x3cfc64c2	0.030809764
129	0x3cb63537	0.022242172
130	0xbd04487a	-0.03229568
131	0xbc80ba72	-0.015713904
132	0xbcce6036	-0.025192361
133	0xbc8ab718	-0.016933009
134	0x3c9c0307	0.019044412
135	0x3cde8573	0.027163243
136	0x3ba877f3	0.005141252
137	0x3b9e01bb	0.0048219836
138	0x3bfa079e	0.0076303026
139	0x3ca629ff	0.020283697
140	0x3d0d90a0	0.034561753
141	0x3c056f26	0.008144176
142	0x3c857a65	0.016293714
143	0x3bb9afdf	0.0056667174
144	0xbbd79e34	-0.0065801386
145	0xbc58129c	-0.013188031
146	0x3c3b0208	0.0114140585
147	0xbb1d35d5	-0.0023988385
148	0x3c2121f1	0.009834752
149	0xba722737	-0.0009237411
150	0xbb573a2a	-0.0032841065
151	0x3c85f7ab	0.016353449
152	0x3d02d390	0.031940043
153	0xbb171e00	-0.0023058653
154	0x3cb4b6aa	0.022059757
155	0xbd2df36f	-0.042468484
156	0x3ca78491	0.020448955
157	0x39807781	0.000245031
158	0xbb8bf91e	-0.0042716404
159	0x3c8dae9e	0.017295178
160	0x3d329848	0.043602258
161	0xbd0a3ecc	-0.033751294
162	0x3bdb0100	0.006683469
163	0x3ca44061	0.02005023
164	0xbc9bd826	-0.019023966
165	0xbbd7baf5	-0.0065835663
166	0xbc607527	-0.013699806
167	0x3d532c41	0.051555876
168	0xbc0903e1	-0.008362741
169	0xbc8c6f14	-0.01714281
170	0xbc856bc1	-0.016286733
171	0x39905528	0.00027529267
172	0xba00a29b	-0.00049070426
173	0xbc0ac134	-0.008468915
174	0x3c97f231	0.018548103
175	0xbc0ed098	-0.008716725
176	0x3c207023	0.0097923605
177	0x3cbbed83	0.022940403
178	0x3cc104e2	0.023561899
179	0x3b641f8d	0.0034808845
180	0x3b5b0150	0.003341753
181	0x3c8605c0	0.016360164
182	0xbb084c64	-0.0020797485
183	0xbc9a7753	-0.018855726
184	0xbcdd38d3	-0.027004635
185	0xbcd1e228	-0.025620535
186	0x3d4340b8	0.047669142
187	0x3c890a8f	0.016728668
188	0xbbc0980c	-0.0058775004
189	0x3c13999b	0.00900879
190	0x3cdaa017	0.026687665
191	0x3cae995b	0.02131336
192	0xbca3b18e	-0.019982126
193	0x3d0473a6	0.032336853
194	0xbcdde879	-0.02708839
195	0xbc7cd13e	-0.015430747
196	0x3c425013	0.0118599115
197	0xbc4b6a58	-0.012415491
198	0xbcaaf269	-0.020867543
199	0xbc29f817	-0.010374091
200	0xbce8de96	-0.02842645
201	0xbb99e8bd	-0.004696934
202	0x3cb36a38	0.021901235
203	0x3cc3eee5	0.023917625
204	0x3c33e965	0.010980939
205	0x3a50b0c0	0.0007960908
206	0xbc969f88	-0.018386617
207	0x3cdb957a	0.026804674
208	0x3b27c343	0.0025598563
209	0xbc1542a9	-0.009110131
210	0x3cbbcf40	0.022925973
211	0x3c525f88	0.012840159
212	0xbc3e856d	-0.011628491
213	0xbcdfb0b1	-0.027305933
214	0xbb61106f	-0.003434207
215	0x3b1d4750	0.0023998804
216	0x3b4ba07a	0.0031070993
217	0x3d0620a0	0.032745957
218	0xbcb06207	-0.021531118
219	0x3b2c8469	0.002632404
220	0xbd016f6b	-0.031600397
221	0xbbfe49ca	-0.007760261
222	0xbbd2eb6f	-0.0064367573
223	0xbcc8f88f	-0.024532584
224	0x3c1a5fcb	0.009422253
225	0xbcc9e192	-0.024643693
226	0xb9524a0b	-0.00020054744
227	0x3bad59bb	0.0052902377
228	0xbcc2f6d1	-0.023799332
229	0xbcb8b21d	-0.022545869
230	0x3be8b61c	0.0071017873
231	0xbc4e0eea	-0.012576798
232	0x3b6312c1	0.003464863
233	0x3a8b879e	0.0010645275
234	0xbc866eca	-0.01641025
235	0xbcb691bc	-0.022286288
236	0x3d2d7fc0	0.04235816
237	0x3c768539	0.015046411
238	0x3c9427ac	0.018085323
239	0xbc0c4fb8	-0.008563928
240	0x3d326ff0	0.043563783
241	0xbd0a3a3f	-0.033746954
242	0xbcd84c81	-0.026403667
243	0x3beff073	0.007322365
244	0x3c0a30ac	0.008434456
245	0xbcf46cdf	-0.02983707
246	0xbb78a867	-0.0037942172
247	0xbcfaaca8	-0.030599907
248	0xbc5c4905	-0.013445144
249	0x3a8576ad	0.0010182463
250	0xbd00ca13	-0.031442713
251	0xbba04c6e	-0.0048919236
252	0xbbbfb448	-0.0058503486
253	0xbba3ab43	-0.004994781
254	0xbc6d9e50	-0.014503077
255	0xbcd6e398	-0.026231572

network_body._body_endoder.seq_layers.0.bias f4 [128]
0	0x3c196014	0.009361286
1	0x3b886faa	0.004163702
2	0xbbc96ef7	-0.0061472612
3	0x3bdfa7e5	0.0068254345
4	0x3c0b8db5	0.008517672
5	0xbbea2a6a	-0.0071461694
6	0x3b876e38	0.004133012
7	0x3c069157	0.008213363
8	0x3c0c3233	0.00855689
9	0x3c10daf9	0.00884127
10	0xbb3b6f3e	-0.002860024
11	0xbb90fdff	-0.00442481
12	0x3c15502a	0.009113351
13	0xba031b20	-0.00050012954
14	0x3aa280fb	0.0012398058
15	0x3b9a876f	0.004715852
16	0xbbfba6fc	-0.007679818
17	0x3b2ef32a	0.002669523
18	0xbb6154ad	-0.0034382746
19	0xbc125aa8	-0.008932747
20	0x3c1a6635	0.009423782
21	0xbb4bb587	-0.003108354
22	0x3bf4e637	0.007473733
23	0x3be04e27	0.006845254
24	0x3c128794	0.008943457
25	0xbb2f3712	-0.0026735705
26	0xbbd199c6	-0.006396505
27	0xbbfdd1de	-0.0077459654
28	0xbc27e811	-0.0102482
29	0x3b48e6d6	0.0030655167
30	0xba6f06f1	-0.0009118161
31	0x3beb7a69	0.0071862233
32	0xbba24279	-0.004951772
33	0xbb423457	-0.0029633248
34	0xbbf0febf	-0.007354587
35	0x3bbe447c	0.005806504
36	0xbbcffb96	-0.00634713
37	0xbc19c51b	-0.0093853725
38	0xbbed3af6	-0.0072396947
39	0xbb3e1862	-0.0029006233
40	0x3c0af98e	0.00848235
41	0x3bcdfc77	0.0062861997
42	0x3c02b87e	0.007978557
43	0x3ae7b361	0.001767736
44	0xbbcd04de	-0.0062566837
45	0xbc229b37	-0.009924701
46	0xbbd77bac	-0.006576022
47	0xbc0652fc	-0.008198496
48	0xbc0336dc	-0.008008685
49	0xbbdb8642	-0.0066993544
50	0xbb926cc5	-0.0044685327
51	0x3b62030e	0.0034486684
52	0x3a18ab3c	0.0005823856
53	0x3c0ef89c	0.008726265
54	0x3b90079c	0.0043954384
55	0x3bd75839	0.0065717963
56	0xbc0a6146	-0.008446043
57	0x3bb7c757	0.00560848
58	0x3b304503	0.0026896603
59	0xbbc2c1a8	-0.005943496
60	0x3bb94d80	0.0056549907
61	0xbb5b9d82	-0.003351063
62	0x3c21fd27	0.009887016
63	0xbbcb161e	-0.006197705
64	0xbb88123d	-0.004152565
65	0xbc1c6258	-0.009544931
66	0x3be301ed	0.00692772
67	0x3ba07064	0.0048962105
68	0xbbedbdab	-0.007255276
69	0xbbcbe2dd	-0.0062221126
70	0x3a0c5dad	0.0005354535
71	0x3b5aae0b	0.0033367898
72	0x3c0f3fb5	0.008743216
73	0xbbc99e4e	-0.0061529046
74	0xbbb52919	-0.005528581
75	0x3b0b242c	0.0021231277
76	0x3b039a3d	0.0020080947
77	0x3bb2f206	0.0054609803
78	0x3b2d5f97	0.002645468
79	0x3bb2b743	0.0054539754
80	0xbc19932e	-0.009373469
81	0xbc1119e4	-0.00885627
82	0x3ac11d65	0.0014733492
83	0xb9fa5b1c	-0.00047751598
84	0xbbe7208b	-0.00705344
85	0xbc0fa8df	-0.008768289
86	0xbc0267ef	-0.00795935
87	0xbb4045bb	-0.0029338438
88	0x3c20fa1a	0.009825254
89	0xbc09fbc4	-0.008421842
90	0x3b2dace7	0.0026500763
91	0xbbe39fd3	-0.0069465428
92	0xbb9fc7e8	-0.0048761256
93	0x3c0d8c67	0.008639432
94	0x3bd45065	0.0064793103
95	0x3bf6bd77	0.00752991
96	0xbc1aec43	-0.009455743
97	0xbc1f96e1	-0.009740562
98	0xbbc4f813	-0.006011018
99	0x3963f560	0.00021739816
100	0x3bef3089	0.007299487
101	0x3c13e012	0.0090255905
102	0xba48a788	-0.00076543586
103	0x3a8ef302	0.0010906162
104	0x3bb0bf61	0.005393908
105	0x3c1bf73e	0.009519396
106	0x3bf20618	0.0073859803
107	0x3c16922b	0.009190123
108	0xbbf88a15	-0.00758482
109	0x3ba05030	0.0048923716
110	0xbb65d280	-0.0035068095
111	0x3bd90ace	0.0066236025
112	0x3c054250	0.008133486
113	0x3c110f20	0.008853704
114	0xbc0e5d7d	-0.0086892815
115	0x3b5a1e3c	0.0033282181
116	0x3b8bbf55	0.004264752
117	0xbbaae3b3	-0.005215132
118	0x3c1d2cca	0.009593198
119	0xbc0901d3	-0.008362251
120	0x3b164f41	0.0022935423
121	0x3a2107af	0.00061428075
122	0xb984560e	-0.00025241118
123	0xba148f36	-0.0005667092
124	0xbb57b912	-0.0032916707
125	0x3c10b380	0.008831859
126	0x3c026ff4	0.007961262
127	0x3be0a857	0.006856005

network_body._body_endoder.seq_layers.0.weight f4 [128, 110]
0	0x3e3e3965	0.18576582
1	0xbe136f46	-0.14397916
2	0xbd96330c	-0.07333955
3	0xbca2b516	-0.01986174
4	0x3d81388b	0.06309613
5	0xbd0fe878	-0.03513381
6	0x3e3d7f85	0.18505676
7	0xbd116c9c	-0.03550397
8	0xbd50e52e	-0.050999813
9	0xbcb28f5f	-0.02179688
10	0xbe394b11	-0.18095042
11	0x3dc47490	0.09592545
12	0xbe033a76	-0.1281527
13	0xbdc984c3	-0.098397754
14	0xbda3e028	-0.08001739
15	0x3e903a93	0.2816969
16	0xbcd89571	-0.026438447
17	0xbe4e24c9	-0.2013122
18	0x3d571113	0.052506518
19	0x3e4147a7	0.1887499
20	0xbd8c0c7b	-0.06838318
21	0xbdb200dd	-0.08691571
22	0x3cf7942d	0.030222023
23	0xbe51c24a	-0.20484272
24	0xbd87a03f	-0.066223614
25	0xbcc2d6da	-0.02378409
26	0xbce51b6d	-0.02796718
27	0xbd2f3a93	-0.04278047
28	0xbc09c2b1	-0.008408234
29	0x3c285c96	0.01027598
30	0x3aeec572	0.0018216802
31	0x3d6f50f9	0.05842683
32	0xbc0f7774	-0.008756507
33	0xbc812974	-0.015766837
34	0x3d3775ed	0.044790197
35	0x3da7a675	0.08186046
36	0xbd732daa	-0.05936972
37	0xbd17a4d3	-0.037022423
38	0x3c7ea665	0.015542601
39	0x3c39a07a	0.0113297645
40	0xbda7a0cf	-0.08184969
41	0xbd6d3c78	-0.057918996
42	0x3d523002	0.051315315
43	0x3c1a2e66	0.009410476
44	0x3a0f7da4	0.0005473739
45	0x3d8fdc22	0.07024409
46	0xbcc66ea3	-0.024222678
47	0x3e4ebea0	0.20189905
48	0xbd71983b	-0.05898307
49	0xbd391b71	-0.045192186
50	0x3d27753b	0.040883284
51	0xbe144ff7	-0.14483629
52	0x3e34fb61	0.17674018
53	0xbcfc8dd6	-0.030829351
54	0xbe164092	-0.14673069
55	0x3cb1091f	0.021610795
56	0xbdbf4f83	-0.093413375
57	0xbd3d45f8	-0.046209306
58	0x3e230fc4	0.15923983
59	0x3deb65d2	0.1149403
60	0xbd479a48	-0.04873112
61	0xbaa09e2e	-0.0012254172
62	0x3d26292e	0.040566616
63	0x3d87ab22	0.06624438
64	0x3d66163d	0.05617355
65	0x3d111642	0.035421617
66	0x3d1cb41d	0.038257707
67	0x3e03562e	0.12825844
68	0x3bb2dffc	0.00545883
69	0x3d7b8a9a	0.061411478
70	0x3e559dbe	0.20860955
71	0x3e0081d2	0.12549523
72	0xbd514cd1	-0.05109865
73	0x3dde50d6	0.10855262
74	0x3de42032	0.11138953
75	0x3d684333	0.05670471
76	0xbbd29e73	-0.00642758
77	0xbd1b9699	-0.037985418
78	0x3de161cc	0.110049814
79	0xbe11ff33	-0.14257507
80	0x3dfdf544	0.12400296
81	0xbe2a0c81	-0.16606332
82	0x3b946b0f	0.004529364
83	0xbe2e9bdb	-0.17051642
84	0x3d143e3a	0.036192156
85	0x3e031537	0.12801062
86	0xbca2cbba	-0.019872535
87	0x3e012a85	0.12613876
88	0x3e3f0463	0.18654017
89	0x3d9e1829	0.07719452
90	0xbd7c5819	-0.061607454
91	0x3d136358	0.035983413
92	0xbe17a025	-0.14807184
93	0x3e5d5a6f	0.21616529
94	0x3c167b94	0.009184737
95	0x3e147f37	0.14501654
96	0xbddcb1d8	-0.107761085
97	0x3e021f28	0.12707198
98	0xbcf51778	-0.029918417
99	0xbcc994ae	-0.024607029
100	0xbd9321ac	-0.07184157
101	0x3e12eb7c	0.14347643
102	0xbda2ede6	-0.07955532
103	0x3d70566a	0.05867616
104	0xbdeb6da0	-0.11495519
105	0x3e0c5533	0.13704376
106	0x3c62b86e	0.013837917
107	0x3e15c9f2	0.14627817
108	0xbd18f4bb	-0.03734277
109	0x3ca0df97	0.019637866
110	0xbe150db0	-0.14556003
111	0x3d2329b3	0.03983469
112	0xbe29ebe9	-0.16593899
113	0xbb59c2f0	-0.0033227764
114	0x3da7a829	0.08186371
115	0xbd55a117	-0.05215558
116	0x3bd6f89c	0.0065603983
117	0x3aa098bf	0.0012252553
118	0x3d386c90	0.04502541
119	0xbe7a4dd5	-0.24443753
120	0x3c724816	0.014787694
121	0x3db8d268	0.09024507
122	0xbd2d4c89	-0.042309318
123	0x3d6975be	0.056997053
124	0x3e683cda	0.22679463
125	0xb9616895	-0.00021496632
126	0xbca306d8	-0.019900724
127	0xbdfbeac0	-0.123006344
128	0xbd963f98	-0.07336348
129	0x3dbe693e	0.09297417
130	0xbb1a92e7	-0.0023586096
131	0x3c653e43	0.013991895
132	0x3d5b9095	0.05360468
133	0xbcf2c0ec	-0.029633008
134	0x3da7e962	0.08198811
135	0xbc9a736d	-0.018853867
136	0xbc97fd28	-0.018553331
137	0x3d3f1aa2	0.04665626
138	0xbe847d04	-0.2587663
139	0xbded5575	-0.11588565
140	0x3d093c8a	0.033505
141	0xbd2c80c1	-0.042114977
142	0x3db6ff72	0.08935441
143	0x3e1b5bf3	0.15171795
144	0x3d6a95db	0.05727182
145	0xbe0b6423	-0.13612418
146	0x3e0b6c11	0.13615443
147	0xbdf8bbdc	-0.12145206
148	0xbcce3433	-0.025171375
149	0xbd6711d4	-0.056413487
150	0xbdc39579	-0.09549994
151	0xbe230e9b	-0.1592354
152	0xbd87b269	-0.06625826
153	0xbd0f878e	-0.035041384
154	0x3e0b2f33	0.13592224
155	0x3d3c4d2d	0.045972038
156	0x3d7f0f7a	0.06227062
157	0xbc1c98b8	-0.009557895
158	0xbe539de6	-0.20665702
159	0xbb04ae50	-0.00202455
160	0xbdd1260d	-0.10212336
161	0xbd0ff92e	-0.035149746
162	0xbd4fbcc7	-0.05071714
163	0xbe73fc36	-0.2382668
164	0x3d73090a	0.059334792
165	0x3d7052c3	0.058672678
166	0x3d06db2e	0.03292387
167	0xbcf7afb2	-0.030235145
168	0x3c8e7344	0.017388947
169	0x3e7e3128	0.24823439
170	0xbcdb5a1c	-0.026776366
171	0x3df26555	0.11835734
172	0x3e58e92a	0.21182695
173	0xbd0a3435	-0.033741195
174	0x3e0528ab	0.13003795
175	0x3dd69d56	0.10479228
176	0x3d71972b	0.058982056
177	0x3dacad26	0.08431463
178	0x3e044c51	0.12919737
179	0xbe3d182a	-0.18466249
180	0xbc85eeb2	-0.01634917
181	0x3dbba4b4	0.09162274
182	0x3dbe4144	0.09289792
183	0x3d7f1e3c	0.062284693
184	0x3d88658a	0.06659992
185	0x3c91c66c	0.01779481
186	0x3d816ffe	0.06320189
187	0x3e09ac71	0.13444687
188	0xbe19375a	-0.14962521
189	0xbbb99db1	-0.0056645502
190	0xbdfb1c45	-0.12261251
191	0xbcf359ad	-0.029705847
192	0x3dae5b60	0.08513522
193	0x3c665160	0.014057487
194	0x3d1576e0	0.03649032
195	0x3d9757e4	0.07389811
196	0x3e0e0254	0.13868076
197	0xbcf58233	-0.02996931
198	0xbd41ed74	-0.047345594
199	0xbd011b5f	-0.031520244
200	0x3e13679b	0.14394991
201	0xbdfb3c24	-0.1226733
202	0x3d217ffe	0.039428703
203	0xbd974963	-0.07387044
204	0xbe47f42e	-0.19526741
205	0x3d6a48e3	0.057198416
206	0xbc79e615	-0.01525261
207	0xbd47eb03	-0.04880811
208	0xbd5b3b08	-0.053523093
209	0x3c8fe52f	0.017565338
210	0x3df1a6cf	0.11799394
211	0xbddc0d81	-0.10744763
212	0x3bb8f680	0.0056446195
213	0x3d57a856	0.052650772
214	0x3dc34a31	0.09535635
215	0x3d911b19	0.070852466
216	0x3db471ea	0.0881079
217	0xbe4f686b	-0.20254676
218	0xbe3d1124	-0.1846357
219	0xbdea275c	-0.114332885
220	0xbdf1479c	-0.117812365
221	0x3e2f2c1d	0.17106672
222	0xbd3e41cd	-0.04644947
223	0xbe381e7c	-0.17980379
224	0xbde1e405	-0.110298194
225	0xbd0d7f5a	-0.03454528
226	0x3d348a0a	0.044076957
227	0xbdaacca8	-0.08339816
228	0xbc18349d	-0.009289888
229	0x3e27494e	0.16336557
230	0x3dc0df96	0.09417646
231	0xbd1ce8d0	-0.038307965
232	0xbe577115	-0.21039231
233	0x3dd6e8db	0.104936324
234	0x3e20fc05	0.15721138
235	0xbd2d7fdd	-0.042358268
236	0xbe579b66	-0.21055374
237	0x3de1f839	0.11033673
238	0x3e967cc9	0.2939208
239	0xbdc68b9f	-0.09694599
240	0xbe09ebbb	-0.1346883
241	0xbe040fa4	-0.12896591
242	0xbdf930ac	-0.121674865
243	0xbc4a2119	-0.012336993
244	0x3da6b5e7	0.08140164
245	0xbd89b476	-0.06723873
246	0xbd8c8f17	-0.0686323
247	0xbdd9be31	-0.10631979
248	0x3c903e91	0.017607959
249	0xbdeef887	-0.116684966
250	0x3dd6042c	0.104500145
251	0xbcbc2870	-0.0229685
252	0x3d9ef1aa	0.077609375
253	0xbe88353a	-0.2660311
254	0xbcc9390c	-0.024563335
255	0x3e55c2af	0.20875047

network_body._body_endoder.seq_layers.2.bias f4 [128]
0	0x3c17080d	0.009218228
1	0x3bdccd35	0.00673833
2	0xbc1127a2	-0.008859547
3	0xbc04371e	-0.008069782
4	0xbbef48c5	-0.007302376
5	0xbbe5f581	-0.0070177917
6	0x3c0f6be2	0.008753749
7	0x3c130656	0.008973679
8	0x3b8c41aa	0.0042802887
9	0x3b1edafb	0.002423941
10	0x3bc7809d	0.00608833
11	0x3bf8b40a	0.0075898217
12	0x3be93d21	0.007117883
13	0x3c00bdc4	0.007857744
14	0x3be1795b	0.006880922
15	0x3c0a04cc	0.008423995
16	0xbbaf00ad	-0.0053406567
17	0xbc1f253a	-0.009713465
18	0x3bee16af	0.0072658877
19	0x3b3d1385	0.0028850746
20	0x3bff48ab	0.007790645
21	0x3aad4d67	0.001322192
22	0x3b1f6f34	0.0024327757
23	0x3c166fcb	0.009181927
24	0x3c10520b	0.008808623
25	0x399eb2ed	0.00030269418
26	0x3bed39fc	0.0072395783
27	0xbbfb6490	-0.0076719
28	0x3c245491	0.010029928
29	0xbb95aace	-0.0045674806
30	0xbba88fdc	-0.0051441025
31	0x3c0be8c2	0.0085393805
32	0x3c0e5a49	0.008688518
33	0xbc03f31f	-0.00805357
34	0x3c1f95fe	0.009740351
35	0x3b9786cc	0.0046242233
36	0xbc136488	-0.0089961365
37	0xbbc29e9e	-0.005939319
38	0xbbcb5eea	-0.006206383
39	0x3c114d06	0.0088684615
40	0xbbf9c2b3	-0.007622087
41	0xbbe8eee7	-0.0071085575
42	0xbc18e905	-0.0093329
43	0xba1d9085	-0.000601061
44	0xbbc71623	-0.006075637
45	0xbbfbbd09	-0.007682447
46	0x3c1ebe24	0.009688888
47	0xbc10e015	-0.008842488
48	0x3c054217	0.008133433
49	0x3be74d5e	0.0070587834
50	0x3bd38142	0.0064546177
51	0x3c00db5c	0.007864799
52	0xb9c5fba4	-0.00037762255
53	0x3bc3205e	0.005954786
54	0xbbdbff06	-0.006713751
55	0xbb8d80a6	-0.0043183146
56	0xbbcd540d	-0.006266123
57	0xbbfe81ac	-0.007766923
58	0x3bece6b0	0.0072296485
59	0x3bea8b3d	0.007157712
60	0xbba73358	-0.005102556
61	0x3b9b834b	0.004745876
62	0x3bd5a4d3	0.0065198927
63	0x3c19dfc1	0.009391726
64	0xbc1580da	-0.009124959
65	0x3bf81514	0.007570872
66	0xbc13f0c6	-0.009029573
67	0xbc0a4de2	-0.00844142
68	0x3bf2d093	0.007410118
69	0xbb4325c5	-0.002977715
70	0xbbfba371	-0.007679396
71	0xbaffba65	-0.0019510506
72	0xbc1397de	-0.009008376
73	0xbab036c8	-0.001344406
74	0x3c1e7821	0.009672196
75	0x3c155594	0.009114642
76	0x3c2806c7	0.010255522
77	0x3c012cc6	0.00788421
78	0xbbc78868	-0.006089259
79	0x3c013db0	0.007888243
80	0x3c13e5d3	0.009026962
81	0xbbf5c613	-0.007500419
82	0x3c1da915	0.009622832
83	0x3c1441a9	0.009048858
84	0xbc1edda9	-0.009696403
85	0xbc0de910	-0.008661523
86	0xbb850dae	-0.0040604686
87	0x3b9cd66e	0.004786304
88	0x3b41a45c	0.0029547429
89	0x3c04ef8c	0.008113753
90	0xbbcadca8	-0.006190855
91	0xba0cf921	-0.0005377699
92	0xbc0a093c	-0.008425053
93	0xbbea132d	-0.007143399
94	0xbb2cf257	-0.0026389563
95	0xbc133431	-0.008984611
96	0x3a89328b	0.0010467333
97	0xbc02a42a	-0.00797371
98	0xbb601ee3	-0.0034198097
99	0x3a634c82	0.00086707633
100	0xbbf8e8cd	-0.0075961114
101	0xbc1cee11	-0.009578244
102	0x3ac69d42	0.0015153068
103	0xbbef7e7c	-0.0073087793
104	0x3ba5f04c	0.005064046
105	0x3b399320	0.0028316453
106	0xbc2cdb5e	-0.010550348
107	0xbc09fbac	-0.00842182
108	0x3c2c2799	0.010507488
109	0x3b8377ff	0.0040121074
110	0x3c1357bc	0.0089930855
111	0xbbbacbec	-0.005700579
112	0x3c0651be	0.0081982
113	0xbc151763	-0.009099814
114	0xbc0dac36	-0.008647015
115	0x3be0459c	0.0068442356
116	0x3c028dff	0.007968425
117	0xbc20030e	-0.009766353
118	0x3ab848d3	0.0014059789
119	0xbc1668a3	-0.009180221
120	0xbc1ce428	-0.009575881
121	0xbb1d51f2	-0.0024005142
122	0xbbef5c9e	-0.007304742
123	0xbbad9c34	-0.005298162
124	0xbc0ce3e9	-0.00859926
125	0xbb9a2960	-0.0047046393
126	0xbaa3d98d	-0.0012500748
127	0xbbe67d99	-0.0070340154

network_body._body_endoder.seq_layers.2.weight f4 [128, 128]
0	0x3c876c83	0.016531235
1	0x3d29bc53	0.041439366
2	0x3ceb2320	0.028703272
3	0xbc082c13	-0.008311289
4	0x3d910bea	0.070823506
5	0x3e147672	0.14498308
6	0x3dc3e9c4	0.09566072
7	0x3dbe4bd0	0.09291804
8	0x3e05062e	0.12990639
9	0x3da6ca6f	0.0814408
10	0x3dfebdae	0.12438522
11	0x3c67cbec	0.01414774
12	0x3e219cb4	0.15782434
13	0xbc70c519	-0.014695429
14	0x3d0a352c	0.033742115
15	0xbdc88966	-0.09791832
16	0xbe04b495	-0.12959512
17	0xbc8bef80	-0.017081976
18	0xbcaf3490	-0.021387368
19	0xbe04e433	-0.12977676
20	0x3d16d3af	0.03682297
21	0x3d9135d0	0.07090342
22	0x3e23262d	0.15932532
23	0x3c010074	0.007873643
24	0x3dd5ba2c	0.104359
25	0x3d994198	0.07483214
26	0xbd2f3922	-0.042779095
27	0x3d9bc682	0.07606222
28	0x3e1a22c7	0.15052329
29	0x3c1450d7	0.009052477
30	0xbc50431f	-0.012711315
31	0x3d992545	0.07477812
32	0x3d567d72	0.052365728
33	0x3dd920df	0.10601973
34	0x3d73db02	0.059535034
35	0x3c882ad0	0.016621977
36	0x3db0401c	0.08605978
37	0xbd97666a	-0.07392581
38	0x3df3175b	0.11869689
39	0x3dd851fc	0.10562512
40	0x3db8c44b	0.09021815
41	0x3d595af7	0.053065266
42	0xbdf3ed77	-0.11910527
43	0x3d6827ef	0.05667871
44	0x3920bf2a	0.00015330003
45	0xbe33f8e1	-0.17575409
46	0xbdb2b246	-0.08725409
47	0x3dd68e68	0.104763806
48	0xbd13bff0	-0.036071718
49	0xbc7158cf	-0.014730646
50	0x3d417618	0.047231764
51	0x3d8bfe15	0.06835572
52	0x3e0ddb07	0.13853084
53	0x3e24ffd4	0.16113216
54	0x3d863ee3	0.065549634
55	0xbd75a8bd	-0.059975374
56	0x3d6359e4	0.05550565
57	0x3d88f738	0.06687778
58	0xbd747368	-0.059680372
59	0x3da7a78f	0.08186256
60	0x3dd2883a	0.102798894
61	0xbd177407	-0.036975887
62	0xbe0a2ff9	-0.13494863
63	0xbdcf201f	-0.101135485
64	0xbcd08c97	-0.025457663
65	0xbe20d060	-0.15704489
66	0x3e2c0f15	0.16802628
67	0x3cec46d1	0.028842362
68	0xbc47e187	-0.012199766
69	0xbd67b28e	-0.056566767
70	0x3d25e32f	0.040499862
71	0xbd18ee26	-0.03733649
72	0x3d94a48b	0.072579466
73	0x3c9c453f	0.019075988
74	0xbdf59bd1	-0.1199261
75	0x3d030c02	0.031993873
76	0x3ca86251	0.020554693
77	0x3e75667f	0.2396488
78	0xbdb24cd2	-0.087060586
79	0x3dab9056	0.08377139
80	0xbab6891d	-0.0013926361
81	0xbcc34050	-0.023834378
82	0xbd664e39	-0.056226943
83	0x3d1d6362	0.038424857
84	0x3c130d4f	0.008975341
85	0xbc592de7	-0.013255573
86	0xbe03df1a	-0.12878075
87	0x3d2d97b3	0.042381
88	0x3d753bd2	0.059871502
89	0x3d8437d9	0.064559646
90	0xbc8e30c7	-0.017357243
91	0xbd6abacb	-0.057307046
92	0xbc844b83	-0.016149288
93	0x3e211f67	0.15734635
94	0xbc2e1967	-0.010626174
95	0x3e3c598a	0.18393531
96	0xbd13d582	-0.03609229
97	0xbd9486d6	-0.072522804
98	0xbd486e0b	-0.04893307
99	0xbd694fd1	-0.056960884
100	0x3d8f0e9a	0.06985207
101	0x3df2c007	0.118530326
102	0xbbdf6824	-0.0068178345
103	0x3d808088	0.062745154
104	0x3d8420c7	0.06451564
105	0x3c93c29a	0.01803713
106	0xbd898555	-0.06714884
107	0xbe32f430	-0.17475963
108	0xbe321ae5	-0.17393072
109	0xbe070bb2	-0.13188055
110	0xbce243cf	-0.027620224
111	0x3e1f073d	0.15530105
112	0x3e0a4265	0.1350189
113	0xbe044a55	-0.1291898
114	0x3daddde3	0.08489587
115	0xbdfe177d	-0.12406824
116	0x3d2e1bb0	0.042506874
117	0xbe0a448b	-0.1350271
118	0x3d95fcec	0.07323632
119	0xbd95b330	-0.07309568
120	0x3cae0f56	0.021247547
121	0xbcd636db	-0.026149204
122	0x3d39c00b	0.045349162
123	0x3d3d8d94	0.046277598
124	0xbcf11282	-0.02942777
125	0x3dc46360	0.09589267
126	0x3d06a7f8	0.03287503
127	0x3cc475b4	0.023981906
128	0xbb24e2ea	-0.0025159665
129	0x3e712c6a	0.23552099
130	0xbdeec3ca	-0.116584376
131	0x3db32581	0.08747388
132	0xbda04c1f	-0.07827019
133	0xbcd306c2	-0.025760058
134	0x3d2888e0	0.04114616
135	0xbde092dc	-0.10965511
136	0xbcc6c873	-0.024265504
137	0x3e148b00	0.1450615
138	0xbe500c99	-0.20317306
139	0x3cd29f0f	0.02571061
140	0x3d984da7	0.07436686
141	0xbe446c8e	-0.19182035
142	0x3cda7d52	0.026671086
143	0x3caf32c3	0.02138651
144	0x3dee9baa	0.11650784
145	0xbd9eb735	-0.07749788
146	0x3b8ee7e8	0.0043611415
147	0xbcece0fc	-0.028915875
148	0x3cf1e17d	0.029526467
149	0x3df4432f	0.11926877
150	0xbd73a694	-0.059485033
151	0x3ddfb136	0.10922472
152	0xbd9f1db4	-0.07769337
153	0xbe3de915	-0.18545945
154	0x3d605012	0.05476386
155	0x3c696d99	0.0142473215
156	0xbe085494	-0.13313514
157	0xbd80666e	-0.06269537
158	0x3d252238	0.040315837
159	0xbcacd524	-0.021097727
160	0xbca3aec0	-0.019980788
161	0x3e0de6bd	0.13857551
162	0xbdefd334	-0.11710206
163	0xbdb0f8cb	-0.086412035
164	0x3d846661	0.0646484
165	0x3d0984b8	0.033573836
166	0xbd87cb6d	-0.06630597
167	0xbde85184	-0.11343673
168	0x3cf53493	0.029932296
169	0x3befadd9	0.0073144254
170	0xbd98d34e	-0.07462178
171	0xbc7271ed	-0.01479767
172	0xbdcd5d73	-0.1002759
173	0xbdcd5e39	-0.10027737
174	0xbdb5baf9	-0.08873553
175	0x3d1da3c7	0.03848627
176	0xbe2badc1	-0.167655
177	0x3d8b5411	0.06803144
178	0xbcc12ec9	-0.02358188
179	0xbc0b6628	-0.008508243
180	0xbe31d9e2	-0.17368272
181	0xbddf1794	-0.10893169
182	0xbdead1f1	-0.114658244
183	0xbdeba91b	-0.11506864
184	0xbe1372c5	-0.1439925
185	0x3d9efefa	0.07763477
186	0x3c470b42	0.01214868
187	0xbdac7d20	-0.08422303
188	0xbd46a35f	-0.048495647
189	0xbe8b9558	-0.27262378
190	0xbce805f8	-0.028323159
191	0xbe027f93	-0.12743978
192	0xbce9cb95	-0.028539458
193	0x3b2c8e56	0.0026329956
194	0xbdbec69f	-0.09315228
195	0x3d3ad1f9	0.0456104
196	0xbdbd3f40	-0.092405796
197	0x3dae3bb8	0.08507484
198	0x3cbfde03	0.023421293
199	0xbe21faf5	-0.15818389
200	0x3d3f8de9	0.046766195
201	0xbc76a65b	-0.015054311
202	0x3dadc76b	0.084853016
203	0xbc4e4feb	-0.012592296
204	0x3da0d1d7	0.07852524
205	0x3bf590b5	0.007494057
206	0x3e0db5e1	0.13838913
207	0xbd071c1b	-0.032985788
208	0xbc6083af	-0.013703271
209	0x3d92ba33	0.07164421
210	0xbd410d37	-0.047131743
211	0x3e2659ff	0.16245268
212	0xbe11edae	-0.14250824
213	0xbd8d9e78	-0.06914991
214	0xbd68b1f7	-0.056810346
215	0xbdaef7d9	-0.08543367
216	0xbd1b7d90	-0.037961543
217	0x3d9f1d64	0.07769278
218	0x3d4ada25	0.049524445
219	0xbd5d6045	-0.054046888
220	0xbe1a26e9	-0.15053906
221	0xbdf838b7	-0.121201925
222	0xbbc6d7c8	-0.0060682036
223	0xbe020347	-0.12696563
224	0xbe05255d	-0.13002534
225	0xbd665090	-0.056229174
226	0x3e22c096	0.15893778
227	0xbd5105d1	-0.051030938
228	0x3dc57c1a	0.09642811
229	0xbcc5e4ca	-0.024156947
230	0xbd903908	-0.07042128
231	0xbdb8b71c	-0.090193
232	0x3d027f6d	0.031859804
233	0xbd62b600	-0.05534935
234	0x3c0af764	0.008481834
235	0xbdd7bd11	-0.105341084
236	0xbdef5e4b	-0.11687907
237	0x3dd8b156	0.10580699
238	0xbda42a98	-0.080159366
239	0x3cdbb6a8	0.026820496
240	0xbe03abfb	-0.12858574
241	0x3d3dd6de	0.04634749
242	0xbe09672d	-0.13418265
243	0xbd86d5c5	-0.06583742
244	0x3e61b5ca	0.22042003
245	0x3d89c967	0.067278676
246	0x3dd32c96	0.103112385
247	0x3d8ad92f	0.06779706
248	0xbdfb20db	-0.12262126
249	0xbd4865d4	-0.048925236
250	0xbd1058ce	-0.03524094
251	0xbd3ad6c4	-0.045614973
252	0xbd24044d	-0.040043164
253	0x3d2e04f5	0.042485196
254	0xbc125fc8	-0.008933969
255	0x3da97775	0.08274738
