Assets/HideNSeek/Brain/MoveToHider-8286.onnx (onnx, 72461 bytes, 7 tensors)

action_model._continuous_distribution.log_sigma f4 [1, 2]
0	0x00000000	0.0
1	0x00000000	0.0

action_model._continuous_distribution.mu.bias f4 [2]
0	0x00000000	0.0
1	0x00000000	0.0

action_model._continuous_distribution.mu.weight f4 [2, 128]
0	0x3ba4ef8f	0.0050334404
1	0x3cb878ff	0.022518633
2	0xbbdf2d2d	-0.0068108053
3	0x3bb293dd	0.0054497556
4	0xbc37306c	-0.011180978
5	0xbc78ce72	-0.015185939
6	0x3cbdb2fb	0.023156634
7	0x3cd6c222	0.026215617
8	0xbc87bfb2	-0.0165709
9	0x3b3d29d8	0.0028864052
10	0xbbfe0642	-0.007752211
11	0xbbda737a	-0.006666598
12	0xbc13573f	-0.008992969
13	0x3bf7e600	0.00756526
14	0xbc2d6530	-0.010583207
15	0xbd4668aa	-0.04843966
16	0x3c521358	0.012821995
17	0xbc677e33	-0.014129209
18	0x39341b7e	0.0001717638
19	0xba547ab2	-0.0008105441
20	0x3d017743	0.031607877
21	0xbc2a53ab	-0.010395925
22	0x3ba2b496	0.004965375
23	0xbc21fba7	-0.009886659
24	0xbcc14aa0	-0.023595154
25	0x3bf36152	0.007427373
26	0xbc83d064	-0.01609058
27	0xbce7c0a5	-0.028290102
28	0xbc635a9b	-0.0138765825
29	0x3c16d676	0.009206405
30	0x3c4d9d77	0.01254975
31	0xbc12c9c6	-0.008959239
32	0x3bca624c	0.0061762687
33	0x3c8af516	0.01696257
34	0xbcb0f43a	-0.021600831
35	0x3bed3e07	0.0072400603
36	0xbc7aca8f	-0.015307083
37	0x3c4e6f2d	0.012599749
38	0x3a195d1f	0.0005850363
39	0x3b26a3f1	0.0025427307
40	0xbd14576f	-0.036216196
41	0xbc789f3d	-0.015174684
42	0xbbf9563f	-0.0076091583
43	0x3cc977e7	0.024593307
44	0xbcbc8a8d	-0.023015285
45	0xbb81b079	-0.0039578048
46	0x3c7cefb0	0.015438005
47	0xbc993ff1	-0.018707247
48	0x3bec13ef	0.0072045247
49	0x3ce6a1c2	0.028153304
50	0x3b4144eb	0.0029490541
51	0xbd5b5ffb	-0.05355833
52	0xb9c44712	-0.00037436985
53	0x3c696400	0.014245033
54	0xbc61790b	-0.013761769
55	0x3c63b485	0.01389802
56	0xbcf38905	-0.029728422
57	0xbc5ebeb8	-0.013595276
58	0x3c035c03	0.008017543
59	0xbcbdb5fd	-0.023158068
60	0x3ca294e5	0.01984639
61	0x3ca05cf1	0.019575568
62	0xbb9bec6b	-0.004758408
63	0x3bb3ddb3	0.005489075
64	0x3cfdf158	0.03099887
65	0x3cc3ab73	0.023885464
66	0x3b464220	0.0030251816
67	0x3ca09abe	0.019605037
68	0x3c2e7bbe	0.01064962
69	0x3a5f6e4d	0.0008523211
70	0x3c24a0e3	0.010048124
71	0xba5895ea	-0.0008262085
72	0xbba4dd9a	-0.0050313
73	0xbbfcec05	-0.0077185654
74	0x3c2f8b33	0.01071434
75	0x3ce54035	0.027984718
76	0xbca49a86	-0.020093214
77	0x3cb36b2f	0.021901695
78	0xbbd5d82d	-0.0065260143
79	0xbc0fb373	-0.008770811
80	0x3c0076f7	0.007840863
81	0xbcd4a81b	-0.025959065
82	0xbbb719df	-0.005587801
83	0x3b8add8a	0.0042378353
84	0xbd0b3605	-0.033987064
85	0xbbbac06b	-0.0056992075
86	0x3a532200	0.00080540776
87	0x3c0b2a87	0.008494026
88	0xbc12f015	-0.008968373
89	0x3c5cbf53	0.01347335
90	0x3c10f7d0	0.008848146
91	0x3c3b53f6	0.011433592
92	0x3c34148a	0.010991225
93	0x3c54f50b	0.012997876
94	0x3c85249d	0.01625281
95	0x3c1ceec4	0.009578411
96	0xbc808f66	-0.015693378
97	0xbbd529ff	-0.0065052505
98	0xbbb3cb6a	-0.0054868953
99	0x3b105813	0.0022025153
100	0x3b67d75b	0.0035376165
101	0x3becf67f	0.007231533
102	0x3b377f32	0.0027999398
103	0xbc6ec687	-0.0145737
104	0xbc8546a4	-0.016269036
105	0xbc722a73	-0.0147806285
106	0xbcb1e683	-0.021716362
107	0x3cd4591b	0.025921395
108	0xbb4a2faa	-0.0030851164
109	0xbca32fdd	-0.019920284
110	0xbc2ad8ab	-0.010427634
111	0x3c8ceba7	0.017202212
112	0x3c6b28bb	0.014352973
113	0xbc0c6d0e	-0.008570923
114	0xbcbc6165	-0.02299566
115	0x3c39efb8	0.011348657
116	0x3cadd29f	0.021218596
117	0xbc726585	-0.014794712
118	0xbc95e8f0	-0.01829955
119	0x3cd9d082	0.026588682
120	0x3bcb0e5e	0.006196781
121	0x3d06aeff	0.032881733
122	0xba80bd22	-0.0009821991
123	0x3ca7d1f5	0.020485858
124	0x3c8a4a4f	0.016881136
125	0x3c854463	0.01626796
126	0xbbe2d757	-0.006922643
127	0xbd0a7d00	-0.033810616
128	0xbc921aab	-0.017834982
129	0xbc3428dd	-0.010996071
130	0xbca7734c	-0.02044072
131	0x3c790513	0.015198964
132	0xbc85d1de	-0.016335424
133	0xbd0d966f	-0.034567293
134	0xbcc5d3f3	-0.024148917
135	0x3ceb745d	0.02874201
136	0x3ba6ca44	0.00509003
137	0x3cd84202	0.026398662
138	0xbb459a2e	-0.0030151713
139	0x3c71843d	0.014741001
140	0xbbffca80	-0.0078061223
141	0x3cdc9c33	0.02692995
142	0xbb95dc5f	-0.0045733894
143	0x3c5b73d2	0.013394313
144	0x3d1d21fb	0.038362484
145	0x3bf1ebcb	0.007382845
146	0x3acae33f	0.0015479102
147	0xbca1cff8	-0.019752488
148	0x3c004b7e	0.007830499
149	0xbb713398	-0.0036804434
150	0x3a96fb00	0.0011518896
151	0x3ca5eecb	0.020255467
152	0xbc551e8a	-0.013007769
153	0x3c21f472	0.00988494
154	0xbce59ec2	-0.028029803
155	0x3b7f0ff8	0.003891943
156	0xbc94dde2	-0.018172208
157	0xbc8561b2	-0.016281936
158	0x3d178123	0.03698839
159	0x3c29a4bf	0.01035422
160	0x3b4fe1f5	0.0031720374
161	0xbcd90fd2	-0.026496802
162	0xbbbe157b	-0.0058009005
163	0xbb3ce8d6	-0.0028825304
164	0xbb97ec3f	-0.004636317
165	0x3d160311	0.036624018
166	0x3bbcc998	0.0057613365
167	0x3bd29048	0.006425891
168	0xbcae3253	-0.02126423
169	0xbc096420	-0.008385688
170	0xbcf2b1f7	-0.029625876
171	0xbc11ddcd	-0.008902979
172	0xbc677e5a	-0.014129246
173	0xbc2d20f7	-0.010566941
174	0xbc29810f	-0.010345711
175	0xbc04883f	-0.008089124
176	0x3cc3d076	0.023903113
177	0xbc547fea	-0.01296995
178	0x3c947b5b	0.018125227
179	0x3cdaf158	0.02672641
180	0xbbb5c45f	-0.005547091
181	0xbb5bee87	-0.0033558921
182	0xbc11ada7	-0.0088915
183	0xbc7798da	-0.015112126
184	0xbcd5d3f7	-0.02610205
185	0x3c8bf1f6	0.01708315
186	0xbc818397	-0.015809817
187	0x3c3865dc	0.011254754
188	0xbbae6404	-0.0053219814
189	0x3c1dbdc8	0.009627767
190	0x3ba8aa12	0.005147227
191	0xbcf2d72a	-0.029643614
192	0x3caa980c	0.020824455
193	0xbc270764	-0.010194633
194	0x3ce3b1df	0.027794776
195	0xbb102e67	-0.0022000314
196	0x3c63b9cb	0.013899277
197	0xbba0f824	-0.004912393
198	0x3cc91bf3	0.02454946
199	0xbc316078	-0.010826223
200	0xbccd4755	-0.025058428
201	0x3c12080d	0.008913052
202	0xbb54948a	-0.003243717
203	0xbc993e65	-0.01870651
204	0x3ce3246b	0.027727326
205	0x3bd25e93	0.0064199655
206	0x3cb16f42	0.021659497
207	0x3d029c74	0.031887487
208	0x3c425043	0.011859956
209	0xbce08ceb	-0.027410945
210	0x3c52f343	0.012875381
211	0xbc671ca0	-0.014105946
212	0xbcd1bdd7	-0.025603218
213	0x3b8c764b	0.0042865626
214	0xbc5c57ea	-0.013448695
215	0xbcc44fed	-0.023963893
216	0xbb4a063c	-0.003082647
217	0xbcbcdad9	-0.023053573
218	0x39d1dc17	0.00040027566
219	0xba48d67a	-0.0007661354
220	0x3c33bc04	0.010970119
221	0xbc2b353a	-0.010449702
222	0xbc917a3f	-0.017758487
223	0xbca42671	-0.020037862
224	0xbd0058ab	-0.03133456
225	0x3c68d667	0.014211274
226	0x3cf64b7a	0.030065287
227	0xbbb9f8ae	-0.005675397
228	0xbca63262	-0.020287696
229	0xbca3c957	-0.019993467
230	0xbb38887b	-0.002815752
231	0x3ba1e271	0.004940324
232	0xbb562af7	-0.0032679418
233	0xbc8392db	-0.016061237
234	0xbbfc12ba	-0.007692662
235	0x3c6c2f2a	0.014415542
236	0x3baa7116	0.005201469
237	0x3c46c770	0.012132511
238	0xbcbfaa9e	-0.023396786
239	0xbc5b3dd5	-0.013381441
240	0xbc309ed9	-0.01078006
241	0x3b9fd9e9	0.004878272
242	0xbca88086	-0.020569097
243	0x3b89c422	0.004204289
244	0x3bf14157	0.0073625254
245	0x3c8fda77	0.017560227
246	0x3d30057a	0.042973973
247	0xbcbc9a18	-0.023022696
248	0xbc07002f	-0.00823979
249	0xbcdcaf58	-0.02693908
250	0xbb37cb4f	-0.0028044765
251	0x3c3724df	0.011178224
252	0x3c611748	0.013738461
253	0x3c44df71	0.012016163
254	0x3a6f2e67	0.0009124041
255	0x3c607f77	0.013702265

network_body._body_endoder.seq_layers.0.bias f4 [128]
0	0x00000000	0.0
1	0x00000000	0.0
2	0x00000000	0.0
3	0x00000000	0.0
4	0x00000000	0.0
5	0x00000000	0.0
6	0x00000000	0.0
7	0x00000000	0.0
8	0x00000000	0.0
9	0x00000000	0.0
10	0x00000000	0.0
11	0x00000000	0.0
12	0x00000000	0.0
13	0x00000000	0.0
14	0x00000000	0.0
15	0x00000000	0.0
16	0x00000000	0.0
17	0x00000000	0.0
18	0x00000000	0.0
19	0x00000000	0.0
20	0x00000000	0.0
21	0x00000000	0.0
22	0x00000000	0.0
23	0x00000000	0.0
24	0x00000000	0.0
25	0x00000000	0.0
26	0x00000000	0.0
27	0x00000000	0.0
28	0x00000000	0.0
29	0x00000000	0.0
30	0x00000000	0.0
31	0x00000000	0.0
32	0x00000000	0.0
33	0x00000000	0.0
34	0x00000000	0.0
35	0x00000000	0.0
36	0x00000000	0.0
37	0x00000000	0.0
38	0x00000000	0.0
39	0x00000000	0.0
40	0x00000000	0.0
41	0x00000000	0.0
42	0x00000000	0.0
43	0x00000000	0.0
44	0x00000000	0.0
45	0x00000000	0.0
46	0x00000000	0.0
47	0x00000000	0.0
48	0x00000000	0.0
49	0x00000000	0.0
50	0x00000000	0.0
51	0x00000000	0.0
52	0x00000000	0.0
53	0x00000000	0.0
54	0x00000000	0.0
55	0x00000000	0.0
56	0x00000000	0.0
57	0x00000000	0.0
58	0x00000000	0.0
59	0x00000000	0.0
60	0x00000000	0.0
61	0x00000000	0.0
62	0x00000000	0.0
63	0x00000000	0.0
64	0x00000000	0.0
65	0x00000000	0.0
66	0x00000000	0.0
67	0x00000000	0.0
68	0x00000000	0.0
69	0x00000000	0.0
70	0x00000000	0.0
71	0x00000000	0.0
72	0x00000000	0.0
73	0x00000000	0.0
74	0x00000000	0.0
75	0x00000000	0.0
76	0x00000000	0.0
77	0x00000000	0.0
78	0x00000000	0.0
79	0x00000000	0.0
80	0x00000000	0.0
81	0x00000000	0.0
82	0x00000000	0.0
83	0x00000000	0.0
84	0x00000000	0.0
85	0x00000000	0.0
86	0x00000000	0.0
87	0x00000000	0.0
88	0x00000000	0.0
89	0x00000000	0.0
90	0x00000000	0.0
91	0x00000000	0.0
92	0x00000000	0.0
93	0x00000000	0.0
94	0x00000000	0.0
95	0x00000000	0.0
96	0x00000000	0.0
97	0x00000000	0.0
98	0x00000000	0.0
99	0x00000000	0.0
100	0x00000000	0.0
101	0x00000000	0.0
102	0x00000000	0.0
103	0x00000000	0.0
104	0x00000000	0.0
105	0x00000000	0.0
106	0x00000000	0.0
107	0x00000000	0.0
108	0x00000000	0.0
109	0x00000000	0.0
110	0x00000000	0.0
111	0x00000000	0.0
112	0x00000000	0.0
113	0x00000000	0.0
114	0x00000000	0.0
115	0x00000000	0.0
116	0x00000000	0.0
117	0x00000000	0.0
118	0x00000000	0.0
119	0x00000000	0.0
120	0x00000000	0.0
121	0x00000000	0.0
122	0x00000000	0.0
123	0x00000000	0.0
124	0x00000000	0.0
125	0x00000000	0.0
126	0x00000000	0.0
127	0x00000000	0.0

network_body._body_endoder.seq_layers.0.weight f4 [128, 6]
0	0x3f5cbc9d	0.862253
1	0xbef09de2	-0.46995455
2	0xbf23adb1	-0.6393691
3	0xbefe8560	-0.49711132
4	0xbe90f18c	-0.28309286
5	0xbf87c36a	-1.0606511
6	0xbe1c6ede	-0.15276667
7	0xbf042e2f	-0.5163297
8	0x3e52e74b	0.20596044
9	0xbf3ae95c	-0.7301233
10	0x3e628c4e	0.22123834
11	0xbd657072	-0.05601544
12	0xbdf224d8	-0.11823434
13	0x3ec42d6e	0.3831591
14	0x3e4903c9	0.1963035
15	0x3e8b166e	0.2716555
16	0x3e1e46d5	0.15456708
17	0x3cf4c49c	0.029878907
18	0x3f420229	0.75784546
19	0xbf5ae5c8	-0.8550687
20	0x3d9b2f0c	0.07577333
21	0x3e24ea14	0.16104919
22	0x3eb9ac94	0.3626448
23	0x3ec655c4	0.3873731
24	0x3e5ca40e	0.21546957
25	0x3c6d6e8f	0.014491691
26	0x3e26ba74	0.16282064
27	0xbf6a2a88	-0.9147115
28	0x3db73ab9	0.08946747
29	0xbed6c1ba	-0.41944677
30	0x3f4b6aeb	0.7946002
31	0xbedd7718	-0.43254924
32	0xbe9b25f8	-0.30302405
33	0x3e23cb3d	0.15995498
34	0x3e71a22e	0.23597023
35	0x3e0f71e7	0.14008294
36	0x3f40bc3d	0.7528723
37	0x3e01d6f1	0.1267965
38	0xbab4abe0	-0.0013784133
39	0xbe824e04	-0.25450146
40	0x3e560377	0.20899759
41	0x3e7f7a11	0.24948908
42	0x3db84390	0.089972615
43	0xbec2aa97	-0.38020775
44	0x3dc18d4b	0.094507776
45	0x3f914f85	1.1352392
46	0xbf3b4c83	-0.7316362
47	0x3e2e06d3	0.1699479
48	0x3f223716	0.63365304
49	0xbe0789c5	-0.13236149
50	0x3ec0ac66	0.3763153
51	0x3ee0fc7d	0.43942633
52	0x3de15bdf	0.11003851
53	0xbeebe253	-0.4607111
54	0x3dc2509b	0.094880305
55	0xbeab2541	-0.3342686
56	0xbf4fde0a	-0.8119818
57	0x3e0b28dd	0.13589807
58	0xbe64b6b1	-0.22335316
59	0xbf0350d0	-0.51295185
60	0xbc124816	-0.008928319
61	0x3eb86aa7	0.3601887
62	0xbebaffa9	-0.36523178
63	0x3e21110a	0.15729156
64	0x3ed16524	0.40897477
65	0x3f14f139	0.58180577
66	0xbe53fcff	-0.20701979
67	0xbeccd111	-0.40003255
68	0xbe5dbf60	-0.21655035
69	0x3fc0ae00	1.50531
70	0xbe9b54b5	-0.30338064
71	0x3f663c50	0.8993578
72	0x3e8cd5c6	0.27506846
73	0x3d213c1e	0.039363973
74	0xbae53bdf	-0.0017489156
75	0x3e7d8f8b	0.24761789
76	0x3e4daa6f	0.20084547
77	0xbe8cb53e	-0.27482027
78	0xbe88d777	-0.26726887
79	0xbebcbde2	-0.3686362
80	0xbeb3da70	-0.35127592
81	0xbeb847f9	-0.3599241
82	0x3da29002	0.079376236
83	0xbe2ebb5f	-0.17063664
84	0x3e41e10d	0.18933506
85	0x3eee5ba6	0.46554297
86	0x3d1edd57	0.038785305
87	0xbec46f0f	-0.3836598
88	0x3d0e1b5e	0.034694068
89	0x3e497cf4	0.19676572
90	0xbeca3fc0	-0.39501762
91	0x3e57bfd3	0.21069269
92	0xbe22e55f	-0.1590781
93	0xbdbf50b3	-0.09341564
94	0x3f61ad66	0.8815521
95	0xbec1e9e6	-0.37873763
96	0xbeef9211	-0.46791127
97	0xbc61e644	-0.01378781
98	0x3e2ae85c	0.166902
99	0x3ec40d07	0.3829119
100	0xbe354dbd	-0.17705436
101	0x3e97c460	0.2964201
102	0xbeab960f	-0.33512923
103	0x3f1f0ae0	0.6212597
104	0x3efa76c9	0.4891875
105	0xbf1d7666	-0.61508787
106	0x3ec81675	0.39079633
107	0x3e7259c2	0.23667052
108	0xbe034223	-0.12818198
109	0xbeca76f1	-0.3954387
110	0xbeb609bd	-0.35554305
111	0x3f548ebf	0.83030313
112	0xbf52403c	-0.82129264
113	0x3ea58b56	0.32332867
114	0x3b550351	0.0032503197
115	0x3e8a56cb	0.27019343
116	0xbe3925a0	-0.18080759
117	0x392c6c81	0.00016443619
118	0xbda0b585	-0.07847122
119	0xbe6c8a66	-0.2309967
120	0xbc7ad8ba	-0.015310461
121	0x3f785abf	0.9701347
122	0xbe857195	-0.2606322
123	0x3e6dae07	0.23210917
124	0x3f376ee0	0.71653557
125	0x3e21d023	0.15802054
126	0x3e30bb5a	0.17258969
127	0x3d8f12d9	0.06986017
128	0xbec51904	-0.38495648
129	0xbe805aae	-0.25069183
130	0xbdd9e299	-0.10638923
131	0x3eb88c86	0.3604471
132	0x3edd0554	0.43168128
133	0x3e9ece0e	0.31016582
134	0x3e16e60a	0.1473619
135	0x3e8e4290	0.27785158
136	0x3dfb312d	0.12265239
137	0x3d8a5562	0.06754567
138	0xbf223872	-0.6336738
139	0xbf1866ea	-0.59532034
140	0xbeb13cd5	-0.34616724
141	0x3e31d44e	0.17366144
142	0x3ea00800	0.31256104
143	0x3d478546	0.048711084
144	0x3f0e7d6e	0.5566014
145	0xbe8e84a4	-0.27835572
146	0xbe064b2c	-0.13114613
147	0xbf7d6819	-0.98986965
148	0xbd6e3482	-0.058155544
149	0xbeb2e47f	-0.34939954
150	0xbe481ac5	-0.19541462
151	0xbe806eec	-0.25084627
152	0xbb33f22a	-0.0027457573
153	0xbd2c5219	-0.042070482
154	0xbb884377	-0.004158433
155	0x3e01a58d	0.12660809
156	0xbc5ba169	-0.013405182
157	0xbf39dbf5	-0.7260125
158	0x3e8094ea	0.25113612
159	0xbf23def5	-0.6401208
160	0x3f358ca4	0.70917726
161	0x3e8bca8d	0.2730297
162	0xbf20583a	-0.62634623
163	0x3e70556e	0.23470089
164	0x3e4482ea	0.19190565
165	0x3e869e75	0.26292768
166	0x3ddf8d91	0.109156735
167	0x3eb9dd25	0.36301532
168	0xbe1769d7	-0.14786468
169	0x3f238209	0.6387029
170	0x3dc12270	0.094303966
171	0xbef49ce3	-0.47775945
172	0xbf10b312	-0.5652324
173	0x3e8b71b4	0.27235186
174	0x3e16ca1a	0.14725533
175	0xbf442c96	-0.7663053
176	0xbf475522	-0.7786428
177	0xbeb431e7	-0.35194322
178	0xbe384d14	-0.17998153
179	0x3e8946d6	0.26811856
180	0x3f24fe0c	0.64450145
181	0xbefe63c7	-0.496855
182	0xbdb0320b	-0.08603295
183	0xbec4a78b	-0.38409075
184	0xbdf22727	-0.11823874
185	0xbe1a7f87	-0.1508771
186	0xbce07d56	-0.027403515
187	0xbf2016ae	-0.62534606
188	0x3da39b27	0.07988577
189	0xbee89150	-0.45423365
190	0x3cec2bdc	0.028829508
191	0x3f483c31	0.78216845
192	0x3ec7add9	0.38999823
193	0x3dec4051	0.11535705
194	0xbe4278c5	-0.18991382
195	0xbdcc593e	-0.09977959
196	0x3f43cc80	0.7648392
197	0xbe4567f3	-0.19277935
198	0x3f138c65	0.576361
199	0x3e554fe1	0.20831253
200	0xbcfcd643	-0.030863887
201	0x3f026005	0.50927764
202	0xbe5d363c	-0.2160272
203	0x3ea412c6	0.32045573
204	0x3f1d2519	0.6138473
205	0x3d540335	0.05176087
206	0xbf2c5a4f	-0.673253
207	0xbf3ba887	-0.7330403
208	0x3e33160d	0.1748888
209	0x3e3a60d7	0.18201004
210	0x3e8cc8dd	0.27496997
211	0x3d4b5867	0.049644854
212	0xbdd21b8b	-0.1025916
213	0xbeb433de	-0.35195822
214	0x3e95f870	0.29291105
215	0xbd39a742	-0.045325525
216	0xbdc8c1e8	-0.0980261
217	0x3f49491d	0.78627187
218	0x3ebb6787	0.36602423
219	0x3cf130fe	0.029442307
220	0xbd651867	-0.055931475
221	0x3f3f0271	0.746131
222	0x3f156899	0.5836273
223	0x3e0dabdf	0.13835095
224	0x3d57ec53	0.05271561
225	0xbeb4182e	-0.35174698
226	0xbdfe9d14	-0.12432304
227	0xbe8857a0	-0.26629353
228	0xbd92929a	-0.07156868
229	0x3e44db41	0.19224264
230	0x3e9cbc2c	0.30612314
231	0x3eaa7c5e	0.3329801
232	0xbec2b636	-0.3802964
233	0xbc3a26bf	-0.011361777
234	0xbeedfd0b	-0.4648212
235	0x3e003bd5	0.12522824
236	0x3efef1cc	0.4979385
237	0x3ea1fd70	0.3163867
238	0xbe21b672	-0.15792254
239	0xbe090712	-0.13381603
240	0x3e1040ce	0.14087221
241	0xbd389ddb	-0.045072418
242	0x3f420c28	0.757998
243	0xbe44b001	-0.19207765
244	0x3e548096	0.20752177
245	0x3e092f37	0.13396917
246	0x3db93e6b	0.090451084
247	0x3a14902f	0.0005667237
248	0x3f09080c	0.53527904
249	0x3e31bc1a	0.17356911
250	0xbedcfb68	-0.43160558
251	0x3e8b9352	0.27260834
252	0x3f01e564	0.5074065
253	0x3f1f783d	0.62292844
254	0xbf2e523f	-0.6809425
255	0x3f82aa91	1.0208303

network_body._body_endoder.seq_layers.2.bias f4 [128]
0	0x00000000	0.0
1	0x00000000	0.0
2	0x00000000	0.0
3	0x00000000	0.0
4	0x00000000	0.0
5	0x00000000	0.0
6	0x00000000	0.0
7	0x00000000	0.0
8	0x00000000	0.0
9	0x00000000	0.0
10	0x00000000	0.0
11	0x00000000	0.0
12	0x00000000	0.0
13	0x00000000	0.0
14	0x00000000	0.0
15	0x00000000	0.0
16	0x00000000	0.0
17	0x00000000	0.0
18	0x00000000	0.0
19	0x00000000	0.0
20	0x00000000	0.0
21	0x00000000	0.0
22	0x00000000	0.0
23	0x00000000	0.0
24	0x00000000	0.0
25	0x00000000	0.0
26	0x00000000	0.0
27	0x00000000	0.0
28	0x00000000	0.0
29	0x00000000	0.0
30	0x00000000	0.0
31	0x00000000	0.0
32	0x00000000	0.0
33	0x00000000	0.0
34	0x00000000	0.0
35	0x00000000	0.0
36	0x00000000	0.0
37	0x00000000	0.0
38	0x00000000	0.0
39	0x00000000	0.0
40	0x00000000	0.0
41	0x00000000	0.0
42	0x00000000	0.0
43	0x00000000	0.0
44	0x00000000	0.0
45	0x00000000	0.0
46	0x00000000	0.0
47	0x00000000	0.0
48	0x00000000	0.0
49	0x00000000	0.0
50	0x00000000	0.0
51	0x00000000	0.0
52	0x00000000	0.0
53	0x00000000	0.0
54	0x00000000	0.0
55	0x00000000	0.0
56	0x00000000	0.0
57	0x00000000	0.0
58	0x00000000	0.0
59	0x00000000	0.0
60	0x00000000	0.0
61	0x00000000	0.0
62	0x00000000	0.0
63	0x00000000	0.0
64	0x00000000	0.0
65	0x00000000	0.0
66	0x00000000	0.0
67	0x00000000	0.0
68	0x00000000	0.0
69	0x00000000	0.0
70	0x00000000	0.0
71	0x00000000	0.0
72	0x00000000	0.0
73	0x00000000	0.0
74	0x00000000	0.0
75	0x00000000	0.0
76	0x00000000	0.0
77	0x00000000	0.0
78	0x00000000	0.0
79	0x00000000	0.0
80	0x00000000	0.0
81	0x00000000	0.0
82	0x00000000	0.0
83	0x00000000	0.0
84	0x00000000	0.0
85	0x00000000	0.0
86	0x00000000	0.0
87	0x00000000	0.0
88	0x00000000	0.0
89	0x00000000	0.0
90	0x00000000	0.0
91	0x00000000	0.0
92	0x00000000	0.0
93	0x00000000	0.0
94	0x00000000	0.0
95	0x00000000	0.0
96	0x00000000	0.0
97	0x00000000	0.0
98	0x00000000	0.0
99	0x00000000	0.0
100	0x00000000	0.0
101	0x00000000	0.0
102	0x00000000	0.0
103	0x00000000	0.0
104	0x00000000	0.0
105	0x00000000	0.0
106	0x00000000	0.0
107	0x00000000	0.0
108	0x00000000	0.0
109	0x00000000	0.0
110	0x00000000	0.0
111	0x00000000	0.0
112	0x00000000	0.0
113	0x00000000	0.0
114	0x00000000	0.0
115	0x00000000	0.0
116	0x00000000	0.0
117	0x00000000	0.0
118	0x00000000	0.0
119	0x00000000	0.0
120	0x00000000	0.0
121	0x00000000	0.0
122	0x00000000	0.0
123	0x00000000	0.0
124	0x00000000	0.0
125	0x00000000	0.0
126	0x00000000	0.0
127	0x00000000	0.0

network_body._body_endoder.seq_layers.2.weight f4 [128, 128]
0	0x3d501372	0.050799794
1	0x3d2b8671	0.04187626
2	0xbd42ac5b	-0.047527652
3	0x3d077d65	0.03307857
4	0x3cbfa41b	0.023393681
5	0xbc10e9e7	-0.008844829
6	0xbe02a2a7	-0.1275736
7	0xbde1ff1e	-0.11034988
8	0xbe0afd9b	-0.13573305
9	0x3d887a24	0.066639215
10	0x3d6868da	0.05674062
11	0x3daf7da4	0.08568886
12	0xbd874941	-0.06605769
13	0xbca1f9b2	-0.019772384
14	0x3d704347	0.05865791
15	0xbafc7071	-0.0019259584
16	0x3c999d03	0.018751627
17	0x3c0b92ee	0.0085189175
18	0xbbc8358c	-0.006109899
19	0xbd265ab6	-0.040613852
20	0xbe263fcc	-0.16235274
21	0x3de845c3	0.11341431
22	0xbcea17af	-0.028575746
23	0xbd94c175	-0.072634615
24	0x3c19fbe1	0.0093984315
25	0x3d224716	0.039618574
26	0xbd1a88a5	-0.03772797
27	0xbdee649a	-0.11640282
28	0xbca9c1d3	-0.020722305
29	0xbd01621e	-0.031587712
30	0xbda83965	-0.08214072
31	0xbdadd600	-0.08488083
32	0x3d6ae59f	0.05734789
33	0x3e32767e	0.17428014
34	0x3dbbaa4b	0.0916334
35	0x3dc030d3	0.093843125
36	0xbd9dd489	-0.077065535
37	0xbd6529b3	-0.05594797
38	0x3d49267a	0.04910896
39	0x3bacfeb2	0.0052793855
40	0xbe1257dc	-0.14291328
41	0x3dcc8342	0.09985973
42	0x3ab0193a	0.0013435252
43	0x3cf1ea9c	0.029530816
44	0x3d797e6e	0.06091159
45	0xbb5395c2	-0.0032285308
46	0xbd0b27ac	-0.03397338
47	0xbc1f5e2e	-0.009727044
48	0x3d90e9c8	0.0707584
49	0x3cd16f70	0.025565833
50	0xbc993306	-0.018701088
51	0x3df4e150	0.119570374
52	0x3d2e3ac5	0.042536516
53	0xbdca4b0d	-0.09877596
54	0xb9082564	-0.000129839
55	0x3e1fd21f	0.15607499
56	0x3e59a666	0.21254882
57	0x3e94de08	0.29075646
58	0xbd8325ec	-0.064037174
59	0xbcb24406	-0.021760952
60	0x3d7c9164	0.061662093
61	0xbe132330	-0.14368892
62	0xbde21a72	-0.110402
63	0xbd0c45d8	-0.034246296
64	0xbe43b157	-0.19110619
65	0xbd4e2f8b	-0.05033831
66	0xbcccad34	-0.024984933
67	0x3d7804cc	0.06055145
68	0x3e40e9a7	0.18839131
69	0x3d14d760	0.03633821
70	0xbe04d02d	-0.12970038
71	0x3e0df8ba	0.13864413
72	0x3e334a06	0.17508706
73	0xbe228e1a	-0.1587452
74	0x3d196ed2	0.037459202
75	0x3ca33703	0.019923693
76	0xbd62a4f0	-0.055333078
77	0xbe0f6a72	-0.1400545
78	0x3d2ade20	0.04171574
79	0x3e393cf2	0.18089655
80	0x3e6589bc	0.22415823
81	0xbe08b37d	-0.1334972
82	0xbe8c821a	-0.2744301
83	0xbdf399d1	-0.118945725
84	0xbb36c2d7	-0.002788713
85	0xbc6ccd95	-0.014453311
86	0xbd936a76	-0.0719804
87	0x3d851597	0.064982586
88	0xbe4bda96	-0.19907603
89	0xbe0e9330	-0.13923335
90	0xbde71eb8	-0.11285156
91	0xbc990188	-0.018677488
92	0x3cd78637	0.026309116
93	0x3de8dea0	0.11370587
94	0x3d72f806	0.059318565
95	0x3b3167cd	0.0027069927
96	0x3dd66e46	0.10470252
97	0xbcab103c	-0.020881765
98	0xbe182a1d	-0.14859815
99	0xbdd5bef7	-0.10436814
100	0x3e117dcd	0.14208145
101	0xbd43e4bf	-0.04782557
102	0xbdff3361	-0.124609716
103	0x3ce25f59	0.027633356
104	0x3ce5c905	0.028049955
105	0xbbc3bade	-0.005973204
106	0xbb59d3e7	-0.0033237876
107	0x3d5a12cb	0.05324058
108	0x3dc9856c	0.09839901
109	0xbe29f3bc	-0.16596884
110	0x3e078e14	0.13237792
111	0x3d478e78	0.048719853
112	0xbdf32cfd	-0.11873815
113	0xbd273930	-0.040826023
114	0xbd205ec7	-0.039152887
115	0xbd1a599e	-0.03768312
116	0xbdd97de1	-0.106197126
117	0x3d20b1d9	0.03923211
118	0xbd671058	-0.05641207
119	0x3db7ffad	0.08984313
120	0x3d961760	0.07328677
121	0x3de8a21a	0.113590434
122	0xbe188398	-0.14893949
123	0x3e04b7da	0.12960759
124	0x3da5c05f	0.080933325
125	0x3e174962	0.14774087
126	0xbc8528ec	-0.016254865
127	0xbd6f5a55	-0.058435757
128	0x3e5e5700	0.21712875
129	0xbd9cd097	-0.07656973
130	0xbe0b7e23	-0.13622336
131	0xbd39ac59	-0.04533038
132	0xbcace070	-0.021103114
133	0xbd06f86f	-0.03295177
134	0xbc27e21c	-0.01024678
135	0xbe080882	-0.13284495
136	0x3d067cf1	0.032833997
137	0xbe0ae14b	-0.13562505
138	0x3ced24d7	0.02894823
139	0xbe04663b	-0.12929623
140	0x3dc4fc6d	0.09618459
141	0xbcd3d51e	-0.025858458
142	0x3d5ed01f	0.0543977
143	0xbd9383ca	-0.07202871
144	0x3d185d24	0.0371982
145	0x3e02d72b	0.12777393
146	0xbe100c56	-0.14067206
147	0x3cfd5ba9	0.030927496
148	0x3c7b28ba	0.015329534
149	0x3cdbd163	0.026833242
150	0xbdec11c5	-0.11526827
151	0xbc094627	-0.008378542
152	0xbe3cb4e5	-0.18428381
153	0x3da0ba1b	0.07847997
154	0x3da6335d	0.081152655
155	0xbe0b11ed	-0.13581057
156	0x3e1fd18d	0.15607281
157	0x3d9eefb0	0.077605605
158	0xbc3e278a	-0.011606107
159	0xbda6aea2	-0.08138777
160	0xbc8607ca	-0.016361136
161	0x3db557ee	0.08854662
162	0xbdf91720	-0.12162614
163	0x3deda83c	0.11604354
164	0xbc135652	-0.008992748
165	0x3d4f3f4e	0.05059748
166	0xbd60cbff	-0.054882046
167	0x3c748581	0.014924408
168	0xbc55a0b3	-0.013038802
169	0x3d0dac02	0.034587868
170	0xbd8e4db5	-0.06948415
171	0xbd23aef1	-0.03996176
172	0xbc4a1670	-0.012334451
173	0xbe18c762	-0.14919809
174	0xbd9775e5	-0.073955335
175	0x3e07121d	0.13190503
176	0x3d99d7aa	0.07511838
177	0xbbf4bbfc	-0.0074686985
178	0xbd671af2	-0.05642218
179	0x3e0de675	0.13857444
180	0xbda666d8	-0.08125085
181	0xbb31aac7	-0.0027109848
182	0xbcab24eb	-0.020891627
183	0xbc98f1bc	-0.018669955
184	0x3dd9e3da	0.10639162
185	0x3e18f582	0.14937404
186	0x3dcfcd2b	0.101465546
187	0xbe047f0b	-0.12939088
188	0xbd8d96a2	-0.069134966
189	0x3dfce35d	0.123480536
190	0x3d313713	0.043265413
191	0x3d6aa025	0.057281632
192	0x3d38b89c	0.045097932
193	0x3d44d570	0.048055112
194	0x3d9277b3	0.07151737
195	0xbda35ce5	-0.079767026
196	0x3c9239ad	0.017849768
197	0x3dacab59	0.084311195
198	0x3d96dc8e	0.07366286
199	0xbdb66e9e	-0.08907817
200	0xbe4b48a5	-0.1985193
201	0xbce83a38	-0.028348073
202	0x3b4b8449	0.003105419
203	0x3d86df8f	0.06585609
204	0xbd04b5a0	-0.032399774
205	0x3d52a618	0.05142793
206	0xbe2aa5e9	-0.16664852
207	0x3dd3c478	0.10340208
208	0xbdd37aa8	-0.10326129
209	0x3e3aaf64	0.18230969
210	0x3e2d81fc	0.16944116
211	0x3dfdb170	0.12387359
212	0x3cae67da	0.021289755
213	0xbe2f1925	-0.17099436
214	0x3d363186	0.044480823
215	0x3e132e37	0.14373098
216	0x3d931f99	0.07183761
217	0xbdde6029	-0.10858185
218	0x3b1318c2	0.0022445177
219	0x3d14d8ad	0.03633945
220	0xbdd44ada	-0.10365839
221	0x3bce7ef6	0.006301756
222	0x3c9d7e91	0.01922539
223	0x3e1a1959	0.15048732
224	0x3db04217	0.08606356
225	0x3a75a7c3	0.0009371007
226	0xbcb310e5	-0.021858642
227	0x3c906528	0.01762636
228	0xbd879385	-0.06619934
229	0xbe21d1b8	-0.15802658
230	0x3d2aa4c8	0.041661054
231	0xbc49f955	-0.012327512
232	0x3ddbfc96	0.10741536
233	0xbd95359d	-0.072856165
234	0xbd15d286	-0.036577724
235	0xbc24e9e1	-0.010065527
236	0x3ddf78db	0.10911723
237	0xbe3b82c4	-0.18311602
238	0xbe0e36b4	-0.13888055
239	0x3cd11ee6	0.025527429
240	0xbd4dc581	-0.050237183
241	0x3d86b373	0.06577196
242	0xbd55af7f	-0.05216932
243	0xbd0a9ca4	-0.03384079
244	0xbd6b2ecd	-0.05741768
245	0x3d7271db	0.059190612
246	0x3d8f8788	0.070082724
247	0xbe52d5e5	-0.20589407
248	0x3d06e404	0.032932296
249	0xbd05c8b2	-0.0326621
250	0xbe015ab8	-0.12632263
251	0x3d0c43b7	0.034244265
252	0x3e57f73f	0.2109041
253	0xbd982ed7	-0.07430809
254	0x3c44011d	0.011963156
255	0x3c2f6a4c	0.0107064955
