Assets/Hide and Seek/Brain/1_HiderBehavior.onnx (onnx, 172553 bytes, 6 tensors)

action_model._discrete_distribution.branches.0.bias f4 [7]
0	0x3b0e857a	0.0021747039
1	0x3be4ac08	0.0069785155
2	0x3d0ffe51	0.035154644
3	0xbc34d338	-0.011036687
4	0x3cb49e89	0.022048252
5	0xbd05a5df	-0.03262889
6	0xbc68bf5b	-0.014205779

action_model._discrete_distribution.branches.0.weight f4 [7, 128]
0	0xbaec1c0b	-0.0018013729
1	0xbcaf58b0	-0.021404594
2	0xbc1081e3	-0.00882003
3	0x3d35320e	0.04423719
4	0xbca95e60	-0.020674884
5	0x3c28ac20	0.010294944
6	0x3b3d0c7f	0.002884656
7	0x3be38c2a	0.006944199
8	0x3c3a2676	0.011361709
9	0x3b5ccd3b	0.0033691663
10	0xbc009916	-0.0078489985
11	0x3c9513e0	0.018197954
12	0x3bfac961	0.007653401
13	0xbc5b1200	-0.013370991
14	0x3cd4e179	0.02598642
15	0xbbaaafd3	-0.005208948
16	0x3c15a3a0	0.0091332495
17	0x3d0a7914	0.033806875
18	0x3b8b49a8	0.004250724
19	0x3b962622	0.0045821825
20	0x3bd24a7c	0.0064175706
21	0xbca5c43a	-0.02023517
22	0x3c11092a	0.008852283
23	0xbc3eb72f	-0.011640354
24	0x3c317e68	0.01083336
25	0xbbf60ac4	-0.0075086076
26	0x3c1a69ff	0.0094246855
27	0x3d15e6c0	0.036597013
28	0x3d44f8ea	0.048088945
29	0x3d85c204	0.06531146
30	0x3bf05b34	0.007335091
31	0x3bb84594	0.0056235287
32	0xbd2c1a28	-0.042017132
33	0x3b48b249	0.0030623844
34	0xbbe42508	-0.0069624223
35	0xbc13cb57	-0.009020648
36	0xbcf6a44b	-0.030107638
37	0xbc5685c8	-0.013093419
38	0xbca1aad5	-0.01973478
39	0xbbe668ee	-0.0070315516
40	0xbbe6aa26	-0.0070393262
41	0xbc82cba5	-0.015966246
42	0x3a222c9c	0.0006186457
43	0xba9013e9	-0.0010992262
44	0xbbcb2490	-0.006199427
45	0xbc249167	-0.010044432
46	0x3be2b42a	0.00691845
47	0x3ca7649e	0.02043372
48	0xbb3a573b	-0.002843334
49	0x3c1aa3f7	0.009438506
50	0xbbfef10d	-0.0077802003
51	0x3caf37e3	0.021388954
52	0xbc784979	-0.015154236
53	0xbb34c499	-0.0027583002
54	0xbbf82315	-0.0075725415
55	0xbc88a7d7	-0.016681595
56	0x3c961d12	0.018324409
57	0xbc666e70	-0.014064416
58	0x3bfdc027	0.0077438536
59	0xbb0e7a29	-0.0021740294
60	0x3befe63f	0.0073211486
61	0xbcddde9b	-0.027083686
62	0x3d51a960	0.05118692
63	0xbc8f888c	-0.017521165
64	0xbc7381ca	-0.014862487
65	0xbbd8db3e	-0.0066179326
66	0xbc992575	-0.018694619
67	0x3a693d5e	0.0008897389
68	0xbc8b61f2	-0.017014477
69	0xbc4abb62	-0.012373777
70	0xbd21705e	-0.039413802
71	0x3c32daaf	0.010916396
72	0xbbf09072	-0.007341438
73	0x3c43516b	0.011921267
74	0xbc9f187d	-0.019420857
75	0xbb9b619e	-0.0047418615
76	0xba3c49fd	-0.0007182656
77	0x3c429f33	0.011878776
78	0xbc99c1bc	-0.018769138
79	0x3c5e57c8	0.013570733
80	0x3c960a01	0.018315317
81	0xbc6ef8cb	-0.014585684
82	0xbc620e26	-0.013797319
83	0xbc677328	-0.0141265765
84	0xbc9148cb	-0.017734906
85	0x3ca26026	0.019821238
86	0x3c075e83	0.008262279
87	0xbc2fa9fb	-0.010721679
88	0x3c68f554	0.014218647
89	0x3ca5df16	0.020247977
90	0x3cdaa046	0.026687752
91	0x3d169ea2	0.036772378
92	0x3c107e4f	0.008819177
93	0x397d822a	0.0002417645
94	0xbc5b92a9	-0.013401666
95	0xbc6ea5b2	-0.014565872
96	0xbb8fc081	-0.004386962
97	0x3b205a70	0.0024467967
98	0x3cb2f24f	0.021844057
99	0x393897f2	0.00017604211
100	0x3b033bee	0.0020024735
101	0x3c893cbf	0.016752599
102	0x3a9ce89a	0.0011971176
103	0xbc9dece5	-0.019278
104	0xba551386	-0.00081282144
105	0xbd043c1c	-0.032283887
106	0xbc6595ef	-0.014012798
107	0x3d181172	0.037126012
108	0xbc66a29e	-0.014076857
109	0x3c8af26c	0.016961299
110	0x3c4c70b4	0.012478042
111	0xbc1b4e40	-0.0094791055
112	0xbaf755d0	-0.0018870179
113	0xbad91625	-0.0016562386
114	0x3c168246	0.009186333
115	0xbc9672b3	-0.01836524
116	0x3c0f7624	0.008756194
117	0xbba93356	-0.0051635904
118	0xbcca1bde	-0.024671491
119	0xbc012804	-0.007883076
120	0x3ca325a7	0.019915415
121	0x3bbab23d	0.005697517
122	0xbcd552f7	-0.026040537
123	0xbba5f6d5	-0.005064825
124	0xbc9a3a84	-0.01882673
125	0x3c2fac58	0.010722242
126	0x3d0427c2	0.03226448
127	0xbcb1a1ac	-0.021683536
128	0xbb0270c0	-0.001990363
129	0x3d1b1ec0	0.037871122
130	0xbdd898f3	-0.10576048
131	0x3d519676	0.05116888
132	0xbd02d267	-0.031938937
133	0xbd0ebe4b	-0.034849446
134	0x3967f530	0.00022121216
135	0x3b932bcf	0.0044913064
136	0x3cad5b38	0.02116166
137	0xbd598829	-0.053108368
138	0x3d2175dc	0.03941904
139	0x3b736e09	0.0037144443
140	0xbd04a16d	-0.03238051
141	0xbd197036	-0.03746053
142	0xbdd23505	-0.10264019
143	0x3d870374	0.065924555
144	0xbd80f776	-0.062971994
145	0x3c325582	0.010884644
146	0x3d98ac22	0.07454707
147	0xbdb72897	-0.08943289
148	0xbc00e18d	-0.0078662755
149	0x3d197bfd	0.03747176
150	0xbe0ccf40	-0.13750935
151	0x3d39e214	0.04538162
152	0x3ce851e1	0.028359355
153	0xbcda3deb	-0.026640853
154	0x3d850258	0.06494588
155	0x3c9bb7a3	0.019008463
156	0x3be46fd8	0.0069713406
157	0x3d097ac8	0.03356436
158	0x3d58aab2	0.052897163
159	0xbc8103d5	-0.015748898
160	0xbd89ddab	-0.06731733
161	0x3d001325	0.031268258
162	0xbc55901f	-0.013034849
163	0xbb18adde	-0.0023296992
164	0xbaaa1842	-0.00129772
165	0x3d14bd7b	0.036313515
166	0xbda00852	-0.07814087
167	0x3d5eb03e	0.054367296
168	0xba7b7bd5	-0.00095933425
169	0x3cbd6363	0.02311868
170	0xbcb9dd6b	-0.022688588
171	0x3c76b95b	0.015058841
172	0xbd1f99ea	-0.038965143
173	0xbd509f06	-0.050932907
174	0xbd893542	-0.06699611
175	0x3d1a6465	0.0376934
176	0x3b843880	0.0040350556
177	0xbd435650	-0.047689736
178	0x3d1bf543	0.038075697
179	0xbd43aa02	-0.047769554
180	0xbdf9ae23	-0.12191417
181	0x3d4e2680	0.050329685
182	0xbd95e0b0	-0.07318246
183	0x3d1d92f0	0.03847021
184	0x3d6f9095	0.058487494
185	0xbbbeaec3	-0.005819173
186	0x3c727dfc	0.014800545
187	0x3d054acb	0.03254203
188	0xbdd10a7f	-0.1020708
189	0x3caf2d82	0.021384005
190	0xbd8e7cc2	-0.069573894
191	0xbd4efe72	-0.050535627
192	0xbccae332	-0.024766538
193	0x3ba09296	0.004900287
194	0xbcd74cb1	-0.026281686
195	0xbd022732	-0.03177566
196	0x3d8d68ec	0.06904778
197	0xbd3dde20	-0.046354413
198	0xbd9a6e04	-0.07540515
199	0x3ca803b3	0.020509576
200	0x3d0b5e20	0.03402531
201	0xbc062abe	-0.0081889015
202	0xbcb49059	-0.022041487
203	0x3c2d846d	0.010590655
204	0x3ca32cfd	0.019918913
205	0x3d575edd	0.052580703
206	0x3baf3c14	0.005347738
207	0xbd152cff	-0.036419865
208	0xbd486b31	-0.04893035
209	0x3d00e367	0.031466868
210	0x3bd91ac3	0.0066255047
211	0xbc809180	-0.01569438
212	0x3d86d85e	0.065842375
213	0xbc37ae56	-0.0112109985
214	0x3d2cfeff	0.04223537
215	0xbc6d8744	-0.014497582
216	0xbd1dae89	-0.038496528
217	0x3c171a18	0.00922253
218	0xbda4a1b1	-0.08038653
219	0x3d5dd6e5	0.054160018
220	0x3aa672d7	0.001269902
221	0x3d54da02	0.05196572
222	0x3cdd294b	0.02699723
223	0x3d2439d4	0.04009421
224	0x3d16b650	0.03679496
225	0xbc04dbdc	-0.008109059
226	0x3c5faec1	0.013652504
227	0x3d3fee5b	0.046858173
228	0x3d2ca75a	0.042151786
229	0x3c158835	0.009126713
230	0xbc581405	-0.013188367
231	0xbe0600dd	-0.13086267
232	0xbd42e4ab	-0.047581356
233	0x3ce73a20	0.028225958
234	0xbd641602	-0.05568505
235	0x3c8e3225	0.017357895
236	0xbb4a1721	-0.003083654
237	0x3d34f9f3	0.044183683
238	0x3b86b5a5	0.004111009
239	0x3d38a486	0.045078777
240	0x3d1a1add	0.037623275
241	0xbd51d55d	-0.05122887
242	0x3ccd041f	0.02502638
243	0x3d43f678	0.047842473
244	0xbcbfee43	-0.023429042
245	0x3c8babc7	0.017049683
246	0x3cc2d5ec	0.023783647
247	0x3cdb5fe8	0.02677913
248	0x3cd15d41	0.025557162
249	0x3cd4abe4	0.02596087
250	0xbd1ec844	-0.038765207
251	0xbdbdacbb	-0.09261461
252	0xbba85154	-0.005136648
253	0x3cb07b2e	0.021543112
254	0x3b9b2bc9	0.004735444
255	0x3c0dad1e	0.008647231

network_body._body_endoder.seq_layers.0.bias f4 [128]
0	0xbcbd8fe4	-0.023139901
1	0xbc68dd8a	-0.014212975
2	0xbc008026	-0.007843053
3	0x3da60d2d	0.08107982
4	0xbcc842b3	-0.024445867
5	0x3d3208f5	0.043465573
6	0xbc81943f	-0.01581776
7	0x3c7ce75b	0.015436019
8	0x3d2208a8	0.039559036
9	0xbc53ee4b	-0.012935231
10	0x3bd3dc78	0.006465491
11	0x3b9647bc	0.004586188
12	0xbbd65515	-0.0065409043
13	0xbd3ead91	-0.046552245
14	0x3d5496d5	0.051901657
15	0x3d850856	0.064957306
16	0x3dbb0d14	0.09133354
17	0xbc3f0474	-0.011658777
18	0x3b9ea952	0.004841962
19	0x3bc4b164	0.006002592
20	0xbceb54b2	-0.02872691
21	0x3d816cdd	0.06319592
22	0x3d88ed20	0.06685853
23	0x3d5dd0f0	0.054154336
24	0x3c9c30cb	0.019066235
25	0xbd9cfde0	-0.0766561
26	0x3cb2045f	0.0217306
27	0x3d40b735	0.04704972
28	0x3ae61344	0.0017553349
29	0x3de4d64e	0.11173688
30	0x3bfc7c26	0.0077052293
31	0xba9b92ab	-0.0011869272
32	0x3b6acda0	0.0035828128
33	0x3ddcc2c4	0.10779336
34	0x3da9674d	0.08271656
35	0x3cad0362	0.021119777
36	0x3b3116e5	0.0027021703
37	0xbc9ee766	-0.019397449
38	0xbd2e0913	-0.042489123
39	0x3d8d11d7	0.06888168
40	0x3d07d429	0.033161316
41	0x3c02e3d5	0.00798889
42	0x3b034576	0.0020030416
43	0xbd2a08b0	-0.04151219
44	0xbcc78873	-0.024357056
45	0x3d9fd7d8	0.07804841
46	0x3d2a21e3	0.041536223
47	0x3d12a718	0.035803884
48	0x3dd84ab2	0.10561122
49	0xbd68ade8	-0.056806475
50	0x3cf31c99	0.029676722
51	0x3d8b7512	0.06809439
52	0x3c9b4822	0.018955294
53	0x3bd45649	0.0064800126
54	0x3cd9d3c4	0.026590236
55	0x3c51fd56	0.012816748
56	0xbc849739	-0.01618539
57	0x3cf614cd	0.030039215
58	0xbc0b3cc5	-0.008498375
59	0x3ca34d65	0.019934366
60	0x3d46d470	0.04854244
61	0x3b5e89c0	0.0033956617
62	0x3baf3411	0.005346783
63	0x3d8317a4	0.064009935
64	0x3dc95bda	0.098319724
65	0x3d932ece	0.07186662
66	0xbc2627c6	-0.010141319
67	0x3dafac78	0.08577818
68	0x3c91a6ad	0.017779673
69	0x3ce59748	0.028026238
70	0x3df90171	0.12158478
71	0x3d5444a0	0.05182326
72	0x3d1cb148	0.038255006
73	0xbaa38e22	-0.0012478272
74	0x3b6c5442	0.0036060964
75	0x3ba59948	0.005053673
76	0x3b465903	0.0030265457
77	0x3da3cb96	0.07997815
78	0x3c5020bb	0.012703116
79	0x3d546fa6	0.05186429
80	0xbc9d1f2a	-0.0191799
81	0xbcacc51b	-0.021090081
82	0x3cc9bf4c	0.02462735
83	0xbcec6179	-0.028855072
84	0x3d6eae07	0.058271434
85	0x3cf26144	0.029587395
86	0x3b002825	0.0019555178
87	0x3d64967a	0.055807568
88	0x3d1cb603	0.038259517
89	0xbd9a383f	-0.07530259
90	0x3d01f0de	0.03172385
91	0xbdc559f9	-0.096363015
92	0x3ca90a9a	0.020634938
93	0xbcf0d1f4	-0.029396988
94	0xbd04df29	-0.032439385
95	0x3d40e3fa	0.047092415
96	0x3cc90550	0.024538666
97	0x3d0debf9	0.03464887
98	0xbd361aba	-0.044459082
99	0x3cc7a3c6	0.024370085
100	0x3ad70f93	0.001640784
101	0xbc7345da	-0.014848197
102	0x3bed7f3d	0.007247834
103	0x3d966fcd	0.07345543
104	0x3d1b17a7	0.037864354
105	0x3d33bfa5	0.04388394
106	0xbb73fe81	-0.0037230554
107	0x3d745750	0.05965358
108	0x3d1c7455	0.03819688
109	0x3dcf15f1	0.10111607
110	0x3d5a8c0f	0.053356227
111	0xbd2564f6	-0.040379487
112	0x3cde5282	0.027138952
113	0x3d5f4c58	0.054516166
114	0x3ce58cbc	0.028021209
115	0x3cdb9411	0.026804002
116	0x3cb85e57	0.022505922
117	0x3d435848	0.047691613
118	0x3a448fe7	0.000749825
119	0x3c5440d7	0.012954912
120	0x3d379925	0.044823784
121	0xbc686d1c	-0.01418617
122	0x3d9225a4	0.07136086
123	0x3bf965b9	0.0076110032
124	0xbbdaf1db	-0.0066816634
125	0x3ccb679c	0.024829678
126	0x3c5525bc	0.013009485
127	0xbce0f5dd	-0.027460987

network_body._body_endoder.seq_layers.0.weight f4 [128, 196]
0	0x3d50b228	0.050951153
1	0x3d465e6d	0.048429895
2	0x3c684d2a	0.014178554
3	0xbd5885ae	-0.052861862
4	0xbda5c23f	-0.0809369
5	0x3d59d37a	0.053180195
6	0x3cc6fee5	0.024291465
7	0xbdf326b8	-0.118726194
8	0xbcf988c0	-0.030460715
9	0x3d87802a	0.06616242
10	0x3daef15a	0.08542128
11	0x3d3acd7f	0.045606133
12	0xbcaf26c9	-0.021380799
13	0xbdda92fe	-0.10672568
14	0x3dafa07a	0.0857553
15	0xbe44356a	-0.19161001
16	0xbe48cc34	-0.19609147
17	0xbdaa8273	-0.083256625
18	0x3d454113	0.048157763
19	0xbdb301c1	-0.08740569
20	0xbd871c65	-0.06597213
21	0x3e0b2546	0.13588437
22	0xbcdf8566	-0.027285289
23	0xbd3c82a3	-0.046023022
24	0xbdc06b1a	-0.09395428
25	0x3c053bc0	0.008131921
26	0xbdc67904	-0.09691051
27	0x3d289982	0.04116202
28	0xbd72fcde	-0.059323184
29	0xbc998d0e	-0.018744018
30	0x3da5b96b	0.08092006
31	0x3d8e5f5c	0.06951782
32	0x3c81f006	0.015861522
33	0xbe0b2c2f	-0.13591073
34	0xbca3da47	-0.020001544
35	0x3c99d4b8	0.01877819
36	0xbe0a58f2	-0.13510492
37	0x3daab043	0.083344005
38	0x3e4e17b5	0.20126231
39	0xbdf5ef92	-0.12008585
40	0x3d913738	0.0709061
41	0x3b7695b1	0.0037625844
42	0xbd8c060c	-0.06837091
43	0x3cb4923e	0.02204239
44	0x3e0213c5	0.12702854
45	0x3bb18f00	0.0054186583
46	0x3c52a9a2	0.012857826
47	0xbdd6e450	-0.10492766
48	0xbd1fd0dd	-0.039017547
49	0x3c49dd8c	0.012320887
50	0xbd885c42	-0.06658222
51	0x3d6221ce	0.05520802
52	0xbe3ae6fa	-0.18252173
53	0x3d1cbdae	0.03826683
54	0x3d0fce0e	0.03510862
55	0x3d2ef122	0.04271043
56	0x3d21e413	0.03952415
57	0x3d3d8b41	0.04627538
58	0x3e4a6bf2	0.1976774
59	0xbd9cfe6a	-0.07665713
60	0x3d8d858f	0.0691024
61	0x3d80fb71	0.06297959
62	0x3da4fcf4	0.080560595
63	0xbd7d1988	-0.061791927
64	0xbd2573cd	-0.04039364
65	0x3ccd90c0	0.025093436
66	0x3e16d7b3	0.1473072
67	0x3e13059a	0.14357606
68	0xbe0acd96	-0.13554987
69	0xbcb9de66	-0.022689056
70	0xbc10b61d	-0.008832482
71	0xbcd607fe	-0.026126858
72	0xbdde6b38	-0.10860294
73	0xbbbee3c8	-0.0058254935
74	0x3d93c8c8	0.0721603
75	0x3da4eacb	0.08052596
76	0x3c89c691	0.016818317
77	0xbcb4d013	-0.022071874
78	0x3cde56dc	0.027141027
79	0xbd0b6b8e	-0.03403812
80	0xbe0f3dfe	-0.13988492
81	0x3ca2be62	0.019866172
82	0x3c80e147	0.01573242
83	0xbdb6e9d4	-0.08931318
84	0xbdcac9cf	-0.09901773
85	0xbda4cf22	-0.0804732
86	0x3cc80269	0.024415212
87	0x3df7998a	0.12089832
88	0x3d6a4254	0.05719216
89	0xbc59d928	-0.013296403
90	0x3d8424fc	0.06452367
91	0x3d67e2e3	0.05661286
92	0x3d360de8	0.044446856
93	0x3beb7faa	0.0071868496
94	0xbd2db0ec	-0.042405054
95	0x3ce1cb14	0.027562656
96	0x3d9525b2	0.072825804
97	0xbe034c92	-0.12822178
98	0x3e06340c	0.13105792
99	0xbe375442	-0.17903236
100	0xbce576e7	-0.028010799
101	0xbcd1d7f6	-0.025615674
102	0xbcf4dcd9	-0.029890465
103	0x3e2a9df8	0.16661823
104	0x3c03bf45	0.008041208
105	0x3b026448	0.0019896198
106	0x3dac1e1d	0.08404181
107	0x3b43050f	0.0029757654
108	0x3da1fa8a	0.07909115
109	0x3ddd3f5e	0.10803102
110	0xbd10f85e	-0.03539311
111	0x3e0653a5	0.13117845
112	0x39e14cc2	0.00042972533
113	0xbe61efc8	-0.22064126
114	0xbdc9d8a4	-0.09855774
115	0x3c1d6a69	0.00960789
116	0x3e1e083a	0.15432826
117	0x3dd9021c	0.105961055
118	0xbd1c09be	-0.03809523
119	0x3e028cf0	0.12749076
120	0xbd76713f	-0.060166594
121	0x3e324152	0.1740773
122	0xbd9a53ae	-0.07535492
123	0xbcc7fefe	-0.024413582
124	0xbd14f4cc	-0.03636627
125	0x3d5a2c2c	0.05326478
126	0x3e07158e	0.13191816
127	0x3def9ff6	0.11700432
128	0xbd24d253	-0.040239643
129	0x3e1a2af7	0.15055452
130	0xbbd50cd9	-0.0065017757
131	0x3e88fa05	0.2675325
132	0x3d657b7c	0.056025967
133	0xbdf078b2	-0.11741771
134	0xbde4397a	-0.11143775
135	0x3d9153eb	0.07096084
136	0x3db22ffe	0.0870056
137	0xbe083e62	-0.13305047
138	0xbe1fd61e	-0.15609023
139	0x3ea33a62	0.3188048
140	0x3d7e497e	0.062081806
141	0xbd84f110	-0.064912915
142	0xbd06482e	-0.03278368
143	0x3de32b4d	0.11092243
144	0xbd23b7d2	-0.039970227
145	0xbdc81f17	-0.09771555
146	0x3df0a194	0.117495686
147	0x3e7092ed	0.23493548
148	0x3d5b4a5b	0.053537708
149	0xba1e512d	-0.0006039318
150	0x3d811179	0.06302161
151	0xbd2569f1	-0.040384237
152	0x3dd30521	0.10303713
153	0xbda1482a	-0.07875092
154	0x3d4fcebf	0.050734278
155	0x3e2d93c1	0.16950895
156	0x3d811aaf	0.063039176
157	0xbe3c7792	-0.18404987
158	0x3dc741b3	0.09729328
159	0x3d04c523	0.032414567
160	0x3cdced73	0.026968693
161	0xbda7ea01	-0.081989296
162	0x3d8991e0	0.067172766
163	0x3e04d08d	0.12970181
164	0x3e054178	0.13013256
165	0x3cadbfed	0.021209681
166	0x3d222f84	0.039596096
167	0x3d8c0de3	0.06838586
168	0x3d88f5c3	0.066875
169	0xbbf1c3be	-0.0073780706
170	0xbcc167a4	-0.02360899
171	0x3ea3f3ab	0.3202184
172	0x3be79057	0.007066767
173	0x3d38c493	0.045109343
174	0xbc2a2bd6	-0.010386428
175	0x3d68fdae	0.056882553
176	0xbcc7866b	-0.024356088
177	0x3de1d611	0.11027158
178	0x3cb09057	0.021553202
179	0x3d81c419	0.06336231
180	0x3d22510b	0.03962807
181	0x3a6da793	0.0009065803
182	0xbd81115d	-0.0630214
183	0x3d57bc9b	0.052670103
184	0x3dd42fd7	0.10360687
185	0xbd5efdb2	-0.05444116
186	0xbc0ca426	-0.008584058
187	0x3e161421	0.14656116
188	0x3cf0ca78	0.02939342
189	0x3ca12141	0.019669177
190	0x3cca5e74	0.024703242
191	0xbe0ac8cf	-0.13553165
192	0xbd2bc7d9	-0.041938636
193	0xbd6f2fac	-0.058395073
194	0xbc349287	-0.011021263
195	0x3e06034e	0.13087198
196	0x3da624d0	0.0811249
197	0x3d30909b	0.043106657
198	0xbdbea2b9	-0.09308381
199	0x3dce778e	0.10081397
200	0xbd062c64	-0.032757178
201	0x3db7e6ae	0.089795455
202	0xbd8091a7	-0.06277781
203	0x3dd5a53d	0.10431907
204	0xbc22c8d5	-0.009935577
205	0xbd7df848	-0.062004358
206	0xbddc8a42	-0.10768558
207	0xbc3b87be	-0.011445938
208	0x3c800219	0.015626
209	0xbda8b531	-0.082376845
210	0x3d588e34	0.05286999
211	0x3c2175cb	0.009854744
212	0xbcf313e0	-0.029672563
213	0xbd550ede	-0.05201613
214	0x3df00015	0.11718766
215	0xbc0ccd2c	-0.008593839
216	0x3d21ce28	0.039503247
217	0xbda03d03	-0.07824137
218	0xbe0679b9	-0.13132371
219	0xbccefd7e	-0.025267359
220	0x3d286168	0.04110852
221	0xbacf030a	-0.0015793752
222	0x3cc2ee24	0.023795195
223	0xbd8a652b	-0.067575775
224	0xbdc3cdfb	-0.09560772
225	0x3e16e060	0.1473403
226	0xbe290dbe	-0.16509148
227	0x3d1be21a	0.038057424
228	0x3ac7e1bf	0.0015249773
229	0xbc11be5b	-0.008895482
230	0xbc22e47d	-0.009942171
231	0xbde46f5d	-0.11154053
232	0x3c4c03c2	0.012452068
233	0x3c6b3b3b	0.014357383
234	0xba3197e0	-0.00067746453
235	0x3cb736d1	0.022365006
236	0xbdbe47cf	-0.0929104
237	0x3e0f2654	0.13979465
238	0x3cd92746	0.026507985
239	0xbdcbb652	-0.09946884
240	0xbe19223e	-0.14954469
241	0xbba86dcb	-0.0051400415
242	0x3d9f8a25	0.07790021
243	0x3b2eafb8	0.002665503
244	0x3ca9e464	0.020738788
245	0x3d360e47	0.04444721
246	0x3dcd82e0	0.10034728
247	0x3d676259	0.056490276
248	0x3daa0f66	0.08303718
249	0xbcc30fcc	-0.023811243
250	0x3bd4f5f5	0.006499047
251	0x3d5225dc	0.051305637
252	0x3c10e212	0.008842962
253	0x3d8caa22	0.06868388
254	0x3b25fc39	0.0025327338
255	0xbda9838f	-0.08277046

network_body._body_endoder.seq_layers.2.bias f4 [128]
0	0xbbd5ecd0	-0.0065284744
1	0x3c2a72dd	0.010403362
2	0x3e07938a	0.13239875
3	0x3c9b9560	0.018992126
4	0x3d4ed567	0.050496485
5	0x3d845cd5	0.06463019
6	0x3d0e85fa	0.03479574
7	0x3d0ad7be	0.033897154
8	0xbcdf0066	-0.02722187
9	0x3d29c3cf	0.041446503
10	0x3c233023	0.009960207
11	0xbc91e9eb	-0.017811736
12	0x3d39b87f	0.045341965
13	0x3dd56e42	0.10421421
14	0x3d73a768	0.059485823
15	0x3bf8ec29	0.007596512
16	0x3dcef7ca	0.10105856
17	0x3c2eeebb	0.010677035
18	0x3b985932	0.004649305
19	0x3d81ef96	0.063445255
20	0x3c050b59	0.008120381
21	0x3bf22012	0.007389077
22	0x3d9c6c0c	0.07637796
23	0x3bda90fe	0.0066701164
24	0x3bc1e178	0.0059167705
25	0x3c0e29f3	0.008676994
26	0x3cd437a5	0.02590544
27	0x3b0649d6	0.0020490787
28	0xbc6bc5ca	-0.014390418
29	0x3c15bc4a	0.00913913
30	0x3cc5975d	0.024120027
31	0xbbf34bea	-0.007424821
32	0x3d6c5b52	0.057704277
33	0xbc560820	-0.013063461
34	0x3de19599	0.110148616
35	0x3be93af7	0.007117625
36	0x3d94d7d7	0.07267731
37	0x3ca138de	0.019680437
38	0x3d97de3f	0.07415437
39	0x3a4abdb2	0.0007733955
40	0xba6fb052	-0.00091434
41	0x3bfd45b1	0.007729255
42	0x3ab69e68	0.0013932707
43	0xbc992c6d	-0.018697942
44	0xbc42c866	-0.011888599
45	0x3d901ed1	0.07037128
46	0x3d6fd004	0.05854799
47	0x3be76b63	0.007062362
48	0x3b61bafc	0.0034443727
49	0x3deefce4	0.11669329
50	0x3c596474	0.013268579
51	0x3db1f2d9	0.08688898
52	0x3dd322b3	0.10309353
53	0x3d1c7d69	0.038205538
54	0x3d563998	0.05230102
55	0x3c88701c	0.01665502
56	0x3c7b14ca	0.015324781
57	0x3c0a99b3	0.008459496
58	0x3afb5998	0.0019176481
59	0x3baa891c	0.005204333
60	0x3de5e66b	0.11225589
61	0x3d823c66	0.06359176
62	0x3d75f39e	0.060046785
63	0x3d2390ae	0.0399329
64	0xbbc5c47a	-0.0060353847
65	0x3d0ad442	0.03389383
66	0x3d212b0a	0.039347686
67	0x3d851cf3	0.06499662
68	0x3d070ff7	0.03297421
69	0x3d135bc9	0.035976205
70	0x3dc85f2b	0.09783777
71	0x3c0cbbcd	0.008589697
72	0x3bd410cd	0.0064717294
73	0xbd0ecc45	-0.034862775
74	0x3d8040ce	0.062623605
75	0xbd127c5a	-0.035763122
76	0xbc9fe5ba	-0.019518722
77	0xbb21e401	-0.0024702551
78	0x3cbd9d92	0.023146424
79	0x3dd2760a	0.102764204
80	0x3d169b0b	0.036768954
81	0x3c9b7e90	0.018981248
82	0x3d4ab4fc	0.049489006
83	0x3d0e5156	0.034745537
84	0x3c8fa0d4	0.017532744
85	0x3cbd6723	0.023120468
86	0x3c286fe1	0.01028058
87	0xbbbe263a	-0.005802897
88	0x3c9d4305	0.019196996
89	0xbcfc06f1	-0.030765029
90	0x3d927744	0.07151654
91	0x3c856e7d	0.016288036
92	0x3ccea511	0.025225194
93	0x3cc3433b	0.023835769
94	0xbbdfd2a1	-0.006830529
95	0x3ce3053d	0.027712459
96	0x3c86e4cc	0.01646652
97	0x3d1e6885	0.038673896
98	0xbc2a19db	-0.010382141
99	0x3cefa58e	0.029253747
100	0x3c05ea37	0.008173517
101	0xbcc4ae43	-0.024008876
102	0xbb906582	-0.004406632
103	0x3de8ac6c	0.11361012
104	0x3c53df34	0.012931634
105	0x3d6d4f25	0.057936806
106	0x3d8f2719	0.06989879
107	0x3a900274	0.0010987059
108	0x3d352b20	0.04423058
109	0xbb0108a2	-0.0019688983
110	0xbd00f444	-0.03148295
111	0x3ce929f6	0.028462391
112	0x3cd1dc93	0.025617873
113	0x3d161b01	0.036646847
114	0xbcafbf3e	-0.021453496
115	0x3d0733fd	0.033008564
116	0xbbb0036f	-0.005371503
117	0xbc767bf1	-0.015044198
118	0x3d5619a1	0.052270535
119	0x3c292648	0.010324068
120	0x3c31ad51	0.0108445445
121	0xbbe06d8b	-0.006848996
122	0x3d6d6f0d	0.057967234
123	0x3de510fd	0.11184881
124	0x3da9e0ab	0.08294805
125	0x3abbbe1d	0.0014323626
126	0xbc52e8ed	-0.012872917
127	0xbd3f3fad	-0.046691585

network_body._body_endoder.seq_layers.2.weight f4 [128, 128]
0	0x3bf33c8b	0.007422989
1	0xbd39b53c	-0.045338854
2	0xbd7c0dbc	-0.061536536
3	0xbd355126	-0.044266842
4	0x3e087617	0.13326298
5	0x3e2a2b1e	0.1661801
6	0x3e0a2455	0.13490422
7	0x3d343376	0.04399439
8	0xbd53e583	-0.05173255
9	0x3e49d3a0	0.19709635
10	0x3dd0d1f8	0.10196298
11	0x3e450c74	0.19243032
12	0x3d1a41ae	0.037660293
13	0xbdaa6ee1	-0.0832193
14	0x3cb7a367	0.022416783
15	0xbcd19252	-0.025582466
16	0x3bd3f026	0.006467837
17	0xbda12625	-0.078686036
18	0xbe7f40d5	-0.24927075
19	0xbc1aacf0	-0.009440646
20	0x3dc8eccb	0.0981079
21	0xbe196610	-0.1498034
22	0xbdb850ee	-0.08999811
23	0xbda5d0c7	-0.08096462
24	0x3d10e367	0.035373118
25	0xbcf8fe9e	-0.030394848
26	0xbc992f19	-0.018699216
27	0xbe489d01	-0.19591142
28	0x3d0a96a0	0.033835053
29	0xbd6dd894	-0.058067873
30	0xbd31f647	-0.04344776
31	0xbcf274a4	-0.029596634
32	0x3d93e8de	0.0722215
33	0xbda5a864	-0.080887586
34	0x3d4911be	0.049089186
35	0xbd89c2c5	-0.067266025
36	0xbd2d8ce4	-0.042370692
37	0x3d6108a0	0.054939866
38	0xbd215582	-0.039388187
39	0x3ddac15b	0.10681411
40	0x3d7c16ec	0.061545298
41	0x3d5dac31	0.054119293
42	0xbde20b73	-0.1103734
43	0xbd798a6e	-0.060923032
44	0x3d0f16cb	0.034933846
45	0x3bb6078d	0.0055550993
46	0xbd2922e7	-0.04129305
47	0x3a815123	0.00098661
48	0xbc22e54f	-0.009942367
49	0x3d290687	0.04126599
50	0xbd2d67ad	-0.0423352
51	0x3d0d20fa	0.034455277
52	0xbd7ebb36	-0.062190257
53	0x3db76284	0.08954337
54	0x3d84a6ae	0.06477104
55	0xbd908687	-0.07056909
56	0xbd98b5ce	-0.074565515
57	0x3a321041	0.0006792583
58	0xbc8590c5	-0.016304383
59	0x3d753c90	0.05987221
60	0xbcc0eaba	-0.023549426
61	0xbddfa0f8	-0.10919374
62	0x3d699bde	0.057033412
63	0x3d4da0e2	0.050202258
64	0x3e163eaa	0.14672342
65	0x3db88531	0.09009779
66	0xbda67df4	-0.081294924
67	0xbdb883cf	-0.090095155
68	0xbd239491	-0.039936606
69	0xbddb669e	-0.10712932
70	0xbdaa4021	-0.08313013
71	0x3d1c1ec1	0.038115267
72	0x3d05722f	0.032579597
73	0xbe02de0a	-0.12780014
74	0xbd2efba3	-0.04272045
75	0xbcc6d182	-0.024269823
76	0xbcaec7ac	-0.021335445
77	0x3cb0c18f	0.02157667
78	0xbe0d5d41	-0.13805105
79	0xbe55336c	-0.20820397
80	0xbcd46a3b	-0.02592956
81	0x3d029cfe	0.031888
82	0xbd8d6c19	-0.069053836
83	0xbe416854	-0.18887454
84	0x3e0818d4	0.13290721
85	0x3d23b50d	0.039967585
86	0x3d8dcfe5	0.06924418
87	0x3e0de54e	0.13857004
88	0x3e20f48f	0.15718292
89	0x3d8186f8	0.06324571
90	0x3e2a900b	0.1665651
91	0xbe100015	-0.14062531
92	0x3c837b23	0.016049927
93	0xbd1ec16a	-0.038758673
94	0xbd15910b	-0.036515277
95	0x3dc53218	0.09628695
96	0xbcfecb23	-0.031102723
97	0x3d383f36	0.044982158
98	0xbe5a1af9	-0.21299352
99	0x3c6d0a73	0.014467823
100	0xbddc3aea	-0.107534245
101	0xbe0c1389	-0.13679327
102	0x3dd8e46d	0.10590444
103	0xbdaec214	-0.08533111
104	0x3deb1a8a	0.11479671
105	0xbdde6d61	-0.10860706
106	0x3d6b803f	0.057495352
107	0xbd2b07aa	-0.041755356
108	0xbda00546	-0.07813506
109	0xbdd79975	-0.105273165
110	0xbde2391f	-0.11046051
111	0x3d20e792	0.039283343
112	0x3ce8ff51	0.028442057
113	0xbcb69ff5	-0.02229307
114	0xbc0ae056	-0.008476337
115	0xbdc1acb4	-0.09456769
116	0x3d0f727f	0.0350213
117	0x3e0fc781	0.14040948
118	0x3df2730e	0.11838351
119	0x3d3e8a9f	0.046518918
120	0xbd9b4663	-0.075817846
121	0x3c0623a2	0.008187206
122	0x3e0bcf9d	0.13653417
123	0x3e0ebc53	0.13939027
124	0xbe2e4ab4	-0.17020684
125	0x3b52ab8f	0.0032145714
126	0x3d9b42a2	0.075810686
127	0x3ddf8e3e	0.109158024
128	0x3da189f5	0.07887641
129	0x3d95f567	0.073221974
130	0x3e3a56a0	0.18197107
131	0xbcf6cc25	-0.03012664
132	0x3d0e41cd	0.03473072
133	0xba4ccd24	-0.0007812551
134	0xbda5f91c	-0.081041545
135	0x3d8c5a95	0.06853215
136	0xbcb24aa3	-0.021764105
137	0x3e16e471	0.14735581
138	0xbce43d84	-0.027861364
139	0x3de38a39	0.11110348
140	0xbdd644b8	-0.10462326
141	0x3e1aa87b	0.15103333
142	0xbd8bd068	-0.0682686
143	0x3d0bab39	0.034098838
144	0xbcf0202c	-0.029312216
145	0x3d4798e1	0.04872978
146	0x3d128a7a	0.035776593
147	0xbd891e16	-0.066951916
148	0x3d03ade4	0.032148257
149	0xbd96c43b	-0.07361647
150	0xbd2513d6	-0.04030212
151	0xbde8fb7d	-0.113760926
152	0x3d23074d	0.039801884
153	0xbdcda952	-0.10042061
154	0x3dc55a0d	0.096363164
155	0xbcef5469	-0.029215055
156	0x3c3eeca7	0.011653102
157	0xbd53c713	-0.051703524
158	0xbd7fa75f	-0.062415477
159	0xbcd86add	-0.026418144
160	0x3cf3875b	0.029727628
161	0x3d4818d8	0.048851818
162	0xbe00be47	-0.12572585
163	0x3cbef6fe	0.023311134
164	0xbd85251a	-0.06501217
165	0xbbb4fe2c	-0.0055234637
166	0xbcba2322	-0.02272183
167	0x3e0463f0	0.12928748
168	0xbd83df9c	-0.064391345
169	0x3c95e555	0.01829783
170	0x3d205ce1	0.039151076
171	0xbe183cf6	-0.14867005
172	0xbdc18a2e	-0.09450184
173	0xbc7556ae	-0.014974279
174	0x3d7b1cfd	0.061306942
175	0xbdadfa1e	-0.08494972
176	0x3acb0491	0.0015489032
177	0x3c6aa0fb	0.014320607
178	0x3c4d0c39	0.012515121
179	0xbe0a6174	-0.13513738
180	0x3dbba5ec	0.091625065
181	0x3bbaa126	0.00569548
182	0x3d5dedd7	0.0541819
183	0x3d4597fa	0.04824064
184	0xbe461de8	-0.19347346
185	0xbde9eaf1	-0.11421765
186	0xbdb47368	-0.088110745
187	0x3dbced19	0.0922491
188	0x3e21d28f	0.15802978
189	0x3d1966f6	0.037451707
190	0x3d29126c	0.041277334
191	0x3dbc51b0	0.09195268
192	0x3cc33d59	0.023832964
193	0x3d4fc95f	0.05072915
194	0xbde880c1	-0.11352683
195	0x3df51f54	0.11968866
196	0xbc8f4ea9	-0.017493563
197	0xbd7d94f7	-0.061909642
198	0x3db0baf9	0.08629412
199	0x3d731f05	0.059355754
200	0x3e0d750c	0.13814181
201	0x3c306d51	0.010768251
202	0x3dc3725c	0.09543297
203	0x3d369e48	0.044584543
204	0xbd881782	-0.06645109
205	0xbd563fe4	-0.052307025
206	0x3d913ef1	0.07092083
207	0xbd1fdc36	-0.03902837
208	0x3d5a5503	0.05330373
209	0x3bddb296	0.006765674
210	0x3e4044c0	0.18776226
211	0xbd7c2936	-0.06156274
212	0xbdea22ff	-0.11432456
213	0x3cb77abf	0.022397397
214	0xbda84733	-0.08216705
215	0x3e633557	0.22188316
216	0x3cee65f8	0.029101357
217	0xbbb2d5db	-0.0054576225
218	0x3c7334ec	0.0148441605
219	0xbd0b7584	-0.03404762
220	0x3da674d8	0.08127755
221	0xbcaeb4b8	-0.021326408
222	0xbc9d841a	-0.01922803
223	0xbab74c4e	-0.0013984533
224	0xbcfa37af	-0.03054413
225	0xbd6da6ab	-0.058020275
226	0xbe54529f	-0.20734642
227	0xbd879125	-0.06619481
228	0xbdf6064f	-0.12012922
229	0x3d6db52d	0.05803411
230	0xbd4d8b0b	-0.05018143
231	0xbdf47e37	-0.11938136
232	0x3e044d9b	0.12920229
233	0x3e36f509	0.17866911
234	0x3e162ca3	0.14665465
235	0xbd11abe2	-0.03556431
236	0x3d82cdc1	0.06386901
237	0x3d390b18	0.045176595
238	0xbe446ef8	-0.19182956
239	0xbcb1ad42	-0.021689061
240	0xbe1354a7	-0.14387761
241	0xbd181dfc	-0.03713797
242	0x3d4abb3a	0.04949496
243	0xbd071056	-0.032974564
244	0x3e32c6a8	0.17458594
245	0xbd5297e3	-0.05141438
246	0x3da6846b	0.081307255
247	0xbe3dc47b	-0.18531983
248	0x3dce3910	0.100694776
249	0x3e3216a0	0.17391443
250	0xbc643689	-0.013929018
251	0xbd7c7f2f	-0.06164473
252	0x3dd41eb5	0.103574194
253	0xbcee7db5	-0.029112676
254	0x3dd056bd	0.10172794
255	0xbc7cebc8	-0.015437074
