Assets/Hide and Seek/Brain/1_SeekerBehavior.onnx (onnx, 191968 bytes, 6 tensors)

action_model._discrete_distribution.branches.0.bias f4 [6]
0	0xbd5f9c35	-0.05459233
1	0xbc4ccb24	-0.012499604
2	0x3da262e7	0.079290204
3	0xbca411a4	-0.020027943
4	0xbc5311ae	-0.012882633
5	0xbab0783b	-0.0013463566

action_model._discrete_distribution.branches.0.weight f4 [6, 128]
0	0xbd6bf23a	-0.057604052
1	0x3b5fd8e1	0.003415637
2	0xbb23b0a4	-0.0024977112
3	0xbd152f1b	-0.036421876
4	0xbd3d43d3	-0.04620726
5	0xbd0f451a	-0.03497801
6	0x3cbe8cd9	0.02326052
7	0xbc70ba9e	-0.0146929305
8	0xbd64ca2a	-0.05585686
9	0xbd0ad4aa	-0.03389422
10	0xbd4a2270	-0.04934925
11	0x3c713806	0.01472283
12	0x3becc691	0.0072258194
13	0xb904e07a	-0.00012672125
14	0x3c819c09	0.015821474
15	0xbcfb9961	-0.030712785
16	0xbc3da718	-0.011575483
17	0x3cbcdde4	0.023055024
18	0x3c1f3364	0.009716842
19	0xbca2a909	-0.019855993
20	0x3a8427ff	0.001008272
21	0xbc33b193	-0.01096763
22	0x3ce76711	0.028247388
23	0xbc550946	-0.013002699
24	0x3c834086	0.016021978
25	0xbccfb467	-0.025354577
26	0x3ceda948	0.029011384
27	0xbd0501be	-0.032472365
28	0xbd26973b	-0.04067157
29	0xbd3a972c	-0.045554325
30	0x3d0addb2	0.03390283
31	0x3c7285c2	0.014802398
32	0x3ba767c8	0.0051088072
33	0x3c94ffa5	0.018188307
34	0x3ccf8577	0.025332196
35	0x3b58ca0f	0.003307942
36	0x3c6f59d5	0.01460882
37	0x3ca97b90	0.020688802
38	0xbcefdde3	-0.029280609
39	0xbd23fdb1	-0.04003686
40	0xbd424b17	-0.047434893
41	0xbcd0415b	-0.025421789
42	0xbc95f317	-0.01830439
43	0x3be1acf4	0.0068870727
44	0xbc83a01b	-0.016067555
45	0x3c67481e	0.014116315
46	0x3b17e8ea	0.00231796
47	0xbd0010df	-0.03126609
48	0x3c87699f	0.016529856
49	0x38ba0b8c	8.871322e-05
50	0x3bd3190f	0.006442196
51	0x3b3af381	0.0028526487
52	0xbbc21ffd	-0.0059242235
53	0xbcf99798	-0.030467793
54	0xbb04f1aa	-0.0020285645
55	0xbc78b33b	-0.015179451
56	0xbd64b365	-0.055835146
57	0xbd900b60	-0.070334196
58	0xbd0f99c1	-0.03505874
59	0xbba9ecf3	-0.0051857173
60	0xbd01071c	-0.03150092
61	0x3be99d24	0.0071293283
62	0xbdadac3e	-0.08480118
63	0xbc73dc6c	-0.014884096
64	0x3c732c87	0.014842159
65	0xbc09fb28	-0.008421697
66	0xbb2d3590	-0.002642963
67	0xbd17ccb3	-0.03706045
68	0xbd60acee	-0.05485242
69	0x3ca3b27f	0.019982575
70	0xbcbc7bb0	-0.023008198
71	0xbd207cfa	-0.039181687
72	0x3c9758d9	0.018474983
73	0x3d1475ec	0.03624527
74	0x3ade20a1	0.001694698
75	0xbc50b6d8	-0.012738906
76	0x3c74fc69	0.014952757
77	0xbd15923a	-0.036516406
78	0xbd1a6107	-0.03769019
79	0x3ce0750f	0.027399568
80	0x3c8d8bf8	0.017278656
81	0xbcfcfccd	-0.030882264
82	0xbc04ff16	-0.008117458
83	0xbc8a5a2a	-0.016888697
84	0xbd07d132	-0.03315849
85	0x3c41e444	0.011834208
86	0x3d32a5de	0.043615215
87	0xbb96e5b0	-0.0046050176
88	0x3c907ee7	0.017638637
89	0x3d29ee7c	0.041487202
90	0xbd6f8995	-0.058480818
91	0x3c558f2a	0.013034621
92	0x3c063048	0.008190222
93	0x3cddfcbe	0.027098056
94	0xbd73172a	-0.059348263
95	0xbd3a23ea	-0.045444407
96	0x3b82c926	0.003991264
97	0xbcd3abc2	-0.025838736
98	0x3b930240	0.004486352
99	0xbc1a9a99	-0.009436273
100	0x3cc2e341	0.023790004
101	0xbc42f0c0	-0.01189822
102	0xbc87cc12	-0.0165768
103	0xba87201a	-0.001030925
104	0x3d7d82f8	0.06189248
105	0xbc901800	-0.01758957
106	0xbd1e8022	-0.038696416
107	0xbbe2245c	-0.006901307
108	0x3d17ea1c	0.0370885
109	0x3c7be15d	0.015373555
110	0xbc321a14	-0.010870475
111	0x3a20f78f	0.0006140405
112	0xbd59e910	-0.05320078
113	0x3c827c72	0.01592848
114	0xbb94e3e2	-0.0045437673
115	0xbd27182a	-0.04079453
116	0xbb55d2ee	-0.0032626945
117	0xbbfaf682	-0.0076587806
118	0x3b809352	0.003923812
119	0xbc92a1e2	-0.017899457
120	0x3cdb3a8a	0.026761312
121	0xbd3ba812	-0.04581458
122	0xbbf0078f	-0.00732512
123	0xbc0d2066	-0.008613681
124	0xbd13757e	-0.03600072
125	0xbbd4aab7	-0.0064900774
126	0xbc3ee00a	-0.011650095
127	0xbc551eab	-0.0130078
128	0xbdc89b07	-0.09795194
129	0xbded688d	-0.11592207
130	0xbc2d3906	-0.0105726775
131	0xbe049d54	-0.12950641
132	0xbd30959f	-0.04311144
133	0xbe07dbf5	-0.132675
134	0xbd6b6713	-0.057471346
135	0x3dc680ba	0.096925214
136	0xbe02fa1d	-0.12790723
137	0x3da55d97	0.080744915
138	0x3a8fe0c7	0.0010977023
139	0xbc834397	-0.01602344
140	0xbd6156c0	-0.055014372
141	0xbdfb9876	-0.12284939
142	0xbda1cba9	-0.07900173
143	0x3d0c4b3c	0.034251437
144	0x3dc99523	0.09842899
145	0xbdbb5c8b	-0.091485105
146	0xbc1b23f0	-0.009469017
147	0x3e0950ff	0.13409804
148	0x3cc94711	0.02457002
149	0xbddf7c4b	-0.10912379
150	0x3dc1f59a	0.09470673
151	0xbdba26cb	-0.090894304
152	0xbcab74c9	-0.020929711
153	0xbd25e94a	-0.040505685
154	0xbcbb23ed	-0.02284428
155	0xbded8712	-0.11598028
156	0x3d409020	0.04701245
157	0xbdf49fed	-0.11944566
158	0x3beac5f6	0.007164712
159	0xbda5dcb5	-0.08098737
160	0xbc98ccdc	-0.018652372
161	0xbb75f7ed	-0.0037531808
162	0x3cb415dc	0.02198308
163	0x3cfb842a	0.03070267
164	0x3d54228f	0.05179077
165	0xbd53011d	-0.051514734
166	0xbdbc48a1	-0.0919354
167	0xbd9f9c53	-0.07793488
168	0x3c92daab	0.017926535
169	0xbdf4bf9f	-0.11950611
170	0xbdd3f19c	-0.10348818
171	0x3d06ef99	0.032943342
172	0x3da63801	0.08116151
173	0xbdc06ac0	-0.09395361
174	0xbdc48417	-0.09595507
175	0x3d93bc7f	0.07213687
176	0xbbec996f	-0.007220439
177	0x3d257859	0.040397976
178	0x3da71dd2	0.08159985
179	0xbdfbf1ad	-0.12301955
180	0x3d51603c	0.051117167
181	0x3cea9af1	0.028638335
182	0xbd84fd44	-0.06493619
183	0x3d90824a	0.07056101
184	0x3d0f1feb	0.03494255
185	0xbdd263da	-0.102729514
186	0x3db89c38	0.09014171
187	0xbdbaeaea	-0.091268376
188	0xbdfd8831	-0.12379492
189	0x3d6f7fc1	0.058471445
190	0xbaa47835	-0.0012548032
191	0xbdf7c31c	-0.12097761
192	0xbdaf5537	-0.08561175
193	0xbd93bc9c	-0.07213709
194	0x3c859b42	0.016309384
195	0xbae81969	-0.0017707768
196	0x3d037855	0.03209718
197	0x3d0e811c	0.034791097
198	0x3e016fdb	0.12640326
199	0x3dde1697	0.108441524
200	0xbd424db4	-0.047437385
201	0x3c788dc4	0.015170518
202	0xbd2000a6	-0.03906312
203	0x3cc46021	0.02397162
204	0x3d9ffce9	0.07811911
205	0xbe1343eb	-0.14381377
206	0xbdc23b08	-0.094839156
207	0xbce10ae9	-0.027471023
208	0xbd711e0a	-0.058866538
209	0x3db69372	0.08914842
210	0x3d2cc0f5	0.042176206
211	0x3dbd9567	0.09257012
212	0x3ce6d966	0.028179836
213	0xbd88414f	-0.066530816
214	0x3d12bf0f	0.03582674
215	0xbdcb3e89	-0.09924037
216	0xbde61b49	-0.11235673
217	0x3d037b7f	0.032100197
218	0xbc9c5ab7	-0.019086225
219	0xbdb5bcab	-0.08873876
220	0xbddabdd3	-0.10680737
221	0xbcbe34e7	-0.023218585
222	0xbdaa80f3	-0.08325376
223	0xbd492fb2	-0.04911775
224	0x3daa1648	0.08305031
225	0xbd4eaf46	-0.050460123
226	0xbd03f477	-0.03221556
227	0xbda9a774	-0.08283892
228	0xbc692119	-0.0142290825
229	0xbdc2fbe9	-0.09520704
230	0x3de30a17	0.11085909
231	0xbd15f470	-0.036610067
232	0xba8f2d3f	-0.0010923519
233	0x3cfbb0d5	0.030723969
234	0x3de39351	0.11112083
235	0x3d537573	0.05162568
236	0xbcdead7f	-0.027182339
237	0xbd9d4238	-0.07678646
238	0x3d687a62	0.05675734
239	0xbdcdcc98	-0.10048789
240	0x3ca4b6a7	0.020106627
241	0x3c9c3372	0.0190675
242	0x3dbfcbae	0.09365021
243	0xbd9f4604	-0.07777026
244	0x3d2e8f3b	0.042617064
245	0x3d288af9	0.04114816
246	0xbdc03cd0	-0.09386599
247	0x3d4b1545	0.04958083
248	0x3d828ee3	0.0637491
249	0xbd1fc580	-0.03900671
250	0x3e042456	0.12904486
251	0x3bcdcc0d	0.0062804283
252	0x3cf8aaf9	0.030354964
253	0xbd1391d2	-0.036027737
254	0xbdebd1fc	-0.11514661
255	0xbdbc5f8e	-0.09197913

network_body._body_endoder.seq_layers.0.bias f4 [128]
0	0xbd1f9c51	-0.038967434
1	0xbd4a7c56	-0.049434982
2	0x3cbfca85	0.023411999
3	0xbdc970c0	-0.098359585
4	0x3d6be5ac	0.05759208
5	0x3d3dad07	0.04630759
6	0xbcabad9d	-0.020956809
7	0x3d83aaec	0.06429085
8	0xbc431403	-0.011906627
9	0xbe07248b	-0.13197534
10	0x3d2810ef	0.041031774
11	0x3db61d8e	0.08892356
12	0x3db11aa0	0.086476564
13	0x3dc87746	0.097883746
14	0x3e091625	0.13387354
15	0x3d81a554	0.06330362
16	0xbdc11fe9	-0.094299145
17	0x3dd5ac7f	0.10433292
18	0xbc88e565	-0.016710946
19	0x3c628595	0.013825794
20	0x3da2ad80	0.07943249
21	0x3d845a3e	0.06462525
22	0x3da43d53	0.08019509
23	0xbbe9f3e8	-0.0071396716
24	0x3db79bf3	0.08965292
25	0xbbac1dfe	-0.005252599
26	0x3d6d55f9	0.057943318
27	0xbbfca0cd	-0.0077095986
28	0x3ba06d8b	0.004895871
29	0x3db9c783	0.09071257
30	0x3d81ba33	0.06334343
31	0xbce35abc	-0.027753226
32	0xbaf6a33c	-0.0018816958
33	0xbd5a9502	-0.05336476
34	0x3db2ef5b	0.0873706
35	0x3b1b792e	0.0023723352
36	0x3d83c49a	0.06433983
37	0xbc62bda9	-0.013839164
38	0x3ca9ed6d	0.020743096
39	0x3d83a310	0.06427586
40	0x3dc78420	0.09741998
41	0x3c914e6a	0.017737586
42	0x3d4354e2	0.047688372
43	0x3dec0876	0.11525051
44	0xbbc0750c	-0.005873328
45	0x3dd36873	0.103226565
46	0x3dcbe1f7	0.09955209
47	0xbc806baf	-0.015676348
48	0x3df9d0d2	0.121980324
49	0xb9c01026	-0.00036633125
50	0xbd787b41	-0.06066442
51	0x3dc90a52	0.098164216
52	0x3d7eb2ff	0.062182423
53	0x3d46796c	0.04845564
54	0x3da3641f	0.07978081
55	0xbd9c5ed9	-0.07635278
56	0x3db3729d	0.08762095
57	0x3b86a793	0.004109332
58	0xbcd172a3	-0.025567358
59	0x3cd0f55e	0.025507625
60	0xbc0ed5c9	-0.008717963
61	0x3d9f0bd8	0.07765931
62	0xbcfdaae8	-0.030965284
63	0x3d43bb20	0.04778588
64	0xbbd29ed6	-0.006427626
65	0x3c877508	0.016535297
66	0x3da4ac0e	0.08040629
67	0x3dcc16b7	0.0996527
68	0x3cafe49b	0.021471312
69	0x3bc16cee	0.005902878
70	0x3d108e07	0.035291698
71	0x3cb23b96	0.021756928
72	0x3dadd086	0.08487038
73	0x3ccb9190	0.024849683
74	0xbd97e42b	-0.074165665
75	0x3cc295f4	0.023753144
76	0x3e0a94c3	0.1353331
77	0x3dbe1482	0.09281255
78	0x3d287c92	0.041134425
79	0x3e0a73d0	0.13520741
80	0x3cdf731d	0.02727657
81	0x3dcbb6c2	0.09946968
82	0x3dc409bd	0.0957217
83	0x3defeb5f	0.11714815
84	0xbdc22e68	-0.094815075
85	0xbc677185	-0.014126186
86	0xbd103bd0	-0.03521329
87	0xbd710285	-0.058840293
88	0xbd298f00	-0.04139614
89	0xbd0ca074	-0.034332708
90	0x3da79abb	0.08183809
91	0x3dcd04c2	0.10010673
92	0x3c2d1b40	0.010565579
93	0xbc925592	-0.017863069
94	0x3c79ec5c	0.015254106
95	0x3b51a27b	0.0031987715
96	0x3d4446a4	0.04791893
97	0xbcb0903e	-0.021553155
98	0x3d9d3165	0.07675437
99	0x3c1ecd8d	0.009692562
100	0x3d056784	0.032569423
101	0x3d958830	0.07301366
102	0x3de598d0	0.11210787
103	0x3dae3cf1	0.085077174
104	0xbc3dfef5	-0.011596431
105	0x3d0df90b	0.034661334
106	0x3db46f2b	0.08810266
107	0x3d13c134	0.036072925
108	0x3d639c7f	0.05556917
109	0x3cab25ce	0.02089205
110	0x3bba8b75	0.005692894
111	0x3dd05a7b	0.10173508
112	0xbd8a2f70	-0.06747329
113	0x3cc911dc	0.024544649
114	0x3d89c1df	0.06726431
115	0x3d9f0775	0.07765094
116	0x3d59196b	0.053002756
117	0xbcf49d7c	-0.02986025
118	0x3d9b84ea	0.07593711
119	0x3c678d03	0.014132741
120	0x3e0c66c1	0.13711073
121	0x3b7118e9	0.003678853
122	0x3d257b8d	0.04040103
123	0x3d4f0c2c	0.050548717
124	0x3dcd1803	0.100143455
125	0x3dc55cc9	0.09636838
126	0x3daeb513	0.08530631
127	0x3cb1c2bc	0.021699302

network_body._body_endoder.seq_layers.0.weight f4 [128, 235]
0	0xbd37d9fc	-0.04488562
1	0x3da90c57	0.08254307
2	0x3d91e819	0.07124347
3	0x3c914deb	0.01773735
4	0x3d1b66c6	0.03793981
5	0x3d6c9b87	0.05776551
6	0xbc358635	-0.011079361
7	0xbb063ff0	-0.0020484887
8	0xbd26ed25	-0.040753502
9	0xbd87d319	-0.066320606
10	0x3ddf584c	0.10905513
11	0xbb4eb6a9	-0.003154198
12	0xbc9a856b	-0.018862447
13	0xbd8520b7	-0.065003805
14	0x3d4b2e6f	0.04960483
15	0x3df1019b	0.11767884
16	0x3d37f7e6	0.04491415
17	0xbdb985dd	-0.090587355
18	0xbd0cdcc2	-0.03439022
19	0x3d7abf85	0.061217804
20	0x3c99791d	0.01873451
21	0xbcb8881c	-0.02252584
22	0x3e3014ae	0.17195389
23	0xbd70360d	-0.058645297
24	0x3d2e5027	0.042556908
25	0x3cec35d6	0.028834265
26	0xbd5ea0e8	-0.05435267
27	0x3cb6b80a	0.022304554
28	0x3c0c3c93	0.008559364
29	0x3adab7f4	0.0016686902
30	0xbd0f8e63	-0.0350479
31	0xbd608d79	-0.05482242
32	0xbd601ad3	-0.05471308
33	0xbac9a33a	-0.0015383728
34	0x3e17bc61	0.14817955
35	0xbd8e75d2	-0.06956066
36	0xb8a35fb2	-7.79027e-05
37	0x3cf09edd	0.029372627
38	0x3c915e23	0.017745083
39	0x3cd31449	0.025766509
40	0xbd1ea3ac	-0.03873031
41	0xbd5676d8	-0.052359432
42	0x3d2f6bca	0.042827405
43	0xbdd5db3c	-0.10442206
44	0x3d599ccb	0.053128045
45	0x3dfb7148	0.12277466
46	0x3d6b3481	0.05742312
47	0xbd805aa7	-0.062672906
48	0xbc36042c	-0.011109393
49	0x3d25d535	0.040486533
50	0xbdc47a08	-0.09593588
51	0xbc6e6ea7	-0.014552749
52	0xbc925428	-0.017862394
53	0xbd189e0e	-0.037260108
54	0x3d3cbb0c	0.04607682
55	0x3d849fad	0.06475768
56	0xbdc3fb4b	-0.09569415
57	0x3d48a116	0.04898175
58	0xbc92af08	-0.017905727
59	0xbb74bc52	-0.0037343693
60	0x3daa0113	0.08300986
61	0xbbd74a82	-0.0065701613
62	0x3dc5232d	0.0962585
63	0x3dab58e9	0.08366568
64	0xbc1e90c0	-0.009678066
65	0xbc9bf503	-0.01903773
66	0xbc6bf384	-0.01440132
67	0x3cfad402	0.030618671
68	0xbe0ddefa	-0.1385459
69	0xbd405791	-0.04695851
70	0x3e2a84e2	0.16652253
71	0x3d097f62	0.033568747
72	0x3cbc0711	0.022952588
73	0xbd601299	-0.054705236
74	0xbc0dbc1c	-0.008650806
75	0x3cbba230	0.022904485
76	0x3ca4b3fc	0.020105354
77	0x3ce87132	0.028374288
78	0xbd59e254	-0.05319436
79	0x3c07d17e	0.008289693
80	0xbd53dd90	-0.05172497
81	0x3d5e02b8	0.05420181
82	0xbda97932	-0.08275069
83	0x3dd14e33	0.102199934
84	0x3c41c1a4	0.011825953
85	0x3d636bfa	0.055522896
86	0xbe365236	-0.17804798
87	0x3de66a21	0.11250711
88	0x3d5f71f9	0.054552052
89	0xbcd3004b	-0.025756976
90	0x3cb7b510	0.022425205
91	0xbe3ca406	-0.18421945
92	0x3d476c8b	0.0486875
93	0x3cf4a6e3	0.029864734
94	0x3b357434	0.002768767
95	0x3e1c264a	0.15248981
96	0xbd8dbc86	-0.069207236
97	0x3e0b5ce8	0.1360966
98	0x3d23a2b9	0.039950106
99	0xbc8f87da	-0.017520834
100	0x3d1523ed	0.036411215
101	0x3e15ed55	0.14641316
102	0xbc6c5499	-0.0144244665
103	0xbd8575bf	-0.06516599
104	0xbbcbbca9	-0.0062175584
105	0x3d98cbdc	0.07460758
106	0xbdbbe785	-0.09175018
107	0x3e010a6d	0.12601633
108	0xbd4d7c68	-0.05016747
109	0xbce8c724	-0.02841527
110	0x3d042be0	0.032268405
111	0xbd9a95cb	-0.07548102
112	0x3d8bc335	0.06824342
113	0x3dd30165	0.10303
114	0xbd71e39d	-0.05905496
115	0x3b7180fb	0.003685056
116	0x3caff5f3	0.021479582
117	0x3c365d02	0.011130573
118	0xbdb278fd	-0.08714483
119	0x3bd57bea	0.006515016
120	0xbc5fdea9	-0.013663926
121	0xbd291d89	-0.041287933
122	0xbbedb237	-0.007253911
123	0xbdc789f7	-0.097431116
124	0x3d52839f	0.051395055
125	0x3d8a3c17	0.067497425
126	0xbd39173b	-0.04518817
127	0x3ca69012	0.02033237
128	0x3d3b95c9	0.045797143
129	0x3df70ee9	0.12063391
130	0xba99182a	-0.0011680175
131	0xbcfef3aa	-0.031122047
132	0xbdc1618c	-0.09442434
133	0x3c8b09a3	0.016972369
134	0xbda87bd2	-0.08226742
135	0x3d429b5e	0.04751145
136	0x3c890d01	0.016729834
137	0xbc8f8759	-0.017520593
138	0xbda85691	-0.08219636
139	0x3d2c5f01	0.04208279
140	0x3e2e1ec9	0.17003931
141	0x3dcc8a43	0.09987309
142	0xbd82c063	-0.06384351
143	0xbd5477fb	-0.051872235
144	0xbdeaa707	-0.11457639
145	0x3c8d0e7d	0.017218823
146	0x3d4feeec	0.050764963
147	0x3d46a8ea	0.048500933
148	0xbd45caff	-0.048289295
149	0x3d76f70c	0.060294196
150	0xbc27ac6b	-0.010233979
151	0xbce46ba0	-0.02788335
152	0xbd49e99a	-0.049295045
153	0x3d9c3af4	0.07628432
154	0xbcb49035	-0.02204142
155	0x3d19f8b7	0.03759071
156	0xbdda02f9	-0.10645098
157	0xbdf11e10	-0.11773312
158	0x3d6a0ce6	0.057141207
159	0x3d257576	0.040395223
160	0xbd3b7e10	-0.04577452
161	0xb9cc7f54	-0.0003900478
162	0x3e720ea8	0.23638403
163	0xbd1f4261	-0.038881663
164	0x3c585732	0.013204383
165	0xbdd266a5	-0.10273484
166	0x3c0c36d4	0.008557994
167	0x3e280000	0.1640625
168	0x3d4a1c39	0.04934332
169	0x3d948031	0.07251013
170	0xbe0d6c11	-0.13810755
171	0x3e082ff6	0.13299546
172	0x3e89e608	0.26933312
173	0xbd054cbd	-0.032543886
174	0xbc991b20	-0.018689692
175	0xbc9398f8	-0.018017277
176	0xbcbf8aa9	-0.023381548
177	0x3d648622	0.05579198
178	0xbdfda2b4	-0.12384549
179	0xbc75cec7	-0.015002913
180	0xbd316915	-0.043313105
181	0x3db00acd	0.0859581
182	0x3e3c23f1	0.18373086
183	0xbe02423d	-0.1272058
184	0xbc96c18b	-0.018402835
185	0xbd7013b7	-0.05861255
186	0x3c9720e7	0.018448306
187	0x3cb3c696	0.02194528
188	0xbce5aff9	-0.028038012
189	0x3d656709	0.056006465
190	0xbd432c00	-0.047649384
191	0x3d643e4c	0.055723473
192	0x3e3926ba	0.1808118
193	0x3da5e901	0.081010826
194	0x3c00987b	0.007848854
195	0x3bdfd61c	0.0068309437
196	0xbe2d161b	-0.16902964
197	0xbd901175	-0.0703458
198	0x3beba506	0.007191303
199	0x3b26246c	0.00253513
200	0x3cdda1b0	0.027054638
201	0xbe3731ca	-0.17890087
202	0x3d2bd8d2	0.041954823
203	0x3d6f4783	0.05841781
204	0x3db75fa1	0.08953787
205	0xbd030611	-0.031988207
206	0xbabdccbe	-0.0014480574
207	0xbdf7464a	-0.120739534
208	0x3cc23dde	0.023711141
209	0xbd96732e	-0.073461875
210	0xbcffea69	-0.031239705
211	0x3d8668f3	0.06562986
212	0x3cb3b436	0.021936517
213	0x3e3115fc	0.17293543
214	0x3d87426a	0.06604464
215	0x3cd257c1	0.02567661
216	0x3bdbc841	0.0067072217
217	0xbc0eea01	-0.008722783
218	0x3cdafc52	0.026731644
219	0xbe3d91f3	-0.18512706
220	0xbb4146b8	-0.0029491615
221	0xbbf8187b	-0.0075712777
222	0x3d066bf7	0.032817807
223	0xbe0f53be	-0.13996789
224	0xbda067e0	-0.078323126
225	0xbde7cb36	-0.11318056
226	0x3d20ad08	0.039227515
227	0xbbcd17c1	-0.006258935
228	0xbc7ad62b	-0.015309851
229	0x3d35ac2c	0.04435365
230	0x3d3a7247	0.04551914
231	0xbd89f217	-0.06735628
232	0x3da2fc5d	0.07958291
233	0xbcee77ea	-0.029109914
234	0x3bef9369	0.007311274
235	0x3d99c305	0.075079
236	0x3d3f8bf0	0.046764314
237	0x3d52a601	0.051427845
238	0xbdf5f3a4	-0.120093614
239	0x3dc7c968	0.09755212
240	0x3cb05378	0.021524176
241	0xbdc86f68	-0.09786874
242	0xbdef57d4	-0.11686674
243	0x3b52f5cd	0.0032189966
244	0xbdfbee7f	-0.12301349
245	0x3d20006e	0.03906291
246	0xbd142b98	-0.036174387
247	0x3c8b1df6	0.01698206
248	0x3dd9bdd8	0.10631913
249	0x3dd86e66	0.10567932
250	0x3cd284e9	0.025698142
251	0x394adfee	0.00019347642
252	0x3d9662c4	0.07343057
253	0x3cb9ebab	0.022695383
254	0x3d46651c	0.04843627
255	0xbc3edf5c	-0.011649933

network_body._body_endoder.seq_layers.2.bias f4 [128]
0	0x3d656c2d	0.056011368
1	0x3d77d30a	0.060503997
2	0xbc8e5904	-0.01737643
3	0x3ded6ac4	0.115926296
4	0x3daf4945	0.08558897
5	0x3dd45676	0.103680536
6	0x3d8bfdd1	0.06835521
7	0x3cb0edeb	0.021597823
8	0x3dba63ff	0.09101104
9	0x3d2bb692	0.04192216
10	0x3d99b71f	0.07505631
11	0x3d182d40	0.03715253
12	0x3d9b7614	0.07590881
13	0x3de583e1	0.112067945
14	0x3da3073a	0.07960363
15	0x3d035772	0.032065816
16	0xbcc2f9ad	-0.023800695
17	0x3dcb7e8c	0.09936246
18	0x3d1d02f1	0.038332883
19	0xbbbf3a70	-0.0058358237
20	0xba608a48	-0.00085655274
21	0x3d66e39a	0.0563694
22	0xbd057056	-0.032577835
23	0x3dd694d6	0.10477607
24	0x3cdf50c1	0.027260186
25	0x3cce252f	0.025164215
26	0x3d1ac54e	0.03778582
27	0x3d9b5bb9	0.07585854
28	0x3b6587ab	0.0035023491
29	0x3ddbff96	0.107421085
30	0xbd72ba34	-0.05925961
31	0x3db13c30	0.08654058
32	0xbc318256	-0.010834297
33	0xbb977c14	-0.0046229456
34	0xbc307890	-0.010770932
35	0x3c84b1a6	0.01619799
36	0x3c6cf9c8	0.014463849
37	0x3d9765a6	0.07392435
38	0x3dcd9cc1	0.10039664
39	0x3df3ee7d	0.119107224
40	0x3d27c19b	0.04095612
41	0x3dcbc905	0.09950451
42	0x3dea85f6	0.11451332
43	0xbd4ac194	-0.049501017
44	0xbc6cef42	-0.01446134
45	0x3da7c050	0.081909776
46	0x3da31db0	0.07964647
47	0xbbfed032	-0.0077762837
48	0xbd7a2f81	-0.06108046
49	0xbc422007	-0.011848456
50	0xbcca0f8d	-0.024665618
51	0x3dc31b19	0.09526653
52	0xbba6c9c4	-0.0050899703
53	0x3bef2b41	0.0072988574
54	0x3cd72e50	0.0262672
55	0xbc969a6d	-0.018384183
56	0x3d24e88a	0.04026083
57	0x3da82db1	0.0821184
58	0x3c1f2f4a	0.009715864
59	0x3beb40e8	0.0071793683
60	0x3d89c877	0.06727689
61	0xbbd51e02	-0.0065038214
62	0x3db15d43	0.086603664
63	0x3dadb536	0.08481829
64	0x3db142ef	0.08655345
65	0x3db3b773	0.087752245
66	0xbc4abac9	-0.012373635
67	0x3d8c2b29	0.0684417
68	0xbbcc5bff	-0.0062365527
69	0xbd06ce96	-0.03291186
70	0x3cb10cb6	0.021612506
71	0xbc4d3a18	-0.012526058
72	0x3d4515e9	0.0481166
73	0x3c707fc4	0.014678899
74	0x3db90798	0.090346515
75	0xbb7c62a9	-0.0038510954
76	0xbc9ff018	-0.019523665
77	0x3ddf3fbd	0.10900829
78	0x3e0317d1	0.12802054
79	0x3c9824b0	0.018572181
80	0x3db2d27f	0.08731555
81	0x3cfc915e	0.030831035
82	0x3d1fdb9b	0.03902779
83	0xbc247db4	-0.010039736
84	0x3dc2509d	0.09488032
85	0x3d959fe2	0.07305886
86	0xbd89a480	-0.06720829
87	0x3ddea6fb	0.10871693
88	0x3dc51da6	0.096247956
89	0xbd6d7ab0	-0.057978332
90	0x3d8513b0	0.06497896
91	0x3da01141	0.07815791
92	0x3dc08517	0.09400385
93	0xbcdab61d	-0.026698167
94	0x3d91a214	0.07110992
95	0x3b794754	0.00380369
96	0xbd1c79f8	-0.038202256
97	0x3da572a7	0.08078509
98	0x3d880f59	0.06643552
99	0x3dadb90b	0.0848256
100	0x3ad1771b	0.0015980931
101	0x3dd86fd3	0.10568204
102	0x3b59a32c	0.003320883
103	0xbd299076	-0.041397534
104	0xbd69850d	-0.057011653
105	0xbc8302a7	-0.015992476
106	0x3c5368dd	0.012903419
107	0xbc790deb	-0.015201072
108	0xbc97ac12	-0.018514667
109	0x3d95308a	0.07284649
110	0xbd50bf50	-0.0509637
111	0x3dd4dfaa	0.10394223
112	0x3d7dae21	0.06193364
113	0xbc892a56	-0.01674382
114	0xbbce104e	-0.0062885648
115	0x3d48352d	0.048878837
116	0xbd192e77	-0.037397828
117	0xbd367c20	-0.04455197
118	0x3dc196e3	0.094526075
119	0xbd23a9da	-0.039956905
120	0xbbc4d21f	-0.0060064937
121	0x3d2af5b4	0.041738227
122	0x3c6d00ae	0.014465494
123	0xbd1c6957	-0.038186397
124	0x3c806fd0	0.015678316
125	0x3a8b1c31	0.001061326
126	0x3dfb28c6	0.12263636
127	0x3ddff024	0.10934475

network_body._body_endoder.seq_layers.2.weight f4 [128, 128]
0	0xbd8a8923	-0.06764438
1	0xbdac3bdf	-0.08409857
2	0x3c8ade12	0.016951595
3	0xbd9d0e0e	-0.07668696
4	0x3e11201b	0.14172404
5	0x3daaa723	0.0833266
6	0xbdb5911b	-0.08865567
7	0x3dbbeb91	0.0917579
8	0xbb092bfe	-0.0020930762
9	0xbd4ce8c2	-0.050026663
10	0xbc324d8b	-0.0108827455
11	0x3b80903c	0.003923444
12	0xbdb04e2f	-0.08608662
13	0x3dda13eb	0.1064833
14	0x3e83c157	0.25733444
15	0x3d9f1e19	0.077694125
16	0xbe083742	-0.13302329
17	0x3c553db8	0.013015203
18	0xbe4f8dec	-0.20268983
19	0xbbde31a0	-0.006780818
20	0x3b99fa90	0.004699059
21	0x3cec2d64	0.028830238
22	0xbb87dedc	-0.00414644
23	0x3c658079	0.014007681
24	0xbdd6b117	-0.10482996
25	0x3cbdd27a	0.023171652
26	0xbdce8285	-0.100834884
27	0x3d17cd2f	0.037060913
28	0x3e1b6066	0.15173492
29	0xbd1815ac	-0.037130043
30	0xbd4fe2c1	-0.05075336
31	0x3e3a3146	0.18182859
32	0xbe17b632	-0.14815596
33	0x3bf95217	0.007608663
34	0xbe0398ac	-0.12851208
35	0x3e015f93	0.12634115
36	0x3c98ca9b	0.018651297
37	0x3d57755d	0.05260216
38	0x3e1889da	0.14896336
39	0xbdd82c73	-0.10555353
40	0x3d2bfc58	0.0419887
41	0x3e007341	0.12543966
42	0xbde09b95	-0.10967175
43	0x3e0a8ef8	0.13531101
44	0x3d762567	0.060094263
45	0xbbff31ae	-0.0077879047
46	0x3de172fd	0.110082604
47	0x3d8b7ba0	0.06810689
48	0x3de821ce	0.11334573
49	0xbd17b8e9	-0.03704158
50	0xbdab05bc	-0.08350703
51	0x3d410691	0.047125403
52	0x3d8df34f	0.06931173
53	0xbc60c382	-0.013718488
54	0x3e0a816e	0.13525936
55	0xbd83093f	-0.06398248
56	0x3b525e95	0.0032099832
57	0xbd52af60	-0.051436782
58	0xbe354d71	-0.17705323
59	0x3dd73e03	0.10509875
60	0xbd7efcbc	-0.062252745
61	0x3d8d7117	0.06906336
62	0xbd9b805a	-0.075928405
63	0x3dd245a5	0.1026719
64	0x3be0df34	0.0068625454
65	0xbe7d9787	-0.24764834
66	0xbd10572f	-0.035239395
67	0x3dc6cff2	0.09707631
68	0x3e1257cd	0.14291306
69	0xbdeff9f4	-0.11717597
70	0xbd4c7704	-0.04991819
71	0x3d5f9050	0.054580986
72	0xbdf38ef0	-0.118924975
73	0xbd8300cb	-0.063966356
74	0x3d9f16e6	0.077680394
75	0xbe137703	-0.14400868
76	0x3ddb9b51	0.10722984
77	0x3e465161	0.19366981
78	0x3d26a687	0.040686157
79	0xbb386316	-0.0028135232
80	0x3e372406	0.17884836
81	0x3d20558e	0.03914409
82	0x3e04a270	0.1295259
83	0xbc70134e	-0.01465304
84	0xbdc474a4	-0.0959256
85	0xbc9dcd61	-0.019262971
86	0xbdded373	-0.108801745
87	0xbcb90d46	-0.022589337
88	0x3d99eab3	0.075154684
89	0x3dec8e83	0.115506195
90	0x3e7073d6	0.23481688
91	0x3d1f7b45	0.03893592
92	0xbd8a303e	-0.06747483
93	0xbcf62227	-0.030045582
94	0xbd35c655	-0.044378597
95	0x3e477ce2	0.19481233
96	0x3d4cc975	0.049996812
97	0xbdaa4fba	-0.08315988
98	0xbc7301d2	-0.014831977
99	0xbd5ac35e	-0.053408973
100	0xbc947820	-0.018123686
101	0x3d45404d	0.048157025
102	0xbc20f565	-0.009824132
103	0x3e452434	0.19252092
104	0x3e653806	0.22384652
105	0xbdef9d95	-0.11699978
106	0x3cbd06f3	0.023074603
107	0xbd44af42	-0.0480187
108	0xbe137d67	-0.14403306
109	0x3d87782a	0.06614716
110	0x3d85c77c	0.06532189
111	0x3dae8901	0.08522225
112	0x3c04ad08	0.0080978945
113	0x3ddc5598	0.10758513
114	0xbd4cd229	-0.05000511
115	0x3c1d9600	0.009618282
116	0x3d86a4ec	0.06574425
117	0xbe603979	-0.21896924
118	0x3e17675f	0.14785527
119	0xbd8ac92f	-0.06776654
120	0x3d869a5f	0.06572413
121	0x3d91b706	0.07114987
122	0xbe0640c9	-0.13110651
123	0x3e032bd8	0.12809694
124	0x3e399e23	0.1812673
125	0xbdfd4938	-0.12367481
126	0x3dc1a9d8	0.09456223
127	0x3e54771f	0.20748566
128	0x3cee8161	0.029114427
129	0xbde06087	-0.10955911
130	0x3c852d4c	0.01625695
131	0x3dc3e84c	0.095657915
132	0x3cfc7e78	0.030822024
133	0x3d618dca	0.05506686
134	0x3e54a187	0.20764743
135	0xbd4d9d35	-0.050198752
136	0x3dadd9c1	0.08488799
137	0xbe9185d1	-0.28422406
138	0x3df7e389	0.12103946
139	0xbda68622	-0.081310526
140	0x3d8297f3	0.06376638
141	0x3c6bc75c	0.014390793
142	0xba31eb84	-0.0006787109
143	0xbda9016e	-0.08252226
144	0x3c7b48db	0.015337194
145	0xbd08ea9a	-0.03342686
146	0xbdac73a3	-0.084204935
147	0xbcdf053a	-0.027224172
148	0x3e14855a	0.14503995
149	0x3da0c48d	0.07849989
150	0x3d83b05e	0.06430124
151	0xbe34a1f0	-0.17639899
152	0xbccf8ba4	-0.02533514
153	0xbe074c90	-0.132128
154	0x3d90a0ee	0.07061945
155	0xbd59a1ba	-0.05313275
156	0xbd4b0c00	-0.04957199
157	0x3e0be022	0.13659719
158	0xbba8512c	-0.0051366296
159	0x3d80fb7d	0.062979676
160	0x3aed72f9	0.001811593
161	0xbd8947ac	-0.067031235
162	0x3de3ac79	0.11116881
163	0xbe4d936d	-0.2007577
164	0x3dc2b2bd	0.09506748
165	0x3df05e1a	0.117366984
166	0x3dd9ff06	0.10644345
167	0x3e543fb7	0.2072743
168	0x3de21c4e	0.11040555
169	0xbe3bad8e	-0.18327925
170	0xbdf20f25	-0.11819295
171	0x3e42bebf	0.19018076
172	0xbcfd950e	-0.030954864
173	0x3e2109df	0.15726422
174	0x3e082dc1	0.13298704
175	0x3c7dfbc9	0.015501925
176	0x3d408085	0.046997566
177	0x3e17e4f0	0.14833426
178	0x3dab7013	0.08370986
179	0xbd19cff0	-0.03755182
180	0xbde24950	-0.110491395
181	0xbdc9ec06	-0.09859471
182	0x3d8d166c	0.06889042
183	0xbe47d591	-0.19515063
184	0x3d847780	0.06468105
185	0xbdfadef5	-0.12249557
186	0x3e13a7ca	0.14419475
187	0xbe28dacc	-0.16489714
188	0x3e1799cb	0.14804761
189	0x3d131e7f	0.035917755
190	0xbd7eff46	-0.062255166
191	0xbc12113c	-0.008915242
192	0xbe01a2ee	-0.12659809
193	0x3ca1ff6f	0.01977512
194	0x3cb80e8b	0.022467872
195	0xbd9dc0d3	-0.07702794
196	0xbdbae3fd	-0.091255166
197	0x3d0b34f9	0.033986066
198	0x3e6e5231	0.23273541
199	0x3a0a4a78	0.0005275379
200	0x3d9d6760	0.07685733
201	0x3d9b7e4f	0.07592451
202	0x3e1a0d41	0.15044118
203	0x3d25329d	0.04033147
204	0xbd4c4e78	-0.04987952
205	0xbcb2d8bd	-0.021831864
206	0x3c9a104e	0.018806603
207	0xbdca29f4	-0.09871283
208	0xbd1555b2	-0.03645868
209	0x3e3c1c99	0.18370284
210	0x3df9f30a	0.12204559
211	0x3df78771	0.1208638
212	0x3d262fcc	0.040572926
213	0xbc980fc6	-0.018562209
214	0x3cc1bf3e	0.023650762
215	0xbe605e8a	-0.21911064
216	0x3c1a4bfe	0.009417532
217	0xbe25f445	-0.16206463
218	0xb9a4e1b6	-0.00031448685
219	0x3d96ab03	0.07356837
220	0x3d43f00c	0.04783635
221	0xbe1ecf3f	-0.15508746
222	0x3bff3663	0.007788466
223	0x3da3778f	0.07981788
224	0xbe30a6ba	-0.17251101
225	0xbddff57c	-0.10935494
226	0xbd502f7e	-0.050826542
227	0x3dd5765e	0.104229674
228	0x3dc2072e	0.09474026
229	0x3c453d25	0.012038504
230	0x3db1c711	0.08680547
231	0x3d7d1455	0.06178697
232	0x3b8c56c0	0.0042828023
233	0xbcb56c63	-0.02214641
234	0x3d0828e0	0.033242106
235	0xbd51ac0c	-0.051189467
236	0x3dbfbf93	0.09362712
237	0xbdd014d9	-0.101602264
238	0xbe407c1d	-0.18797345
239	0xbd63b7ed	-0.055595327
240	0x3c98895a	0.018620182
241	0x3da6423b	0.08118101
242	0xbccfbba4	-0.025358029
243	0x3e22ad34	0.15886384
244	0x3df6ba0e	0.12047206
245	0xbd5acd80	-0.053418636
246	0x3e5adc10	0.2137301
247	0x3d756fd5	0.059921104
248	0xbd29cab1	-0.041453067
249	0xbd1d767e	-0.03844308
250	0xbe426e84	-0.18987471
251	0x3daffd1f	0.08593201
252	0x3d1de8f0	0.038552225
253	0x3dbb069f	0.09132122
254	0x3e109366	0.14118728
255	0x3cc3138d	0.023813033
