Assets/Hide and Seek/Brain/3_HiderBehavior.onnx (onnx, 197845 bytes, 6 tensors)

network_body._body_endoder.seq_layers.0.weight f4 [128, 245]
0.08329623 -0.035737664 0.023048723 -0.032553613 0.0528236 -0.026319606 0.006063088 -0.031493016
-0.029675946 -0.03251433 0.040677015 -0.1071609 -0.03940165 0.009243388 0.06881341 -0.03129048
-0.09097245 -0.03854587 0.050801076 -0.07623252 0.016993362 -0.07213004 -0.060927723 -0.016882597
-0.065814815 0.11647583 0.039135054 -0.04981389 -0.052780997 0.15584576 -0.10340435 -0.0737926
0.02958786 0.006367831 0.030040268 -0.048795108 -0.035099283 0.13103685 0.11850647 -0.11035498
-0.01446821 -0.07031968 0.053269405 -0.009905167 0.048794873 -0.054455336 0.08896353 0.0017899532
-0.024236437 -0.06756184 0.047666803 0.019991448 -0.060728878 -0.010856001 0.010000564 -0.05752517
-0.040782448 0.051403176 -0.038872026 -0.018257584 0.08664596 0.024196377 0.020072179 -0.08455248
0.025001697 -0.050247435 -0.0060718777 -0.066592984 0.0041552773 -0.04656031 -0.011537112 -0.021147978
0.13173977 -0.047373977 -0.11154358 0.13538621 -0.0005703633 0.055781417 0.072553635 0.024589906
-0.014840659 0.10034978 -0.02306675 -0.005262471 -0.012153619 -0.029644113 0.050895598 0.018648865
0.0883993 0.047328364 0.07393967 0.020980125 -0.055587303 -0.02170561 0.02169633 -0.07826184
-0.14774832 -0.02507597 -0.013268596 0.009545336 -0.052776456 -0.059649196 0.05264525 -0.03943874
0.094193995 0.111847974 0.017067468 -0.05922396 0.070818014 -0.053299762 0.17811829 0.12160343
-0.09157227 -0.06612471 0.087368734 0.05790333 0.03622276 0.06708966 0.043166224 -0.08383902
0.05159779 0.021774475 -0.034216158 -0.009386362 -0.098688796 -0.05425972 -0.046776388 -0.039047964
0.03538915 -0.109013416 0.0215776 -0.029520907 -0.036127117 0.021000078 0.05059467 -0.0019945293
-0.06868822 -0.08025645 -0.005683373 0.060187746 -0.1242351 0.03932815 0.001231857 -0.004943283
0.07629689 0.0057236333 -0.1328501 -0.05168404 -0.014373129 -0.082154356 -0.00069452496 0.036581047
0.05318118 -0.03592809 -0.015718691 0.015073935 -0.085464224 -0.017427836 -0.017477589 0.0361102
0.029280664 -0.023603113 -0.07339303 0.14143063 -0.098206475 0.07774289 -0.062771834 -0.027985316
-0.058315378 -0.0058066477 0.012963452 -0.0857092 0.067422494 -0.12599073 0.08055878 -0.0043787793
-0.16706154 -0.11408725 0.092312254 -0.003362979 -0.1267416 -0.066538505 0.028422287 0.04358126
0.01430563 -0.0038432663 -0.016060272 0.057361435 -0.027863907 0.12331137 -0.030670607 0.082044914
0.014191376 0.06341418 -0.15185358 0.051334005 -0.03846778 0.004896985 -0.09260405 0.041582864
0.08309264 0.06506776 -0.025390731 0.022530582 0.07154254 -0.013699843 -0.04903055 -0.01319241
0.013669199 0.01983712 0.09915406 -0.033810817 -0.018556094 -0.009282395 -0.0640741 0.016490776
-0.07306202 -0.041174665 0.064397134 -0.031363234 0.025512332 0.016539654 -0.0044200965 -0.04197415
0.12401161 -0.040935867 -0.004691325 0.054337084 -0.011644249 -0.05926539 -0.071639165 -0.08988148
0.104576625 0.05326007 -0.05916737 0.013759233 0.05825223 -0.041553907 0.103804775 0.016038282
0.04680636 -0.05644228 0.006894092 -0.0049225027 0.0333919 -0.10056843 0.051776964 -0.02123885
-0.08997026 -0.15793306 0.059084944 -0.05819622 0.093781516 0.03504284 0.010003216 -0.0013038865
00000000: 3797 aa3d a861 12bd add0 bc3c f056 05bd
00000010: 8f5d 583d 379c d7bc deac c63b d2fe 00bd
00000020: f81a f3bc bf2d 05bd f19c 263d 2d77 dbbd
00000030: a063 21bd 9471 173c 0cee 8c3d 722a 00bd
00000040: c44f babd 46e2 1dbd ca14 503d cc1f 9cbd
00000050: aa35 8b3c eab8 93bd 598f 79bd 5f4d 8abc
00000060: ebc9 86bd e18a ee3d 144c 203d a609 4cbd
00000070: e330 58bd 0896 1f3e a9c5 d3bd 9320 97bd
00000080: 3d62 f23c 3da9 d03b 0217 f63c 61dd 47bd
00000090: 44c4 0fbd 862e 063e 85b3 f23d cb01 e2bd
000000a0: 120c 6dbc c403 90bd 0531 5a3d 4849 22bc
000000b0: 22dd 473d 8f0c 5fbd 8332 b63d dd9c ea3a
000000c0: 7e8b c6bc dd5d 8abd 443e 433d 1bc5 a33c
000000d0: d8be 78bd 5edd 31bc 68d9 233c 839f 6bbd
000000e0: 7f0b 27bd 238c 523d 4638 1fbd ee90 95bc
000000f0: 7073 b13d 7b37 c63c 696e a43c da29 adbd
00000100: 5cd0 cc3c 41d0 4dbd 9af6 c6bb e761 88bd
00000110: fe28 883b 06b6 3ebd 2806 3dbc 863e adbc
00000120: cae6 063e 370b 42bd f670 e4bd afa2 0a3e
00000130: 6f84 15ba 0e7b 643d 0097 943d c570 c93c
00000140: 3c26 73bc 2f84 cd3d 7bf6 bcbc ce70 acbb
00000150: f91f 47bc 36d8 f2bc e777 503d 81c5 983c
00000160: b10a b53d 63db 413d af6d 973d 83de ab3c
00000170: 83af 63bd f7cf b1bc 80bc b13c be47 a0bd
00000180: 564b 17be 1f6c cdbc 8664 59bc 0a64 1c3c
00000190: 202c 58bd b752 74bd 8ca2 573d 848a 21bd
000001a0: c8e8 c03d 8d10 e53d 13d1 8b3c d394 72bd
000001b0: 0909 913d da50 5abd a464 363e 380b f93d
000001c0: 3e8a bbbd 646c 87bd 61ee b23d 0b2c 6d3d
000001d0: 515e 143d 4e66 893d 11cf 303d cbb3 abbd
000001e0: 3458 533d 6260 b23c 3e26 0cbd 41c9 19bc
000001f0: 5a1d cabd 713f 5ebd 9998 3fbd c2f0 1fbd
00000200: 37f4 103d 6d42 dfbd 82c3 b03c d4d5 f1bc
00000210: 07fa 13bd 5b08 ac3c 5b3c 4f3d a6b6 02bb
00000220: 69ac 8cbd 7e5d a4bd 973b babb 6d87 763d
00000230: f96e febd 8e16 213d 4376 a13a 43fb a1bb
00000240: 8b41 9c3d 518d bb3b db09 08be a5b2 53bd
00000250: 467d 6bbc 8b40 a8bd c810 36ba 02d6 153d
00000260: 82d4 593d 5529 13bd 7cc4 80bc aaf8 763c
00000270: de07 afbd d2c4 8ebc 292d 8fbc 4ae8 133d
00000280: 01de ef3c 515b c1bc 164f 96bd 31d3 103e
00000290: 7a20 c9bd aa37 9f3d 858e 80bd 7641 e5bc
000002a0: 1bdc 6ebd b145 bebb a964 543c 4e88 afbd
000002b0: ce14 8a3d b703 01be 00fc a43d dd7b 8fbb
000002c0: 2e12 2bbe 93a6 e9bd 350e bd3d 6d65 5cbb
000002d0: 8dc8 01be 5745 88bd dbd5 e83c 4382 323d
000002e0: 2962 6a3c 4fdf 7bbb d590 83bc d3f3 6a3d
000002f0: d942 e4bc ac8a fc3d ed40 fbbc 2a07 a83d
00000300: f282 683c 4bdf 813d 817f 1bbe 9b43 523d
00000310: 6490 1dbd e376 a03b 31a7 bdbd cb52 2a3d
00000320: 792c aa3d 3f42 853d 3900 d0bc 0e92 b83c
00000330: e584 923d 4e75 60bc 42d4 48bd fa24 58bc
00000340: c7f4 5f3c 7581 a23c 4911 cb3d 367d 0abd
00000350: f302 98bc 3015 18bc 4839 83bd aa17 873c
00000360: 8aa1 95bd c4a6 28bd a5e2 833d bc76 00bd
00000370: 3dff d03c 2b7e 873c 75d6 90bb 16ed 2bbd
00000380: cdf9 fd3d 5eac 27bd b0b9 99bb 9090 5e3d
00000390: 85c7 3ebc 44c0 72bd 8eb7 92bd c813 b8bd
000003a0: 452c d63d 3b27 5a3d 7c59 72bd 686e 613c
000003b0: e499 6e3d 6e34 2abd 9997 d43d b762 833c
000003c0: 07b8 3f3d 0530 67bd d6e7 e13b f24c a1bb
000003d0: f2c5 083d d2f6 cdbd 1514 543d 19fd adbc
000003e0: 5442 b8bd 34b9 21be 0e03 723d 295f 6ebd
000003f0: 8610 c03d 1589 0f3d 87e4 233c 2ce7 aaba

network_body._body_endoder.seq_layers.0.bias f4 [128]
0.0 0.0 0.0 0.0 0.0 0.0 0.0 0.0
0.0 0.0 0.0 0.0 0.0 0.0 0.0 0.0
0.0 0.0 0.0 0.0 0.0 0.0 0.0 0.0
0.0 0.0 0.0 0.0 0.0 0.0 0.0 0.0
0.0 0.0 0.0 0.0 0.0 0.0 0.0 0.0
0.0 0.0 0.0 0.0 0.0 0.0 0.0 0.0
0.0 0.0 0.0 0.0 0.0 0.0 0.0 0.0
0.0 0.0 0.0 0.0 0.0 0.0 0.0 0.0
0.0 0.0 0.0 0.0 0.0 0.0 0.0 0.0
0.0 0.0 0.0 0.0 0.0 0.0 0.0 0.0
0.0 0.0 0.0 0.0 0.0 0.0 0.0 0.0
0.0 0.0 0.0 0.0 0.0 0.0 0.0 0.0
0.0 0.0 0.0 0.0 0.0 0.0 0.0 0.0
0.0 0.0 0.0 0.0 0.0 0.0 0.0 0.0
0.0 0.0 0.0 0.0 0.0 0.0 0.0 0.0
0.0 0.0 0.0 0.0 0.0 0.0 0.0 0.0
00000000: 0000 0000 0000 0000 0000 0000 0000 0000
00000010: 0000 0000 0000 0000 0000 0000 0000 0000
00000020: 0000 0000 0000 0000 0000 0000 0000 0000
00000030: 0000 0000 0000 0000 0000 0000 0000 0000
00000040: 0000 0000 0000 0000 0000 0000 0000 0000
00000050: 0000 0000 0000 0000 0000 0000 0000 0000
00000060: 0000 0000 0000 0000 0000 0000 0000 0000
00000070: 0000 0000 0000 0000 0000 0000 0000 0000
00000080: 0000 0000 0000 0000 0000 0000 0000 0000
00000090: 0000 0000 0000 0000 0000 0000 0000 0000
000000a0: 0000 0000 0000 0000 0000 0000 0000 0000
000000b0: 0000 0000 0000 0000 0000 0000 0000 0000
000000c0: 0000 0000 0000 0000 0000 0000 0000 0000
000000d0: 0000 0000 0000 0000 0000 0000 0000 0000
000000e0: 0000 0000 0000 0000 0000 0000 0000 0000
000000f0: 0000 0000 0000 0000 0000 0000 0000 0000
00000100: 0000 0000 0000 0000 0000 0000 0000 0000
00000110: 0000 0000 0000 0000 0000 0000 0000 0000
00000120: 0000 0000 0000 0000 0000 0000 0000 0000
00000130: 0000 0000 0000 0000 0000 0000 0000 0000
00000140: 0000 0000 0000 0000 0000 0000 0000 0000
00000150: 0000 0000 0000 0000 0000 0000 0000 0000
00000160: 0000 0000 0000 0000 0000 0000 0000 0000
00000170: 0000 0000 0000 0000 0000 0000 0000 0000
00000180: 0000 0000 0000 0000 0000 0000 0000 0000
00000190: 0000 0000 0000 0000 0000 0000 0000 0000
000001a0: 0000 0000 0000 0000 0000 0000 0000 0000
000001b0: 0000 0000 0000 0000 0000 0000 0000 0000
000001c0: 0000 0000 0000 0000 0000 0000 0000 0000
000001d0: 0000 0000 0000 0000 0000 0000 0000 0000
000001e0: 0000 0000 0000 0000 0000 0000 0000 0000
000001f0: 0000 0000 0000 0000 0000 0000 0000 0000

network_body._body_endoder.seq_layers.2.weight f4 [128, 128]
-0.034312937 -0.08633719 0.114892446 -0.00482268 -0.11415847 0.029618584 0.028185844 0.018069876
0.015741194 -0.018462848 0.022360679 -0.06927804 -0.1539466 -0.09203523 -0.052911658 -0.0047725984
0.013059738 0.10087357 -0.065245524 0.033158664 -0.06087132 -0.0054815533 0.010354364 0.25418296
-0.046704803 -0.013198237 -0.005233597 -0.011175589 0.01984603 0.01828555 0.01436871 -0.013758981
-0.34395987 -0.002295027 0.17915356 -0.09521925 -0.07636166 0.09240011 -0.0278027 0.0168659
0.024562215 -0.11151216 0.13883793 0.008402934 -0.12369336 0.014657492 -0.033602905 0.036299385
-0.06488736 0.05715786 0.0021287506 -0.043086085 0.06976969 0.062712416 0.123957105 0.014933157
0.0018652274 -0.0903869 0.043656692 0.117769286 -0.005617035 -0.088896155 0.10745149 -0.013586533
0.03680446 0.21244651 -0.15689057 0.0770787 0.01647843 -0.04057008 0.13260376 0.050251137
0.060024343 0.0181394 0.0065202564 0.08463022 -0.010032924 -0.1248057 0.09751576 0.12199509
0.011735782 -0.089010835 -0.064522006 -0.015970811 0.042969953 0.09098054 -0.009133327 0.07821697
-0.14366716 -0.022762412 0.111220464 -0.03882428 0.026438955 -0.062730126 -0.0910454 -0.121498644
-0.062198844 -0.0068840324 0.026619134 0.07122033 0.0019875346 -0.07326868 0.09468691 -0.028794834
-0.17017005 0.09160298 -0.12975518 0.12727273 0.09937324 0.030954357 0.024249777 0.14128122
-0.039388403 -0.080501735 0.078665406 -0.052637424 -0.003434993 -0.005258286 0.15075488 -0.0504662
0.077344984 -0.05485377 0.022019645 -0.012373585 -0.043690477 0.06388707 -0.18328074 -0.16691186
-0.05289787 -0.10888357 0.051460348 -0.066086814 -0.16107386 -0.086128645 0.049114406 0.10425832
0.0026664492 0.025066016 0.0933949 -0.09950656 -0.04343517 -0.06601756 0.09148388 0.22064745
0.0393771 -0.052358497 0.09195436 -0.054328457 0.027659178 -0.08425 0.011466553 -0.07285871
0.09957999 -0.054683592 -0.034988705 -0.20484224 -0.0070569944 0.05052972 0.006707651 0.14164568
0.14561825 0.08563143 0.10026109 0.15531158 0.06796573 -0.03663077 -0.021682467 -0.114654444
0.009010283 0.107863866 -0.011689876 -0.09245357 -0.13945715 -0.006038951 -0.07977912 0.041597605
0.051525712 0.0071972837 0.06686567 0.026921196 0.068875976 -0.12342691 0.08694615 -0.02508677
0.19575243 -0.09984348 0.006493622 -0.0357907 0.0851807 0.051609796 0.040082015 -0.03688461
0.05513607 0.07835791 0.119704984 -0.029622069 -0.07342487 0.056196712 0.06643028 0.14496419
-0.106309004 0.0538755 0.12189972 0.053148482 -0.024463892 0.13204402 -0.031073615 -0.08508807
-0.10120855 -0.017437562 -0.0029357388 0.09841951 0.14313762 0.07713792 -0.114256494 -0.008683725
0.07106911 -0.03524524 -0.07466723 0.031616453 -0.115529396 -0.024824835 0.0588879 0.06373033
0.0056094835 -0.07650214 -0.12952347 -0.040817276 -0.0629915 0.0045903907 -0.043012988 0.045105487
-0.029281322 -0.05914457 0.0722996 -0.013554148 0.030575829 0.051999267 0.062414568 -0.014911352
0.041628394 0.08404194 0.055943053 0.060882363 0.056888677 -0.049428713 -0.041194048 0.036133856
0.003331185 0.1838209 0.17215218 -0.09646457 0.036283683 0.13948463 0.12829559 0.07216639
00000000: b98b 0cbd 8dd1 b0bd bb4c eb3d 9207 9ebb
00000010: eacb e9bd aca2 f23c 00e6 e63c 4707 943c
00000020: adf3 803c 663f 97bc be2d b73c a5e1 8dbd
00000030: 2da4 1dbe f77c bcbd e5b9 58bd 7563 9cbb
00000040: 83f8 553c cd96 ce3d 729f 85bd 61d1 073d
00000050: 3554 79bd 9a9e b3bb 5aa5 293c 4524 823e
00000060: 894d 3fbd 6b3d 58bc 987e abbb d119 37bc
00000070: 2494 a23c 94cb 953c bd6a 6b3c 596d 61bc
00000080: 821b b0be 2a68 16bb 0874 373e 4f02 c3bd
00000090: 8163 9cbd 453c bd3d 7dc2 e3bc 5b2a 8a3c
000000a0: b336 c93c 7d60 e4bd 882b 0e3e 76ac 093c
000000b0: f252 fdbd fa25 703c 33a3 09bd aaae 143d
000000c0: aae3 84bd 5c1e 6a3d 8282 0b3b 097b 30bd
000000d0: 69e3 8e3d 5e6f 803d 39dd fd3d 33aa 743c
000000e0: a57a f43a c41c b9bd 5cd1 323d 0631 f13d
000000f0: 1b0f b8bb 300f b6bd 870f dc3d 0d9a 5ebc
00000100: 46c0 163d 948b 593e eca7 20be 70db 9d3d
00000110: c6fd 863c d02c 26bd 48c9 073e 23d4 4d3d
00000120: 16dc 753d 1499 943c e0a7 d53b 9c52 ad3d
00000130: 2261 24bc 219a ffbd 58b6 c73d 90d8 f93d
00000140: 7047 403c 504b b6bd 1d24 84bd 38d5 82bc
00000150: 4301 303d 0154 ba3d f3a3 15bc 3830 a03d
00000160: 7c1d 13be 3d78 babc 8ec7 e33d 3506 1fbd
00000170: 8296 d83c a778 80bd 0376 babd 48d4 f8bd
00000180: 37c4 7ebd 7393 e1bb 5f10 da3c f7db 913d
00000190: 4c41 023b e40d 96bd 36eb c13d 25e3 ebbc
000001a0: 0f41 2ebe 589a bb3d 8bde 04be c853 023e
000001b0: 3284 cb3d fe93 fd3c 78a7 c63c 06ac 103e
000001c0: bc55 21bd 18de a4bd 541b a13d 579a 57bd
000001d0: 9f1d 61bb b34d acbb 7d5f 1a3e a5b5 4ebd
000001e0: 0c67 9e3d 59ae 60bd 8b62 b43c 94ba 4abc
000001f0: c9f4 32bd 39d7 823d f2ad 3bbe f1ea 2abe
00000200: 70ab 58bd 59fe debd 16c8 523d 8658 87bd
00000210: 8cf0 24be 3764 b0bd 302c 493d 6385 d53d
00000220: 98bf 2e3b 3f57 cd3c d345 bf3d 18ca cbbd
00000230: 14e9 31bd 3734 87bd e75b bb3d 68f1 613e
00000240: e249 213d dd75 56bd 9152 bc3d 8487 5ebd
00000250: 8095 e23c 448b acbd 36de 3b3c f336 95bd
00000260: 98f0 cb3d e7fb 5fbd 5150 0fbd 2ac2 51be
00000270: 5c3e e7bb 40f8 4e3d dbcb db3b 910b 113e
00000280: f31c 153e 885f af3d b055 cd3d 000a 1f3e
00000290: 9e31 8b3d 250a 16bd 6e9f b1bc f3cf eabd
000002a0: de9f 133c bbe7 dc3d e586 3fbc 4c58 bdbd
000002b0: dbcd 0ebe 65e2 c5bb 3c63 a3bd 4062 2a3d
000002c0: a00c 533d 31d7 eb3b def0 883d d789 dc3c
000002d0: d90e 8d3d 3fc7 fcbd d310 b23d c582 cdbc
000002e0: 5373 483e bd7a ccbd 73c8 d43b 4599 12bd
000002f0: 3873 ae3d cb64 533d 0a2d 243d 5114 17bd
00000300: 5cd6 613d 1d7a a03d e327 f53d fba9 f2bc
00000310: c75f 96bd 862e 663d 990c 883d 7e71 143e
00000320: 89b8 d9bd 8eac 5c3d 8fa6 f93d 39b2 593d
00000330: 8068 c8bc 8c36 073e 188e febc a742 aebd
00000340: 6e46 cfbd 38d9 8ebc 8665 40bb 2b90 c93d
00000350: ab92 123e 7cfa 9d3d 4fff e9bd 2f46 0ebc
00000360: ae8c 913d 505d 10bd 22eb 98bd 4180 013d
00000370: ad9a ecbd 745d cbbc 7034 713d 0c85 823d
00000380: c2cf b73b 27ad 9cbd cda1 04be 0430 27bd
00000390: b001 81bd fd6a 963b 632e 30bd 88c0 383d
000003a0: 62df efbc 9441 72bd d011 943d 3812 5ebc
000003b0: 297a fa3c 2ffd 543d 6ba6 7f3d be4e 74bc
000003c0: 8982 2a3d 2e1e ac3d 8b24 653d c95f 793d
000003d0: 1a04 693d c375 4abd 17bb 28bd 1801 143d
000003e0: 0350 5a3b 8c3b 3c3e a948 303e 378f c5bd
000003f0: 339e 143d 0fd5 0e3e eb5f 033e f9cb 933d

network_body._body_endoder.seq_layers.2.bias f4 [128]
0.0 0.0 0.0 0.0 0.0 0.0 0.0 0.0
0.0 0.0 0.0 0.0 0.0 0.0 0.0 0.0
0.0 0.0 0.0 0.0 0.0 0.0 0.0 0.0
0.0 0.0 0.0 0.0 0.0 0.0 0.0 0.0
0.0 0.0 0.0 0.0 0.0 0.0 0.0 0.0
0.0 0.0 0.0 0.0 0.0 0.0 0.0 0.0
0.0 0.0 0.0 0.0 0.0 0.0 0.0 0.0
0.0 0.0 0.0 0.0 0.0 0.0 0.0 0.0
0.0 0.0 0.0 0.0 0.0 0.0 0.0 0.0
0.0 0.0 0.0 0.0 0.0 0.0 0.0 0.0
0.0 0.0 0.0 0.0 0.0 0.0 0.0 0.0
0.0 0.0 0.0 0.0 0.0 0.0 0.0 0.0
0.0 0.0 0.0 0.0 0.0 0.0 0.0 0.0
0.0 0.0 0.0 0.0 0.0 0.0 0.0 0.0
0.0 0.0 0.0 0.0 0.0 0.0 0.0 0.0
0.0 0.0 0.0 0.0 0.0 0.0 0.0 0.0
00000000: 0000 0000 0000 0000 0000 0000 0000 0000
00000010: 0000 0000 0000 0000 0000 0000 0000 0000
00000020: 0000 0000 0000 0000 0000 0000 0000 0000
00000030: 0000 0000 0000 0000 0000 0000 0000 0000
00000040: 0000 0000 0000 0000 0000 0000 0000 0000
00000050: 0000 0000 0000 0000 0000 0000 0000 0000
00000060: 0000 0000 0000 0000 0000 0000 0000 0000
00000070: 0000 0000 0000 0000 0000 0000 0000 0000
00000080: 0000 0000 0000 0000 0000 0000 0000 0000
00000090: 0000 0000 0000 0000 0000 0000 0000 0000
000000a0: 0000 0000 0000 0000 0000 0000 0000 0000
000000b0: 0000 0000 0000 0000 0000 0000 0000 0000
000000c0: 0000 0000 0000 0000 0000 0000 0000 0000
000000d0: 0000 0000 0000 0000 0000 0000 0000 0000
000000e0: 0000 0000 0000 0000 0000 0000 0000 0000
000000f0: 0000 0000 0000 0000 0000 0000 0000 0000
00000100: 0000 0000 0000 0000 0000 0000 0000 0000
00000110: 0000 0000 0000 0000 0000 0000 0000 0000
00000120: 0000 0000 0000 0000 0000 0000 0000 0000
00000130: 0000 0000 0000 0000 0000 0000 0000 0000
00000140: 0000 0000 0000 0000 0000 0000 0000 0000
00000150: 0000 0000 0000 0000 0000 0000 0000 0000
00000160: 0000 0000 0000 0000 0000 0000 0000 0000
00000170: 0000 0000 0000 0000 0000 0000 0000 0000
00000180: 0000 0000 0000 0000 0000 0000 0000 0000
00000190: 0000 0000 0000 0000 0000 0000 0000 0000
000001a0: 0000 0000 0000 0000 0000 0000 0000 0000
000001b0: 0000 0000 0000 0000 0000 0000 0000 0000
000001c0: 0000 0000 0000 0000 0000 0000 0000 0000
000001d0: 0000 0000 0000 0000 0000 0000 0000 0000
000001e0: 0000 0000 0000 0000 0000 0000 0000 0000
000001f0: 0000 0000 0000 0000 0000 0000 0000 0000

action_model._discrete_distribution.branches.0.weight f4 [7, 128]
0.011836334 -0.0039882897 -0.011661886 -0.014883734 0.018748878 0.0058972808 0.00026992476 -0.011057176
-0.00657072 -0.013333148 0.0031171318 -0.016083768 -0.0029540195 0.0026302775 -0.011184691 0.0022057507
-0.0016879367 0.006376818 -0.00071922754 0.008361488 0.011224762 -2.4607578e-05 0.007032958 0.0008797007
0.00029403673 -0.0033823315 -0.0012901062 0.01910037 0.006082537 -0.0014103919 0.0035068884 0.00071466074
-0.0002644102 -0.004081109 0.016256737 -0.0026977684 0.0026883262 0.016550977 -0.009915511 0.005488055
0.008386268 -0.0006365869 -0.029452879 -0.009210571 -0.00430283 0.013051579 -0.0065034702 -0.0031105643
0.0007202095 0.0042226366 0.0037641847 -0.009665742 0.008548909 0.0072656074 0.002743881 0.0026527524
-0.0042191246 -0.00266262 -0.011134242 -0.0072694826 -0.010824494 -0.012154759 -0.0062937955 -0.0007069712
0.0016256378 0.0062700952 -0.007556399 -0.022314636 0.0023217879 0.015960252 -0.0066067367 -0.01382785
0.0031480666 -0.0049423194 0.002128665 0.0072271237 0.0013057744 0.013905208 -0.013193932 0.0012038773
-0.000682275 0.005863308 0.011796015 0.0035914897 0.0011624134 -0.00410182 -0.0020862257 -0.0065624663
-0.002569244 -0.025224274 -0.010921269 -0.0085912375 0.00065703486 0.006879188 -0.0058655646 0.008271475
0.010571337 -0.010853364 -0.021804417 0.010741094 -0.0070589334 -0.011422168 -0.010240588 0.0067305104
-0.0066878535 0.0011112456 -0.003948256 -0.014941319 0.015921496 0.012087857 -0.003407418 -0.014761293
0.0105272075 0.0046894657 -0.0019086447 -0.009335013 0.009420409 0.0065431013 0.005636658 0.0023105587
0.014164743 -0.010837289 0.017556502 -0.008749331 -0.0024620795 0.012175834 0.005025178 -0.013508367
-0.003224792 0.004056938 -0.0015146437 0.007853699 0.01022498 -0.021092862 0.0031679117 -0.0077890716
-0.018775946 0.008486376 -0.007282097 0.009377731 -0.003825562 -0.0051197284 0.015096798 -0.013481396
-0.008859119 -0.0058748266 -0.0045290603 0.0030636587 0.0020167208 0.007868081 0.013662082 -0.0037921127
0.034044467 -0.00073195755 -0.016253524 0.0056647477 0.011858375 1.4928463e-05 -9.373159e-05 0.0012371371
-0.0047828816 -0.013028301 0.010200529 0.0037838314 -0.0046577565 -0.00085121917 0.0018484064 -0.014981505
0.008949426 -0.0033757004 0.009285842 0.007451152 -0.010189569 0.0026975283 0.0014036021 -0.005302061
0.010490308 -0.015916808 -0.0076372284 0.0035094216 -0.007174334 0.00955777 -0.002482156 -0.00092407886
0.016040184 0.01570966 0.0071970294 0.0042553577 0.00466053 0.0008512397 -0.01171045 0.0115677975
-0.0026311213 -0.015120073 -0.0041087195 0.00061703124 -0.0025575918 -0.0072288807 0.008960181 -0.00022990858
-0.006798662 -0.005654627 0.0043031587 -0.0008167405 -0.0021190238 -0.012944902 -0.0031637095 -0.011286322
-0.001694024 0.023407364 0.00996589 -0.0007666896 -0.004759195 -0.0011186671 0.024532195 -0.011907171
-0.0076309443 -0.0013730589 -0.008449266 0.008748782 0.01000855 -0.002562154 -0.0019731673 -0.017308863
-0.0036747989 0.015267222 0.015982103 -0.01867777 0.006713071 -0.004138823 0.006365669 -0.0054139025
-0.0033749875 0.001445928 -0.0023751745 0.011087329 0.003156963 0.0016139637 0.014925616 -0.012052427
-0.0027903034 0.010216392 0.0075997883 -0.0016320391 0.0016757073 -0.008484292 -0.00919384 -0.0023050664
-0.00046243076 -0.008982833 -0.005511088 -0.01498683 0.011755804 -0.014852735 0.0167976 -0.01067689
00000000: 2fed 413c 33b0 82bb 7f11 3fbc e8da 73bc
00000010: 3f97 993c fa3d c13b b084 8d39 2829 35bc
00000020: 324f d7bb 4773 5abc cb48 4c3b 1bc2 83bc
00000030: 3998 41bb bc60 2c3b ff3f 37bc 5b8e 103b
00000040: c23d ddba a0f4 d03b 8b8a 3cba 9ffe 083c
00000050: 10e8 373c 5f6c ceb7 ba74 e63b b79b 663a
00000060: f128 9a39 1baa 5dbb c818 a9ba 6178 9c3c
00000070: 0550 c73b e6dc b8ba d3d3 653b 1258 3b3a
00000080: 89a0 8ab9 d3ba 85bb d92c 853c 0bcd 30bb
00000090: a12e 303b ea95 873c ab74 22bc 24d5 b33b
000000a0: 8f66 093c a0e0 26ba 2a47 f1bc efe7 16bc
000000b0: c1fe 8cbb 4ad6 553c 101b d5bb 9cda 4bbb
000000c0: 71cc 3c3a 0b5e 8a3b 8ab0 763b 0f5d 1ebc
000000d0: b910 0c3c 5514 ee3b afd2 333b cdd9 2d3b
000000e0: 9540 8abb 5a7f 2ebb 656c 36bc d734 eebb
000000f0: 3859 31bc c124 47bc 2f3c cebb 0954 39ba
00000100: 5a13 d53a 5f75 cd3b ab9b f7bb 2fcd b6bc
00000110: 2329 183b 13bf 823c 537d d8bb 358e 62bc
00000120: cb4f 4e3b 2ef3 a1bb 1381 0b3b 82d1 ec3b
00000130: 8526 ab3a abd2 633c 5d2b 58bc 6bcb 9d3a
00000140: b3da 32ba fe20 c03b 1344 413c 335f 6b3b
00000150: 1f5c 983a 8f68 86bb 0fb9 08bb f509 d7bb
00000160: c360 28bb 23a3 cebc 1fef 32bc 43c2 0cbc
00000170: dd3c 2c3a d06a e13b ec33 c0bb 1585 073c
00000180: 6733 2d3c 4fd2 31bc 2d9f b2bc 6afb 2f3c
00000190: a04e e7bb 0c24 3bbc 24c8 27bc 9d8b dc3b
000001a0: c825 dbbb 37a7 913a 5f60 81bb 6fcc 74bc
000001b0: cc6d 823c 260c 463c fd4e 5fbb 5ad9 71bc
000001c0: 4f7a 2c3c 17aa 993b 7d2b faba e2f1 18bc
000001d0: 0f58 1a3c 8367 d63b b7b3 b83b be6c 173b
000001e0: 3d13 683c e28e 31bc a7d2 8f3c 5b59 0fbc
000001f0: d75a 21bb 267d 473c 40aa a43b 3352 5dbc
00000200: 0857 53bb 10f0 843b 0287 c6ba cdac 003c
00000210: ad86 273c f0ca acbc bd9c 4f3b 783b ffbb
00000220: 03d0 99bc 710a 0b3c a89e eebb 0ea5 193c
00000230: 48b6 7abb 65c3 a7bb 8f58 773c 13e1 5cbc
00000240: d725 11bc 9e81 c0bb 8368 94bb aac7 483b
00000250: f62a 043b 20e9 003c edd6 5f3c 1885 78bb
00000260: 3672 0b3d d7e0 3fba 1c26 85bc 599f b93b
00000270: a149 423c 4375 7a37 c491 c4b8 6f27 a23a
00000280: b8b9 9cbb a874 55bc 1f20 273c 28fa 773b
00000290: 18a0 98bb 5a24 5fba 3a46 f23a fd74 75bc
000002a0: 9da0 123c db3a 5dbb a523 183c cb28 f43b
000002b0: 26f2 26bc 04c9 303b 12f9 b73a e9bc adbb
000002c0: 8adf 2b3c f763 82bc b741 fabb 53fe 653b
000002d0: ad16 ebbb 3198 1c3c abab 22bb e23d 72ba
000002e0: b466 833c 8bb1 803c 0fd5 eb3b 8770 8b3b
000002f0: 5cb7 983b bb25 5f3a 30dd 3fbc dc86 3d3c
00000300: e46e 2cbb 2fba 77bc 70a2 86bb 44c0 213a
00000310: 459d 27bb 3fe0 ecbb b9cd 123c 9d13 71b9
00000320: 4fc7 debb 734a b9bb 8301 8d3b 871a 56ba
00000330: 52df 0abb db16 54bc 3d56 4fbb 44ea 38bc
00000340: 030a deba cdc0 bf3c f947 233c abfb 48ba
00000350: 05f3 9bbb 3da0 92ba bef7 c83c 4c16 43bc
00000360: 000d fabb 36f8 b3ba ca6e 0abc 0d57 0f3c
00000370: e7fa 233c d0e9 27bb 4150 01bb 51cb 8dbc
00000380: e5d4 70bb 5f23 7a3c e6ec 823c 1f02 99bc
00000390: 52f9 db3b f79e 87bb 1a97 d03b 1b67 b1bb
000003a0: e52e 5dbb 4b85 bd3a d1a8 1bbb a1a7 353c
000003b0: 0de5 4e3b a38b d33a 928a 743c 8b77 45bc
000003c0: 86dd 36bb a762 273c a507 f93b 25ea d5ba
000003d0: 68a3 db3a b301 0bbc c3a1 16bc 9910 17bb
000003e0: 6872 f2b9 bb2c 13bc 5b96 b4bb 528b 75bc
000003f0: 6a9b 403c e358 73bc 1f9b 893c 1fee 2ebc

action_model._discrete_distribution.branches.0.bias f4 [7]
0.0 0.0 0.0 0.0 0.0 0.0 0.0
00000000: 0000 0000 0000 0000 0000 0000 0000 0000
00000010: 0000 0000 0000 0000 0000 0000
