Assets/Hide and Seek/Brain/3_SeekerBehavior.onnx (onnx, 215212 bytes, 6 tensors)

network_body._body_endoder.seq_layers.0.weight f4 [128, 280]
0	0x3ca87d2c	0.0205675
1	0x3de09f18	0.10967845
2	0xbdcf83bd	-0.10132549
3	0xbbfe967f	-0.0077694054
4	0x3d183a53	0.037164997
5	0x3cd853ba	0.026407111
6	0xbde75f61	-0.11297489
7	0xbd5b024a	-0.05346898
8	0x3c0c6103	0.008568051
9	0xbd6ff0e0	-0.058579326
10	0x3b51d4f6	0.0032017804
11	0xbd9c9bfc	-0.07646939
12	0xbcc018c2	-0.023449305
13	0x3d504497	0.050846662
14	0xbce5985b	-0.02802675
15	0xbd9eb10a	-0.07748611
16	0x3c034f78	0.008014552
17	0xbd0d6d1f	-0.034527894
18	0xbd703783	-0.05864669
19	0xbc948758	-0.018130943
20	0xbcc2530f	-0.023721246
21	0x3df1dfc0	0.11810255
22	0xbe0bb665	-0.13643797
23	0xbd8dcba8	-0.0692361
24	0xbcf390ef	-0.029732196
25	0x3c45f383	0.0120819835
26	0xba9e14fd	-0.0012060698
27	0xbd858423	-0.06519344
28	0x3d51294f	0.051064786
29	0xbc18726d	-0.009304625
30	0x3ba00a60	0.0048840493
31	0xbd571820	-0.05251324
32	0x3e11d6b2	0.14242056
33	0x3cccf58e	0.025019433
34	0x3d9ec946	0.077532336
35	0x3c1e5521	0.009663851
36	0x3d9995d9	0.07499284
37	0x3df985c7	0.12183719
38	0xbc17cccf	-0.009265139
39	0x3c1512b4	0.009098697
40	0x3c8ac8fd	0.016941542
41	0x3d99e339	0.075140424
42	0xbdf5edc7	-0.12008243
43	0x3d8647f7	0.06556695
44	0xbce6a82f	-0.028156368
45	0x3cc5b608	0.02413465
46	0x3d79f9ab	0.061029118
47	0xbb118037	-0.0022201666
48	0xbdc3d7c2	-0.09562637
49	0x3cdf1d32	0.027235601
50	0x3d2ff9ce	0.04296284
51	0xbc2fab84	-0.010722045
52	0x3d8f06ed	0.06983743
53	0x3d10e486	0.035374187
54	0x3cf0e756	0.029407185
55	0x3dc3f8a1	0.095689066
56	0x3c88bf45	0.016692767
57	0x3db55943	0.08854916
58	0xbced4a9f	-0.028966246
59	0xbce52657	-0.027972383
60	0x3d86a7a7	0.06574946
61	0x3e10c488	0.1413747
62	0xbdf96711	-0.121778615
63	0x3d71cedb	0.059035163
64	0x3d031471	0.032001916
65	0x3db85ead	0.09002433
66	0x3d544a97	0.051828947
67	0x3d0ec2e3	0.034853827
68	0x3d9596ff	0.07304191
69	0x3d7e59d2	0.062097378
70	0xbdd78f4e	-0.1052538
71	0xbba70ab1	-0.00509771
72	0x3d8b8a4f	0.0681349
73	0x3c81e62d	0.015856827
74	0xbd812465	-0.0630577
75	0x3c81a0e5	0.01582379
76	0xbd8ae54d	-0.06782017
77	0xbd937d58	-0.07201642
78	0xbce517ba	-0.027965415
79	0xbbedb5bb	-0.00725433
80	0xbd8f6c5a	-0.07003088
81	0xbdd0fb24	-0.10204151
82	0x3cd260a1	0.025680842
83	0xbd43fb65	-0.04784717
84	0xbe38590f	-0.18002723
85	0xbc13d752	-0.009023504
86	0xbd644e64	-0.05573882
87	0xbc7e5c9c	-0.0155250095
88	0xbce0d2f3	-0.027444338
89	0x395a6a74	0.00020829757
90	0xbd95e4e9	-0.07319052
91	0x3bb9c967	0.005669761
92	0xbd07099a	-0.03296814
93	0xbd132a19	-0.03592882
94	0xbb4c293c	-0.0031152507
95	0xbe0cfb73	-0.13767795
96	0xbd092d22	-0.033490308
97	0x39c60773	0.00037771053
98	0xbd591409	-0.052997623
99	0xbdba01f5	-0.090824045
100	0xbd9484f2	-0.0725192
101	0x3d5aefd2	0.053451367
102	0x3d8d0d52	0.06887306
103	0x3d8e2e4f	0.069424264
104	0xbcb849c2	-0.022496108
105	0xbd231a08	-0.039819747
106	0x3d255ee0	0.040373683
107	0xbd37dc0d	-0.04488759
108	0x3cafc796	0.021457475
109	0xbb49b340	-0.0030777007
110	0x3d7f7fc8	0.06237772
111	0x3cc5f1c3	0.024163133
112	0xbbaebeb1	-0.005332791
113	0xbb47b5d2	-0.0030473364
114	0x3cebfd4d	0.028807307
115	0xbe2d1e9a	-0.16906205
116	0xbdedae72	-0.116055384
117	0xbd16357c	-0.0366721
118	0x3db6c0a0	0.08923459
119	0x3dae1237	0.08499568
120	0x3db14a63	0.08656766
121	0x3c9bf21c	0.019036345
122	0x3d692353	0.056918453
123	0x3ce26167	0.027634336
124	0xbad3a808	-0.00161481
125	0xbbe24d1c	-0.006906165
126	0x3e16b7a7	0.14718495
127	0xbb41cd87	-0.0029571967
128	0x3df41190	0.11917412
129	0xbb2265e0	-0.002477996
130	0x3d392ee0	0.04521072
131	0x3d82f780	0.06394863
132	0xbd8105af	-0.06299912
133	0x3d87c00e	0.066284284
134	0x3dc46ace	0.09590684
135	0xbd8caa2f	-0.068683974
136	0xbb1e8369	-0.0024187213
137	0xbd8c16a2	-0.06840254
138	0x3e4c0b43	0.19926171
139	0x3d4afab2	0.049555488
140	0x3bfef812	0.007781037
141	0x3c414fa6	0.011798775
142	0xbd4f9f23	-0.050688874
143	0xbd259409	-0.04042438
144	0xbce77370	-0.028253287
145	0xbd322ef1	-0.043501798
146	0x3d75b30e	0.059985213
147	0x3c986db6	0.018607002
148	0xbd55aec6	-0.05216863
149	0x3d006f5d	0.031356204
150	0x3d2829d1	0.041055504
151	0x3d232277	0.03982779
152	0xbd22fa36	-0.0397894
153	0x3da805a5	0.082042016
154	0x3c4228fd	0.011850593
155	0xbce31012	-0.027717624
156	0xbd1eabe4	-0.038738146
157	0x3c949d2c	0.018141352
158	0xbdf71bb2	-0.12065829
159	0xbd38068f	-0.04492813
160	0x3cc128cb	0.023579022
161	0xba5d36af	-0.00084386294
162	0x3cb64114	0.022247829
163	0x3c0eef75	0.008724083
164	0xbd4cc20a	-0.049989738
165	0xbd3099b7	-0.043115344
166	0xba711fe5	-0.0009198173
167	0xbd9cbe56	-0.07653491
168	0xbc3d2d6b	-0.011546473
169	0x374c4716	1.21758985e-05
170	0x3d34c8b2	0.04413671
171	0xbd03a889	-0.03214315
172	0x3de8b042	0.113617435
173	0x3beac8d4	0.007165054
174	0x3d31feae	0.043455772
175	0x3d390a83	0.04517604
176	0xbcad8fff	-0.021186827
177	0xbb9115ff	-0.004427671
178	0xbd69531a	-0.056964017
179	0xbd85f41d	-0.065407015
180	0x3d42e32e	0.047579937
181	0x3d320965	0.04346599
182	0xbc6fb980	-0.014631629
183	0xbca39162	-0.019966785
184	0xbcb198d6	-0.021679323
185	0xbc67a790	-0.014139071
186	0x3d35cee4	0.04438676
187	0x3bb4df8e	0.005519814
188	0xbcb10757	-0.021609945
189	0xbd380775	-0.044928987
190	0xbc670ab7	-0.014101676
191	0x3d1b05aa	0.0378472
192	0xbdb0a4f4	-0.08625212
193	0xbd149206	-0.03627207
194	0xbd8d61c8	-0.06903416
195	0xbc1dc712	-0.009629982
196	0xbd7fe33b	-0.062472563
197	0x3d03661b	0.032079797
198	0x3db70069	0.08935625
199	0xbc07b5dc	-0.008283105
200	0x3cb138e5	0.021633575
201	0xbdf75b92	-0.120780125
202	0xbd6a8281	-0.057253364
203	0xbb9bbd4d	-0.004752791
204	0xbd7d818d	-0.061891127
205	0xbde12d7d	-0.10995004
206	0xbd43ae0a	-0.0477734
207	0x3cde701c	0.027153067
208	0x3b81ee1e	0.0039651534
209	0xbd03634b	-0.032077115
210	0xbd3484c5	-0.04407193
211	0xbd3a7a74	-0.045526937
212	0xbd977952	-0.07396187
213	0xbc8a085a	-0.016849685
214	0x3db5a1ed	0.088687755
215	0x3c7bb8f2	0.015363919
216	0x3d2e12d6	0.042498432
217	0x3d31f738	0.043448657
218	0x3d5211bd	0.051286448
219	0x3c4b78cf	0.01241894
220	0x3ba617d1	0.005068757
221	0xbd1547df	-0.036445495
222	0xbd9845ce	-0.07435189
223	0xbcabcda8	-0.020972088
224	0xbd83b3d1	-0.06430782
225	0xbcffc6b8	-0.031222686
226	0xbca0d522	-0.01963288
227	0x3d039512	0.032124586
228	0x3cf3006b	0.029663285
229	0x3d767b98	0.060176462
230	0xbcbf46cd	-0.02334919
231	0x3cd873ba	0.02642237
232	0x3dff3e52	0.124630585
233	0x3c227518	0.009915613
234	0x3dc1ea51	0.094685204
235	0xbd951e42	-0.07281162
236	0x3d1b23d5	0.03787597
237	0x3d0eff05	0.034911174
238	0xbe1d27cc	-0.15347213
239	0xbdb86833	-0.090042494
240	0x3d450cff	0.048108097
241	0x3d194551	0.03741962
242	0xbcf10b49	-0.029424326
243	0x3e3136f9	0.17306127
244	0xbc92987c	-0.017894976
245	0xbdfa5940	-0.12224054
246	0x3ccbe71d	0.024890477
247	0xbd814c8b	-0.063134275
248	0xbd615cd2	-0.05502016
249	0x3bb580cd	0.005539036
250	0x3c912c5a	0.017721344
251	0xbd1fa3a5	-0.038974423
252	0xbd5c5c8a	-0.05379919
253	0xbcc9a0d1	-0.024612816
254	0xbded8a3f	-0.11598634
255	0xbc52cfd1	-0.01286693

network_body._body_endoder.seq_layers.0.bias f4 [128]
0	0x00000000	0.0
1	0x00000000	0.0
2	0x00000000	0.0
3	0x00000000	0.0
4	0x00000000	0.0
5	0x00000000	0.0
6	0x00000000	0.0
7	0x00000000	0.0
8	0x00000000	0.0
9	0x00000000	0.0
10	0x00000000	0.0
11	0x00000000	0.0
12	0x00000000	0.0
13	0x00000000	0.0
14	0x00000000	0.0
15	0x00000000	0.0
16	0x00000000	0.0
17	0x00000000	0.0
18	0x00000000	0.0
19	0x00000000	0.0
20	0x00000000	0.0
21	0x00000000	0.0
22	0x00000000	0.0
23	0x00000000	0.0
24	0x00000000	0.0
25	0x00000000	0.0
26	0x00000000	0.0
27	0x00000000	0.0
28	0x00000000	0.0
29	0x00000000	0.0
30	0x00000000	0.0
31	0x00000000	0.0
32	0x00000000	0.0
33	0x00000000	0.0
34	0x00000000	0.0
35	0x00000000	0.0
36	0x00000000	0.0
37	0x00000000	0.0
38	0x00000000	0.0
39	0x00000000	0.0
40	0x00000000	0.0
41	0x00000000	0.0
42	0x00000000	0.0
43	0x00000000	0.0
44	0x00000000	0.0
45	0x00000000	0.0
46	0x00000000	0.0
47	0x00000000	0.0
48	0x00000000	0.0
49	0x00000000	0.0
50	0x00000000	0.0
51	0x00000000	0.0
52	0x00000000	0.0
53	0x00000000	0.0
54	0x00000000	0.0
55	0x00000000	0.0
56	0x00000000	0.0
57	0x00000000	0.0
58	0x00000000	0.0
59	0x00000000	0.0
60	0x00000000	0.0
61	0x00000000	0.0
62	0x00000000	0.0
63	0x00000000	0.0
64	0x00000000	0.0
65	0x00000000	0.0
66	0x00000000	0.0
67	0x00000000	0.0
68	0x00000000	0.0
69	0x00000000	0.0
70	0x00000000	0.0
71	0x00000000	0.0
72	0x00000000	0.0
73	0x00000000	0.0
74	0x00000000	0.0
75	0x00000000	0.0
76	0x00000000	0.0
77	0x00000000	0.0
78	0x00000000	0.0
79	0x00000000	0.0
80	0x00000000	0.0
81	0x00000000	0.0
82	0x00000000	0.0
83	0x00000000	0.0
84	0x00000000	0.0
85	0x00000000	0.0
86	0x00000000	0.0
87	0x00000000	0.0
88	0x00000000	0.0
89	0x00000000	0.0
90	0x00000000	0.0
91	0x00000000	0.0
92	0x00000000	0.0
93	0x00000000	0.0
94	0x00000000	0.0
95	0x00000000	0.0
96	0x00000000	0.0
97	0x00000000	0.0
98	0x00000000	0.0
99	0x00000000	0.0
100	0x00000000	0.0
101	0x00000000	0.0
102	0x00000000	0.0
103	0x00000000	0.0
104	0x00000000	0.0
105	0x00000000	0.0
106	0x00000000	0.0
107	0x00000000	0.0
108	0x00000000	0.0
109	0x00000000	0.0
110	0x00000000	0.0
111	0x00000000	0.0
112	0x00000000	0.0
113	0x00000000	0.0
114	0x00000000	0.0
115	0x00000000	0.0
116	0x00000000	0.0
117	0x00000000	0.0
118	0x00000000	0.0
119	0x00000000	0.0
120	0x00000000	0.0
121	0x00000000	0.0
122	0x00000000	0.0
123	0x00000000	0.0
124	0x00000000	0.0
125	0x00000000	0.0
126	0x00000000	0.0
127	0x00000000	0.0

network_body._body_endoder.seq_layers.2.weight f4 [128, 128]
0	0x3da47b6c	0.08031353
1	0x3dbfeea7	0.09371691
2	0xbe8807fd	-0.26568595
3	0xbd52416c	-0.051331922
4	0x3e3e17fc	0.18563837
5	0x3deae4b8	0.11469406
6	0xbd8343ab	-0.06409391
7	0x3d9f91ff	0.077915184
8	0xbe070509	-0.13185515
9	0x3c9ef94c	0.019405983
10	0xbd6dce53	-0.058058094
11	0xbd02dd1a	-0.03194914
12	0x3d2ba995	0.041909773
13	0xbe300cb2	-0.17192343
14	0xbbec0ef9	-0.0072039333
15	0xbd5154de	-0.051106326
16	0xbd05d5df	-0.032674666
17	0x3e0a7ed8	0.1352495
18	0x3db521d3	0.08844342
19	0x3e2c2ee0	0.16814756
20	0xbcddc7c3	-0.027072793
21	0xbe0424f1	-0.12904717
22	0xbe016779	-0.12637128
23	0xbd02212b	-0.031769913
24	0x3db2f1a0	0.087374926
25	0xbd5ce9e1	-0.05393398
26	0x3dd42335	0.10358278
27	0x3dcc69d4	0.099811226
28	0xbb58eaf9	-0.003309904
29	0x3ddf8261	0.1091354
30	0xbca35ffb	-0.019943228
31	0xbd7661d4	-0.06015189
32	0x3d47e205	0.048799533
33	0x3d64969f	0.055807706
34	0xbd49e3df	-0.04928958
35	0xbd4a258f	-0.049352225
36	0xbd160158	-0.036622375
37	0xbddd4d12	-0.108057156
38	0xbdf1ddee	-0.11809908
39	0x3d78c53d	0.060734976
40	0xbe0768f6	-0.13223633
41	0xbd66b48a	-0.05632452
42	0xbe36aaa4	-0.17838532
43	0x3bf35852	0.0074263
44	0xbd1a6d39	-0.03770182
45	0xbcb49058	-0.022041485
46	0x3e4348d3	0.19070749
47	0x3c85838c	0.016298078
48	0x3dd4b464	0.10385969
49	0xbdcd8a8a	-0.1003619
50	0x3e163610	0.1466906
51	0xbd860cba	-0.06545396
52	0x3d125621	0.03572667
53	0x3c5dced8	0.013538085
54	0xbd4529b1	-0.048135463
55	0x3d91f0bc	0.071259946
56	0x3e1a7250	0.1508267
57	0xbc12e9f1	-0.008966909
58	0x3df5e919	0.120073505
59	0x3c8e733f	0.017388938
60	0xbd3cfeef	-0.04614156
61	0xbe036919	-0.1283306
62	0x3d007779	0.031363938
63	0xbd82875d	-0.06373475
64	0x3d306588	0.043065578
65	0x3d2bb0c0	0.04191661
66	0x3d6c465c	0.057684287
67	0x3d05a122	0.03262437
68	0xbca7cd3a	-0.020483602
69	0x3d3b623c	0.04574798
70	0xbd26d9ac	-0.04073493
71	0xbcb5c67b	-0.02218937
72	0x3cc31893	0.023815429
73	0x3cd0958a	0.02546193
74	0x3daee4f0	0.0853976
75	0x3e4071fb	0.1879348
76	0x3c88c97d	0.01669764
77	0x3d974c7c	0.07387635
78	0x3e1a2ed9	0.15056933
79	0xbca1d816	-0.019756358
80	0xbc1a3a59	-0.009413325
81	0xbd7967ae	-0.060889892
82	0x3d0b9ad9	0.03408322
83	0x3de18656	0.11011951
84	0x3a29cc4e	0.0006477282
85	0x3cb0923f	0.02155411
86	0xbd001c1d	-0.03127681
87	0x3d43f07b	0.047836762
88	0x3d18103b	0.037124854
89	0x3c2f149f	0.010686069
90	0xbcf66029	-0.03007515
91	0xbd4b9b96	-0.049708925
92	0xbdbaa353	-0.09113183
93	0xbe318dbd	-0.17339225
94	0xbe2b8292	-0.16749027
95	0x3d870aab	0.06593832
96	0xbd86f6e4	-0.065900594
97	0x3b9e2053	0.0048256307
98	0xbd854925	-0.06508092
99	0x3d0d0e98	0.034437746
100	0x3bb35eea	0.005473961
101	0x3db72a29	0.08943588
102	0xbe4e9e66	-0.20177612
103	0x3b6328d0	0.0034661777
104	0xbd0d597a	-0.03450916
105	0xbc701f03	-0.014655831
106	0x3e0d1036	0.13775715
107	0xbd0a3a43	-0.03374697
108	0x3da02d2e	0.07821117
109	0x3cad5905	0.021160612
110	0xbdbb021b	-0.09131261
111	0xbbc887f2	-0.0061197216
112	0x3e1f92b4	0.15583307
113	0x3d68aea6	0.056807183
114	0x3cabbb7b	0.020963421
115	0xbdc09c05	-0.09404758
116	0xbd013288	-0.03154233
117	0x3def2769	0.11677439
118	0xbdb1943d	-0.08670852
119	0x3e41b4d3	0.18916635
120	0xbe135f7d	-0.14391895
121	0xbdf585a8	-0.119883835
122	0x3e15ca12	0.14627865
123	0xbe046879	-0.12930478
124	0xbe0d8c3d	-0.13823028
125	0x3e07e971	0.13272645
126	0xbcc45931	-0.023968311
127	0xbda6c2b7	-0.08142608
128	0x3df5e8b2	0.12007274
129	0xbde60a26	-0.112324044
130	0xbd5c8fe9	-0.05384818
131	0xbccdfe2d	-0.025145615
132	0xbd906769	-0.07050974
133	0xbd3f916c	-0.046769544
134	0xbdaaa0ea	-0.08331473
135	0x3d69fadc	0.057124004
136	0x3d0c7caf	0.034298595
137	0x3d333ddd	0.04376017
138	0x3dbac5d9	0.09119768
139	0xbdae52d9	-0.08511896
140	0x3da796b8	0.08183044
141	0xbd8e8197	-0.06958311
142	0x3b21cf01	0.0024690034
143	0xbd2cd9b3	-0.0421998
144	0xbd7ff585	-0.062490005
145	0xbd1b4f1c	-0.03791724
146	0x3d1ec474	0.03876157
147	0xbcb1f364	-0.021722503
148	0xbdd2dd74	-0.10296145
149	0xbd3ab1bf	-0.045579668
150	0x3dfffa0f	0.12498867
151	0xbcb285e9	-0.021792369
152	0xbd08dfa1	-0.033416394
153	0x3e001317	0.12507282
154	0x3e01cea4	0.12676483
155	0x3e12f453	0.14351015
156	0x3d77f900	0.0605402
157	0x3dada7ad	0.08479247
158	0x3c79d121	0.015247614
159	0xbd976a31	-0.07393301
160	0x3d11f447	0.03563335
161	0xbb13bb2a	-0.0022541978
162	0xbe528eb3	-0.20562248
163	0xbda62e9c	-0.08114359
164	0xbd552474	-0.052036718
165	0x3de45361	0.11148716
166	0xbd8276b7	-0.06370299
167	0x3bda6101	0.006664396
168	0x3d5d2b82	0.05399657
169	0xbdeffc30	-0.11718023
170	0x3e57c7f4	0.2107237
171	0xbdcdac15	-0.10042588
172	0x3d3e55ed	0.046468664
173	0x3d999565	0.07499198
174	0x3dd27a29	0.102772065
175	0x3c7a1cae	0.015265627
176	0x3cc52912	0.024067435
177	0x3d407a25	0.046991486
178	0x3d11eef9	0.035628293
179	0x3da3a647	0.07990699
180	0xbde2d130	-0.110750556
181	0xbd41d852	-0.04732544
182	0xbd529e3d	-0.05142044
183	0xbb519ee1	-0.0031985568
184	0xbc914158	-0.017731354
185	0xbdf6c9cc	-0.120502084
186	0xbde1e810	-0.110305905
187	0xbe21f835	-0.1581734
188	0xbd7d4f47	-0.061843183
189	0xbe078023	-0.13232474
190	0x3c73f0f7	0.014888993
191	0xbe52eb59	-0.2059759
192	0xbda90146	-0.08252196
193	0x3d4b6e20	0.04966557
194	0xba48b6cc	-0.00076566334
195	0x3e074c59	0.13212718
196	0xbdc29ee2	-0.09502961
197	0x3e746003	0.2386475
198	0x3d2f3315	0.042773325
199	0x3d2d66df	0.042334434
200	0x3cff44cc	0.031160735
201	0x3da1e29d	0.07904551
202	0xbc7b3151	-0.015331582
203	0x3d8c2902	0.06843759
204	0x3c84e300	0.016221523
205	0x3d2c4cea	0.04206554
206	0x3d9fe775	0.07807819
207	0xbdf4f08b	-0.119599424
208	0x3d8967ca	0.06709249
209	0xbd923d53	-0.07140603
210	0xbc8db872	-0.017299864
211	0x3c52d630	0.012868449
212	0xbdf7d359	-0.12100858
213	0xbc9531b7	-0.018212182
214	0x3d0d5114	0.03450115
215	0xbda3553d	-0.07975242
216	0xbd28ed33	-0.041241836
217	0x3cfcf5de	0.030878957
218	0xbd2ee91c	-0.04270278
219	0x3e3c4919	0.1838726
220	0xbdeaddc1	-0.114680775
221	0x3da28fee	0.07937609
222	0xbce71644	-0.02820886
223	0x3c860cb1	0.016363474
224	0x3e238474	0.15968496
225	0x3ded7e3d	0.11596344
226	0x3d02a5b2	0.0318963
227	0x3ddaf73a	0.10691686
228	0xbd887b27	-0.066641144
229	0x3dab2409	0.083564825
230	0xbdfba6b0	-0.122876525
231	0x3d07c0fc	0.03314303
232	0x3e449b35	0.19199832
233	0xbd64e4ac	-0.05588214
234	0x3ccc3492	0.024927411
235	0xbe1537d7	-0.14572082
236	0x3c084e9f	0.008319526
237	0xbd17920e	-0.037004523
238	0xbe118d84	-0.1421414
239	0xbdccf903	-0.10008433
240	0x3cb56581	0.022143127
241	0x3debb27f	0.11508655
242	0x3e26a7aa	0.16274896
243	0xbd285daa	-0.04110495
244	0xbe49c908	-0.19705594
245	0xbd667fe1	-0.0562743
246	0xbd4c2987	-0.04984429
247	0x3c9d721e	0.019219454
248	0xbe0a632d	-0.13514395
249	0x3dbc7eb8	0.09203857
250	0x3c14b464	0.009076212
251	0xbd381e6f	-0.0449509
252	0x3d860b36	0.06545107
253	0xbd1a7e40	-0.037718058
254	0x3ccf9da0	0.025343716
255	0x3e06514c	0.1311695

network_body._body_endoder.seq_layers.2.bias f4 [128]
0	0x00000000	0.0
1	0x00000000	0.0
2	0x00000000	0.0
3	0x00000000	0.0
4	0x00000000	0.0
5	0x00000000	0.0
6	0x00000000	0.0
7	0x00000000	0.0
8	0x00000000	0.0
9	0x00000000	0.0
10	0x00000000	0.0
11	0x00000000	0.0
12	0x00000000	0.0
13	0x00000000	0.0
14	0x00000000	0.0
15	0x00000000	0.0
16	0x00000000	0.0
17	0x00000000	0.0
18	0x00000000	0.0
19	0x00000000	0.0
20	0x00000000	0.0
21	0x00000000	0.0
22	0x00000000	0.0
23	0x00000000	0.0
24	0x00000000	0.0
25	0x00000000	0.0
26	0x00000000	0.0
27	0x00000000	0.0
28	0x00000000	0.0
29	0x00000000	0.0
30	0x00000000	0.0
31	0x00000000	0.0
32	0x00000000	0.0
33	0x00000000	0.0
34	0x00000000	0.0
35	0x00000000	0.0
36	0x00000000	0.0
37	0x00000000	0.0
38	0x00000000	0.0
39	0x00000000	0.0
40	0x00000000	0.0
41	0x00000000	0.0
42	0x00000000	0.0
43	0x00000000	0.0
44	0x00000000	0.0
45	0x00000000	0.0
46	0x00000000	0.0
47	0x00000000	0.0
48	0x00000000	0.0
49	0x00000000	0.0
50	0x00000000	0.0
51	0x00000000	0.0
52	0x00000000	0.0
53	0x00000000	0.0
54	0x00000000	0.0
55	0x00000000	0.0
56	0x00000000	0.0
57	0x00000000	0.0
58	0x00000000	0.0
59	0x00000000	0.0
60	0x00000000	0.0
61	0x00000000	0.0
62	0x00000000	0.0
63	0x00000000	0.0
64	0x00000000	0.0
65	0x00000000	0.0
66	0x00000000	0.0
67	0x00000000	0.0
68	0x00000000	0.0
69	0x00000000	0.0
70	0x00000000	0.0
71	0x00000000	0.0
72	0x00000000	0.0
73	0x00000000	0.0
74	0x00000000	0.0
75	0x00000000	0.0
76	0x00000000	0.0
77	0x00000000	0.0
78	0x00000000	0.0
79	0x00000000	0.0
80	0x00000000	0.0
81	0x00000000	0.0
82	0x00000000	0.0
83	0x00000000	0.0
84	0x00000000	0.0
85	0x00000000	0.0
86	0x00000000	0.0
87	0x00000000	0.0
88	0x00000000	0.0
89	0x00000000	0.0
90	0x00000000	0.0
91	0x00000000	0.0
92	0x00000000	0.0
93	0x00000000	0.0
94	0x00000000	0.0
95	0x00000000	0.0
96	0x00000000	0.0
97	0x00000000	0.0
98	0x00000000	0.0
99	0x00000000	0.0
100	0x00000000	0.0
101	0x00000000	0.0
102	0x00000000	0.0
103	0x00000000	0.0
104	0x00000000	0.0
105	0x00000000	0.0
106	0x00000000	0.0
107	0x00000000	0.0
108	0x00000000	0.0
109	0x00000000	0.0
110	0x00000000	0.0
111	0x00000000	0.0
112	0x00000000	0.0
113	0x00000000	0.0
114	0x00000000	0.0
115	0x00000000	0.0
116	0x00000000	0.0
117	0x00000000	0.0
118	0x00000000	0.0
119	0x00000000	0.0
120	0x00000000	0.0
121	0x00000000	0.0
122	0x00000000	0.0
123	0x00000000	0.0
124	0x00000000	0.0
125	0x00000000	0.0
126	0x00000000	0.0
127	0x00000000	0.0

action_model._discrete_distribution.branches.0.weight f4 [6, 128]
0	0x3b9cc3af	0.0047840695
1	0xbc309775	-0.010778298
2	0x3b56370a	0.0032686614
3	0xbbc025af	-0.0058638672
4	0x3c0f6a1b	0.008753325
5	0x3b9331a3	0.004492001
6	0xbc287b64	-0.010283325
7	0xbc0be214	-0.008537788
8	0x3ae9d53f	0.0017840042
9	0xbc8ccd97	-0.017187877
10	0xbb7ad4a0	-0.0038273707
11	0xbc00eaa8	-0.007868446
12	0x3bf36902	0.0074282894
13	0x3b63af75	0.0034742032
14	0x3bd8e46f	0.0066190283
15	0x3b41306a	0.002947832
16	0xbc0cd22b	-0.00859503
17	0xbb7ce73d	-0.0038589977
18	0xbc88ab57	-0.016683264
19	0xbc7582eb	-0.014984827
20	0xba911361	-0.0011068397
21	0x3bbb7328	0.005720515
22	0x3ca3aacc	0.019978903
23	0xbc0fb386	-0.008770829
24	0xbb291299	-0.0025798439
25	0x3c2fe983	0.010736826
26	0x3c13eac2	0.009028139
27	0xbbf14bf5	-0.007363791
28	0x3b83b037	0.004018809
29	0x3b732c6a	0.003710533
30	0x3c8ab753	0.016933119
31	0xbc800f10	-0.015632182
32	0xbbccd087	-0.0062504443
33	0x3bcd651b	0.006268156
34	0xbc4983c2	-0.01229948
35	0xbb80c0ca	-0.0039292322
36	0x3c5d697f	0.013513922
37	0x3aa77c4b	0.0012778131
38	0xbc32b1b3	-0.010906625
39	0x3c80d562	0.015726749
40	0xbc604502	-0.013688328
41	0xbbad2d09	-0.0052849096
42	0x3b16e5c4	0.0023025135
43	0xbb1d1e3b	-0.0023974318
44	0xbb56a35f	-0.0032751185
45	0xbbbe831b	-0.005813969
46	0x3c4dfcf8	0.0125725195
47	0xbb179eeb	-0.0023135494
48	0xbc997cbf	-0.018736241
49	0xbc582bc2	-0.013194026
50	0x3b935206	0.004495862
51	0xbc19f9af	-0.009397908
52	0xbc6ac792	-0.014329808
53	0xbb8890d6	-0.0041676564
54	0x3c0ca72d	0.00858478
55	0xbba711e8	-0.00509857
56	0xbc5f39fd	-0.013624665
57	0x3bd94d7b	0.006631551
58	0x3b2140f8	0.0024605375
59	0x3bfbc4b3	0.0076833605
60	0xbbc12abc	-0.005894987
61	0x3adc09df	0.001678761
62	0xbad1b62a	-0.0015999724
63	0xbb9d0aab	-0.0047925315
64	0x3a1498e7	0.0005668536
65	0xbc5f254b	-0.013619731
66	0x3c4532f5	0.012036075
67	0xbaeb0005	-0.0017929083
68	0xbc3846ef	-0.011247381
69	0xbc8c8fbf	-0.017158387
70	0x3c1657e1	0.009176225
71	0xbcd2a822	-0.025714938
72	0xbc1dcdcf	-0.009631588
73	0xbaa3ea5c	-0.0012505758
74	0xbc43a487	-0.011941082
75	0x3c840383	0.016114956
76	0xbc021c33	-0.0079412935
77	0xbc0818b0	-0.008306667
78	0xbce5338d	-0.027978683
79	0x3b9b9cc0	0.0047489107
80	0x3b398d88	0.002831312
81	0x3c5b576f	0.013387545
82	0x3bb92e84	0.005651297
83	0x3b576270	0.003286507
84	0xbc146d57	-0.009059272
85	0xba900661	-0.0010988229
86	0xbb968418	-0.0045933835
87	0x3b853ae4	0.004065858
88	0x3c3d353f	0.011548339
89	0xbb70ff3a	-0.003677322
90	0xbc3b43bb	-0.011429722
91	0xba7e871d	-0.00097094645
92	0xbba5d443	-0.005060704
93	0x3be7dcc3	0.0070758774
94	0xbc51f1e3	-0.012814018
95	0x3abc2474	0.0014354126
96	0x3a5bcc67	0.00083846453
97	0x3b84dcb9	0.0040546325
98	0xba85f3cb	-0.0010219751
99	0xbbcf06d8	-0.0063179545
100	0x3c32a633	0.010903883
101	0x3aa1db61	0.0012348705
102	0x3a0ff7ab	0.00054919225
103	0x3b0cef56	0.002150496
104	0xbad319ba	-0.001610569
105	0x3b332ffb	0.002734183
106	0xbb564568	-0.0032695178
107	0x3ba24d4c	0.004953062
108	0x3bea8a13	0.007157573
109	0x3b1d3d5b	0.002399287
110	0x3b5f08da	0.0034032376
111	0x3b95e34d	0.0045742155
112	0x3a67a88f	0.0008837068
113	0xbb91fe98	-0.004455399
114	0xbb0f8def	-0.0021904667
115	0xbb32d403	-0.0027287013
116	0x3c6b26e7	0.014352537
117	0x3c677ef2	0.014129387
118	0x3c9fee78	0.01952289
119	0xbbf07645	-0.0073383176
120	0xbaa53697	-0.001260477
121	0x3bbf6880	0.005841315
122	0xbc6fac98	-0.014628552
123	0xbc02300e	-0.007946027
124	0x3c37e80b	0.011224757
125	0x3bdfee45	0.006833824
126	0xbca70a93	-0.020390784
127	0xbc77d80b	-0.015127192
128	0x3c6c93ca	0.0144395325
129	0xbc38cc87	-0.011279232
130	0xbc2f60c0	-0.010704219
131	0xbbc0db33	-0.0058855056
132	0x3b986b4d	0.004651463
133	0xbc6336d0	-0.013868049
134	0x3b6f4438	0.0036509167
135	0xbc2f7df1	-0.010711179
136	0x3bb8692f	0.0056277732
137	0x3bc74e6b	0.006082346
138	0xbc11d44f	-0.008900716
139	0x3c31b83f	0.01084715
140	0x3a695f47	0.0008902442
141	0xbc5035e8	-0.012708165
142	0xbc40fbe6	-0.011778807
143	0x3af8cfc0	0.0018982813
144	0xbb50717f	-0.003180593
145	0xbabb0069	-0.001426709
146	0x3a8a5acd	0.0010555625
147	0x3bd00c30	0.006349109
148	0xbb7d5d77	-0.0038660446
149	0xbc54bfaf	-0.012985154
150	0xbc99df35	-0.018783191
151	0xbbbec3ee	-0.0058216965
152	0x3beeae3d	0.0072839544
153	0xbc51faf7	-0.012816182
154	0xbb16340c	-0.0022919206
155	0x3af70aba	0.0018847801
156	0xbbf71eaa	-0.0075414972
157	0x3bd8e82f	0.0066194753
158	0x3bb196c0	0.005419582
159	0x3b6e04eb	0.003631885
160	0x3c6076a0	0.013700157
161	0x3c043ca0	0.008071095
162	0xbb99a767	-0.0046891454
163	0x3bd2258a	0.0064131664
164	0x3c291a5f	0.010321229
165	0xbc1fcb23	-0.009753021
166	0x3c8a5bb6	0.016889434
167	0xbc1f036d	-0.009705407
168	0xbc42ee27	-0.0118976
169	0xbb88129a	-0.004152608
170	0x3baed09b	0.0053349263
171	0x3cbb7546	0.022883069
172	0x3b18fafc	0.0023342958
173	0x3b440447	0.0029909776
174	0xba474d80	-0.0007602796
175	0xbc26a117	-0.010170243
176	0x3bb1cb07	0.005425814
177	0xbbb3fc76	-0.005492742
178	0xbc3f32c3	-0.011669817
179	0x3c84c332	0.016206358
180	0xbbc32aef	-0.005956046
181	0x3bdd074d	0.006745255
182	0x3b01caa9	0.0019804633
183	0xbb85421e	-0.0040667197
184	0xbb71cdbd	-0.0036896311
185	0xbc2810d7	-0.010257921
186	0x3b98aa21	0.004658953
187	0xbb9e55e3	-0.004832016
188	0xbb7bb96f	-0.0038410088
189	0xbbeae328	-0.0071681924
190	0x3c952aa5	0.018208811
191	0xbcaf460a	-0.021395702
192	0xbaa3af28	-0.0012488114
193	0x3adb4a92	0.0016730598
194	0x3bfa209a	0.007633281
195	0x383bbb2a	4.4758584e-05
196	0xbbff49ea	-0.0077907937
197	0xbbe61988	-0.0070220865
198	0x3bd8898f	0.006608195
199	0x3b145166	0.0022631525
200	0xbb0cb8fb	-0.0021472562
201	0x3b8bf3f1	0.0042710234
202	0x3baad3dc	0.005213244
203	0xba4c299b	-0.0007788182
204	0x3bb74b70	0.0055937096
205	0x3b8ff001	0.0043926244
206	0x3b71fe4b	0.0036925252
207	0xbc8757d6	-0.016521376
208	0xbc27b4de	-0.010235993
209	0xbb808e07	-0.003923181
210	0xbb9309ee	-0.0044872677
211	0xbb31e823	-0.002714642
212	0x3bd81a7f	0.0065949555
213	0x3b664ba5	0.0035140302
214	0xbbf4dce0	-0.0074726194
215	0xbc8a5f4f	-0.01689115
216	0xbc888b82	-0.016668085
217	0xbc1c34e8	-0.009534098
218	0x3b5a3018	0.0033292826
219	0xbb4162a0	-0.0029508248
220	0xbb8c8a03	-0.004288913
221	0xbbd509da	-0.0065014185
222	0xbb91a3e6	-0.004444587
223	0x3c1801ff	0.00927782
224	0x3ba7be07	0.0051190886
225	0xbc1d171e	-0.009588031
226	0xbb21c2fc	-0.002468287
227	0xbae7e9e8	-0.0017693611
228	0xbc4b9214	-0.012424964
229	0xbc5bc658	-0.013413988
230	0x3af50722	0.0018694142
231	0xbc45c6b5	-0.012071301
232	0xbc6601b2	-0.01403849
233	0x3c8b47c9	0.017002003
234	0x3bc0d099	0.005884242
235	0xbb6035c8	-0.0034211744
236	0x3c39fae1	0.011351318
237	0xbbc4029b	-0.005981756
238	0xbba012d3	-0.0048850565
239	0x3a805b32	0.0009792803
240	0x3c6f38d5	0.014600952
241	0x3c63ef00	0.0139119625
242	0xba934f9a	-0.0011238933
243	0xbc14e8b9	-0.0090886885
244	0xbbe4fa9f	-0.006987884
245	0xbbe1aecf	-0.006887294
246	0xbc70f3fd	-0.014706609
247	0xbba7be92	-0.0051191533
248	0x3c52576f	0.012838229
249	0x3c2b9925	0.010473524
250	0xbb70661a	-0.003668195
251	0x3b49bf0b	0.0030784036
252	0x3c8fb0a4	0.017540284
253	0x3c62f53d	0.013852415
254	0xbb8098dc	-0.0039244723
255	0xbade9a58	-0.0016983254

action_model._discrete_distribution.branches.0.bias f4 [6]
0	0x00000000	0.0
1	0x00000000	0.0
2	0x00000000	0.0
3	0x00000000	0.0
4	0x00000000	0.0
5	0x00000000	0.0
