Assets/Hide and Seek/Brain/4_HiderBehavior.onnx (onnx, 197845 bytes, 6 tensors)

network_body._body_endoder.seq_layers.0.weight f4 [128, 245]
00000000: 8271 32bc 1b8f 0abe 3afd b63d a86d 393c
00000010: 18e1 fb3d 2795 ae3d 9a2f f13c 6e6e 1fbd
00000020: 8429 df3c 1d3d b13d 8f19 1c3b 7666 ba3c
00000030: ad78 d6bc 46ea 43bd 390a 5d3d f6a6 a23d
00000040: 6a75 9abc 36bc ebbd 5b6d b4bc c8e0 f33c
00000050: 7b2c 01bd d0c2 013e aff9 85bd 093b 0d3b
00000060: 5f82 f2bc 8c9c 18bc 7883 2abd a2f9 24be
00000070: cee5 f93c 36ba 653d 13a7 66bb 0c9b e53d
00000080: 60a1 363d c6b8 f83d 7e0b ed3d ddd4 86bc
00000090: e807 043e 18c1 9bbd bc27 52bd b095 f6bc
000000a0: 1766 a23d e870 623b fca5 e03b 3f24 a33b
000000b0: c248 743d fd34 dfbd d7ca 303d b12e f1bc
000000c0: 0f0d 9d3d 7f9b ffbc a3f4 b7bc 8585 903c
000000d0: e6bb 2a3e 2885 42bd d606 8ebd 42d7 d73c
000000e0: 0101 ffbb 02ee 03bc c2ea 3c3e 5b4c ae3d
000000f0: 4ac2 ee3d 5ae0 d23c 75cc d23d a678 ee3c
00000100: 0166 11bb ecbf d1bd de6b e63b b3f7 4e3c
00000110: c774 623d 4349 363d f174 aabc aeb5 c5bd
00000120: 2fc3 a43c 2caa 843d f5e0 b9bb 148c 3ebe
00000130: 844a 8dbd dc81 b43d 1941 f9bc edbd 3c3d
00000140: 24a9 8c3d 3dcd acbd 296c d13d 6911 183e
00000150: bf91 80bc 4c5e b93b e6db e63d 027a 95bc
00000160: e36a be3d e966 2fbd ed8e 73bc d202 44bd
00000170: 1650 2cbd 4c4b 8ebd 4c86 8fbd 7917 fe3c
00000180: a046 ee39 2e7f 28be 1b91 b83d bc77 5e3d
00000190: 8337 483d c6bd f93d caf8 81bd 5278 423d
000001a0: 2da3 0ebd 11e1 2cbd 642e 8b3d 2eb8 a4bd
000001b0: 23b0 383d a33d 073e ab25 5f3d 55d8 b3bd
000001c0: b155 993c 41c7 143d 2bdc 713d 229e fb3c
000001d0: 8346 3cbd 266f 063e 8fad 8abd 64e3 4b3d
000001e0: 9830 8b3c 57f2 0c3e 2318 293d 642e e2bc
000001f0: 9dea 90bd fa6a 97bd aa57 2a3c d987 46bd
00000200: 9d48 863a ec01 0b3d ec37 99bb 1288 8a3c
00000210: 97aa 293d bb11 32bc 5c34 cdbc f32e d73c
00000220: 7f87 e63a a6d9 d23c c8fd e4bd 8c1a eb36
00000230: b4f9 373c 7f91 a5bd 70fd 6e3c a13b 95bd
00000240: f411 2f3e 4774 57bd 350e e3bd ba10 1d3d
00000250: e90a 8cbc e771 243d 26ef e6bc aae0 e53a
00000260: 1c40 a03d e9ec 16bd 6dbd c63d 43fa 683d
00000270: 69e4 a1bd 33b6 5d3e c742 19bb 3e58 813d
00000280: 8ef0 2e3c 5c62 b53c 24e4 c4bd dc6a 9a3d
00000290: 7d9d 963c 0fc1 313d f131 bd3d fe0b a0bd
000002a0: 8177 2b3e bf47 253e d695 9a3d d292 c43d
000002b0: 4669 a5bd 7ff9 39bd f5a8 acbb 9526 c4bd
000002c0: f09c 2d3b 408a 59bd dc67 593d 90aa 803c
000002d0: 9440 b93d c8a9 de3c 29e4 c6bd 24a5 63bd
000002e0: 3459 f6bd d1a7 193d 77d8 fcbd ef8f 4b3d
000002f0: 1ad7 cd3d 2fdc 83bd c38f de3d cbce 5f3c
00000300: eefe b1bb f327 8e3b 0ca0 02bc a7ca 21bd
00000310: 7386 f0ba 4a4f 643c ba72 a83d 4326 233d
00000320: 0275 253d dd15 97bd cfa5 553c 37c8 08bd
00000330: 21b8 adbd 7234 783c 6e16 e93d aba6 e73c
00000340: d921 51bd 9688 233e a5e5 f93d ed5e d8bd
00000350: e3e3 c23d 6a93 17be 36d9 d7bd cc12 28bc
00000360: 3da3 d6bc b123 bb3d 068b 5d3d 75e3 bc3d
00000370: ed78 363d 7a4c 19be 7db2 a93d c1bc 013d
00000380: 3c54 83bb 2579 14be f1e2 19be d1e3 f73d
00000390: 51c2 8abc 0b6a fd3d 458c 183d 42c3 d1bd
000003a0: 3ef4 15bb f3ce a93c b06e 58bd 033e 27bd
000003b0: c991 bb3d 51cc 053d ed2a 843d c5bd 04bc
000003c0: 9856 61bc 2404 fdbc e0a7 783d b823 cdbd
000003d0: cc1b 013d 0135 97bd 337d b33d 43f8 763c
000003e0: 72ef d0bd 1a2d 243e 1574 21bc 2a05 9bbd
000003f0: 0288 1ebd a4d1 aeba 5ee5 173c 6ae4 24be
-0.01089132 -0.13531153 0.08935018 0.011317648 0.122987926 0.08524542 0.029441644 -0.038923673
0.027241476 0.086542346 0.0023818945 0.022753935 -0.02618059 -0.047830842 0.053964827 0.079420015
-0.018854816 -0.11510508 -0.022024801 0.02977027 -0.03153656 0.12671971 -0.06541764 0.002155008
-0.029603181 -0.009314667 -0.041629285 -0.16110852 0.030505087 0.056085788 -0.00351948 0.112112135
0.044587493 0.12144618 0.115744576 -0.016458923 0.12893641 -0.07605189 -0.051307425 -0.030100673
0.07929628 0.003455216 0.0068557244 0.004978686 0.0596397 -0.108987786 0.043162193 -0.02944121
0.07668506 -0.031202076 -0.022455519 0.017641792 0.1667324 -0.04749027 -0.069348976 0.02634776
-0.007782102 -0.008052351 0.18448928 0.085106574 0.116581514 0.025741745 0.10292903 0.029110264
-0.0022186043 -0.10241684 0.0070319017 0.012632298 0.05528715 0.04450346 -0.020807715 -0.09653793
0.020112602 0.0647777 -0.005672569 -0.18608123 -0.06898978 0.08813831 -0.030426549 0.046079565
0.068681985 -0.084375836 0.10225708 0.14850391 -0.015694497 0.005656993 0.11272411 -0.018246654
0.09297731 -0.042822752 -0.014865619 -0.047854252 -0.042068563 -0.069479555 -0.07008037 0.031017052
0.00045447517 -0.16454765 0.09012052 0.054313406 0.048881065 0.121943995 -0.06346281 0.047478028
-0.034823585 -0.042206828 0.06795958 -0.08042942 0.045089852 0.13207106 0.054479282 -0.087814964
0.018717619 0.036322836 0.05904786 0.030715052 -0.045965683 0.13128337 -0.06771385 0.049777403
0.016990945 0.1376432 0.041282784 -0.027610011 -0.07075999 -0.07393451 0.010396877 -0.0484694
0.0010245029 0.03393738 -0.004675856 0.016910587 0.041422453 -0.010868485 -0.025049381 0.026267504
0.0017587988 0.025738548 -0.111812174 7.006636e-06 0.011228967 -0.08084392 0.014586791 -0.07286764
0.17096692 -0.052601125 -0.11086694 0.03834603 -0.017095046 0.04014769 -0.028190207 0.0017538269
0.07824728 -0.03684703 0.09704099 0.056879293 -0.07904894 0.21651535 -0.002338575 0.06315659
0.01067747 0.022141628 -0.09613827 0.07539913 0.018385643 0.043397006 0.09238041 -0.07814787
0.16744806 0.1614065 0.0754811 0.09598316 -0.0807672 -0.045403954 -0.0052691647 -0.095776714
0.0026491247 -0.05311036 0.053077564 0.01570633 0.090455204 0.027180567 -0.09711487 -0.055577412
-0.12028733 0.037513558 -0.12345975 0.049697813 0.10050793 -0.06438481 0.10867264 0.013660143
-0.0054320013 0.0043382584 -0.007972728 -0.039499905 -0.0018350616 0.01393492 0.08225007 0.03983141
0.04039479 -0.07377217 0.01304002 -0.033394065 -0.084823854 0.015149223 0.11381231 0.028277716
-0.05105767 0.15970072 0.12202004 -0.10564981 0.09516122 -0.14802328 -0.105394766 -0.010258388
-0.026200885 0.09137667 0.05408766 0.092230715 0.044548918 -0.1497058 0.08285997 0.03167415
-0.0040078443 -0.14499338 -0.15027978 0.121039994 -0.01693836 0.12373742 0.037243146 -0.102423206
-0.0022881175 0.020728564 -0.052839935 -0.040830623 0.09158666 0.032665554 0.064535 -0.008101885
-0.013753556 -0.030885763 0.060706973 -0.100165784 0.03152065 -0.073831566 0.08764114 0.015073839
-0.102019206 0.1603283 -0.009854336 -0.07569344 -0.038703926 -0.0013337624 0.009270994 -0.16102758

network_body._body_endoder.seq_layers.0.bias f4 [128]
00000000: 0d76 fc3c 63ef bb3b d0c2 c33c ef82 753d
00000010: 5704 853c c3ff e43c 676c 0cbb fc9b 573c
00000020: e0cb 3a3d 8e2d 7b3d 1001 d1ba c4c7 403c
00000030: 0b3f 17bc c4c7 cf3c 467b f2bc 3bac e43c
00000040: 92b6 1c3d fe88 84bc e1ea d73b 6cef fc3c
00000050: 2c87 443d cfaa 553d c9c4 d3bb 83c8 0abd
00000060: 07e6 963c 547f da3b cc7b adbc 4e09 f43c
00000070: 7869 ebbb 4cd4 603d 247a ca3d 5567 103d
00000080: fdd2 623d 938f 5d3d aa54 663d c41f b13c
00000090: 6983 93bc a585 873d cf51 4d3c 5efb 34bc
000000a0: 31a7 723d 4cdd 143d 0c2d 8e3c 4b07 db3b
000000b0: 34e2 423d db06 663d a6a9 043d 56ac 673d
000000c0: dfe2 223d 5982 d8bc 06b9 553c 89db f1bb
000000d0: df24 233d bc16 bb3c 3672 5f3d dadb 483d
000000e0: ff21 fb3c 134f 0a3d 7945 4c3d 0531 693d
000000f0: a028 363d 2b3c 533d 6b40 c5bc c1ca a83c
00000100: dddd a43d b016 463d 504d 8a3d 4008 ab3d
00000110: d7da 6abb de63 66bc d700 3e3d b32a 433d
00000120: 8ab3 8b3d eee2 303d cfed a13c bf1c 8a3c
00000130: 159c 8d3d 961f 043d f2ea 82bb 778e d63c
00000140: c455 a43c b782 2b3c 09a0 d03b 9f5a 6c3d
00000150: d467 7b3d 50a9 953b 5e42 c53c e47f 9e3d
00000160: 32e5 8dbb bbcc a73b be11 503c c860 263b
00000170: c827 92bc d314 cdbc 1fe8 403d a0f4 233d
00000180: a8ce cabc 4ee5 b13d 127c 403d b64c 9ebb
00000190: 64af 493d 0cad b53c 0046 973c cd70 0c3d
000001a0: 214e fa3c 3b44 103d dd62 f23c a2a2 813c
000001b0: ffd7 a5bb 45fb 0a3d 7215 d23b 8c12 8c3a
000001c0: 45fc aa3c df76 163c 7d95 303d 8f12 843d
000001d0: 9a93 273c a01e bebb 14ad c4b9 ab35 ccbb
000001e0: 0311 0abb c7c3 7d3d 6b18 77bc 1411 963c
000001f0: 16de adba 24fb f63c 7472 76bc 1238 ea3b
0.03081801 0.005735324 0.023896605 0.05993932 0.016237421 0.027953988 -0.0021426918 0.013159748
0.045604587 0.06132274 -0.0015945751 0.011766378 -0.009231339 0.02536381 -0.029599797 0.027914157
0.03826005 -0.016178604 0.006589279 0.030875884 0.047980472 0.05216485 -0.0064626676 -0.03388263
0.018420232 0.0066680107 -0.021177195 0.029789593 -0.0071842037 0.054889962 0.09886578 0.035254795
0.055376995 0.054092 0.056233086 0.021621592 -0.018006997 0.066172875 0.012531712 -0.011046259
0.059241477 0.036343858 0.017355464 0.006684219 0.047579005 0.05615888 0.03238835 0.056560837
0.039767142 -0.026429342 0.013044601 -0.007380907 0.039830085 0.022837989 0.05455228 0.04903779
0.030655859 0.033766817 0.04987094 0.056931514 0.044472337 0.051571053 -0.024078568 0.020604493
0.080501296 0.04836148 0.067530274 0.08351183 -0.0035836005 -0.014061896 0.04638752 0.047648143
0.06821354 0.043185167 0.019766716 0.01685941 0.06914536 0.032256685 -0.003995293 0.02619098
0.020060427 0.010468177 0.006366734 0.05770361 0.061378315 0.0045673028 0.024079498 0.07739237
-0.0043303007 0.0051208413 0.012699543 0.0025387276 -0.017841235 -0.025034344 0.047096368 0.040028214
-0.024756745 0.086863145 0.046993323 -0.004830922 0.04923953 0.022177242 0.018465996 0.034287263
0.030554833 0.03522132 0.029588157 0.01582462 -0.005061149 0.033931036 0.006411248 0.001068668
0.020872245 0.0091836145 0.043111313 0.06448852 0.010228062 -0.0058019906 -0.00037512986 -0.0062319837
-0.0021067269 0.061954286 -0.015081505 0.01831869 -0.0013265039 0.03014905 -0.015041936 0.0071477974

network_body._body_endoder.seq_layers.2.weight f4 [128, 128]
00000000: 63ce 553d eef9 3cbd edaf b4be 654b 553d
00000010: 7d19 63bd 2f4f a5bd 060a 6c3b 6229 47be
00000020: a3e0 05be f2d5 80be 5574 45be f61d 03bd
00000030: 3e45 b7bd be5d 12be feb6 04be ab94 e5bd
00000040: 792b c2bd e671 223e 26d8 003e 6e2a 62bc
00000050: a7fe 783c e0c7 70be 93d2 343c 3152 a83d
00000060: 48e9 a9bd 50b4 e5bd 0ca7 97bd 7697 2f3d
00000070: 490b 763c 22c3 1d3d 8bc3 a23b e4e9 39bd
00000080: 5798 2ebc 945a d0bd b6ec 243d ad9e 6dbd
00000090: 7ebd 27bd 331b 8fbd e990 a73b 039d 223b
000000a0: 38cc 30be 8553 e43c e48f d43c 6395 d73c
000000b0: 5d50 8cbd 4d5e 8e3d d3e4 60bd b4b0 f63b
000000c0: 7e8e 17bd 03d9 35be 2ce8 42bd e0fc 49be
000000d0: 7451 9cbd de2d 5dbc 5891 b7bc 828e a7bd
000000e0: 9ccc 2abd abe3 a53d 24c0 873d 74eb a3bd
000000f0: fdd5 f4bd 457a 103e 0f40 f13c 8303 85bd
00000100: 6b8f fe3d ff8e 82bc 629d 973d bbd9 2bbb
00000110: c127 0bbd 38dd 863c 4cfd 3ebd 3067 823d
00000120: f05f 903c 1ff7 273d feb1 ccbd 0c2c 70bd
00000130: 9bc1 103d 471f dabd 85e2 af3c 4c05 91bc
00000140: 5d14 013c 3d91 41bd b3c0 4bbe f394 523c
00000150: 0fa1 0c3e cce4 22bc 1f67 67bd 07de 333c
00000160: 3ddc b9bd f87d 21be 767a 61bd 2df4 96bb
00000170: e07d e2bd d56d 09bd 9ad9 903d 0bf9 0c3d
00000180: 073e 1abe 1a2a 77be e3b3 43bd a213 843d
00000190: 0eb3 4fbd 0c7b 9abd be90 b63c 0c99 8ebd
000001a0: 067d 38be a5bc c43c c622 08bd 311d debc
000001b0: cee8 6b3c c791 01be adff 09be 045a 613d
000001c0: 7e92 503d da10 563d 2e87 febd a0a6 4fbe
000001d0: 8d3a 783c 9d66 3a3e fa77 9d3d 77dc c83d
000001e0: e2bd 863d 16ec 41bd 9e5a 9bbd 9b04 8b3e
000001f0: 8258 043e 75e4 52be ef7b ac3d f99d e5bd
00000200: b458 043d ca10 823d 1eb8 783d b216 0d3c
00000210: 22b2 b2bc 3e26 c03d 8acc db3d e4b4 b23d
00000220: 7a3f 103d f288 cb3c 69a5 ff3d 6f0b 75bd
00000230: 4f7b 8ebc edf7 8d3c 71c6 1ebd 7358 35bc
00000240: aa2d 213e 6e3a 9dbd 4b38 11bd 85ec aabd
00000250: dc87 66bd 5a01 4e3e 0d10 103d a6b2 8bbd
00000260: 335e 67bc 7b90 f5bc 38b3 b13c f11b e3bd
00000270: ce0b de3d dec9 033e 119e c33d 1a8e 493d
00000280: a3f5 fbbc a246 c83d 5121 98be 4407 5f3d
00000290: de10 bf3d 0a46 00be 8a9a 22be 5b09 4ebd
000002a0: 3e5f 0bbc 8c2a f9bb 5e3a d53d 506e 183d
000002b0: 545b 513d 1151 d7bd d66b 073e 3c4b 943c
000002c0: 25ae 5fbd 7b8f c53c 8ff8 78bd e141 da3c
000002d0: fbed 47bd 4697 bf3d 8c66 88be a6c8 04be
000002e0: 1a61 6d3d 4dc1 32be 2aeb 273c 2abb 60bc
000002f0: d367 eabd ddf3 15bd e52c c8bc 8b1d d23d
00000300: 7252 1abe 7326 843d 559b f8bd 79c0 103e
00000310: 7e39 523d a473 0cbe 3dc0 f23d efe5 8fbd
00000320: 70ab 33be e9e5 c23d 55ec 913d a445 c53d
00000330: 06cc 003e b0fe 61bd a868 213c e862 ce3c
00000340: aed4 0bbe a440 0ebe 51fb fd3c b702 b13d
00000350: 185d d1bd 3e82 04be 4d35 3bbe a91b 223d
00000360: f372 1a3e cb5e 9c3d 149f ce3c 75bc 92bc
00000370: bce5 f2bc 7f44 0abd 7a64 bebd 0c9f 20be
00000380: 3fce 39bd e1cc 1d3e 7348 da3d 86d6 b6bd
00000390: ee21 37bd 134d cabc 9d59 0e3e 69b5 16be
000003a0: 5d86 f1bd b478 0dbe 910e 1e3d 0134 bb3c
000003b0: 0fd1 ccbb d837 0fbe 05e5 afbd b866 223e
000003c0: e09a f43d 031b c43d 77f9 453c a609 5d3d
000003d0: 2ea9 44be d6fe d33d a7a5 0abe c26e e0bc
000003e0: 19f2 a8bd 37b0 b73d 3c0e 063e d8a1 a5bc
000003f0: 6501 913c 3112 cfbd be61 a73d e952 fc3b
0.05219878 -0.04613679 -0.3529047 0.052073855 -0.05544423 -0.08071744 0.0036016717 -0.1944938
-0.13073973 -0.25163227 -0.19282658 -0.032010995 -0.08948754 -0.14293572 -0.12960431 -0.11209997
-0.09480948 0.15863761 0.12582454 -0.013804061 0.015197433 -0.23513746 0.011036533 0.08218802
-0.08296448 -0.112160325 -0.074049085 0.042869054 0.015017339 0.03851617 0.004967158 -0.04538907
-0.010656438 -0.101735264 0.040264808 -0.058012653 -0.0409522 -0.0698761 0.00511371 0.0024812825
-0.17265403 0.027871856 0.025947519 0.02631635 -0.068512656 0.0695158 -0.054905724 0.007528389
-0.037001126 -0.17758565 -0.047584698 -0.1972537 -0.076327235 -0.013499705 -0.022408172 -0.08181478
-0.041699037 0.08100065 0.06628445 -0.080038935 -0.119548775 0.14109142 0.02944949 -0.064948104
0.124296986 -0.015937326 0.07403065 -0.0026222307 -0.03397346 0.016462907 -0.04662828 0.06367338
0.017623872 0.041007157 -0.09994887 -0.058635756 0.035340887 -0.10650497 0.021470318 -0.017702721
0.00787839 -0.04725765 -0.19897728 0.012852895 0.13733314 -0.009942245 -0.05649483 0.010978228
-0.0907521 -0.1577071 -0.05504843 -0.0046067447 -0.11059165 -0.03355201 0.07072754 0.034417193
-0.15062724 -0.24137154 -0.047778975 0.06449057 -0.05070787 -0.075430006 0.022285815 -0.06962785
-0.18016443 0.024015734 -0.033236288 -0.027113529 0.014398767 -0.12653266 -0.13476439 0.055017486
0.050920956 0.052262165 -0.12428127 -0.20278406 0.015150678 0.18203206 0.07688899 0.09807675
0.06579186 -0.04734429 -0.07585643 0.2715195 0.12924388 -0.20594962 0.08422076 -0.112117715
0.032311156 0.063508585 0.060722463 0.008611368 -0.021813456 0.09382294 0.10732372 0.087259084
0.035216786 0.024845574 0.12482721 -0.059825357 -0.017392782 0.017330134 -0.038763467 -0.011068451
0.15740076 -0.0767716 -0.035454076 -0.08345894 -0.05628191 0.20117703 0.035171557 -0.06821184
-0.01412158 -0.02997612 0.021691903 -0.11089314 0.10842095 0.12869975 0.09551633 0.049207784
-0.030756777 0.09779097 -0.29712918 0.05445029 0.09329389 -0.12526718 -0.15879264 -0.05030189
-0.008506594 -0.007603949 0.10411523 0.037214577 0.051112488 -0.10513509 0.1322473 0.01810228
-0.054609437 0.024116268 -0.06078392 0.026642742 -0.04881094 0.09355025 -0.26640737 -0.12967166
0.05795393 -0.17456551 0.010248939 -0.013716498 -0.11445584 -0.03660952 -0.02443547 0.10259541
-0.15070513 0.06452646 -0.12139002 0.14135922 0.05132436 -0.13715988 0.11853073 -0.07026278
-0.17545867 0.09516508 0.07125155 0.096324235 0.12577829 -0.05517453 0.009851612 0.025193647
-0.1365535 -0.13891846 0.031003626 0.08643096 -0.10222834 -0.12940308 -0.18282051 0.03957716
0.15082912 0.07635268 0.025222339 -0.017912129 -0.029650562 -0.03375673 -0.09296508 -0.15685672
-0.045362707 0.15410186 0.1065835 -0.08927636 -0.044710092 -0.024694955 0.13901372 -0.1471764
-0.11793206 -0.13815576 0.03858811 0.022851946 -0.0062505077 -0.13986146 -0.08588604 0.15859497
0.119436026 0.095754646 0.012083403 0.05396428 -0.19205162 0.103513405 -0.13539754 -0.027396563
-0.082493015 0.08969157 0.13091367 -0.020218775 0.01770086 -0.101108916 0.0817294 0.0077003133

network_body._body_endoder.seq_layers.2.bias f4 [128]
00000000: 19c6 eebc 809b 543b 101b ccbb 1e2c f63c
00000010: a3c5 39bb 07be b03c dc6e df3c fd47 793c
00000020: 7173 683d b310 ecba b6f4 253d 884d 2c3d
00000030: a275 47bc 4ce3 7fbc 33e8 2ebc 6398 3e3b
00000040: a941 813c 17d3 113d 973d d5bb 3e3c 963c
00000050: 83f1 ddba 5b93 133c a436 413d 74f4 693d
00000060: a40c a9bc 44d9 993d 583f b93c 6c46 513d
00000070: 3ddb 003d 7f90 96bc b8fe 89bb 6331 043b
00000080: 78a8 023d 2bb4 923c 951d ce3c 5064 283d
00000090: 10c6 103d ac5c 76ba 1b16 113d 7f4f b43c
000000a0: d0e6 3e3d 2420 1bbc fbba 633c aeee e23c
000000b0: 82a4 a73c 3a45 123c d7d6 803c 1b54 963b
000000c0: c6ec 8a3c f15a 433c a34f 8a3d 373c 40bc
000000d0: 6b86 133a 182b 583c 3871 4c3d 4f3a 523d
000000e0: 8940 7c3c bddb 6cbc 799f e03c 3bdf 40bc
000000f0: 2dc5 693c 9760 223d fa28 ff3c 56f9 813d
00000100: e9db 4f3d 74f8 e83c a6f2 a1bb 1841 153d
00000110: 8356 503d 2b61 abbc aaa0 1a3d 849e 6b3d
00000120: 4d15 7ebc f803 b03d e9da 343d 09f8 afbb
00000130: 06b7 59bb d66b b93d 88e5 3b3d 6db4 af3c
00000140: 0118 443d 6e27 7fbb 6f8e eebb 9b98 99ba
00000150: 2e2d 6c3d 1fff 053d 6a89 aebb 12c0 abba
00000160: e6f5 0a3d 1316 b8bc 79c5 96ba b0ea 0c3a
00000170: 7269 e3bb 8147 38bb 959a 813d 0ac2 833c
00000180: de1d 093c 3ef6 4a3d 2266 c53c 5a01 a53d
00000190: e1ab c23c c70e 293c d76a 6a3b 1de6 62bc
000001a0: eb5d 373d 261b 49bc 5336 043d 1a6a d93a
000001b0: 3331 ec3b 3b59 373d 779d df3b 02d3 5aba
000001c0: 1e84 ee3a 9b5b 47bc a5dc b53b 9d50 54ba
000001d0: 7918 8d3d 56bf 3d3c a1df 093d d26c 913c
000001e0: 0d35 303c b296 e63b 19a2 8bbc b1c3 4a3c
000001f0: 0ba3 193d f644 d13c 5edc 1d3d 36aa 5d3d
-0.029147195 0.0032441318 -0.006228812 0.030050334 -0.002834656 0.021574987 0.027274542 0.015214917
0.05675072 -0.0018010348 0.040516578 0.042066127 -0.012174042 -0.015618157 -0.010675478 0.0029082529
0.01577838 0.0356017 -0.006507586 0.018339273 -0.0016932938 0.0090073 0.04717125 0.057117894
-0.02063591 0.07512143 0.022613212 0.05109255 0.031459082 -0.018379448 -0.004211273 0.0020171038
0.031898946 0.017908176 0.02516059 0.04111129 0.035345137 -0.00093979645 0.035421472 0.022010563
0.04660684 -0.009468112 0.01389956 0.027701702 0.020464186 0.008927638 0.015727444 0.004587663
0.016958605 0.011923538 0.06753471 -0.011733106 0.0005627635 0.013193868 0.04991266 0.05132514
0.015396246 -0.014456687 0.027419792 -0.011771972 0.014268202 0.039642897 0.031147469 0.06346385
0.050746832 0.028438784 -0.004942256 0.03643903 0.050863754 -0.020920357 0.037750877 0.05752422
-0.015508008 0.08594507 0.04415408 -0.0053701443 -0.0033220663 0.09053771 0.045873195 0.021448338
0.047874454 -0.0038933414 -0.007280163 -0.0011718454 0.057660274 0.032714006 -0.0053264396 -0.0013103506
0.033925913 -0.022471463 -0.0011502943 0.00053755473 -0.0069400603 -0.0028118792 0.06328312 0.016083736
0.008368937 0.04955124 0.024096552 0.080568984 0.023763599 0.010318465 0.0035769248 -0.013848809
0.0447673 -0.012274539 0.03227837 0.0016587407 0.0072080134 0.04476283 0.006824191 -0.00083474827
0.0018197333 -0.012167837 0.0055499845 -0.00080991705 0.068894334 0.011581263 0.033660535 0.017752085
0.010754836 0.0070370072 -0.017045068 0.012375758 0.037509006 0.025545578 0.038540237 0.054117404

action_model._discrete_distribution.branches.0.weight f4 [7, 128]
00000000: e8eb 9a3c 933e 93bb 2060 383b 1862 1b3c
00000010: fe05 883c 3c30 953b 3321 bd3c f89e babc
00000020: 1858 7d3b 30d1 bdbb 43d2 51ba 39b5 fa3b
00000030: c3a5 05bc 3b8e a9bc 8c2a 8737 ad92 4e3b
00000040: e3f5 15bb 4d6a 81bc fcd2 d6bc cf7c 21bc
00000050: 9f79 24bc 7251 02bd 0b02 813c 8645 ba3b
00000060: 87c8 72bc 97ad 9e3c b34d b93b 3ea2 2abc
00000070: 5987 13bd b009 bd3c 0b9e 15bc 1f84 4d3c
00000080: 53e8 4e3c 6120 753c c648 8bbb b9e5 0cbc
00000090: 1861 38bc ffb0 1abc bb08 eabb b8e1 4dbc
000000a0: 4a3f 61bc 9e09 7bbc 40a1 ac3c f977 853c
000000b0: dae5 033d d275 8dbb 7ba7 8cbb 80e9 bf36
000000c0: 6a81 0f3c 073d a13c 03bc 553c db78 aabc
000000d0: 1d05 a0bb b53f 80bb 23c8 87bc d9f4 64bc
000000e0: 6f81 a8bb 59f5 8fb8 407d 3cbc 2f21 82bc
000000f0: 4aed 85ba 3438 f83c 54ba d23b 96d7 743c
00000100: f4be aebc 6f43 fc3c da9c 04bd 1a0d 993b
00000110: dec3 c93b 1cdd 9abb 6fed e1bc 82fd 8d3b
00000120: b384 ab3a c3fb acb9 4251 f93b d147 38bc
00000130: 24fc 3f3d e71a d53b ed39 643b 06e0 b7bc
00000140: be52 123c 9707 6dbc 692a 9a3c b9f8 16bc
00000150: c1b4 5f3a 60ae b23c 63f6 babc 1b37 433d
00000160: 0a92 523c 6ae0 bfbb 178a 323c 3997 c0ba
00000170: da0b 72bc 0e86 9d3c e5f4 c83c b48f 663c
00000180: 141e fa3c e5d6 2b3c b1e1 06bc 3376 e73b
00000190: 5cf4 85bb 1bab c33c 97bd 203c 23c9 9d3c
000001a0: f5d4 563b 3ba3 ccbc be03 14bc 6379 55bc
000001b0: 6078 21bd 68b6 0e3c 81c3 0d3d 7fed 1e3c
000001c0: 95d3 97bc 44a5 4ebd 567c e33c 35b9 1ebb
000001d0: 5a71 bc3c 7740 463c 074d 283c 9e30 a4bc
000001e0: ff72 883c a52e 913b 1e4b c83c abae cc3c
000001f0: d158 5dbb 6e9d 9a3b 988e ab3c 052c 973a
00000200: 73d0 f33c ab6e 033d c4f7 923d 6ad6 87bc
00000210: 335a 4d3d 6679 4d3c e96c 16bd 0996 093c
00000220: 02a3 7dbd dfcf 503d b273 1cbd 87f7 bebc
00000230: 0cf9 903c 12f4 ea3c 30ff bc3c 1faa f43c
00000240: 651d 9e3c cf8b 2bbd 54e5 c93c 7c00 8ebc
00000250: de1a 773d b4d7 c53c d13b 25bd a796 95bd
00000260: e53b 043d c193 fdbd b77d 04bd 3586 46bd
00000270: 9ba4 ffbc 938e 3d3c 9b3c 563d 95b6 5a3c
00000280: ad49 19bc daa4 ec3c 68a9 2bbc cc53 52bd
00000290: 7e9a 49bc fe8f eb3a b7d7 67bc eb6f 82bc
000002a0: cf7b d3bc ff75 3a3d b32d b03b f418 e9bb
000002b0: c8c1 edbc 2f9f b93d 0aac f3bb 4630 ba3c
000002c0: 801d 85bc 90ef 703c 377b 19bd 5085 de3c
000002d0: d266 983c 6d85 913c 8f34 92bd 2433 88bd
000002e0: c2d3 8d3c bc8d 393d cd82 dfbc 6cf7 4c3d
000002f0: 9961 f23a 0a01 1fbc aab5 22bd 6283 4ebd
00000300: 5c53 2ebd 664e ea3c 6543 8a3c 01f1 83bd
00000310: 607c 1ebd 2be9 0e3d fddc edbc 5a84 14bd
00000320: 4049 4b3c 1760 f3bd 866f d2bb b8cd 1e3c
00000330: 3189 063d 81bd cabd 1d03 93bd eeef fe3b
00000340: 6f4d 2bbd 3daf 0d3c 0ba3 b53c dc45 7e3d
00000350: 8fec 89bd 015a 35bc b0c0 423d 1b19 293d
00000360: 4555 a7bc 50f1 ff3c 4668 6a3c ea0e 433d
00000370: cc70 233d 33c8 1e3d 7ece b1bd e714 05bd
00000380: fe0a 943c a9ac 4abd dd8b e5bc a052 dbbd
00000390: a37b 37bd 420c 993c f325 1f3d 4974 333c
000003a0: b973 5abd 548a 493d a075 2cbc a84f 3f3c
000003b0: 5028 383d 3fbf 07bc 23b8 b93c ef88 2c3c
000003c0: 77f7 c33c 1d09 093d bbad 223c 8082 0a3c
000003d0: c1c7 bebd a9ff ae3c 2ac0 5bbd 47f0 bf3c
000003e0: 50f4 513d 9f57 613c 7ed5 ed3b bf13 0e3c
000003f0: ddc5 fabc c5dd 103d e291 f4bc a1d0 69bd
0.018911317 -0.0044935434 0.0028133467 0.009483837 0.01660442 0.004552869 0.02308712 -0.02278088
0.0038657244 -0.0057927594 -0.0008004049 0.007650998 -0.008157196 -0.020697704 1.6113067e-05 0.003152053
-0.0022882156 -0.015797758 -0.026223652 -0.009856417 -0.010038762 -0.031815954 0.015748044 0.0056845574
-0.014818317 0.019369883 0.0056550144 -0.010414658 -0.03601775 0.023075908 -0.009131919 0.012543707
0.012628633 0.014961333 -0.0042506186 -0.008599692 -0.011253618 -0.009441613 -0.007142154 -0.012566023
-0.013747999 -0.015322117 0.021072984 0.016292559 0.032201625 -0.004317024 -0.004292426 5.7194266e-06
0.008758882 0.01968242 0.013045314 -0.020809582 -0.004883422 -0.0039138445 -0.016574925 -0.013974392
-0.005142383 -6.864471e-05 -0.011504471 -0.015884964 -0.0010217812 0.030300237 0.0064309034 0.014943978
-0.021331288 0.030793874 -0.032376148 0.0046707513 0.0061573824 -0.0047260653 -0.027579037 0.004333199
0.0013085812 -0.00032993974 0.0076085636 -0.011247591 0.04687132 0.006503451 0.0034824566 -0.02244569
0.00893086 -0.014467142 0.01881905 -0.009214574 0.00085337093 0.021811664 -0.022822564 0.047659975
0.012852201 -0.0058556097 0.010897181 -0.0014693505 -0.014773333 0.019228961 0.024530837 0.014072347
0.03053192 0.010488247 -0.00823252 0.007063651 -0.004087968 0.0238853 0.009810827 0.019260949
0.003278074 -0.024980178 -0.009034095 -0.013029429 -0.03942144 0.008710481 0.034610275 0.009700178
-0.018533507 -0.05045058 0.027769249 -0.0024219279 0.023003269 0.012100331 0.010272271 -0.020042714
0.016656397 0.0044306093 0.024449881 0.024985632 -0.0033774863 0.004718474 0.020942017 0.0011533505
0.029762482 0.032087963 0.07176164 -0.016581733 0.05013485 0.012541151 -0.03672496 0.008397588
-0.061923034 0.05097949 -0.038196273 -0.02331139 0.01769688 0.028680835 0.023070902 0.029866276
0.019301126 -0.04188138 0.024645485 -0.017334215 0.060328357 0.024150707 -0.04034025 -0.07304125
0.032283682 -0.123816974 -0.032346454 -0.048467834 -0.03120642 0.011569637 0.05230389 0.013349195
-0.009355945 0.028887201 -0.010477401 -0.051349446 -0.0123049 0.001797199 -0.0141505515 -0.015922507
-0.025815872 0.045522686 0.0053765415 -0.0071135703 -0.029023066 0.09063565 -0.00743628 0.022728097
-0.016249418 0.014705554 -0.037471022 0.027163178 0.018603716 0.017763818 -0.07138931 -0.06650379
0.017312888 0.045301184 -0.02728405 0.050040647 0.0018492221 -0.009704838 -0.03972403 -0.050418265
-0.042559966 0.028601836 0.01687784 -0.06442452 -0.038692832 0.034890335 -0.02903604 -0.036259033
0.012407601 -0.11883562 -0.006421986 0.009692602 0.03284568 -0.09899426 -0.07178328 0.0077800667
-0.041821893 0.008647737 0.022172472 0.06207834 -0.06734573 -0.011068822 0.047547042 0.041283708
-0.020426402 0.031242996 0.014307087 0.047621645 0.039902493 0.038765144 -0.086819634 -0.032490637
0.018071648 -0.049481068 -0.028020794 -0.10709119 -0.044795644 0.018682603 0.03885455 0.0109530175
-0.053333018 0.049204186 -0.010526091 0.011676706 0.04496032 -0.008285343 0.022670811 0.010530694
0.023921711 0.033455957 0.009929116 0.008453965 -0.09315444 0.021362143 -0.05365006 0.023430003
0.051258385 0.013753801 0.0072581163 0.0086717 -0.030611927 0.035367746 -0.029854719 -0.05708373

action_model._discrete_distribution.branches.0.bias f4 [7]
00000000: d26f 81bc 9afd edbc 3133 f43c 0637 a73b
00000010: f880 6aba ccc2 1f3c 4c8f 5d3b
-0.01580039 -0.02905159 0.029809566 0.005102995 -0.00089456094 0.009751033 0.0033807335
