Assets/Hide and Seek/Brain/4_SeekerBehavior.onnx (onnx, 241361 bytes, 6 tensors)

network_body._body_endoder.seq_layers.0.weight f4 [128, 331]
000000 26 6e fa 3c e4 81 de 3d 8d 61 e4 bc 42 ae ae 3d
       0.030570101 0.108646184 -0.027878547 0.08529331
000010 56 09 7c bb 62 c2 cb bd a0 a5 dc bc 63 5c 7d 3d
       -0.0038457713 -0.09949185 -0.026934445 0.061855685
000020 c5 68 b5 3d a1 dc 86 3d 92 71 49 bd 3e ac 1d 3e
       0.08857874 0.065850504 -0.049180575 0.15397736
000030 c9 f7 a8 3d 08 8b 2b bc 23 3e c8 bb 94 14 d2 3c
       0.08250386 -0.010470159 -0.006110923 0.025644578
000040 a2 65 85 bc 27 74 1a 3e a1 8c 05 bd 8c 3b dc 3d
       -0.016283814 0.15083371 -0.032604817 0.10753545
000050 cc 48 fe bd 81 3c d5 3c 64 1d 3a bc 0b d0 a5 3d
       -0.12416229 0.026029827 -0.011359546 0.08096322
000060 f5 b2 5b 3b 10 be c5 3d 1f 5b a2 3d 85 94 cf bd
       0.0033523415 0.09655392 0.07927536 -0.1013575
000070 b8 bd 96 3d 1c 68 47 3d 44 0e 10 3d cd 5d e2 3d
       0.07360405 0.04868327 0.035169855 0.11053047
000080 90 22 24 3d 7f 4c cd 3d ac b6 14 bd ba 6a ec bd
       0.040072024 0.10024356 -0.036307022 -0.11543794
000090 a8 7b 43 bc 3a 3c 9e 3c 9b f2 c0 bc 70 f8 24 bd
       -0.011931337 0.019315828 -0.023553183 -0.04027599
0000a0 fd be 58 3d 12 b1 28 3c c7 b2 19 bd 70 b0 a3 bc
       0.052916516 0.010296123 -0.03752401 -0.019981593
0000b0 66 39 89 bd 58 de 5d bd b1 ff bd bc 8e fc 9d 3c
       -0.06700401 -0.05416712 -0.023193212 0.019285467
0000c0 08 cc b2 bc 42 a7 42 3c 21 7a 3c 3d 5d b8 09 bc
       -0.021825805 0.011880698 0.04601491 -0.008405772
0000d0 83 ac 0f be 34 c2 a2 3a a2 95 4d bd e2 66 d4 bd
       -0.14030652 0.0012417496 -0.05019153 -0.10371186
0000e0 cb bb 79 3d fe 03 0b 3d cc 6c 37 bc 63 b3 42 3b
       0.06097011 0.033939354 -0.011195373 0.0029708974
0000f0 8f 71 09 be 52 c5 0b be 64 81 4c 3a a6 cc 07 bd
       -0.13422225 -0.1364949 0.0007801263 -0.033154152
000100 1d b3 9b 3c 51 84 5e 3c c1 0d bf bd 5d 40 d5 bb
       0.019006306 0.013581351 -0.09328795 -0.006507917
000110 26 39 77 bd 6c 28 b5 bc 6b c7 00 be 3d 32 40 3c
       -0.060357235 -0.022114001 -0.12576072 0.011730728
000120 05 3b b7 ba c4 6a b1 bd de c7 17 bd 51 58 c2 bd
       -0.0013979381 -0.08662942 -0.037055843 -0.09489501
000130 1c 43 ac bd b2 3b 06 bd 26 9d dd 3d c8 0b 97 bd
       -0.084112376 -0.032771774 0.10820989 -0.07375294
000140 f8 b0 92 3d 82 63 01 3d b2 a4 bd bc ba 5c 96 bd
       0.0716266 0.03158904 -0.023149822 -0.07341905
000150 3b 68 63 bc 41 63 65 3d 1b d2 14 be bc 99 f5 3c
       -0.013879831 0.05600286 -0.14533274 0.029980533
000160 53 95 38 bd c8 8f d1 3d d2 78 0e bd d6 2b 46 3d
       -0.04506428 0.10232502 -0.034783192 0.04838165
000170 79 79 5f bd c5 dc f2 bd f2 95 69 3d 07 b8 4a bd
       -0.054559205 -0.11858515 0.057027765 -0.04949191
000180 e7 a6 60 bd 2b 80 08 be 0e 3a cd bd a4 fd 51 bd
       -0.05484667 -0.13330142 -0.10020839 -0.05126728
000190 2f 68 80 3c cd 91 03 3c 86 69 90 bd 2e 9d 1f 3e
       0.015674679 0.008030367 -0.07051377 0.15587303
0001a0 b4 7c bb 3d 0c b6 91 38 b7 70 a1 bc e1 c8 e4 3c
       0.091546446 6.948048e-05 -0.019707067 0.027927818
0001b0 3b c0 99 bd 45 dc 2e bd e2 4e d8 bc fb ee 18 bd
       -0.07507368 -0.042690534 -0.026404802 -0.037337285
0001c0 a2 91 6d bc 51 c2 bb 3d 8f 77 8c bd c8 5a 01 3e
       -0.014500054 0.09167922 -0.068587415 0.12632287
0001d0 dc 95 0f be 65 f8 7b 3d e5 29 71 bd ba 3f f9 3c
       -0.1402201 0.061516184 -0.058877844 0.030425895
0001e0 a0 94 26 3d 3f 37 1e 3c fa e8 0c bd c1 f9 3a bc
       0.040669084 0.009656726 -0.03440187 -0.011412085
0001f0 44 e2 7c bc 6f a5 65 bd 47 b9 64 bd 27 22 6b bc
       -0.015434805 -0.056065973 -0.055840757 -0.014351404
000200 0f 12 03 bd f4 73 8d 3c 2a bd fe 3d c0 7c 96 bd
       -0.031999644 0.017267205 0.12438424 -0.07348013
000210 fe b5 0b bc ec 78 dd bc 0f 72 08 bc 2f 2d b7 bd
       -0.008527277 -0.0270352 -0.008327975 -0.08944165
000220 f1 a0 aa 3d ab 29 13 be 56 8f 03 3e bf 80 a0 3a
       0.083314784 -0.14371364 0.12847647 0.00122454
000230 92 7c 00 bd 72 23 da bc 25 63 ce bd 47 7b e8 3c
       -0.0313688 -0.02662823 -0.10077504 0.028379096
000240 93 d5 95 bd a9 65 ee 3d 8e b8 28 3c d2 0a d5 bd
       -0.07316127 0.11640484 0.0102979075 -0.104024544
000250 53 26 90 3c 74 1c cb 3b 9b 44 2f bd da 13 3a bc
       0.0175964 0.0061984602 -0.042790037 -0.011357272
000260 64 f3 82 bd 9c 93 18 3d 1f 40 a4 3d 10 4d 3e bd
       -0.06394079 0.037250146 0.08020043 -0.04646021
000270 4a 12 1b 3c ab 58 96 bd 6a 25 fb 3c 0c a9 2a bd
       0.00946481 -0.07341131 0.030657489 -0.041665122
000280 eb f0 8a 3d aa 36 d9 3c f3 5c 8e bc c4 86 01 be
       0.06784233 0.026515324 -0.017378306 -0.12649065
000290 d0 92 2f 3c 77 b0 d8 bc 0c b8 d3 bc 80 14 9f bd
       0.010716155 -0.026451332 -0.025844596 -0.07767582
0002a0 5b aa 7f 3d f1 70 c0 bd 45 5c 88 bd 73 2b cc ba
       0.062418323 -0.09396542 -0.06658224 -0.0015576914
0002b0 08 c5 d7 bd df ba b2 bc c8 fd 74 bd 11 13 4e 3d
       -0.105356276 -0.021817623 -0.059812337 0.050311152
0002c0 22 2b 31 3c ed 5b 19 be 2a 48 18 3c 4a 5a 12 bd
       0.010813506 -0.14976473 0.009294549 -0.035730638
0002d0 34 b3 9c 3c a8 c1 ec bc 5b 88 da 3d bf 44 a3 3d
       0.01912842 -0.028900936 0.10670539 0.07972097
0002e0 cb ce 93 3d c3 f6 8f bc ba 14 c1 3c 59 40 0c bd
       0.07217177 -0.01757372 0.023569454 -0.034241054
0002f0 48 6f 4c bd 2f f5 84 bd 76 9f cf bc 30 98 1f 3c
       -0.049910814 -0.064920776 -0.025344592 0.009740874
000300 04 2e 62 bd 23 ba a6 3c 42 2b c4 3d 22 ff 54 3c
       -0.055219665 0.020352429 0.09578563 0.0130002815
000310 34 ac b5 3d 1c 21 2f bd 2b 31 02 3e 5f 1d 8c bd
       0.08870736 -0.042756185 0.12714069 -0.068415396
000320 0a a9 02 bb 32 b7 cc 3c 1e 07 5c bd 48 a4 ab bc
       -0.001993718 0.024989698 -0.053717725 -0.020952359
000330 0b 31 15 36 eb 99 7e bb 79 ce 0e 3b 6a d9 11 3c
       2.2231277e-06 -0.0038849066 0.0021790548 0.008901933
000340 7f 08 a9 3d 30 89 df 3d cf 7d 7b bd 62 3e 29 bd
       0.082535736 0.10914838 -0.061399277 -0.04131926
000350 e7 45 5e 3d b2 f8 0f 3d d3 87 5a 3d 0a b6 00 be
       0.054265883 0.035149284 0.05335219 -0.12569442
000360 d1 82 3c bd 08 1d 53 3b 11 fd 0c bd 92 96 ea 3b
       -0.046023194 0.003221335 -0.03442103 0.0071590627
000370 9d 03 d4 ba 06 0e 85 bb dd 7e 0f bd f0 ad 17 bd
       -0.0016175393 -0.0040605096 -0.035033096 -0.037031114
000380 e9 60 55 3d aa 50 80 bd 46 3b 03 bd 11 77 8a bc
       0.052094374 -0.062653854 -0.03203895 -0.016902478
000390 ac 91 aa bb 46 8b 83 bc 03 76 97 3a 80 d8 5b bd
       -0.0052053537 -0.016057622 0.0011555556 -0.053673267
0003a0 0a 9f 8a bc a1 d9 07 3d f5 b7 03 be e0 1a a0 3d
       -0.016921539 0.03316653 -0.12863143 0.07817626
0003b0 09 98 eb bc cb 6e 66 bc 02 4f 7a bc 38 77 84 bd
       -0.02875902 -0.014064501 -0.015277626 -0.06468052
0003c0 a3 5c 90 bd 6b ea 73 bd b6 4f 4e 3c ef 42 df 3d
       -0.07048919 -0.05954973 0.012592247 0.109014384
0003d0 0e 16 c2 bc d7 80 34 bd 02 9d 0d be 8a 30 0f 3d
       -0.023692157 -0.044068184 -0.13829425 0.0349584
0003e0 d5 5b 06 bd 1c 4b ce 3c 0c fa c9 bd 06 94 93 3c
       -0.03280242 0.0251823 -0.09862146 0.018014919
0003f0 3e 59 9d bd fa 1f 83 bd 1c 66 10 be c5 49 af 3c
       -0.07683037 -0.064025834 -0.14101452 0.02139748

network_body._body_endoder.seq_layers.0.bias f4 [128]
000000 9a 55 1f 3b c0 60 95 3c 28 dd a2 3c 25 7e 00 3d
       0.0024312497 0.01823461 0.019880846 0.0313703
000010 b8 70 69 3c 9b 47 fb 3b d3 ef 18 3c fe c4 10 3d
       0.014248066 0.007668448 0.009334522 0.035344116
000020 04 36 32 3c de 1a 50 3a a1 f9 4c 3c 45 ac d3 3b
       0.010877136 0.0007938574 0.012510688 0.006459745
000030 88 3e 8c 3c 6c ef 27 3c ec 89 d5 3c 06 e7 20 3d
       0.017119661 0.010249954 0.026066743 0.03928282
000040 64 57 d4 3c f1 b7 4a 3c fa 62 88 3c 87 e1 29 3d
       0.025920577 0.012372957 0.016648758 0.041474845
000050 61 04 9e 3c 19 f6 66 bc e0 f5 97 3c 13 ee 84 bb
       0.019289197 -0.01409676 0.01854986 -0.004056701
000060 74 59 b0 3c 8f bb bb 3c aa 98 f9 bb fc b2 a0 3c
       0.02152703 0.022916583 -0.007617076 0.019616596
000070 0b 17 f9 3c e4 ce ab 3b 43 cc b8 3c 5f fc d5 3c
       0.030406496 0.005243169 0.022558337 0.026121316
000080 f5 fc 1b 3d bd 16 8f 3c a0 26 6a 3d 70 70 8b bb
       0.038083035 0.017466897 0.057165742 -0.004255347
000090 e0 01 6e 3b 4c d5 af 3b b5 05 86 3c 85 26 93 bc
       0.0036317036 0.005366003 0.016360143 -0.017962703
0000a0 80 06 b2 3a 24 11 e3 3c 80 6c 66 3c 6d cb 63 3c
       0.0013582259 0.027718134 0.014063954 0.013903481
0000b0 c1 79 92 3c 18 ad c9 3c 88 cc bd bc f1 bc 8a 3b
       0.017880322 0.02461867 -0.023168817 0.0042339494
0000c0 30 57 8a 3a 9d cc 0e 3d 16 b1 84 3b 32 c7 08 3c
       0.0010554548 0.034863103 0.0040494306 0.008348273
0000d0 0e 8e c7 3b 0a 78 a4 3c 30 dd d0 3b 39 af 3b 3d
       0.0060899323 0.02007677 0.006374024 0.045821402
0000e0 96 5d d0 3a 1f 23 5e 3c 45 bf 8e 3c e4 65 ee 3c
       0.0015897031 0.013558178 0.017425189 0.02910132
0000f0 fd ad cc bb 6e 5e 32 bd e2 b8 32 3b 3a a7 bc 3c
       -0.006246327 -0.043547086 0.0027270843 0.023028959
000100 27 ad c1 bc 1d 04 b4 3c 74 48 a5 ba ba 10 5b 3c
       -0.023642136 0.021974618 -0.0012610094 0.013370687
000110 4f 44 9e 3c 3f da 17 3d 04 b8 a7 3c 8b e9 72 3d
       0.019319681 0.03707337 0.020473488 0.059304755
000120 d3 0d 92 3c ee 91 06 3c 23 02 a2 bb 2e 66 09 bd
       0.017828858 0.008213503 -0.0049441024 -0.03354471
000130 d3 12 8c 3c ab dd 47 3d 36 2d 98 ba 95 03 90 3c
       0.01709882 0.048795383 -0.0011610154 0.017579833
000140 b8 59 5a 3b fa fd a3 3c b2 71 b2 3b 21 65 c4 3c
       0.0033317637 0.020018566 0.0054456824 0.023974003
000150 6d 81 8b 3c b5 84 71 3c 27 47 64 3c 9c d1 2e 3d
       0.017029488 0.0147411125 0.01393298 0.042680368
000160 79 86 a8 3c 53 d9 99 3c 1f b8 53 3d dc 69 a5 3c
       0.020571934 0.018780386 0.051689263 0.02019208
000170 e4 5b d5 3c 01 84 01 3d 04 36 5f bc 14 c3 ce 3a
       0.026044793 0.03162003 -0.013623718 0.001577469
000180 d5 45 86 bb da 33 b4 3c 45 95 20 3b 50 f1 65 3c
       -0.00409768 0.021997381 0.0024503034 0.014034584
000190 89 13 0d 3d f8 ab 56 ba c8 e9 a8 3c 0e 99 7a 3c
       0.03444246 -0.00081890775 0.020619288 0.01529528
0001a0 81 f5 b4 3c 65 a3 62 3b 85 fe e5 3b 99 a9 bb bb
       0.022089722 0.0034582254 0.0070188665 -0.0057270047
0001b0 a7 61 d8 3c 82 20 e3 3c 9a 0f a2 3c 15 ca 8a 3b
       0.026413752 0.027725462 0.01978283 0.004235516
0001c0 e3 5e 93 3c b8 0c 04 3c 32 23 ea 3b 82 c2 9e 3c
       0.017989581 0.008059673 0.007145309 0.019379858
0001d0 53 c3 77 3c 5a a6 d5 3c e6 18 90 3c 1f fc 99 bc
       0.0151222525 0.0260803 0.017589998 -0.018796979
0001e0 37 74 81 3c 5f db 9e 3b 58 02 ce 3c 61 0a a4 3c
       0.015802486 0.0048479284 0.025147602 0.02002448
0001f0 00 39 0c 3d ad 30 fc 3c d9 25 8c 3a 81 6e 40 bc
       0.034234047 0.03078493 0.0010692432 -0.011745096

network_body._body_endoder.seq_layers.2.weight f4 [128, 128]
000000 36 9a 1b 3e 56 71 8f bd ba 03 ae 3d 87 a7 2c 3d
       0.15195546 -0.07004039 0.084968045 0.042151954
000010 26 46 4c be 4d 92 4b bd 67 82 82 bd 66 a2 18 be
       -0.19948635 -0.04970007 -0.063725285 -0.149057
000020 b9 e9 11 3e 03 10 d7 3c b5 fc 30 be 7b 14 09 bb
       0.14249314 0.026252752 -0.172839 -0.0020916748
000030 f6 eb 91 bd 66 aa d6 bd 7e fc 7d 3c 5e 39 12 3c
       -0.07125084 -0.1048172 0.015502093 0.00892481
000040 3e 7b 9c bd 5e 18 ef bc 8b 69 49 bc 6e 32 1d 3c
       -0.07640694 -0.029186424 -0.01229323 0.009594543
000050 f4 55 bb 3d 55 57 44 bd a4 cc 81 3e 6b ab 81 3e
       0.09147254 -0.04793485 0.2535144 0.25326094
000060 44 0f e4 bc 40 13 b4 3d 13 eb a7 3b d8 a7 9a bd
       -0.02783931 0.08792734 0.0051244586 -0.07551545
000070 af 8f 91 3d 2a 01 8b bd e3 19 8a 3c 70 c8 07 bc
       0.071074836 -0.067873314 0.016858047 -0.008287534
000080 fe 1e 37 bd 56 f5 89 3d 97 d1 65 3d ac c8 bf bd
       -0.04470729 0.06736247 0.056108084 -0.09364447
000090 8d c2 33 bc 41 92 e9 bd 38 85 99 3d c2 92 d5 bb
       -0.0109716775 -0.11404849 0.074961126 -0.006517739
0000a0 ef c8 00 bd 14 6f 3d 3e ad b3 3c bd 43 ee 07 3b
       -0.031441625 0.18499404 -0.04606979 0.002074138
0000b0 4c 47 39 3d b8 dc a9 3b 32 78 76 bc 53 23 30 3e
       0.04523401 0.0051837824 -0.015043305 0.17200975
0000c0 ba 5c cd 3d 58 ad 57 be 24 0b 7c 3d dd 92 a5 bd
       0.10027452 -0.21062219 0.061534062 -0.080846526
0000d0 64 6d d0 bd da fb be 3d 0e 3f ac 3c 27 9c 1a bb
       -0.101771146 0.093253806 0.02102616 -0.002359161
0000e0 72 be ef 3d 02 b0 a2 3d 6e a4 e2 3d 82 b0 b1 3d
       0.117062464 0.07943727 0.11066519 0.08676244
0000f0 52 9d c5 bd 98 9a 4f 3c 34 9b 9b bc 57 32 5f 3d
       -0.09649147 0.012671135 -0.018994905 0.054491367
000100 8b fc 83 bd 8d 7b 5c bd 61 b5 69 bb 8d 14 0d bd
       -0.06444653 -0.053828765 -0.0035661089 -0.034443427
000110 3b 84 b6 bb 54 e9 27 3d 9d b5 8e bd 71 be 01 be
       -0.0055699623 0.040994003 -0.06968234 -0.12670304
000120 46 ef ed 3d bc de 43 be e3 ff 33 bc 50 f1 6e 3c
       0.116179034 -0.19127935 -0.010986301 0.014583901
000130 71 67 69 be 92 4d 92 3b cb 41 c6 bc 82 0b dd bb
       -0.22793366 0.0044648135 -0.024201294 -0.0067457566
000140 fc 0f 52 bd 8f 8d 92 bd da 3f 52 3c 7b 5c ac 3d
       -0.051284775 -0.071559064 0.012832606 0.08416077
000150 5e dc e8 bd cb 4d 41 3e b2 d6 58 be 3a 6c a6 3d
       -0.11370157 0.18877332 -0.2117565 0.08126111
000160 b7 9d ab 3d f1 5e 5a 3d 64 04 28 3e 8b e1 2c bc
       0.08379691 0.0533132 0.16407925 -0.0105518205
000170 b1 f3 94 bc 10 62 58 bc 69 7d 12 bd 38 0a 4f 3d
       -0.018182607 -0.013206974 -0.03576413 0.050546855
000180 5f 85 87 3d 05 98 58 be d7 d0 bd bd 0f 25 7a 3c
       0.066172354 -0.21151741 -0.09268349 0.0152676245
000190 c3 3d 05 3c c8 67 ed bd 1e d0 4b 3d 18 71 c0 3d
       0.008132401 -0.1159206 0.049759023 0.09396571
0001a0 7c 34 2c 3e 6d 62 88 bd c1 1c 6c bb 8a d2 8a 3c
       0.16816896 -0.06659398 -0.003602788 0.016946096
0001b0 ee 5a 20 3e 2e 0d fa bd d5 73 c9 bd 32 4e b9 ba
       0.15659687 -0.12209545 -0.09836546 -0.0014137684
0001c0 80 a9 7d bc 73 20 d3 bd 23 a1 0e 3d 27 7d cb bd
       -0.0154823065 -0.103089236 0.03482164 -0.0993598
0001d0 03 a2 21 bc a4 44 af bb c8 8a bc bc 4d 99 c5 bc
       -0.009865287 -0.005348759 -0.023015395 -0.024120951
0001e0 2a fa 6a bd f8 c0 8e bd af 2f 8b 3c 31 27 2f be
       -0.05736748 -0.069703996 0.01699051 -0.17104794
0001f0 1a 25 db 3d 0d 87 07 3d 36 ce 26 bc b0 59 aa 3d
       0.10700436 0.03308778 -0.010181 0.08317888
000200 32 ba 9a 3d af 2f 20 be 1a 46 3b 3d 5b 35 44 3d
       0.07555045 -0.1564319 0.04572115 0.047902446
000210 6b 9b 7b 3d f6 f9 61 3d 78 4b 24 bd 9b b9 ea bd
       0.061427515 0.055170022 -0.040111035 -0.11461183
000220 a6 b5 4b 3c 98 d6 43 3d 6b fe 2b 3d df 63 44 3d
       0.012433445 0.047812074 0.04199068 0.047946807
000230 8a 1d 40 be b4 da 89 bd f7 fe 86 3d 85 31 e2 3d
       -0.18761268 -0.067311674 0.065915994 0.11044601
000240 c9 fa 2f 3e a3 e6 f2 3c c5 5c 01 3d bd 02 80 3d
       0.1718551 0.029650992 0.031582613 0.06250522
000250 a8 95 20 bd 35 98 a8 3d 03 bc eb 3c fa 10 4a bd
       -0.039205223 0.08232156 0.028776174 -0.049332596
000260 ce 06 55 3e 18 27 63 be 41 4a fc bc 6d c9 01 3e
       0.20803377 -0.22182882 -0.030797126 0.12674494
000270 7f b5 e2 3d 60 7b 35 3d 6e 7c 4e 3c 17 4e b0 3c
       0.11069774 0.044307113 0.012602909 0.021521611
000280 3a e1 43 bb 43 63 54 3e 45 cc aa 3d 83 49 bd 3c
       -0.0029888884 0.2074099 0.083397426 0.023106342
000290 5b 60 61 bd a7 8a 0a 3d 7c 78 0f be 01 1b 43 bd
       -0.055023532 0.033823635 -0.14010805 -0.047633175
0002a0 96 dc c0 bc 0f 09 d2 bd 80 64 17 bd 35 46 d1 3d
       -0.023542684 -0.10255634 -0.03696108 0.10218469
0002b0 97 3b 2f be 4d 64 34 3e ce e3 88 bd 07 26 1b be
       -0.17112575 0.17616387 -0.06684075 -0.15151225
0002c0 59 e8 98 bd d8 1e 56 be fd b2 30 ba 35 bd df 3d
       -0.07466192 -0.20910203 -0.00067405385 0.1092476
0002d0 6d f9 c0 bd b9 07 17 3d 9d c7 6d bd 46 29 17 be
       -0.09422574 0.0368726 -0.058051694 -0.14761838
0002e0 36 ec e9 bd fc c9 a7 3c 48 70 17 bd c1 a1 d3 bc
       -0.11422007 0.020482056 -0.036972314 -0.025833966
0002f0 cd 02 c9 3c 11 7c 83 bd 30 08 8f 3c 7f b8 8e 3d
       0.024537468 -0.06420148 0.017459959 0.069687836
000300 91 90 a4 bd 23 09 3e 3a 7f 29 96 3d 71 81 b7 bd
       -0.08035386 0.0007249286 0.073321335 -0.08960236
000310 fc b8 6f bd a7 2b ec bd 16 51 1e 3e ab 0a 74 bd
       -0.058526024 -0.115317635 0.1546062 -0.059580486
000320 81 eb fd 3a ad 6b 08 3e c1 c9 dd 3c bc 85 7b 3d
       0.0019372554 0.13322325 0.027073743 0.061406836
000330 ec 92 26 3d da 9b 94 3c e5 b3 d4 3c c0 2d 55 bc
       0.04066746 0.018140722 0.025964687 -0.013011396
000340 b9 59 15 bb 54 6a 6a bb 31 81 58 bd 0e 89 c6 bd
       -0.0022789075 -0.0035768943 -0.05285758 -0.0969411
000350 d3 e8 32 bd 5d e9 aa 3c 62 67 61 bd dc 49 3e be
       -0.04367907 0.02086323 -0.055030234 -0.18582863
000360 50 7a 6f bd 0d ef 95 3d bc c7 bc 3d 1f 4f ee 3c
       -0.058466256 0.07320986 0.09217784 0.029090462
000370 f8 47 ac 3d f3 17 2d 3e 21 54 61 3d 4b 3c ed 3c
       0.084121644 0.16903667 0.055011872 0.028959414
000380 3f 07 9b 3d a8 1f 92 3d cb 45 18 3e 3c 94 01 bd
       0.075697415 0.07134944 0.14870374 -0.031635508
000390 a7 8c 0e bc ee b6 06 3e 9b e5 6a 3d d9 72 de bd
       -0.008700526 0.1315572 0.057347875 -0.10861749
0003a0 85 8c 0d bd c0 8c 22 be f9 1c 01 be a5 d5 ee 3d
       -0.034557838 -0.15874004 -0.12608708 0.11661843
0003b0 f7 c5 c8 3d 00 e6 0b 3e f5 15 6c 3e 21 5d 8b bd
       0.09803384 0.13661957 0.23055251 -0.06804872
0003c0 b8 eb ec 3c c7 ac 0a 3d 59 27 05 3d fe b2 63 bd
       0.028920993 0.03385618 0.032508228 -0.055590622
0003d0 31 f6 fc bd 67 7d 24 bc 91 23 4d 3e 72 20 00 3d
       -0.12351645 -0.010039664 0.20033099 0.031280942
0003e0 63 89 a6 3d a8 48 d3 3c 22 9c ce 3d 7c 5c 54 bd
       0.08131673 0.025791481 0.10088374 -0.051846012
0003f0 c5 40 9d 3d 67 03 40 3c 85 9d 79 3d bb 3e 42 be
       0.076783694 0.011719561 0.060941238 -0.18969242

network_body._body_endoder.seq_layers.2.bias f4 [128]
000000 a2 16 12 bc 43 b9 2b 3d d6 4c bc 3c 01 8c f6 3c
       -0.008916529 0.041924726 0.022985857 0.030096056
000010 ae 4e dd 39 dc a6 9f 3c 41 47 d0 3c ac 03 80 3c
       0.00042211026 0.019488744 0.025424602 0.01562675
000020 dd b7 b7 ba f4 8e 80 3b f7 0d 84 38 44 70 99 bb
       -0.0014016588 0.0039232913 6.296852e-05 -0.0046825726
000030 7a 3c 25 3c af 7a 4d 3c 50 34 95 3c 0a 3c 55 3a
       0.0100852195 0.012541457 0.018213421 0.00081342517
000040 2c c5 be 3c af 71 b6 3c 5d 68 1d 3a 28 82 83 3b
       0.023287378 0.022271005 0.0006004626 0.0040133186
000050 de 70 8e 3c ad 1f b7 3c 7c b5 94 bb 8e 99 07 3c
       0.017387804 0.022353971 -0.004538236 0.008276356
000060 1a 9e fa 3c a4 af 93 b8 bb 2c 51 3c e6 c5 16 3b
       0.030592967 -7.042222e-05 0.012767012 0.002300614
000070 9c 0c a4 3c d4 1e fb 3c 69 6d 5c bb aa 74 cf 3b
       0.020025544 0.030654348 -0.003363455 0.006331046
000080 42 3d 50 3c fb 2c ab 3c e5 a4 7b bc 63 2a 94 3c
       0.0127099175 0.020895472 -0.015359138 0.018086618
000090 e1 94 b3 3c 0c 2d 7f 3c 56 1a a2 3c b7 d0 fc bb
       0.021921577 0.015574705 0.019787949 -0.0077153104
0000a0 c3 3a a7 b9 19 ee 73 3c 33 0f 5b bc 6a 20 fb 3c
       -0.00031896503 0.01488831 -0.013370323 0.030655105
0000b0 95 7d a9 3c 9b 45 df 3c 32 0c e2 bb 89 11 91 3c
       0.020689765 0.02725487 -0.0068984265 0.017708557
0000c0 96 07 e5 ba 82 46 9b 3c ac f6 23 3c 30 8f 20 3c
       -0.0017473574 0.01895452 0.010007542 0.009799764
0000d0 12 8f 83 3c 38 8b ca 3c 59 76 1c 3d 41 9e d1 3b
       0.016059432 0.024724588 0.038198803 0.006397039
0000e0 57 5f 15 3d 33 cb f9 3c 5d 3a 19 3c cb 3a ad 3c
       0.036467876 0.0304924 0.009352294 0.021146199
0000f0 5e e3 3b 3c 22 9c 79 bb e9 49 25 bc 68 ad 30 3c
       0.011467783 -0.0038087447 -0.010088422 0.010783531
000100 f9 6f 21 ba 53 2e 88 3b 7a cc a7 3c e8 22 df b8
       -0.0006158348 0.004155913 0.020483244 -0.000106399704
000110 d2 27 bd 3c e5 ed 0d 3c 44 60 b5 3c f1 ae 80 3c
       0.023090277 0.0086626755 0.02214063 0.015708419
000120 74 0b 84 ba df 9c e0 3a c2 a5 4e 3c e1 6a a4 3c
       -0.0010074214 0.0017136595 0.012612762 0.020070495
000130 02 13 92 3c 4b 51 e7 3b 3b 69 dc 3c 38 da f3 3c
       0.01783133 0.0070592514 0.026905647 0.02976714
000140 08 b5 b3 3b e5 1f 71 bc 23 87 49 3c 7a 5f d6 3c
       0.005484227 -0.014717077 0.0123002855 0.026168574
000150 8f 3e 81 b9 71 eb e3 3c 77 5a 13 bc e8 93 2e 3b
       -0.00024651407 0.027822228 -0.0089937365 0.0026638452
000160 d5 fc 15 3c 73 20 59 3c b4 2f 30 3c 63 cc 87 3c
       0.009154518 0.013252365 0.010753561 0.016576951
000170 52 02 af ba 90 7d 11 bc 3b e0 44 3c 7c 52 65 3b
       -0.0013352132 -0.008880034 0.012016351 0.0034991791
000180 f0 ce b6 3c 7a 61 d6 3b 7d 5a cd 3c 0b 32 ca 3c
       0.022315472 0.006542382 0.025067562 0.024682065
000190 77 05 4f 3c 24 c9 a6 3c 0d 0d 07 3c 2f d6 7f 3b
       0.01263558 0.020359583 0.008242858 0.0039037575
0001a0 3e 53 80 3c 55 a8 08 3d 3b f8 99 3c eb 23 7d 3c
       0.015664693 0.03336366 0.018795123 0.015450458
0001b0 b5 0c 27 3c c2 5b 1c 3d e3 19 e4 3c 5b 39 b7 3c
       0.010195901 0.038173445 0.027844375 0.022366216
0001c0 ee 50 ba 3c c0 c7 39 3c 37 fb 95 3c 64 0b b4 3c
       0.022743668 0.011339128 0.018308265 0.021978088
0001d0 20 61 ac 3c 5e de fa 3c 3a c9 23 3b 07 7b 4f 3a
       0.021042407 0.030623611 0.0024991767 0.0007914756
0001e0 f2 9d 35 bc e7 f9 d0 3c 94 62 74 bc 18 d7 f1 3b
       -0.01108502 0.025509788 -0.014916081 0.0073803775
0001f0 e8 bf 59 3c 67 67 b9 3c 34 53 03 3d bd 54 b3 3c
       0.013290383 0.022632314 0.03206177 0.021890992

action_model._discrete_distribution.branches.0.weight f4 [6, 128]
000000 89 56 94 3c 83 0b 8b 3c 1e a6 71 bc d9 73 b3 bc
       0.01810767 0.016973263 -0.014749078 -0.021905826
000010 53 6c 21 3a f3 ef 91 bb d2 1f c4 3c 88 d0 25 3b
       0.0006157804 -0.004453653 0.023940954 0.0025301296
000020 7a d9 3c bc 04 25 a6 bb cf 81 a0 3b 34 a5 a4 bc
       -0.01152646 -0.0050703306 0.004898287 -0.020098306
000030 b6 8c fc 3b 6a db 96 bc cf d6 f5 3c 11 af 75 3c
       0.0077072037 -0.018415172 0.030009655 0.014995352
000040 11 ee d7 bc b0 c9 15 bd 97 13 b3 b9 f6 84 8b bb
       -0.026358636 -0.036569297 -0.00034156136 -0.0042577935
000050 20 bc ea 3b a8 fe a3 bb fe 51 23 bc 8e ad 19 bc
       0.0071635395 -0.0050047226 -0.009968279 -0.009379758
000060 70 1c 19 bc 97 fb a8 3b 7f 78 e6 bc d8 d7 30 bb
       -0.009345159 0.005156945 -0.028133629 -0.0026984122
000070 bc c5 67 bc ad e1 94 bc a2 b4 9c 3c b0 77 b1 bc
       -0.014146265 -0.018174017 0.019129101 -0.021663517
000080 cc 3f d3 bc 4c 63 77 3c 03 44 b7 bc d3 af 90 3c
       -0.025787257 0.015099358 -0.022371298 0.017661965
000090 9b fa 9d bc 25 64 6e bc 14 9a 5a 3b ec f9 82 3c
       -0.019284537 -0.0145502435 0.0033355998 0.015988313
0000a0 d8 db 4f 3c 3a a3 3f bd ed a7 af bb 95 5a 3d 3c
       0.012686692 -0.046786524 -0.0053605945 0.011557241
0000b0 bd 17 93 bb 15 b9 12 3d 6e 7c 26 bc dd 65 33 bc
       -0.004488914 0.03582104 -0.010161502 -0.010949579
0000c0 b5 f2 c5 bc 12 62 ab bc 8e 97 3e bc bc 8c 4c bc
       -0.024163583 -0.020920787 -0.011632813 -0.012484726
0000d0 92 86 32 bc 19 a8 a8 bb 07 ef 97 bc 6a 67 37 3c
       -0.010896342 -0.005146992 -0.018546594 0.011194089
0000e0 d3 58 59 bc 8c 21 98 bc 41 00 84 3b e5 28 34 bd
       -0.013265806 -0.018570684 0.0040283506 -0.043984313
0000f0 30 cf 26 bd 27 5c 97 bc 56 c7 47 3d 39 54 00 3d
       -0.040724933 -0.018476559 0.048774086 0.03133032
000100 71 de a1 bc c1 d6 19 3c e8 04 fa bc ad f2 01 3c
       -0.019759389 0.00938958 -0.030519918 0.007931394
000110 50 72 4d 3c 38 4d a2 3b 61 fa 03 3b 1e 8d 51 bc
       0.012539461 0.004953053 0.002013825 -0.012789993
000120 61 bc c8 bb 3b c5 07 bb f9 c3 d1 bb 80 2f 8c ba
       -0.006125972 -0.0020716924 -0.0064015356 -0.0010695308
000130 05 3b 02 bd 58 6e 8f bb 9d dc e1 bc 0f 90 55 bc
       -0.031794567 -0.0043771677 -0.027571017 -0.0130348345
000140 6d 09 32 39 6b dd 8b bc 70 8a f5 bc 02 db 88 bc
       0.00016978914 -0.017073354 -0.029973239 -0.016705994
000150 2b 8e ca bc b4 25 aa 3c 3c 7f 19 bc ae 0f 59 3c
       -0.024725994 0.020769931 -0.009368714 0.013248367
000160 4a 57 c2 bc 4a af 01 3d df 35 48 bc 5a 8d bc bc
       -0.023723263 0.03166131 -0.012219875 -0.02301662
000170 72 2e f2 3c a9 18 f8 ba 22 30 e5 bb c6 02 c4 bc
       0.029563162 -0.0018928248 -0.0069942633 -0.023927104
000180 f0 91 91 bc e8 09 9b bc 0b 74 a0 bc 8a 43 2a bc
       -0.017769784 -0.018925622 -0.019586584 -0.010392079
000190 c3 2f a8 3b 30 df b7 bc 14 8e a4 bc b0 29 f4 bc
       0.0051326468 -0.022445291 -0.02008728 -0.029805034
0001a0 2a c7 a0 3c 07 e5 0f bd 25 c3 0c 3d fc f4 3d bc
       0.019626219 -0.035130527 0.03436579 -0.011594053
0001b0 64 5f fc bc db 7d 10 bd 0f d8 c7 bc a8 ac a4 bc
       -0.030807205 -0.035276275 -0.024395017 -0.02010186
0001c0 8c 53 11 bc 56 6e 1a bd 64 c6 ab bb 25 88 89 3c
       -0.008870017 -0.03770288 -0.005242156 0.016788552
0001d0 f8 e2 1b 3d b2 a9 c2 bb c2 73 2b 3a ac 59 c6 bc
       0.03805825 -0.0059406394 0.00065403816 -0.02421268
0001e0 b1 7b cd 3b c7 eb af bc a0 5e 01 3b 61 3d 33 bd
       0.0062708487 -0.021474732 0.0019740239 -0.043759707
0001f0 40 d3 25 bb b8 76 ac 3b ed a8 c5 bb b0 a4 10 bd
       -0.0025302917 0.005263176 -0.0060321004 -0.03531331
000200 cd 43 bd bc 55 17 25 bd a0 45 57 bd 78 04 a2 bc
       -0.023103619 -0.040305454 -0.052556634 -0.019777521
000210 d5 e5 0d bd b1 7f 8b bd 0d aa 7a bc fa d3 5d bd
       -0.034643013 -0.068114646 -0.015299332 -0.054157235
000220 23 bf 70 3d 1a 41 d1 3c 2e f1 93 3c b9 12 85 3d
       0.058776032 0.025543738 0.01805934 0.06497712
000230 23 97 79 3d 01 66 99 bc aa 5e 1d bd 50 50 89 3c
       0.06093515 -0.018725397 -0.038420357 0.016761929
000240 ad 77 db bd e4 89 bc bc 08 a9 28 3d 6a c4 11 3d
       -0.10716186 -0.02301497 0.041176826 0.035587706
000250 7f 5b 21 bd 15 92 dc bc 8c ce 10 3c 79 89 5a 3c
       -0.039393898 -0.026925126 0.008838307 0.01333844
000260 ae 6b 8d bd e5 cc dc bc c6 76 ed 3a 84 82 b2 3c
       -0.06905304 -0.02695317 0.0018117062 0.02179075
000270 80 2d 5e bd e3 0f 57 3d 2f 5f 01 3b 6d 64 35 3c
       -0.05424261 0.052505385 0.0019740572 0.011071307
000280 ba ce ad 3d b4 3b 63 bc 2a ac 63 3c f4 9f e2 bc
       0.084866956 -0.013869215 0.013896028 -0.027664162
000290 f7 e9 8f bd 9c f3 85 3c ac e7 ec 3c e3 7b f2 3c
       -0.07027047 0.016351514 0.028919064 0.02960009
0002a0 c4 b5 ec bc 8d 0f 08 3d 05 07 21 3d 08 a3 60 bd
       -0.028895266 0.033217955 0.039313335 -0.05484298
0002b0 8c 01 00 bd 5e e8 05 3d 29 fa 14 3c 40 a7 6e bd
       -0.031251475 0.032692306 0.009092846 -0.05826497
0002c0 00 d8 91 3d 9d b7 98 3c 81 70 d4 bb 00 18 41 3b
       0.07121277 0.018642241 -0.006483138 0.0029463768
0002d0 af fb 42 bc 8f 86 84 3c 3a bc 93 bd f1 5b cb 3b
       -0.011900826 0.016177444 -0.07213636 0.0062060286
0002e0 5a 82 8f bd 65 29 b4 bd da 32 a2 3c 25 17 17 bd
       -0.070072845 -0.08796958 0.019799639 -0.036887307
0002f0 a1 ae f9 bb 1b 31 18 3d 1f 9d 9c 3c e5 fc 5f 3c
       -0.0076196943 0.037156206 0.01911789 0.013671135
000300 a0 ba 73 3c a1 06 da 3b 9a ef f7 3c ba ff d5 3c
       0.014876038 0.0066536223 0.030265618 0.026122916
000310 4c cd 72 bd 90 12 31 3c 90 aa 64 bd f7 75 fd 3c
       -0.059277818 0.010807648 -0.055826724 0.03094004
000320 93 ee f3 3a cd 1e f9 3b 5c 5b e5 3c af 11 81 bb
       0.0018610529 0.0076025487 0.027997665 -0.0039388756
000330 10 d3 e0 3c 7e fd a1 3c 40 20 5d bd 4d da d5 bc
       0.027444392 0.019774195 -0.053985834 -0.02610507
000340 af fe bb bb fe 51 23 3d ad ae 2c 3d 73 54 bd bc
       -0.0057371478 0.039873116 0.04215877 -0.023111558
000350 ce 47 d8 bb 35 29 cf bc dd 9b 24 3d 1e fa 50 3d
       -0.0066003567 -0.025288204 0.040187705 0.05101978
000360 23 1c 44 3c 27 5a 51 bd 7f cd 43 bc 82 ea 44 3d
       0.011969599 -0.051111367 -0.01195085 0.048075207
000370 7b 5a 9e bc e7 de 74 ba d5 28 5a 3c 6e 2b 36 3d
       -0.019330254 -0.00093410764 0.013315399 0.04447501
000380 bd a4 0b bd 77 b9 49 bd 6f ab 30 bd d5 2a 31 bc
       -0.034092654 -0.04924914 -0.04313224 -0.010813435
000390 fa 40 41 bd 46 52 ab 3c 05 3a 39 3d 5f 6c 8c b9
       -0.047181107 0.020913254 0.045221347 -0.00026783624
0003a0 8e 69 c0 3c 46 41 49 bd 08 58 3c 3d 9a 9e de 3b
       0.023487832 -0.049134515 0.04598239 0.006793809
0003b0 8b 7f 89 bc bc f8 00 bd dd 00 b5 bb 5b 56 40 3d
       -0.01678445 -0.03148721 -0.0055237846 0.046957355
0003c0 53 ac 32 3d 68 59 5a 3d 99 a4 3f bc a1 d8 14 bd
       0.043621372 0.05330792 -0.011696958 -0.036339406
0003d0 55 48 58 3c a9 7f b2 3c c7 5d 80 bc 94 83 48 3d
       0.013200839 0.021789389 -0.015669717 0.048953608
0003e0 c8 31 56 bb 7c 41 28 bd 21 c3 17 3d d7 64 16 bd
       -0.003268348 -0.041078076 0.037051324 -0.036717262
0003f0 ef 47 63 bd d0 a7 28 bd 92 a1 e0 bd b7 11 32 3d
       -0.055488523 -0.041175663 -0.10968317 0.043473925

action_model._discrete_distribution.branches.0.bias f4 [6]
000000 bc 00 7b bc 20 dc f2 bb 08 8f 69 bb 2d 81 95 3c
       -0.015319999 -0.007411495 -0.0035638232 0.018250072
000010 b3 97 ac 3a 5c 60 0d 3c
       0.0013167768 0.008628931
