Assets/Hide and Seek/Brain/5_HiderBehavior.onnx (onnx, 197845 bytes, 6 tensors)

network_body._body_endoder.seq_layers.0.weight f4 [128, 245]
0	0x3d86f065	0.0658882
1	0xbcbdba58	-0.023160145
2	0x3df83faa	0.12121518
3	0x3db20231	0.08691824
4	0xbe423bab	-0.18968074
5	0x3d99fd32	0.07518996
6	0xbd9de07c	-0.077088326
7	0xbcacf113	-0.021111047
8	0x3d463a70	0.048395574
9	0x3d1b345e	0.037891738
10	0x3da13a20	0.078724146
11	0x3e3237b5	0.17404063
12	0xbd9d2aed	-0.07674203
13	0xbdf039de	-0.11729787
14	0x3d2298e5	0.039696593
15	0xbd17ad22	-0.037030347
16	0x3d6132fe	0.05498027
17	0xbdca32c3	-0.09872963
18	0x3d814aaa	0.06313069
19	0xbdb6d6d2	-0.089276925
20	0xbe0096dd	-0.1255755
21	0xbd15d9bc	-0.0365846
22	0xbdfb764d	-0.122784235
23	0xbd9005a4	-0.07032326
24	0x3d6b17c8	0.057395726
25	0xbd4d0c1a	-0.05006037
26	0xbde3ea22	-0.11128642
27	0xbe41ff19	-0.18944968
28	0x3c1bce7e	0.009509681
29	0x3d9bcf19	0.0760786
30	0x3caff91b	0.021481087
31	0x3d141c87	0.03616002
32	0xbd55572b	-0.052085083
33	0xbb9523af	-0.004551373
34	0x39b02093	0.00033593606
35	0x3cd9c57e	0.02658343
36	0x3dad5ad5	0.084645905
37	0x3c247301	0.010037185
38	0x3cc411eb	0.023934325
39	0x3daa93c2	0.08328964
40	0xbdc3e31a	-0.095648006
41	0x3e2d51f5	0.16925795
42	0xbc3436de	-0.0109994095
43	0x3d9b5081	0.07583714
44	0xbd8b633c	-0.06806037
45	0x3ce28247	0.027650012
46	0x3d82d1f8	0.063877046
47	0x3b916561	0.004437134
48	0x3dcbb6c9	0.09946973
49	0x3ca02579	0.019549118
50	0xbc8a9bf2	-0.016920064
51	0x3c1779d7	0.0092453575
52	0x3e51bcac	0.20482129
53	0x3ccd07ac	0.025028072
54	0x3dc4da39	0.09611935
55	0xbce84625	-0.02835376
56	0xbcd0a369	-0.025468545
57	0x3ce9e79b	0.02855282
58	0x3ccc928a	0.024972219
59	0x3da46d0c	0.080286115
60	0x3d10ddd1	0.03536779
61	0xbdf2be6e	-0.11852728
62	0x3d9f5c69	0.07781298
63	0x3c6533f7	0.01398944
64	0x3de1fa85	0.11034111
65	0x3c69a95c	0.01426157
66	0xbc9efac7	-0.01940669
67	0xbd729dd1	-0.059232537
68	0x3b037c55	0.0020063121
69	0x3cb620e5	0.022232482
70	0x3d386c5f	0.045025226
71	0x3c414c37	0.011797956
72	0xbd002826	-0.03128829
73	0xbc85bc9a	-0.016325284
74	0x3d88f5aa	0.06687482
75	0x3d1d18e2	0.03835381
76	0x3e04fa89	0.12986197
77	0x3d7d713e	0.061875574
78	0xbd237bb7	-0.039912906
79	0x3e038a33	0.12845688
80	0xbd131359	-0.035907123
81	0xbd8cb9b0	-0.068713546
82	0xbc521503	-0.012822392
83	0xbc984cc7	-0.018591298
84	0xbd3b1fff	-0.04568481
85	0xbd833164	-0.06405905
86	0xbc6fd93d	-0.014639196
87	0x3ddf42a7	0.10901385
88	0x3dcbfc4c	0.09960231
89	0x3da8532c	0.08218989
90	0x3d01f5e5	0.031728644
91	0x3de3fd74	0.11132327
92	0xbde8056b	-0.113291584
93	0x3dd38a3a	0.10329099
94	0x3dc80fef	0.09768664
95	0xbbf9f609	-0.0076282066
96	0xbda57e45	-0.080807246
97	0xbde7b909	-0.113145895
98	0xbd99eff4	-0.075164706
99	0x3c9f0884	0.01941324
100	0xbc087253	-0.008328038
101	0x3e319dc2	0.17345336
102	0xbd529202	-0.051408775
103	0x3c9f31d1	0.019432934
104	0x3cc38512	0.023867164
105	0xbc5ff9fc	-0.013670441
106	0x3c6bce2b	0.014392416
107	0xbcaf2a58	-0.021382496
108	0xbd401492	-0.046894617
109	0x3d5c0bfa	0.05372236
110	0x3d04cd46	0.032422327
111	0x3d45e674	0.04831548
112	0xbb7d882a	-0.0038685896
113	0x3ca9d17d	0.020729775
114	0x3d85c215	0.06531159
115	0xbda80973	-0.08204927
116	0xbc1e84bf	-0.009675204
117	0x3dda1c47	0.10649925
118	0x3d61601d	0.0550233
119	0x3d06516a	0.032792486
120	0xbd84ab12	-0.064779416
121	0xbc8aec67	-0.016958429
122	0x3dd78cc3	0.10524895
123	0xbc9c4ead	-0.019080484
124	0xbd1e5a9f	-0.03866064
125	0x3cc8571d	0.024455601
126	0x3d9ccb87	0.07656007
127	0x3dd1848e	0.10230361
128	0x3ce272e0	0.027642667
129	0x3d823614	0.06357971
130	0xbd6eb059	-0.058273647
131	0x3d946abf	0.07246923
132	0xbbd90d18	-0.0066238753
133	0x3cd23ec9	0.025664704
134	0x3e03a7b1	0.12856938
135	0x3e1606c9	0.14651026
136	0xbde0daf8	-0.10979265
137	0xbd1a4455	-0.037662823
138	0xbd8a0a51	-0.06740249
139	0xbce3b70f	-0.02779725
140	0x3cacaa70	0.021077365
141	0xbd2a8275	-0.04162832
142	0xbbc9851f	-0.0061499025
143	0x3b7ce7bd	0.0038590275
144	0xbd3a81cc	-0.04553394
145	0x3dbcf149	0.09225709
146	0xbda0529a	-0.07828255
147	0x3d070407	0.032962825
148	0x3c6bdbf2	0.014395701
149	0x3d39a1b6	0.045320235
150	0x3ca529a5	0.02016146
151	0x3aa6fc4c	0.0012739985
152	0x3deb003c	0.11474654
153	0xbce57828	-0.028011397
154	0x3da099b7	0.07841819
155	0xbd928022	-0.07153346
156	0x3cc0fcb0	0.02355799
157	0x3ca2ea78	0.019887194
158	0x3d1394a5	0.03603043
159	0x3daeb80f	0.085312
160	0x3e138177	0.14404856
161	0x3d00ade8	0.03141585
162	0xbe062fce	-0.13104174
163	0x3d26c5a6	0.040715836
164	0x3dc86c48	0.09786278
165	0xbd268724	-0.040656224
166	0xbccadfd0	-0.024764925
167	0x3d209aef	0.039210256
168	0x3dc7221a	0.09723301
169	0xbd25b92f	-0.040459808
170	0x3d1324fb	0.03592394
171	0x3d65d986	0.05611565
172	0xbdcd3449	-0.10019738
173	0x3d8d53c3	0.06900742
174	0xbb0c87d8	-0.0021443274
175	0x3d69f537	0.05711862
176	0x3d975b4b	0.073904596
177	0x3ce2e8c1	0.027698876
178	0x3a7fdbf0	0.0009760251
179	0x3e0f8f8e	0.14019606
180	0xbc08c111	-0.008346812
181	0xbd6c397f	-0.05767202
182	0x3d7fa958	0.06241736
183	0x3c5a5f88	0.0133284405
184	0x3d029a0f	0.031885203
185	0x3d317565	0.043324847
186	0x3d114ccd	0.035473634
187	0x3b1504a3	0.002273836
188	0x3e077f9e	0.13232276
189	0x3d7b82e7	0.061404135
190	0x3db5babe	0.08873509
191	0x3d06ba55	0.032892544
192	0x3c680e76	0.014163604
193	0xbd8c05f4	-0.06837073
194	0x3db084c0	0.0861907
195	0x3c9170f5	0.017754057
196	0x3cce3465	0.025171468
197	0x3c2078bf	0.009794413
198	0x3c2697b0	0.010168001
199	0x3dd647e5	0.104629315
200	0xbd13f076	-0.036117993
201	0x3ca755b5	0.02042661
202	0xbb74139e	-0.0037243138
203	0x3d893ced	0.06701074
204	0xbc04cd01	-0.008105517
205	0xbd865acc	-0.06560287
206	0xbd83a7a5	-0.0642846
207	0x3e59cebf	0.21270274
208	0x3d1f53ac	0.038898155
209	0x3d907a52	0.07054581
210	0xbd64cd0c	-0.05585961
211	0xbc3062ff	-0.01076579
212	0x3e50d775	0.2039469
213	0x3d7989d8	0.060922474
214	0xbd07f496	-0.03319224
215	0xbcfeb4dd	-0.031092102
216	0xbd12db39	-0.0358536
217	0x3cc694c3	0.024240857
218	0x3daccaa2	0.08437087
219	0x3d84381a	0.06456013
220	0x3c8671ff	0.01641178
221	0xbbc7091b	-0.0060740835
222	0xbbc6932c	-0.0060600247
223	0xbd8cb6c0	-0.06870794
224	0xbc8c5cd4	-0.017134108
225	0x3d062a54	0.03275521
226	0x3ca735c0	0.020411372
227	0xbcd8cc65	-0.02646465
228	0xbe0d471f	-0.13796662
229	0x3db956a2	0.09049727
230	0xbdf529ed	-0.11970887
231	0xbca69c47	-0.02033819
232	0xbca7e3b5	-0.020494321
233	0xbd7c531c	-0.061602697
234	0x3d9d6457	0.07685154
235	0xbd4c3d6c	-0.049863264
236	0xb9f0ba0f	-0.00045914992
237	0xbc52c74c	-0.012864899
238	0x3dc75f34	0.097349554
239	0xbd9cf110	-0.076631665
240	0xbe245791	-0.16049029
241	0x3dda4e84	0.10659507
242	0x3cdd27ef	0.02699658
243	0x3d997a8f	0.07494079
244	0xbc8959d7	-0.016766472
245	0xbc82c112	-0.015961204
246	0x3d29c6f8	0.041449517
247	0xbe1626c2	-0.14663222
248	0x3c6d85ab	0.014497201
249	0xbc5ccd56	-0.01347669
250	0xbe15420b	-0.14575975
251	0x3d38ee49	0.04514912
252	0xbd9446ce	-0.072400674
253	0xbd265d63	-0.040616404
254	0x3d370132	0.044678874
255	0x3c80454a	0.01565804

network_body._body_endoder.seq_layers.0.bias f4 [128]
0	0x3d3639dc	0.044488773
1	0x3ce0a26d	0.0274212
2	0x3c5ecf55	0.0135992365
3	0x3d6552ed	0.055987287
4	0x3d517d90	0.051145136
5	0x3d103127	0.035203125
6	0xbc9fa760	-0.01948899
7	0xbb81715c	-0.003950281
8	0x3d157797	0.036491003
9	0x3d2b6855	0.041847546
10	0x3d709b71	0.05874199
11	0x3d5d95aa	0.05409781
12	0x3d2cc61c	0.04218112
13	0xbc56944f	-0.013096883
14	0x3cf3cea6	0.029761624
15	0xbc97272c	-0.018451296
16	0xbb01e6e8	-0.0019821469
17	0x3d0648f5	0.03278442
18	0xbd6037a2	-0.054740556
19	0x3d9e6279	0.07733626
20	0x3d4e1ccf	0.050320443
21	0x3c9c29d2	0.01906291
22	0xbc10d9d1	-0.008840994
23	0x3cd11af8	0.025525555
24	0x3bef952f	0.0073114852
25	0x3bcef259	0.006315511
26	0x3d2a3ccc	0.041561887
27	0xbca47eb8	-0.020079955
28	0xba815850	-0.0009868238
29	0x3d4a5fe7	0.049407866
30	0x3d42f737	0.047599044
31	0x3ca1d9a6	0.019757103
32	0x3d121768	0.035666853
33	0x3ca0bbdd	0.01962083
34	0x3cff185b	0.031139543
35	0x3be8b48d	0.0071016015
36	0x3c941325	0.018075535
37	0x3d217528	0.03941837
38	0xbd43e978	-0.047830075
39	0x3bfc4e5c	0.007699771
40	0x3d127b5a	0.03576217
41	0x3cb1a350	0.021684319
42	0x3c652dab	0.013987939
43	0x3c965823	0.018352574
44	0x3d4077c6	0.046989225
45	0x3bb78d0f	0.0056015323
46	0x3c284029	0.010269203
47	0x3cd42034	0.025894262
48	0x3d9688a5	0.073502816
49	0x3d400ddc	0.046888217
50	0x3ce4eb22	0.027944151
51	0x3d26dd42	0.04073835
52	0x3b610556	0.0034335456
53	0x3d141d8a	0.036160983
54	0x3d5495b2	0.051900573
55	0x3b87d260	0.0041449517
56	0xbabd2f92	-0.0014433733
57	0x3cf8c46b	0.030367097
58	0x3d1b2923	0.037881028
59	0xbc836688	-0.016040102
60	0x3d153c85	0.03643467
61	0x3cbd9472	0.023142073
62	0x3d68d521	0.05684388
63	0x3da7c5b3	0.08192005
64	0x3cb956ac	0.022624336
65	0x3c79a041	0.015235961
66	0x3c04ff61	0.008117528
67	0x3ceeb35e	0.029138263
68	0x3c859fcc	0.016311549
69	0xbbc80ac4	-0.006104799
70	0x3d2a6611	0.041601244
71	0x3d5aaafc	0.05338572
72	0x3d18e488	0.03732732
73	0x3cd27861	0.025692167
74	0x3d3b6a31	0.04575557
75	0x3c8ac80c	0.016941093
76	0xbd09c158	-0.033631653
77	0x3c34e8d5	0.01104184
78	0x3cff4c3d	0.031164283
79	0x3c4f1da9	0.012641349
80	0xbca83b21	-0.020536007
81	0xbd146e68	-0.036238104
82	0xbd16c24e	-0.036806397
83	0x3bde3756	0.006781499
84	0x3d2fdd4d	0.04293566
85	0x3d32b0d3	0.043625664
86	0x3b41915c	0.0029536104
87	0x3d5b58b5	0.053551394
88	0x3d356327	0.044284012
89	0x3cd3055c	0.025759391
90	0xba2ccb6f	-0.0006591593
91	0x3d88b680	0.06675434
92	0x3d77c2ba	0.06048844
93	0x3d0f8401	0.035037998
94	0x3c1aaa66	0.00944004
95	0x3d0c59e9	0.034265433
96	0x3d845b80	0.06462765
97	0x3cff6832	0.031177614
98	0xbd592f1f	-0.053023454
99	0x3cf5e317	0.030015511
100	0x3c8fc4f1	0.017549964
101	0x3ce6aa3c	0.028157346
102	0x3ca151a8	0.019692257
103	0x3c3c8558	0.011506401
104	0x3bfb21ef	0.0076639573
105	0x3d8af51c	0.06785032
106	0xbcd95de4	-0.026534028
107	0x3d087c5a	0.033321716
108	0xba2cb53c	-0.00065882853
109	0x3d3b7943	0.04576994
110	0xbcca3224	-0.024682112
111	0x3d0f0b27	0.034922745
112	0x3d071170	0.032975614
113	0x3d122f2d	0.03568952
114	0x3d6a6320	0.05722344
115	0x3cc7486a	0.024326522
116	0x3d36ab5f	0.044597026
117	0x3cd01cc7	0.025404347
118	0x3d2d3a57	0.042291965
119	0xbc1c88f6	-0.009554138
120	0x3d96d93e	0.073656544
121	0x3cf023cc	0.029313944
122	0xbc53cec1	-0.012927712
123	0x3b98c88c	0.004662579
124	0x3ca8c509	0.020601766
125	0x3c1b4bb3	0.009478497
126	0x3945cde8	0.0001886409
127	0x3d2a6cf2	0.041607805

network_body._body_endoder.seq_layers.2.weight f4 [128, 128]
0	0xbcfb3b42	-0.030667905
1	0x3caa6429	0.020799713
2	0xbc10aedd	-0.008830753
3	0xbe3f0ea5	-0.1865793
4	0x3dcf1c8c	0.10112867
5	0xbd4299bc	-0.047509894
6	0x3c316c28	0.010829009
7	0x3cb20bb2	0.021734092
8	0xbcce1129	-0.025154667
9	0x3e571f1e	0.21007964
10	0x3df7954d	0.12089024
11	0xbddfc2fc	-0.10925862
12	0xbd16a462	-0.03677786
13	0xbe57cc14	-0.21073943
14	0xbcd67508	-0.026178852
15	0xbdbe504b	-0.092926584
16	0xbdb399fc	-0.087696046
17	0x3cc0afcc	0.023521326
18	0xbd5d9a98	-0.05410251
19	0xbdb2593e	-0.08708428
20	0xbe1e92bb	-0.1548566
21	0xbe3c7eda	-0.18407765
22	0xbcec820e	-0.028870609
23	0x3aeccd76	0.0018066603
24	0x3d5ebe3d	0.054380644
25	0x3dc6540b	0.09683999
26	0x3e5a5a56	0.21323523
27	0x3d46577b	0.04842327
28	0x3e344e03	0.17607884
29	0x3d3ef7b4	0.046622947
30	0x3da0b90f	0.07847797
31	0x3b4ce6f2	0.0031265584
32	0xbdb12514	-0.0864965
33	0x3dc69dc3	0.096980594
34	0xbdadb640	-0.08482027
35	0xbe313fe6	-0.17309532
36	0xbe35de4b	-0.1776058
37	0x3ce89eaf	0.028395979
38	0xbdd79f1b	-0.10528394
39	0x3d842c45	0.06453756
40	0x3db9080c	0.09034738
41	0xbd4ee101	-0.05050755
42	0x3e6100d2	0.21972969
43	0xbbd348a3	-0.006447868
44	0xbbd0e2af	-0.006374679
45	0xbda9ca5f	-0.08290552
46	0xbbdc5a7f	-0.006724655
47	0x3d0c95c6	0.034322523
48	0x3d613278	0.05497977
49	0x3e27ab7d	0.16374011
50	0x3d8d1803	0.068893455
51	0x3e4d0ad4	0.20023662
52	0xbd7472a8	-0.059679657
53	0x3dcac6c8	0.09901196
54	0xbd43aaa3	-0.047770154
55	0x3d2452dd	0.040118087
56	0xbd870f64	-0.065947324
57	0xbdd4c48e	-0.10389052
58	0x3de10c9b	0.109887324
59	0x3c47f08f	0.01220335
60	0x3d71fd8e	0.0590797
61	0xbd46a366	-0.048495673
62	0x3e0b9292	0.13630131
63	0x3dc722e2	0.0972345
64	0x3d38563d	0.04500412
65	0xbe88072a	-0.26567966
66	0x3d90e31c	0.07074568
67	0x3e47907c	0.1948871
68	0x3d481d40	0.04885602
69	0xbd1892c9	-0.03724936
70	0x3df1e6aa	0.11811574
71	0xbe2ab705	-0.16671379
72	0xbe040ebc	-0.12896246
73	0xbd88cfc0	-0.0668025
74	0xbdeb4182	-0.11487104
75	0x3da20b60	0.07912326
76	0x3e593a5f	0.21213673
77	0xbcde9ccd	-0.027174378
78	0xbdb9a293	-0.09064212
79	0xbd8749a1	-0.066058405
80	0xbdb3c8d0	-0.08778536
81	0xbdcd47c1	-0.100234516
82	0x3d38c841	0.045112852
83	0xbd5df04e	-0.05418425
84	0xbdc2643e	-0.09491776
85	0x3da176ef	0.07884013
86	0x3e7cbf3c	0.24682325
87	0xbd7b701b	-0.06138621
88	0x3d3f4524	0.046696797
89	0xbdd17686	-0.10227685
90	0xbdaa3997	-0.08311766
91	0x3c5e118c	0.013553988
92	0xbc82f618	-0.015986487
93	0xbcefca9b	-0.029271415
94	0xbcafd508	-0.021463886
95	0xbc2df049	-0.0106163705
96	0x3e5695ff	0.20955656
97	0xbdd5b684	-0.10435203
98	0x3c7c0645	0.015382354
99	0xbe2cf2cd	-0.16889496
100	0xbe0c21c9	-0.13684763
101	0xbddc4459	-0.10755224
102	0xbe22065a	-0.15822735
103	0xbd8ce5ff	-0.06879806
104	0x3c4ff239	0.012692028
105	0x3c9f45e0	0.019442499
106	0x3da89391	0.08231271
107	0xbd655414	-0.055988386
108	0xbb200332	-0.0024415967
109	0xbdd60865	-0.1045082
110	0xbd80289d	-0.06257746
111	0x3cd420c2	0.025894526
112	0x3d8e70a4	0.06955078
113	0xbd2dee8c	-0.042463824
114	0x3ddc7c08	0.107658446
115	0xbd6a4d54	-0.057202652
116	0x3ded9ac7	0.11601787
117	0x3dd62e77	0.10458081
118	0xbc826255	-0.015916029
119	0xbd6036d9	-0.054739807
120	0x3d0f5f4d	0.035002995
121	0x3d4b5ad7	0.04964718
122	0xbc87d774	-0.016582228
123	0x3c025daa	0.007956902
124	0xbda74e8a	-0.08169277
125	0x3d663929	0.056206856
126	0xbda68d9d	-0.08132479
127	0xbd507b43	-0.0508988
128	0xbd9b471b	-0.07581922
129	0xbd938e76	-0.07204907
130	0xba9d49c7	-0.0012000137
131	0xbb952971	-0.0045520593
132	0xbc442db3	-0.011973786
133	0x3dd62106	0.104555175
134	0x3b2a025d	0.002594135
135	0x3cfecae6	0.031102609
136	0x3d98ad51	0.074549325
137	0x3c94e716	0.018176597
138	0xbdf843d3	-0.121223114
139	0x3d653b7e	0.05596494
140	0x3e22a4b1	0.15883137
141	0x3c3cc3d6	0.0115213
142	0x3e0b3a1d	0.13596387
143	0xbd6b7311	-0.057482783
144	0x3dcd6b43	0.10030224
145	0xbcae83bc	-0.02130305
146	0x3e0e286a	0.13882604
147	0x3e63d820	0.22250414
148	0x3e68fe90	0.22753358
149	0xbde25010	-0.11050427
150	0x3d2e8147	0.042603757
151	0x3d6f8c36	0.058483325
152	0xbb21c982	-0.0024686758
153	0xbce2dbf7	-0.027692778
154	0x3dce386c	0.10069355
155	0x3cc60eca	0.024176974
156	0x3d69725e	0.056993835
157	0x3c94bc9f	0.018156348
158	0xbcd45dab	-0.02592357
159	0xbda917a3	-0.082564615
160	0x3d116a0c	0.035501525
161	0xbd305b08	-0.043055564
162	0x3a0f3653	0.0005463112
163	0x3c741919	0.014898562
164	0xbc16fe61	-0.009215922
165	0xbe0a5d58	-0.1351217
166	0xbcf96efc	-0.03044843
167	0x3d1e2bcf	0.038615998
168	0xbcf884ea	-0.030336816
169	0xbd3f7add	-0.04674803
170	0xbca4f471	-0.02013609
171	0xbb2db717	-0.0026506835
172	0x3da334ed	0.07969079
173	0x3dcf3019	0.10116596
174	0xbd2e7344	-0.042590395
175	0xbd862849	-0.065506525
176	0xbddc2857	-0.10749882
177	0xbd78bc86	-0.060726665
178	0xb9fcbd18	-0.0004820607
179	0x3daca0fc	0.08429143
180	0xbc4177bf	-0.011808335
181	0xbe257c06	-0.16160592
182	0x3d0176ee	0.03160756
183	0xbe246ac5	-0.16056354
184	0x3ada0d29	0.0016636002
185	0xbdabe530	-0.083933234
186	0x3e8b0c2b	0.2715772
187	0x3cf3f715	0.029780904
188	0x3dcf611b	0.10125943
189	0x3c381472	0.011235343
190	0xbc59906c	-0.013279062
191	0x3db52a0f	0.08845913
192	0xbd9f98cc	-0.077928156
193	0x3c9d75ff	0.019221304
194	0xbc7b813f	-0.015350639
195	0xbddc0bb6	-0.10744421
196	0xbe3405bb	-0.17580311
197	0x3d5828ce	0.05277329
198	0xbe3394cf	-0.17537235
199	0xbd9c7a70	-0.076405406
200	0xbe16bf08	-0.1472131
201	0xbd7174a6	-0.058949135
202	0xbd5f5753	-0.05452664
203	0xbc51008a	-0.012756476
204	0xbe25872a	-0.16164842
205	0x3e44ad09	0.19206633
206	0xbdc844d7	-0.09778755
207	0x3d0432b2	0.03227491
208	0x3d6cba99	0.05779514
209	0xbc90fede	-0.017699655
210	0xbd20b767	-0.039237406
211	0xbd969377	-0.073523454
212	0xbe180cef	-0.14848684
213	0xbe29eef3	-0.16595058
214	0xbcaef7c2	-0.021358375
215	0xbdad1f8f	-0.08453285
216	0x3b989153	0.004655996
217	0xbde5a16f	-0.11212432
218	0xbe0f76b0	-0.1401012
219	0x3e009a2a	0.12558809
220	0xbe3396bd	-0.17537971
221	0x3d58c012	0.052917548
222	0x3e1d3502	0.15352252
223	0xbd02673d	-0.031836737
224	0x3d05574a	0.03255395
225	0xbe21bbde	-0.15794322
226	0x3df94f7d	0.12173364
227	0x3de261ee	0.11053835
228	0xbdbe82e7	-0.093023114
229	0xbde59c4b	-0.11211451
230	0xbe27ee10	-0.16399407
231	0x3d6ad161	0.057328586
232	0xbd9d1918	-0.07670802
233	0xbba656c9	-0.0050762636
234	0xbd12ddf0	-0.035856187
235	0xbd949a52	-0.07255997
236	0xbd987553	-0.07444253
237	0x3ba17dc1	0.004928321
238	0x3d0ef690	0.03490311
239	0xbdf6ad56	-0.1204478
240	0x3de8f311	0.11374486
241	0x3d80ca07	0.06288534
242	0xbe1d6310	-0.1536982
243	0x3d94627f	0.07245349
244	0xbc719299	-0.014744424
245	0x3e003bf4	0.1252287
246	0x3dedebaa	0.11617215
247	0xbda586ce	-0.080823526
248	0xbd7b24ac	-0.06131427
249	0xbd9c3003	-0.07626345
250	0xbb88b738	-0.004172232
251	0x3d85582e	0.065109596
252	0xbc0751a7	-0.0082592135
253	0x3d99e8d3	0.07515111
254	0x3d5ced75	0.053937394
255	0x3e243ba4	0.16038376

network_body._body_endoder.seq_layers.2.bias f4 [128]
0	0x3ca3ec25	0.020010063
1	0x3b82b46a	0.003988792
2	0x3bc1ebc5	0.0059179985
3	0x3c2368c9	0.009973713
4	0xbb385193	-0.0028124794
5	0xbc764a55	-0.015032371
6	0x3ca051cc	0.019570254
7	0x3c0075b5	0.007840564
8	0xbb85173f	-0.004061609
9	0x3cd123d7	0.025529785
10	0x3cdb6b88	0.026784673
11	0x3d1dafbe	0.03849768
12	0x3cdf8723	0.027286118
13	0x3d16a0a2	0.036774285
14	0x3c93c8c7	0.018040074
15	0x3d0facba	0.035076834
16	0x39f44f31	0.0004659831
17	0x3c0d6be9	0.008631685
18	0x3c222f43	0.009898963
19	0x3c8468a2	0.016163174
20	0x3cdcec09	0.02696802
21	0x3c0d1a67	0.008612252
22	0xbc14194a	-0.0090392325
23	0x3c520cbb	0.012820418
24	0x3d01330b	0.03154282
25	0x3d665f08	0.056242973
26	0x3c9f4a1c	0.019444518
27	0x3d53c21b	0.051698785
28	0x3d20f43b	0.039295416
29	0x3ccb29f7	0.024800284
30	0x3c073070	0.0082512945
31	0x3d160c21	0.03663266
32	0x3d08ed37	0.03342935
33	0x3d75d0c2	0.06001354
34	0x3d3c0879	0.045906518
35	0x3cd694d4	0.026194014
36	0x3ca72e35	0.020407775
37	0x3c343da8	0.011001028
38	0x3d18b216	0.03727921
39	0x3c65b9ad	0.014021319
40	0x3cf23ece	0.029570963
41	0x3d7cf23b	0.061754446
42	0x3cfac3ce	0.030610945
43	0xbbe7550a	-0.007059698
44	0x3c72cdcc	0.014819574
45	0x3c81f752	0.015865002
46	0x3bd21aac	0.006411871
47	0x3c57e8d9	0.013178074
48	0x3c831755	0.016002337
49	0x3d206b8d	0.03916507
50	0x3d4ba726	0.049719952
51	0x3cc23153	0.02370516
52	0x3d1fa740	0.03897786
53	0x3d3e225f	0.046419498
54	0xbbb875d3	-0.00562928
55	0x3c6d1be5	0.014471983
56	0xbc893709	-0.016749876
57	0xbc20e858	-0.00982102
58	0xbc48afec	-0.012248974
59	0x3cbc375d	0.022975618
60	0x3d4f323c	0.050585017
61	0x3c9c64b6	0.019090991
62	0x3cd56cb7	0.026052816
63	0xbc2fea3f	-0.010737001
64	0x3c72f6fa	0.014829392
65	0x3d2a7360	0.041613936
66	0xbc062eff	-0.008189916
67	0x3cd74f0c	0.02628281
68	0x3c864b0a	0.016393203
69	0x3c21c525	0.009873663
70	0x3c5a5333	0.0133255
71	0x3c4ce05b	0.012504662
72	0xbbb91b42	-0.0056490013
73	0x3cf9989a	0.030468274
74	0x3da5d2ad	0.08096824
75	0x3c60ea0a	0.013727674
76	0x3b1ffca2	0.0024412055
77	0xbbaccb42	-0.0052732537
78	0x3d2b8d94	0.041883066
79	0x3d813655	0.06309191
80	0xbc098262	-0.008392902
81	0x3d7a264b	0.061071675
82	0x3d662a03	0.05619241
83	0x3caba62e	0.020953264
84	0x3d526b4a	0.05137185
85	0x3b4c3031	0.0031156654
86	0x3d0f7eab	0.03503291
87	0x3cb2e86c	0.021839343
88	0x3cfbe2ff	0.030747889
89	0x3cefd919	0.029278325
90	0xbbc3939b	-0.0059685237
91	0x3ce9ec68	0.02855511
92	0x3ca2fe95	0.019896785
93	0x3b8d5651	0.0043132682
94	0x3cd8e87e	0.026478048
95	0xbc0907e1	-0.008363695
96	0xbc40ce40	-0.011767924
97	0x3d2eab9d	0.042644132
98	0x3c99bf8b	0.018768093
99	0x3ca604fd	0.02026605
100	0x3c3e5adb	0.011618341
101	0x3b55c317	0.0032617503
102	0x3bcbf393	0.0062241047
103	0x3ceee2d4	0.029160894
104	0xbaa9a42f	-0.0012942607
105	0x3d53906e	0.05165141
106	0x3d486b74	0.0489306
107	0x3c99c5fc	0.018771164
108	0x3ca1223e	0.019669648
109	0xbb568128	-0.0032730792
110	0x3d4b5271	0.04963917
111	0xbc0f0fc7	-0.008731789
112	0x3c1d2548	0.009591408
113	0x3c116d6b	0.008876185
114	0x3c960ee7	0.018317653
115	0x3bd56b2a	0.006513019
116	0x3c8ae867	0.016956521
117	0x3cffa09c	0.031204514
118	0x3b365a1f	0.0027824712
119	0x3d2570b0	0.04039067
120	0x3d14f818	0.036369413
121	0x3bfcf707	0.0077198776
122	0x3c7d6378	0.01546561
123	0x3b6e399e	0.003635026
124	0x3bce5639	0.0062968996
125	0x3c892aa8	0.016743973
126	0xbc075b0b	-0.008261452
127	0x3d3a8e70	0.045545995

action_model._discrete_distribution.branches.0.weight f4 [7, 128]
0	0xbd238651	-0.039923016
1	0xbcc2b502	-0.023767952
2	0x3b3f4a89	0.0029188714
3	0x3c7f1323	0.015568527
4	0xbb8d7f93	-0.0043181865
5	0xbd1ba3ce	-0.037998013
6	0x3d2b21d6	0.041780315
7	0xbc4b6ae3	-0.0124156205
8	0xbc873246	-0.016503464
9	0x3cd60215	0.02612404
10	0xbb13301e	-0.00224591
11	0x3c6ea0f9	0.014564746
12	0xbcd2d1c4	-0.02573479
13	0x3d231edb	0.039824348
14	0xbd260958	-0.040536255
15	0xbbc4a0d1	-0.006000616
16	0xbd0b54a0	-0.03401625
17	0x3cd45794	0.025920667
18	0xbcce8870	-0.025211543
19	0xbc4a46a8	-0.012345947
20	0x3b8dd526	0.004328388
21	0x3c8fd4d4	0.017557539
22	0xbaea2dff	-0.0017866491
23	0x3d25eadb	0.04050718
24	0x3c8db68f	0.017298965
25	0x3caa10de	0.020759996
26	0xbb9c6534	-0.0047728065
27	0x3c90c720	0.017673075
28	0x3d018898	0.031624407
29	0x3c27eb41	0.01024896
30	0x3cb47782	0.022029642
31	0xbcfd2bb5	-0.03090463
32	0x3c1d7f3e	0.009612856
33	0x3cf83f6c	0.03030368
34	0x3ce5c36f	0.028047292
35	0xbb5efd65	-0.0034025547
36	0x3cf46be3	0.0298366
37	0x3beeae5e	0.00728397
38	0xbcf6f747	-0.030147208
39	0x3caa516b	0.020790776
40	0x3cd3040e	0.02575877
41	0x3bd604dd	0.0065313415
42	0xb9df9e29	-0.00042651713
43	0x3c8c915a	0.017159153
44	0x3b4287d7	0.0029683018
45	0x3c97b68f	0.018519668
46	0x3ca3fed5	0.020018974
47	0xbc94dbf8	-0.018171296
48	0x3c8a5271	0.016885014
49	0xbc91a3c3	-0.017778283
50	0x3c68dae5	0.014212345
51	0x3bbcb237	0.0057585496
52	0x3baae993	0.0052158325
53	0x3bd321e8	0.006443251
54	0xbcade6a9	-0.021228151
55	0x3c1de119	0.009636187
56	0x3cc65002	0.024208073
57	0xbcf3b486	-0.029749166
58	0xbc18e811	-0.009332673
59	0x3d1e1c55	0.03860124
60	0xbbe9e673	-0.0071380674
61	0x3cb0fd63	0.0216052
62	0xbc4b6bbc	-0.012415823
63	0xbc9b6219	-0.018967675
64	0x3d07f34a	0.033191003
65	0x3cf2ad43	0.029623633
66	0xbcb743a7	-0.022371126
67	0xbc645667	-0.013936616
68	0xbcb88de9	-0.022528606
69	0xbcd425c5	-0.025896916
70	0xbd4c0316	-0.04980763
71	0x3c81ac31	0.015829178
72	0xbd5f37be	-0.05449652
73	0x3a5a3f5e	0.00083254825
74	0x3ba3f724	0.0050038267
75	0x3c6c37d8	0.014417611
76	0x3ccd1853	0.025036013
77	0xbc98955c	-0.018625908
78	0x3cce2ebb	0.025168767
79	0x3d019993	0.0316406
80	0xbc66f3ab	-0.014096181
81	0x3c4613b7	0.012089661
82	0x3cc0c987	0.023533596
83	0x3c0d4d36	0.008624366
84	0x3bedf584	0.0072619338
85	0xbc860a65	-0.016362378
86	0x3c0f8dd5	0.008761843
87	0x3c40abd6	0.011759719
88	0x3c91f470	0.017816752
89	0xbc67a600	-0.014138699
90	0xbce748c0	-0.028232932
91	0x3cca44a0	0.024690926
92	0xbcf83fe4	-0.030303903
93	0xbc87d676	-0.016581755
94	0x3c5f3883	0.013624313
95	0x3c39fc6c	0.011351686
96	0xbcb60864	-0.022220798
97	0x3cafb657	0.021449251
98	0x3c432c82	0.011912467
99	0xbd72da67	-0.059290316
100	0xbd46e115	-0.0485545
101	0x3cde80c6	0.027161013
102	0xbd049bee	-0.03237527
103	0xbc25b2f8	-0.01011347
104	0xbd0834ac	-0.033253357
105	0x3ca5789e	0.020199116
106	0x3d22b081	0.03971911
107	0x3b20a5d6	0.0024512908
108	0x3b7ba54e	0.003839809
109	0x3c9b1e63	0.018935388
110	0x3d058cf7	0.032605138
111	0x3c3c58bc	0.011495765
112	0xbd1019ac	-0.035180733
113	0x3d200885	0.039070625
114	0x3baa556c	0.0051981714
115	0x3d1abc8b	0.037777465
116	0xbca4f6cd	-0.020137215
117	0xbc0fdbaf	-0.008780404
118	0xbccfe488	-0.025377527
119	0x3c7f81e6	0.015594935
120	0x3cd5ad8b	0.026083728
121	0xbcc1c7e8	-0.023654893
122	0xbc7d01a7	-0.0154422885
123	0xbc8b3dca	-0.016997237
124	0xbc5b3ab0	-0.013380691
125	0x3be5b0ce	0.007009602
126	0xbba76341	-0.0051082675
127	0xbc45f95d	-0.012083379
128	0xbcefbe59	-0.02926557
129	0xbab1d540	-0.0013567582
130	0xbce21086	-0.02759577
131	0x3c96784e	0.018367913
132	0xbc1007ec	-0.008790951
133	0x3d305a35	0.043054778
134	0x3cdf481e	0.027256068
135	0x3d978ca9	0.07399876
136	0x3d8daa42	0.0691724
137	0xbd61878c	-0.05506091
138	0x3ca31b03	0.019910341
139	0xbd3a2a27	-0.045450356
140	0x3b4831fb	0.0030547369
141	0xbda8a0ff	-0.082338326
142	0xbb801017	-0.003908168
143	0xbc9fb3c3	-0.019494897
144	0x3ccdf795	0.02514247
145	0xbd4ab66e	-0.049490385
146	0x3b9c6afc	0.0047734957
147	0x3c26174f	0.010137393
148	0xbcff8528	-0.031191424
149	0xbbe0eaea	-0.0068639414
150	0x3d469ae8	0.048487574
151	0xbd373f3b	-0.044738036
152	0xbdae79ef	-0.08519351
153	0xbd366711	-0.044531886
154	0x3d70e0e9	0.05880824
155	0xbd679053	-0.056534123
156	0xbc855df5	-0.016280154
157	0x3caa4a83	0.020787483
158	0xbc14b60a	-0.009076605
159	0xbd2feea5	-0.0429522
160	0x3d740428	0.059574276
161	0xbcfa5844	-0.030559666
162	0xbd8c8f32	-0.0686325
163	0xbc5ea1bb	-0.013588364
164	0xbd38c55a	-0.045110084
165	0xbcbfb403	-0.023401266
166	0xbd1f744f	-0.03892928
167	0xbd8f1ffb	-0.06988522
168	0xbd4f38e8	-0.05059138
169	0xbd585640	-0.05281663
170	0x3d17932e	0.037005596
171	0xbcca90b7	-0.024727209
172	0x3abe52e4	0.0014520553
173	0x3c9c28e9	0.019062476
174	0x3ca3a5d1	0.019976528
175	0x3de1d189	0.11026294
176	0xbc9fd1bb	-0.019509187
177	0xbcddd7a1	-0.027080359
178	0xbd3025ed	-0.04300492
179	0xbc8c9cdb	-0.017164638
180	0xbdb08a7f	-0.08620166
181	0x3ccc8d28	0.024969652
182	0x3d1519e2	0.036401637
183	0x3b3d967b	0.0028928805
184	0xbc4f94e2	-0.012669774
185	0x3da45b28	0.08025199
186	0x3d091de9	0.03347579
187	0xbc671db2	-0.014106201
188	0xbd29d770	-0.041465223
189	0x3b4dd116	0.0031405143
190	0xbd00c518	-0.031437963
191	0x3cb7e511	0.022448095
192	0xbd2f05a1	-0.042729978
193	0xbcd2f0d4	-0.025749601
194	0x3c9d1d1e	0.019178923
195	0xbc49b828	-0.012311973
196	0x3c738f91	0.014865772
197	0x3d4475e5	0.047963995
198	0x3d702ab7	0.058634486
199	0xbcdf4b5e	-0.027257618
200	0x3da6ab79	0.081381746
201	0x3d1e832a	0.038699307
202	0xbdc8f4f0	-0.09812343
203	0xbcb0ad66	-0.021567058
204	0xbd564763	-0.052314173
205	0x3d1ba27d	0.037996758
206	0xbd906d81	-0.07052136
207	0xbd5fc9a5	-0.054635663
208	0x3d1adfbc	0.037811026
209	0xbdbd3632	-0.092388526
210	0xbd9b3490	-0.07578385
211	0xbd130992	-0.0358978
212	0xbd6d17be	-0.05788397
213	0x3d86555d	0.065592505
214	0xbd8ddd87	-0.069270186
215	0x3cf4bb06	0.029874336
216	0x3c29fb3f	0.010374843
217	0xbd992260	-0.0747726
218	0x3b6af377	0.0035850683
219	0x3a50aa67	0.0007959962
220	0xbd036e08	-0.032087356
221	0xbca8fef7	-0.02062939
222	0xbd23ec9f	-0.04002058
223	0x3a01f7b4	0.000495787
224	0x3d2e6b09	0.042582545
225	0xbd756a1d	-0.05991565
226	0x3cff058a	0.03113057
227	0xbba88373	-0.005142623
228	0x3d13a1a6	0.03604283
229	0x3cb5f4b8	0.022211418
230	0xbc828846	-0.01593412
231	0xbcc02c08	-0.023458496
232	0x3d7a927d	0.06117486
233	0xbc8dae6c	-0.017295085
234	0xbd6849f2	-0.056711145
235	0x3c940562	0.018068973
236	0x3d0b69ea	0.034036554
237	0x3cd55935	0.026043514
238	0xbdda99f9	-0.10673899
239	0xbbbc230f	-0.005741484
240	0xbca385a2	-0.019961182
241	0x3bb1fd9c	0.005431844
242	0x3c2f3521	0.010693819
243	0x3cf90e56	0.030402344
244	0xbcac6feb	-0.02104946
245	0xbd3abc7a	-0.0455899
246	0x3ce5e53e	0.028063413
247	0xbd89b7c3	-0.06724503
248	0xbd9bb5ef	-0.076030605
249	0xbca0394d	-0.019558573
250	0xbb639d17	-0.0034731084
251	0xbc26f6f8	-0.010190718
252	0x3bb7cd76	0.0056092096
253	0x3d2361a8	0.039888054
254	0x3d467cd8	0.048458904
255	0xbd8e8a2c	-0.06959948

action_model._discrete_distribution.branches.0.bias f4 [7]
0	0xbbec81ff	-0.007217645
1	0xbc8f66d7	-0.017505093
2	0x3aefcf99	0.0018296122
3	0x3b39ba6d	0.0028339878
4	0xbc2f89c3	-0.010713997
5	0xbc0a1045	-0.0084267305
6	0xbd0163b3	-0.03158922
