Assets/Hide and Seek/Brain/5_SeekerBehavior.onnx (onnx, 241361 bytes, 6 tensors)

network_body._body_endoder.seq_layers.0.weight f4 [128, 331]
0	0xbc257b5c	-0.010100212
1	0xbc780721	-0.015138418
2	0x3db3f78d	0.08787451
3	0xbced9bf3	-0.029005026
4	0x3b4a4b53	0.003086765
5	0xbda48c8a	-0.08034618
6	0xbb26746f	-0.002539899
7	0x3d3d596e	0.046227865
8	0xbc8128cf	-0.01576653
9	0xbd11f4c0	-0.035633802
10	0xbd484fdb	-0.04890428
11	0xbc8f2700	-0.017474651
12	0xbda062ce	-0.078313455
13	0x3cf28a1c	0.029606871
14	0xbbb4ad01	-0.0055137877
15	0x3b6179eb	0.0034404944
16	0x3dc12bff	0.0943222
17	0xbd7fc0ca	-0.062439717
18	0x3d9be0b3	0.07611217
19	0xbd1096da	-0.035300113
20	0x3d1119e3	0.035425078
21	0x3c2fb38f	0.010723962
22	0xbd1be979	-0.038064454
23	0x3c8dbdde	0.01730245
24	0xbdda914e	-0.10672246
25	0xbb41a898	-0.0029549953
26	0x3d85c882	0.065323845
27	0x3b15b267	0.0022841932
28	0x3d38a51e	0.045079343
29	0xbb91101a	-0.0044269683
30	0x3d8f9e1a	0.07012577
31	0xbcb5049c	-0.022096924
32	0xbd8b9ccf	-0.06817018
33	0x3d1f463c	0.03888534
34	0x3c8249c6	0.015904319
35	0x3d93e272	0.072209254
36	0xbd0c0a30	-0.034189403
37	0x3d820f44	0.06350568
38	0x3db0d62b	0.08634599
39	0x3dc02ec5	0.093839206
40	0x3dbae663	0.09125974
41	0x3d5d839f	0.0540806
42	0xbd3d2cca	-0.046185292
43	0xbe203c63	-0.15648036
44	0xbca8090f	-0.020512132
45	0xbcdb5127	-0.026772095
46	0x3c93f1f1	0.018059703
47	0xbd5b0c6d	-0.053478647
48	0x3c335975	0.010946621
49	0x3cf37de8	0.029723123
50	0xbd757472	-0.059925504
51	0xbd84ebf8	-0.0649032
52	0x3ce5ada6	0.028036904
53	0x3c528ce8	0.0128509775
54	0xbdc07930	-0.09398115
55	0xbbc9a967	-0.0061542275
56	0xbd6aee8c	-0.057356402
57	0xbd1d60c0	-0.038422346
58	0xbd0bbb22	-0.03411401
59	0xbd72980e	-0.059227042
60	0xbce6228a	-0.028092641
61	0x3c9082b6	0.017640453
62	0x3cb4e856	0.022083443
63	0xbd8ccec9	-0.06875379
64	0xbe1cd044	-0.15313822
65	0xbd3719e7	-0.044702437
66	0xbce2254b	-0.027605673
67	0x3df0f596	0.11765592
68	0x3c555399	0.0130204195
69	0x3d497a26	0.049188755
70	0xbd6a15fc	-0.057149872
71	0xbdcb98c2	-0.099412456
72	0x3d8b2bfc	0.06795499
73	0x3d359007	0.04432681
74	0x3d85f6fb	0.065412484
75	0xbd2e889f	-0.04261076
76	0xbdec043e	-0.11524247
77	0x3d11886a	0.035530485
78	0xbc5daf9a	-0.013530636
79	0x3ce43580	0.027857542
80	0x3d187263	0.037218463
81	0xbd60ecf9	-0.054913495
82	0x3e081db3	0.1329258
83	0x3d11c062	0.03558386
84	0x3d3e1842	0.046409853
85	0xbddd2941	-0.10798884
86	0x3d2f3b64	0.04278125
87	0xba3974e8	-0.00070746103
88	0x3ac3ae29	0.0014929223
89	0xbd2e77ee	-0.042594843
90	0xbc00919d	-0.007847217
91	0xbc85b4c7	-0.016321553
92	0xbd1b0fb2	-0.037856765
93	0xbc849dfb	-0.016188612
94	0xbd4e3138	-0.050339907
95	0xbd36362c	-0.044485256
96	0xbd12587f	-0.035728928
97	0xbd090f23	-0.0334617
98	0x3c8bff5e	0.017089542
99	0xbd4407b0	-0.047858894
100	0x3c92e781	0.017932655
101	0xbd4db217	-0.050218668
102	0x3d0eeb6d	0.03489249
103	0x3d7ed6c3	0.06221653
104	0x3c74268d	0.014901769
105	0x3da54d86	0.08071427
106	0xbd509602	-0.05092431
107	0x3cc6af45	0.024253497
108	0x3b82639f	0.003979161
109	0x3d89a67f	0.0672121
110	0x3d69f191	0.05711514
111	0xbcef1f79	-0.029189812
112	0xbd14bd1b	-0.036313158
113	0xbcd09c6e	-0.025465216
114	0x3dd9bbea	0.10631545
115	0xbdbdf103	-0.09274485
116	0x3dff6809	0.12471015
117	0xbdce9dc9	-0.10088689
118	0x3d65a273	0.056063127
119	0x3c3ee161	0.011650414
120	0xbb89d9ef	-0.004206888
121	0x3d100642	0.035162218
122	0x3d700a4f	0.05860358
123	0xbd3f9bae	-0.046779327
124	0x3d527d1a	0.051388837
125	0xbc8866f9	-0.016650664
126	0x3c031b55	0.008002122
127	0xbd397233	-0.045274924
128	0x3cb3f2cb	0.021966359
129	0xbd9b2dda	-0.07577105
130	0xbd941a01	-0.07231522
131	0x3d644ebd	0.055739153
132	0x3d57a896	0.05265101
133	0x3cc3abfc	0.02388572
134	0xbd65145d	-0.055927623
135	0x3b9954e7	0.0046793106
136	0x3a426706	0.00074158644
137	0x3d79f3dd	0.06102358
138	0x3d99964d	0.07499371
139	0xbc15e1a2	-0.009148033
140	0x3d6f8de2	0.05848492
141	0x3c962586	0.01832844
142	0xbccc1650	-0.024912983
143	0x3d24453a	0.040105082
144	0x3dbb4acb	0.09145125
145	0x3d1ede6c	0.038786337
146	0x3d806f1f	0.06271195
147	0x3d80ed6d	0.062952854
148	0x3c8b3876	0.016994696
149	0x3d4e3bd6	0.050350033
150	0xbd023163	-0.03178538
151	0x3c53d128	0.012928285
152	0x3c50b465	0.012738322
153	0x3d2f5952	0.042809792
154	0xbaa630f7	-0.0012679388
155	0x3d6e227c	0.058138356
156	0x3da10dce	0.07863961
157	0x3d5ac893	0.05341394
158	0x3d2886f6	0.041144334
159	0xbb63ed73	-0.0034778982
160	0xbc0ab17e	-0.008465169
161	0xb8a22ebe	-7.7334684e-05
162	0xbcf12a43	-0.029439097
163	0xbb643218	-0.0034819897
164	0xbcb21d05	-0.021742353
165	0x3dc0392c	0.09385905
166	0x3bdb7722	0.0066975513
167	0xbb61878d	-0.003441307
168	0x3e1339f2	0.14377573
169	0xbdce90f0	-0.100862384
170	0x3d2a070b	0.041510623
171	0xbbce997b	-0.0063049174
172	0x3da2de9b	0.07952615
173	0xbd6e9a95	-0.05825289
174	0x3a0301a1	0.0004997496
175	0xbd76ea62	-0.06028212
176	0xbd295b59	-0.04134688
177	0xbc930320	-0.017945826
178	0xbde079f7	-0.10960763
179	0x3ca5b493	0.020227706
180	0x3c998834	0.018741705
181	0x3d8387e2	0.06422402
182	0xbde3346d	-0.11093984
183	0x3d52dd3a	0.05148051
184	0xbde99c81	-0.11406804
185	0x3d0c2c08	0.03422168
186	0x3d87a7fa	0.06623836
187	0xbd7bb347	-0.06145027
188	0x3dc0ecf1	0.09420193
189	0xbdab823e	-0.08374451
190	0xbd6c8bea	-0.05775062
191	0xbc061b17	-0.00818517
192	0xbcb98923	-0.0226484
193	0x3d7c1cfd	0.061551083
194	0xbd9be48e	-0.07611953
195	0x3dc66e8a	0.096890524
196	0x3d589229	0.052873764
197	0xbc3852df	-0.011250227
198	0x3ab85afa	0.0014065199
199	0xbd35e59e	-0.044408433
200	0xbd0b3225	-0.03398337
201	0x3d8fad66	0.07015495
202	0x3c54e933	0.012995052
203	0x3c482827	0.012216604
204	0xbcdbd981	-0.026837112
205	0x3d2d122a	0.04225365
206	0x3c3108ba	0.010805303
207	0x3cd248f8	0.02566956
208	0xbcc931a7	-0.024559809
209	0xbccb6a42	-0.024830941
210	0xbd77fdf0	-0.060544908
211	0xbca324a4	-0.019914933
212	0x3d517f97	0.05114707
213	0xbd182a25	-0.037149567
214	0x3cf65397	0.030069156
215	0x3e128473	0.14308338
216	0x3d131d7a	0.035916783
217	0x3c9f2cb1	0.01943049
218	0xbcc6f00a	-0.024284381
219	0x3e090c4e	0.133836
220	0xbd1e7540	-0.038686037
221	0x3de218af	0.11039864
222	0xbcdeea54	-0.027211346
223	0x3c4f76c3	0.012662592
224	0xbc4895fe	-0.012242792
225	0xba00104f	-0.00048852427
226	0xbccdd662	-0.02512664
227	0x3d503c24	0.050838605
228	0x3def29a1	0.11677862
229	0xbd905d9a	-0.07049103
230	0x3d986429	0.07440979
231	0x3d13a77d	0.0360484
232	0x3dac4be4	0.084129125
233	0xbd0496b0	-0.03237027
234	0x3de99371	0.11405075
235	0x3c2b23e4	0.010445569
236	0xbd301e17	-0.042997446
237	0xbc2cd778	-0.010549419
238	0x3c24e3c0	0.010064065
239	0xbe089871	-0.13339402
240	0xbbb0f087	-0.005399767
241	0x3dd02bb9	0.101645894
242	0x3d2929b4	0.041299537
243	0xbc611037	-0.013736776
244	0x3c8e6f3b	0.017387023
245	0x3cdc26d3	0.026873982
246	0x3bd3ad0c	0.006459838
247	0xbcd09ee0	-0.025466383
248	0x3d0b9d18	0.034085363
249	0x3d5b5c9e	0.053555124
250	0xbd2c5c30	-0.042080104
251	0x3e0e38c3	0.1388884
252	0x3dc88cd1	0.097924836
253	0x3da5aa45	0.08089117
254	0x3d3e7c1f	0.04650509
255	0xbd49b483	-0.049244415

network_body._body_endoder.seq_layers.0.bias f4 [128]
0	0xbb167b3d	-0.002296164
1	0x3c6c8d1d	0.014437941
2	0x3d46b4dc	0.048512325
3	0xbd48d9c5	-0.049035806
4	0x3d37f948	0.044915468
5	0x3cca5e5f	0.024703203
6	0x3d8338de	0.06407331
7	0x3d7e1ad7	0.062037315
8	0x3ce618a6	0.028087925
9	0x3d03b3af	0.03215378
10	0x3bd17a8b	0.006392782
11	0xbc6f0ed6	-0.0145909395
12	0x3bd30963	0.006440328
13	0x3d52b104	0.051438347
14	0x3d5b3710	0.05351931
15	0xbbfe02df	-0.007751807
16	0x3c19dff3	0.009391773
17	0x3ceeafa7	0.029136492
18	0x3c737b81	0.014860989
19	0x3aab6dbb	0.0013078967
20	0x3d82209d	0.06353877
21	0xba7f17b7	-0.0009731012
22	0xba7b5f5f	-0.00095891015
23	0x3d3eca30	0.04657954
24	0x3c5c0159	0.013428056
25	0x3baff417	0.005369674
26	0xbb8e2f77	-0.0043391543
27	0x3cfc938b	0.030832073
28	0x3cdbdf57	0.026839895
29	0x3d221688	0.03957227
30	0x3b6b48a4	0.0035901451
31	0x3cc77277	0.024346573
32	0x3a1bf2ec	0.0005948979
33	0xbcfbee4f	-0.030753283
34	0x3cd545a5	0.026034186
35	0x3cbd0589	0.023073928
36	0x3d28a735	0.041175086
37	0x3c5dd52f	0.013539596
38	0x3c6bb1ef	0.014385684
39	0x3ca4df6e	0.02012607
40	0x3c10e9fb	0.008844848
41	0x3bd06009	0.0063591045
42	0x3d566239	0.052339766
43	0x3bfcbb9f	0.007712796
44	0x3cd31cfa	0.025770653
45	0xbcdded95	-0.027090827
46	0x3c9ddf67	0.019271566
47	0xbd0e13ea	-0.03468696
48	0x3c840578	0.016115889
49	0x3c6d5286	0.014485007
50	0x3d12d9c4	0.03585221
51	0xbba49e01	-0.0050237183
52	0x3cc0493f	0.023472426
53	0xbc2c5a44	-0.010519568
54	0xbc4ffe72	-0.012694942
55	0x3c9f6871	0.019458981
56	0xbd12f1b8	-0.035875052
57	0x3cf98240	0.030457616
58	0x3c1d6be5	0.009608244
59	0x3c95b78b	0.018275997
60	0x3c55dd80	0.013053298
61	0x3d16dab7	0.036829676
62	0xb9fc4135	-0.0004811377
63	0x3ce0c296	0.027436536
64	0x3cd6571f	0.02616459
65	0x3cb18e8b	0.021674415
66	0x3bea8067	0.00715642
67	0x3d7bffa4	0.061523095
68	0x3cc2588f	0.023723869
69	0x3d39f3e4	0.045398608
70	0x3d2adacb	0.041712563
71	0x3d05b05e	0.0326389
72	0x3cb1dd3c	0.021711938
73	0xbc7e341d	-0.015515354
74	0x3d069c88	0.032864124
75	0xbd096f5c	-0.033553466
76	0x3cc525cb	0.024065873
77	0x3cc21301	0.023690702
78	0x3d10e22a	0.035371937
79	0xbb4b3d27	-0.0031011791
80	0xbc32dbb6	-0.010916641
81	0x3c978750	0.01849714
82	0x3cb24dc5	0.021765599
83	0x3993d8f9	0.00028199682
84	0x3d54e469	0.05197564
85	0xbcc2f4bd	-0.023798341
86	0x3ca410bc	0.02002751
87	0x3c4f569a	0.012654925
88	0x3d03f450	0.032215416
89	0x3cb98b7a	0.022649515
90	0x3cd4ce28	0.02597721
91	0xbb9a86b5	-0.0047157654
92	0x3c0792e4	0.008274768
93	0x3c1b7ed9	0.009490692
94	0xb862915f	-5.4017986e-05
95	0x3d3030cb	0.043015283
96	0xbc4ea579	-0.012612694
97	0xbcca092f	-0.024662582
98	0x3d2f8fca	0.042861737
99	0x3ce06d9c	0.027396016
100	0x3ca32edf	0.01991981
101	0xbbe374fc	-0.006941436
102	0x3d2f56f0	0.04280752
103	0x3d49340d	0.049121905
104	0x3cb760e6	0.022385072
105	0x3ce49751	0.027904185
106	0x3d1c3f2b	0.03814618
107	0x3c632772	0.013864385
108	0x3d10fe3b	0.035398703
109	0x3c81f654	0.015864529
110	0x3d2ce6aa	0.042212166
111	0x3c26feda	0.010192597
112	0x3bcf538b	0.006327098
113	0xbba6c42b	-0.005089303
114	0x3c8b9c19	0.017042207
115	0xbcd1b249	-0.025597708
116	0x3c9ea74b	0.01936688
117	0x3d7c5d11	0.061612193
118	0x3d2715cb	0.040792268
119	0x3c7671f2	0.015041815
120	0x3d074dee	0.033033304
121	0x3bda1963	0.0066558584
122	0x3d86ac99	0.06575889
123	0x3cba5bd0	0.022748858
124	0xbbc7ae02	-0.0060937414
125	0xbc58e869	-0.013239005
126	0x3c6497eb	0.013952236
127	0x3d33cece	0.043898396

network_body._body_endoder.seq_layers.2.weight f4 [128, 128]
0	0xbe053307	-0.13007747
1	0xbd87ac18	-0.06624621
2	0xbe5a7228	-0.2133261
3	0xbd638ee8	-0.055556208
4	0x3d1ca1ad	0.038240124
5	0x3e5b74d1	0.2143128
6	0x3d9e1fd7	0.07720917
7	0x3dd0f663	0.102032445
8	0x3d940a29	0.072285004
9	0xbda08157	-0.078371696
10	0x3d7eefb5	0.06224032
11	0xbdc41d9a	-0.095759585
12	0x3e03a1e2	0.12854722
13	0xbd846da9	-0.064662285
14	0x3e28a655	0.164697
15	0xbcdef3e7	-0.027215911
16	0xbc1d08a6	-0.0095845815
17	0x3d2e8221	0.04260457
18	0x3c9da067	0.019241525
19	0x3d6febcc	0.058574483
20	0xbcb790bf	-0.022407888
21	0xbd8c2e52	-0.068447724
22	0x3aa525cd	0.0012599766
23	0xbc35d0fc	-0.011097189
24	0xbda825b2	-0.08210315
25	0xbe1c98c7	-0.15292655
26	0x3e887fce	0.26660007
27	0xbde05da0	-0.109553576
28	0xbd64918b	-0.055802863
29	0x3c833251	0.016015204
30	0xbc88e5c8	-0.01671113
31	0xbe12aaea	-0.14323011
32	0xbc0a515b	-0.008442248
33	0x3e25bbcd	0.16184922
34	0xbdacb348	-0.08432633
35	0x3d26cbd0	0.040721714
36	0xbcc3621a	-0.02385049
37	0xbe6ba943	-0.23013787
38	0x3dfa83a5	0.122321405
39	0x3da5c894	0.08094898
40	0xbdd2a861	-0.10286022
41	0xbc92fb1e	-0.017942008
42	0x3c849fbd	0.01618945
43	0x3c5185e2	0.012788268
44	0x3c97761a	0.018488932
45	0x3d544b46	0.0518296
46	0xbbefef22	-0.007322208
47	0xbd658c16	-0.0560418
48	0xbcccfb7b	-0.025022259
49	0xbbe82051	-0.0070839305
50	0xbd781c58	-0.060573906
51	0xbb2e93ca	-0.0026638382
52	0xbcd09600	-0.02546215
53	0xbe1369e2	-0.1439586
54	0xbd63db89	-0.055629287
55	0x3e45e786	0.193266
56	0xbe0d7e06	-0.13817605
57	0x3dbf92d1	0.09354175
58	0x3c36ddee	0.011161311
59	0xbd47ef72	-0.048812337
60	0xbcb4461e	-0.02200609
61	0xbdc60e2a	-0.0967067
62	0xbdaf0076	-0.0854501
63	0xbe105b58	-0.14097345
64	0x3dc682ba	0.09692903
65	0x3ceb47d2	0.02872077
66	0xbe011dca	-0.1260902
67	0x3e22367c	0.15841097
68	0xbded0250	-0.11572707
69	0x3c8c85cd	0.017153645
70	0xbd5e2ffb	-0.054244976
71	0xbd3b7239	-0.045763228
72	0x3d019920	0.031640172
73	0xbe150ab3	-0.14554863
74	0x3d6afd26	0.057370327
75	0xbd38569e	-0.04500448
76	0xbb0c02c4	-0.0021363953
77	0xbdfffabb	-0.12498995
78	0x3dab89a6	0.08375864
79	0x3dcc992c	0.09990153
80	0xbd98a7ec	-0.074539036
81	0x3c98961e	0.018626269
82	0xbd567cc6	-0.052365087
83	0x3cffbb31	0.03121719
84	0x3c9ee877	0.019397957
85	0x398b1c10	0.00026533054
86	0x3d375f41	0.044768576
87	0x3b043027	0.0020170303
88	0xbca2a636	-0.019854646
89	0x3b98449d	0.004646851
90	0xbd729dd1	-0.059232537
91	0xbddc8fd9	-0.10769624
92	0x3d24e776	0.0402598
93	0x3dcc2f3f	0.09969949
94	0x3da18ffe	0.078887925
95	0x3e0110fb	0.12604134
96	0x39e6eed0	0.00044046948
97	0xbe2138bf	-0.15744303
98	0x3dda3fe9	0.10656721
99	0xb6e89d8d	-6.93248e-06
100	0x3ce9da8b	0.028546592
101	0x3d664b74	0.0562243
102	0x3e4218c8	0.18954766
103	0x3d999810	0.07499707
104	0x3b500a3f	0.0031744388
105	0x3e1d32b4	0.15351373
106	0x3dbab9aa	0.09117444
107	0xbd6aa664	-0.05728759
108	0x3e2bd41b	0.1678013
109	0x3dac832f	0.08423459
110	0xbd0004f5	-0.031254727
111	0x3dbe2346	0.092840716
112	0xbe2348de	-0.15945765
113	0xbd401ff6	-0.04690548
114	0xbda880be	-0.082276806
115	0xbddeb689	-0.108746596
116	0xbce55520	-0.027994692
117	0x3d2d8f00	0.042372704
118	0xbb74ae06	-0.0037335171
119	0x3a02d665	0.0004991054
120	0xbde6244e	-0.11237393
121	0x3d9e0ba6	0.077170655
122	0xbd8ece31	-0.06972922
123	0x3cbc233f	0.022966025
124	0x3cd41e85	0.02589346
125	0x3c1de32c	0.0096366815
126	0xbdf4000e	-0.11914073
127	0xbd554caf	-0.052075084
128	0x3e6e0cce	0.23247072
129	0x3cb1609f	0.021652518
130	0xbe01b294	-0.12665778
131	0x3c384b2b	0.01124839
132	0xbda11636	-0.078655645
133	0x3dab95c5	0.08378176
134	0xbd1bd3ec	-0.0380439
135	0x3e32d4a9	0.17463936
136	0x3cdf7a84	0.0272801
137	0x3d869f63	0.06573369
138	0xbcec355f	-0.028834043
139	0x3d716156	0.058930717
140	0xbe0d0f65	-0.13775404
141	0x3e2b9413	0.16755705
142	0xbe521be5	-0.20518453
143	0xbc7c813a	-0.015411669
144	0x3cc202b9	0.023682939
145	0xbddbe1dc	-0.10736439
146	0x3de60b25	0.112325944
147	0xbd252fad	-0.04032867
148	0xbd8e529f	-0.069493525
149	0x3d03f43c	0.032215342
150	0xbe15ae16	-0.1461719
151	0x3ce433a8	0.027856663
152	0x3d994274	0.07483378
153	0x3da67f89	0.08129794
154	0x3e287942	0.16452506
155	0x3d3e2050	0.046417534
156	0xbc19a904	-0.009378675
157	0xbd1eaa4e	-0.038736634
158	0x3c6ba554	0.014382679
159	0x3d07547b	0.03303955
160	0x3d25417a	0.040345646
161	0x3d3d3330	0.046191394
162	0x3e3986db	0.1811785
163	0xbd9c2a5e	-0.076252684
164	0x3e4d65dd	0.20058389
165	0x3dc7afce	0.09750329
166	0x3ddc9f11	0.10772527
167	0x3d5b5596	0.053548418
168	0xbe3bcbaf	-0.18339418
169	0x3e8ba67a	0.2727545
170	0x3e085ac7	0.13315879
171	0x3d424f24	0.047438756
172	0xbc9139bd	-0.017727727
173	0x3c4c51b3	0.0124706505
174	0xbe0e228c	-0.13880366
175	0x3c6cb479	0.014447325
176	0x3e63280f	0.2218325
177	0x3cbc5703	0.02299071
178	0x3e0b5d1e	0.1360974
179	0x3df10254	0.11768022
180	0xbd41d8e6	-0.04732599
181	0x3d08d72c	0.03340833
182	0x3e9a957e	0.30192178
183	0x3ddfa5a3	0.109202646
184	0x3e3a84dd	0.18214746
185	0x3cbe9fe5	0.023269603
186	0xbd110416	-0.035404287
187	0xbd392bfb	-0.04520796
188	0x3acde56c	0.0015708632
189	0xbd853d95	-0.065058865
190	0x3dc8f320	0.098119974
191	0xbdbffe29	-0.09374649
192	0xbaa0a08e	-0.001225488
193	0xbd9dbd99	-0.077021785
194	0x3e10ae4e	0.14128992
195	0xbb3b0b5a	-0.0028540702
196	0x3df8c321	0.12146593
197	0x3e3619d6	0.17783293
198	0x38c6b900	9.475835e-05
199	0x3d247c23	0.04015745
200	0xbcf0620d	-0.02934363
201	0xbda85945	-0.08220152
202	0xbc04aa60	-0.008097261
203	0xbdfbbe24	-0.12292126
204	0xbc4406d3	-0.011964518
205	0xbe065e7b	-0.13121979
206	0xbd7bb737	-0.061454024
207	0xbd6d6021	-0.057953004
208	0xbd660e26	-0.056165837
209	0xbdef5a0b	-0.11687096
210	0x3d14d8f2	0.036339708
211	0x3ddca365	0.107733525
212	0x3d501668	0.05080262
213	0x3d0f9fbc	0.035064444
214	0x3d940a4a	0.07228525
215	0xbe1b4a31	-0.1516502
216	0x3d04957b	0.03236912
217	0x3ded30f2	0.11581601
218	0xbdfd3a49	-0.12364633
219	0x3cb4b5be	0.022059318
220	0x3dd45cb0	0.10369241
221	0x3cfa2eac	0.030539833
222	0xbd6620bf	-0.056183573
223	0xbd22f53f	-0.039784666
224	0xbd6a2541	-0.057164434
225	0x3d821be9	0.0635298
226	0xbc9f811c	-0.019470744
227	0x3e25fa45	0.16208751
228	0x3c2d092a	0.010561267
229	0x3d646a03	0.055765163
230	0xbda4c7d3	-0.08045926
231	0xbdb6033a	-0.08887334
232	0x39c60518	0.00037769298
233	0x39c7d139	0.0003811212
234	0x3e1af7af	0.15133546
235	0x3dde843a	0.10865064
236	0x3dc9164a	0.098187044
237	0x3e3f569e	0.18685386
238	0xbb31caf5	-0.0027129028
239	0x3c9c5093	0.01908139
240	0xbdfbd4a5	-0.12296418
241	0xbc7896c8	-0.015172668
242	0xbd15eda4	-0.036603585
243	0xbc359690	-0.01108326
244	0xbd2fa2ca	-0.042879857
245	0x3dc1c3c6	0.09461169
246	0xbdb932ed	-0.090429164
247	0xbd54e0b7	-0.051972117
248	0x3d292870	0.04129833
249	0x3cbae183	0.02281261
250	0x3ce49bcd	0.027906323
251	0x3e44edc9	0.19231333
252	0xbc0a7bc9	-0.008452364
253	0xbe05ba0c	-0.13059253
254	0x3cb064c0	0.021532416
255	0xbd4a77d1	-0.049430672

network_body._body_endoder.seq_layers.2.bias f4 [128]
0	0x3bf62ffe	0.0075130453
1	0x3cd16a52	0.025563393
2	0xbbe96f29	-0.007123847
3	0x3cc25395	0.023721496
4	0x3c5009a7	0.012697614
5	0x3c46b635	0.0121284025
6	0x3c173af8	0.009230368
7	0xbbd89a50	-0.0066101924
8	0x3bf2ca46	0.007409367
9	0xbbc519ea	-0.006015052
10	0x3b7d7e8b	0.0038680162
11	0x3d281742	0.041037805
12	0x3c3d0870	0.011537656
13	0x3d3ebc99	0.04656658
14	0x3c7477d9	0.014921152
15	0x3be5f4dd	0.0070177154
16	0x3c552a05	0.0130105065
17	0xbc5ebe52	-0.013595181
18	0xbc027f1d	-0.0079648765
19	0x3bb6fb4c	0.005584156
20	0x3cc1cf4c	0.023658417
21	0x3cb959e1	0.022625865
22	0x3d4145a2	0.047185548
23	0x3b30841a	0.0026934207
24	0xbd018cdc	-0.031628475
25	0x3d14b5ac	0.03630607
26	0xbcb6b25e	-0.022301849
27	0xbc849b3b	-0.0161873
28	0x3d3466a8	0.044043213
29	0x3bf7a2d2	0.0075572515
30	0x3ccdc375	0.025117615
31	0x3c3ed8b9	0.01164835
32	0x3d36bbb8	0.044612616
33	0x3d3094b5	0.043110568
34	0xbcbda995	-0.023152152
35	0x3bb906b4	0.005646551
36	0x3cf40db1	0.029791685
37	0x3c10db05	0.008841281
38	0x3c1502ab	0.009094874
39	0xbb9b5c02	-0.004741193
40	0x3b3f0a43	0.0029150404
41	0x3cc624d2	0.02418748
42	0x3c8b9257	0.017037554
43	0x3cb9e09f	0.022690115
44	0x3cdd6546	0.02702583
45	0x3cadf746	0.021236073
46	0x3d36cac5	0.04462697
47	0x3d396675	0.045263726
48	0x3cd5fb6b	0.026120862
49	0x3cf9b7f9	0.030483233
50	0x3b51d55e	0.0032018046
51	0x3c68924b	0.014195035
52	0xbadfb0bb	-0.001706622
53	0x3cb59f48	0.022170678
54	0xbbb227c7	-0.0054368707
55	0x3d275f09	0.040862117
56	0x3d007325	0.03135981
57	0x3c84792a	0.016171057
58	0xbc9bc8d5	-0.019016663
59	0x3d22d100	0.0397501
60	0x3cd3b345	0.025842318
61	0x3d048089	0.032349143
62	0x3d5a3b3b	0.053279143
63	0x3be4d05e	0.006982847
64	0x3d398738	0.04529497
65	0x3d2361e4	0.039888278
66	0x3cd73dfd	0.026274676
67	0x3cbbcfeb	0.022926291
68	0x3ce6c3c7	0.028169526
69	0x3d1ae264	0.03781356
70	0x3c0f0774	0.008729804
71	0x3d0ae713	0.033911776
72	0x3cdb1007	0.02674104
73	0x3d1b32dc	0.0378903
74	0x3c9209c2	0.017826919
75	0xbb8d4ab0	-0.004311882
76	0x3d09f289	0.033678565
77	0x3c03b9b1	0.008039878
78	0x3cecd174	0.028908469
79	0xbb5467c5	-0.0032410484
80	0x3b8bca16	0.004266034
81	0x3cb828be	0.022480365
82	0x3d072e9c	0.033003435
83	0x3c883bee	0.01663014
84	0x3d59bc78	0.053158253
85	0xbc52a28d	-0.012856138
86	0x3c48a39a	0.012246037
87	0xbb7aa136	-0.0038243062
88	0x3c8bce53	0.017066156
89	0xbbefa640	-0.0073135197
90	0x3c557e51	0.013030604
91	0x3cbcd75d	0.023051912
92	0x3be1d6ed	0.006892076
93	0x3d17c863	0.037056338
94	0x3cbed606	0.023295414
95	0x3cfcdcde	0.030867036
96	0x3d4c5d1d	0.049893487
97	0xbb09e112	-0.0021038693
98	0xbb59fb14	-0.0033261226
99	0x3d423e02	0.047422417
100	0x3d1d6d11	0.038434092
101	0xbd4ff71b	-0.050772768
102	0x3cbe776e	0.023250308
103	0x3b6d5f4b	0.003622013
104	0xbcb261b8	-0.021775112
105	0x3d028659	0.031866405
106	0x3d16140d	0.036640216
107	0x3ccbe01c	0.024887137
108	0x3c3150e9	0.010822513
109	0xbc0131d8	-0.007885419
110	0x3cbee328	0.023301676
111	0xbc53f8b0	-0.01293771
112	0x3d31d133	0.0434124
113	0x3d576025	0.052581925
114	0x3d19409a	0.037415124
115	0x3cd77be3	0.026304191
116	0x3cac0aaa	0.021001179
117	0x3c5fbe04	0.013656143
118	0x3c14bb11	0.009077803
119	0x3bb3d7b8	0.005488362
120	0xbd62c072	-0.05535931
121	0x3c3910fb	0.011295552
122	0x3c98fb02	0.018674377
123	0x3c6e0b30	0.0145290345
124	0x3d67a2d3	0.056551766
125	0xbc549549	-0.0129750455
126	0x3ce52545	0.027971873
127	0x3c874d4a	0.016516346

action_model._discrete_distribution.branches.0.weight f4 [6, 128]
0	0xbc1deaa9	-0.009638467
1	0xbd3174d9	-0.043324325
2	0xbd18475a	-0.03717742
3	0xbc0a46e6	-0.008439755
4	0x3caa1169	0.020760255
5	0x3b5ef21e	0.0034018825
6	0x3b563f33	0.0032691478
7	0xbcc93e97	-0.024565978
8	0xbcd39417	-0.02582745
9	0x3c20113a	0.009769732
10	0x3a3beb7a	0.00071685726
11	0xbd784b23	-0.06061853
12	0xbd35651f	-0.04428589
13	0x3cb3d396	0.021951478
14	0xbcbb3845	-0.02285398
15	0xbc7ef5e6	-0.015561556
16	0xbcd1fca5	-0.025633166
17	0xbccd2b64	-0.025045104
18	0x3c573643	0.013135496
19	0xbc801ffd	-0.015640253
20	0x3aefc805	0.0018293863
21	0xbd83a4a9	-0.06427891
22	0xbb8c91f9	-0.0042898622
23	0x3c0f5126	0.008747375
24	0xbb1dabc6	-0.0024058684
25	0xbc8d5067	-0.017250253
26	0x3cea6016	0.02861027
27	0x3cce4842	0.02518094
28	0xb891ac02	-6.946178e-05
29	0xbd1aa5f2	-0.037755914
30	0xbd05719d	-0.032579053
31	0xbc94ac84	-0.018148668
32	0xbc7e20bd	-0.015510735
33	0xbd17098d	-0.036874343
34	0xbb5395da	-0.0032285363
35	0x3c2d23a5	0.01056758
36	0xbce9d031	-0.028541656
37	0xbcd77c02	-0.026304249
38	0xbc1478f6	-0.009062042
39	0x39c83c21	0.00038191772
40	0xbcc34b34	-0.02383957
41	0x3c8aa07a	0.016922224
42	0x3b3b1d82	0.0028551524
43	0xbd621e2d	-0.05520456
44	0x3c6fd95d	0.014639226
45	0xbcfd456a	-0.030916888
46	0xbc9a2b86	-0.018819582
47	0xba9505b1	-0.0011369494
48	0xbd5686ee	-0.052374773
49	0xbbb56c62	-0.005536602
50	0x3c0aeb85	0.008479004
51	0xbd167cac	-0.03673999
52	0xbca212a2	-0.019784275
53	0xbd0a870b	-0.033820193
54	0xbd0f1e03	-0.03494073
55	0xbcac718e	-0.02105024
56	0xbb0f5635	-0.0021871452
57	0xbc7bec7a	-0.015376205
58	0x3d077e88	0.033079654
59	0x3c3dd976	0.011587491
60	0xbd039fce	-0.032134824
61	0xbb004c08	-0.0019576568
62	0xbc4a5a99	-0.012350702
63	0xbc09807a	-0.008392448
64	0x3b00b2fb	0.001963793
65	0xba41c2d1	-0.00073913956
66	0xbd3bdfa3	-0.045867573
67	0x3c102586	0.008798009
68	0xbd02ea83	-0.03196193
69	0xba9b46e0	-0.0011846684
70	0xbbd82a13	-0.0065968125
71	0xbbc179bb	-0.005904404
72	0x3a9f6de0	0.0012163483
73	0x3b9de369	0.004818369
74	0xbb8a236b	-0.004215648
75	0x3d02c631	0.03192729
76	0x3b206ebb	0.0024480063
77	0xbcae1d9c	-0.021254353
78	0xbbc9d177	-0.0061590034
79	0xbc24a313	-0.010048646
80	0x3c952443	0.018205767
81	0xbced93df	-0.029001174
82	0xbd4ba284	-0.049715534
83	0xbcc1bf73	-0.02365086
84	0x3a02f0e7	0.00049950037
85	0x3d1a4679	0.037664864
86	0x3c925cd1	0.017866524
87	0xbc39837e	-0.011322854
88	0xbd1f29d5	-0.038858254
89	0xbca73d9d	-0.020415122
90	0x3c9a0eb9	0.018805848
91	0x3bf89173	0.0075856983
92	0x3b8a8af8	0.004227992
93	0xbd2da14e	-0.04239016
94	0x3d11a840	0.035560846
95	0xbcaf9ab1	-0.021436067
96	0xbc23372c	-0.0099618845
97	0x3b7abe95	0.0038260568
98	0x3c76bd2c	0.0150597505
99	0xbd0efe66	-0.034910582
100	0xbbb9c91b	-0.0056697256
101	0x3d294917	0.04132947
102	0xbc5b23da	-0.013375247
103	0x3cab710a	0.020927925
104	0x3cbc1b3f	0.02296221
105	0xbc0e4853	-0.008684236
106	0xbca93f8e	-0.020660188
107	0xbc4cca9e	-0.01249948
108	0x3d09957a	0.033589818
109	0x3c4624dc	0.012093749
110	0xbd170090	-0.03686577
111	0xbbeac2a9	-0.0071643186
112	0xbc8d8401	-0.017274858
113	0xbd0bfe06	-0.034177803
114	0xbd85c43a	-0.06531568
115	0xbcc493a9	-0.023996191
116	0x3c5e4287	0.013565666
117	0x3b437aed	0.0029827908
118	0x3d0ea681	0.03482676
119	0x3c31cc4e	0.010851933
120	0x3d13e145	0.036103506
121	0xb9468007	-0.00018930445
122	0x3c025798	0.007955454
123	0x3c0b531b	0.008503701
124	0xbd72af0c	-0.05924897
125	0x3acdffd7	0.0015716505
126	0xbcac47bf	-0.021030305
127	0x3d06f6af	0.0329501
128	0xbc86fe9b	-0.016478827
129	0xbc9fad1e	-0.019491728
130	0x3cf15cb5	0.029463151
131	0x3d130632	0.03589458
132	0xbd3b7b52	-0.045771904
133	0x3d172cb5	0.03690787
134	0x3d0ff612	0.03514678
135	0x3d0aef61	0.033919696
136	0xbc5a338a	-0.013317952
137	0xbca2ab35	-0.019857028
138	0xbd92cd06	-0.07168011
139	0xbb989bb9	-0.0046572355
140	0xbcda05d0	-0.0266141
141	0x3cc85213	0.024453199
142	0x3d3f4846	0.046699785
143	0x3cb38557	0.021914167
144	0xbd38709d	-0.04502927
145	0xbc93b7bf	-0.018031953
146	0x3d63c05c	0.05560337
147	0xbc8ca9be	-0.017170783
148	0xbd14fade	-0.036372058
149	0x3c446f24	0.011989389
150	0xbc0d477e	-0.008623002
151	0xbd478f21	-0.048720483
152	0xbbe9901a	-0.007127774
153	0xbd0df9c6	-0.03466203
154	0xbcc2bc7f	-0.023771523
155	0xbc64b58a	-0.013959298
156	0xbb7b0110	-0.0038300194
157	0xbc8cb0e5	-0.017174194
158	0xbd860bc0	-0.0654521
159	0xbbe8f900	-0.0071097612
160	0x3cfafa87	0.030637039
161	0xbd142cc3	-0.0361755
162	0x3cdd2f6a	0.027000148
163	0xbd76c9dc	-0.0602511
164	0xbaffbd49	-0.0019511367
165	0x3d20609d	0.039154638
166	0xbce81bf7	-0.028333647
167	0xbd428e87	-0.047499206
168	0x3c899053	0.016792452
169	0x3bb60d95	0.0055558183
170	0x3d5554ca	0.052082814
171	0xbd3699b2	-0.04458017
172	0x3d570e83	0.052504074
173	0x3c1a05fc	0.009400841
174	0xbd7bb868	-0.06145516
175	0x3d923b8e	0.071402654
176	0x3be9ba5e	0.0071328124
177	0x3c5faccb	0.013652037
178	0xbc5c57ad	-0.013448638
179	0xbd405d3c	-0.046963915
180	0xbc294dc0	-0.010333478
181	0xbd6ab70e	-0.05730348
182	0xbd0b65ae	-0.034032516
183	0xbd7addf5	-0.06124683
184	0xbcbad7e7	-0.022808028
185	0x3d4523b9	0.04812977
186	0xbcfee10c	-0.03111317
187	0x3cd8fc76	0.02648757
188	0xbd1ad4ae	-0.037800483
189	0xbdafd6b4	-0.08585873
190	0xbb384f28	-0.0028123353
191	0xbd8feb8b	-0.07027348
192	0xbd0bcb37	-0.034129348
193	0xbb47b058	-0.00304701
194	0x3c9fd657	0.019511385
195	0x3d04c209	0.03241161
196	0x3ce6bdd0	0.028166682
197	0x3d72d22e	0.059282474
198	0x3d4804b3	0.048832607
199	0xbd1994db	-0.037495475
200	0x3ca81da7	0.020521952
201	0x3dd4978c	0.10380468
202	0xbdb974d1	-0.09055484
203	0x3c524735	0.01283436
204	0xbbdb6d76	-0.0066963984
205	0xbd3b5f9b	-0.045745473
206	0x3c1a13e8	0.00940416
207	0xbd0448f7	-0.032296147
208	0xbd37e7e6	-0.04489889
209	0xbd5d164a	-0.053976335
210	0x3b3c1f22	0.002870508
211	0x3ca10221	0.019654335
212	0x3befb3bf	0.0073151286
213	0xbc8cc308	-0.017182842
214	0x3ce76835	0.028247932
215	0x3d30a765	0.04312839
216	0xbd903b17	-0.070425205
217	0x3c22688f	0.009912624
218	0xbdbb471b	-0.09144422
219	0x3ce0ccc9	0.0274414
220	0x3d0db415	0.034595568
221	0x3ce3d8ce	0.027813341
222	0x3df65ec7	0.12029796
223	0x3cb5ef4a	0.022208828
224	0xbcd16993	-0.025563037
225	0xbcf37c41	-0.029722335
226	0x3d196290	0.037447512
227	0xbd3ab87e	-0.0455861
228	0x3cd62933	0.026142692
229	0xb9b39ef4	-0.0003425997
230	0xbd05f9a6	-0.032708786
231	0xbad23283	-0.0016036782
232	0xbc626e60	-0.013820261
233	0x3d497830	0.049186885
234	0x3d138d04	0.036023155
235	0xb9f9f8b3	-0.00047678276
236	0x3d75a16e	0.059968404
237	0xbc9f6ada	-0.01946013
238	0xbd97e123	-0.07415988
239	0x3ca55cb3	0.020185804
240	0x3c91ba97	0.017789168
241	0xbcfa8f9d	-0.030586058
242	0x3c6a5459	0.014302337
243	0x3c8bffaf	0.017089693
244	0x3cb25b73	0.021772122
245	0xbceb072e	-0.028689947
246	0x3dbd404e	0.09240781
247	0x3d2bbafa	0.04192636
248	0x3c83c73a	0.01608621
249	0xbcdf3b5f	-0.02724999
250	0xbcf1fc43	-0.029539233
251	0x3c5e2bb8	0.013560228
252	0xbd4e4317	-0.05035695
253	0x3cb1b9c6	0.021695029
254	0x3d2392b8	0.039934844
255	0x3c1cbebc	0.009566959

action_model._discrete_distribution.branches.0.bias f4 [6]
0	0xbd20ec3b	-0.039287787
1	0xbc6addff	-0.014335155
2	0xbb1a6e35	-0.0023564224
3	0x3d056fcd	0.032577325
4	0x3ab3b055	0.0013709167
5	0x3c85715b	0.016289404
