Assets/Hide and Seek/Brain/BlockyHiderBehavior.onnx (onnx, 196109 bytes, 6 tensors)

action_model._discrete_distribution.branches.0.bias f4 [8]
0.0010897534 0.002488188 0.0039420826 0.010770944 -0.0014103196 -0.012237174 -0.0011182375 -0.0016864105
00000000: 0ed6 8e3a de10 233b 962c 813b 9d78 303c
00000010: 79da b8ba 6e7e 48bc d391 92ba 8c0a ddba

action_model._discrete_distribution.branches.0.weight f4 [8, 128]
-0.0032669234 -0.003081666 0.009490763 -0.013150579 -0.006274018 0.005078187 0.018858457 0.010905403
0.0042048995 -0.00092685054 0.008303675 0.032147966 0.0058529084 0.02754692 -0.048997197 -0.030532317
-0.010114981 -0.027067227 -0.026189627 -0.032263376 0.0030354275 -0.0009530655 0.0061972854 -0.027380697
-0.020334478 0.026563868 -0.002234038 -0.009326526 0.04374254 0.0008739563 -0.0005190289 0.0021309815
-0.025907077 -0.01409253 -0.008082463 0.00305636 -0.021361714 -0.007425806 -0.0060602976 0.017907074
-0.020209977 -0.015549953 -0.051050972 0.0029569715 0.007282809 0.011374951 0.021978214 0.0006825181
0.013151363 0.007240678 -0.03769119 -0.023563607 0.017723737 -0.004858688 0.033238668 -0.008923277
0.024018075 -0.031571176 0.0002867111 -0.014298735 -0.037490923 0.0047663623 0.03200005 -0.020764349
-0.005925477 -0.0048832153 0.0011214376 0.012252122 -0.019429415 -0.0045403074 0.0162748 0.01475568
-0.013617976 -0.013408748 0.011446037 -0.0047390317 -0.0079243705 0.010468303 0.019178124 -0.023413265
0.0038082842 -0.0122240605 0.01339227 0.019351184 -0.01212547 -0.010235119 0.026351158 -0.011697414
-0.013021324 -0.0018317903 0.0033622046 0.01812172 -0.02910107 -0.0021198776 0.0073078065 0.007374521
-0.0026973668 0.0059019006 -0.010868299 -0.0020968616 -0.014180175 0.013137452 -0.01096917 -0.01853993
-0.010510589 -0.014522803 -0.018129572 0.010238953 -0.024944095 0.016926069 0.010787703 -0.015623033
-0.016491657 0.015120341 -0.005501022 -0.0031916052 -0.017294673 -0.015819553 0.006983851 0.016208064
0.009798205 -0.028902838 -0.022254268 -0.01239362 -0.022375412 -0.003967472 -0.008548007 0.017782703
0.010156222 0.016190488 -0.013565814 -0.012391311 0.02050715 -0.049793355 -0.018697448 -0.0015963161
-0.013954378 0.023543462 0.024243666 0.008143392 0.015817624 -0.052010916 -0.004096019 -0.007646874
-0.0030290186 0.044941064 -0.049807034 0.045041654 -0.062292617 0.0019848845 0.030437976 -0.002219576
-0.008436584 -0.07277236 0.027466768 0.019756783 -0.06368644 -0.036674317 0.021882221 -0.019136433
-0.00016365245 -0.030566199 -0.002500296 0.040424336 -0.0096309045 0.0038548238 0.026662402 0.033706445
0.045818184 0.030738758 0.032121688 -0.0034330396 0.011266318 0.004795656 -0.039579906 -0.020661218
-0.015542501 0.005600325 0.017659381 0.0009768457 -0.013630397 -0.013786178 -2.631695e-05 -0.028216492
0.021655615 -0.026242092 0.017244115 0.003899532 0.009886855 0.06258776 0.008050031 0.006865744
0.049295817 -0.010884813 0.051218223 -0.015810438 0.0027340509 0.040922336 0.04479327 -0.058156084
0.032968722 -0.06826109 0.016695693 0.05862159 0.00056770624 0.002121265 0.030150479 0.030870382
0.008483861 0.05554147 -0.00048690636 -0.026545377 0.041142818 0.010304657 0.03560894 -0.00085928326
-0.01964124 -0.0052290256 0.0038973626 -0.023123287 -0.054828182 -0.006482522 -0.065336615 -0.016709121
0.007015556 0.0067789466 0.012145185 0.015841343 -0.020922113 0.0120859975 -0.024396032 -0.011739414
0.051586114 0.0057801115 0.013052652 -0.084901266 -0.019100139 0.006522932 -0.060093302 0.007960876
0.0066073937 -0.069546 0.00086099026 0.0098311845 -0.0452294 -0.02016297 -0.0017106705 0.025387786
-0.0196101 -0.015080825 0.02786262 -0.0020665997 0.011746781 0.04117321 -0.015468962 -0.02556667
00000000: e119 56bb c7f5 49bb 257f 1b3c 8775 57bc
00000010: 4796 cdbb ec66 a63b 0d7d 9a3c 93ac 323c
00000020: 41c9 893b e3f7 72ba 230c 083c 96ad 033d
00000030: c1c9 bf3b 14aa e13c 49b1 48bd e91e fabc
00000040: 4eb9 25bc 17bc ddbc a18b d6bc 9a26 04bd
00000050: 06ee 463b 25d7 79ba 9912 cb3b 7c4d e0bc
00000060: 7e94 a6bc 789c d93c f068 12bb 49ce 18bc
00000070: 612b 333d 371a 653a 710f 08ba f0a7 0b3b
00000080: 143b d4bc 5be4 66bc 4f6c 04bc 364d 483b
00000090: c3fe aebc 2d54 f3bb 7695 c6bb dbb1 923c
000000a0: 658f a5bc 3bc5 7ebc d31a 51bd c0c9 413b
000000b0: a1a4 ee3b 015e 3a3c a80b b43c 04eb 323a
000000c0: d078 573c 3643 ed3b 1462 1abd 7708 c1bc
000000d0: 5f31 913c a135 9fbb 4525 083d f032 12bc
000000e0: 8ec1 c43c c750 01bd b651 9639 3e45 6abc
000000f0: 1590 19bd 252f 9c3b 7c12 033d ff19 aabc
00000100: 812a c2bb 6103 a0bb 34fd 923a 20bd 483c
00000110: 702a 9fbc dcc6 94bb bb52 853c cfc1 713c
00000120: ee1d 5fbc 5eb0 5bbc 2988 3b3c e149 9bbb
00000130: 38d5 01bc 3f83 2b3c 711b 9d3c 2dcd bfbc
00000140: 6894 793b 6d47 48bc 406b 5b3c 6086 9e3c
00000150: e8a9 46bc 33b1 27bc 62de d73c 83a6 3fbc
00000160: 6457 55bc af18 f0ba 6f58 5c3b 0074 943c
00000170: 5e65 eebc a5ed 0abb 5376 ef3b f7a5 f13b
00000180: 4ec6 30bb bb64 c13b f310 32bc 806b 09bb
00000190: f753 68bc 783e 573c 09b8 33bc 0de1 97bc
000001a0: 9b34 2cbc 0df1 6dbc 7884 94bc 48c1 273c
000001b0: 8f57 ccbc 8aa8 8a3c e8be 303c c0f7 7fbc
000001c0: 8319 87bc 4fbb 773c eb41 b4bb 402a 51bb
000001d0: 8fad 8dbc 0298 81bc cad8 e43b c6c6 843c
000001e0: a788 203c a5c5 ecbc 954e b6bc 9c0e 4bbc
000001f0: a44c b7bc 9101 82bb f10c 0cbc 08ad 913c
00000200: 4866 263c eaa1 843c 2643 5ebc ed04 4bbc
00000210: 9cfe a73c 1ef4 4bbd 642b 99bc 7b3b d1ba
00000220: e7a0 64bc 38de c03c a79a c63c dd6b 053c
00000230: f693 813c 6609 55bd e637 86bb a192 fabb
00000240: 8082 46bb 1f14 383d 7602 4cbd 997d 383d
00000250: 8b26 7fbd d614 023b 1059 f93c 4e76 11bb
00000260: 9939 0abc ad09 95bd fd01 e13c fad8 a13c
00000270: 096e 82bd cf37 16bd 5842 b33c 02c4 9cbc
00000280: 1f9a 2bb9 f765 fabc 02dc 23bb fd93 253d
00000290: f1ca 1dbc 36a1 7c3b 1c6b da3c c50f 0a3d
000002a0: d9ab 3b3d d9cf fb3c 0892 033d d9fc 60bb
000002b0: 5d96 383c e124 9d3b 8a1e 22bd b741 a9bc
000002c0: f9a5 7ebc ee82 b73b 68aa 903c 8109 803a
000002d0: 0752 5fbc 6cdf 61bc 38c3 dcb7 4626 e7bc
000002e0: 1e67 b13c a8f9 d6bc 8843 8d3c 4a8f 7f3b
000002f0: 7afc 213c 032e 803d 47e4 033c 09fa e03b
00000300: 69ea 493d 3756 32bc 33ca 513d e484 81bc
00000310: c32d 333b 2e9e 273d 2679 373d 1335 6ebd
00000320: 360a 073d 78cc 8bbd 68c5 883c 311d 703d
00000330: 1fd2 143a ec04 0b3b 23fe f63c e2e3 fc3c
00000340: e4ff 0a3c 747f 633d 7747 ffb9 b175 d9bc
00000350: 5f85 283d ddd4 283c aeda 113d 8641 61ba
00000360: aae6 a0bc 3f58 abbb e56a 7f3b 0c6d bdbc
00000370: 8493 60bd 566b d4bb 34cf 85bd 91e1 88bc
00000380: c0e2 e53b ed21 de3b 99fc 463c b4c5 813c
00000390: da64 abbc 5904 463c 30da c7bc ac56 40bc
000003a0: f64b 533d 1767 bd3b cada 553c b7e0 adbd
000003b0: e577 9cbc 52be d53b 6524 76bd 566e 023c
000003c0: d682 d83b 226e 8ebd 14b4 613a fa12 213c
000003d0: 7742 39bd d02c a5bc 9438 e0ba 0cfa cf3c
000003e0: 5ca5 a0bc 9115 77bc 2640 e43c ca6f 07bb
000003f0: 9275 403c 3da5 283d 8771 7dbc 3171 d1bc

network_body._body_endoder.seq_layers.0.bias f4 [128]
0.0076403865 0.025134003 0.029970888 0.013894889 0.031613942 0.015313304 0.0061433036 -0.016702177
-0.0131680155 0.05139477 0.040590666 0.007194014 0.018142495 0.02218368 0.030661546 0.045069315
0.004056087 0.0058841687 -0.010241464 0.019757595 0.022443205 0.017413015 0.023748113 0.0001184099
0.0013931532 0.039061297 -0.022105237 0.011347892 0.0013166845 0.0049037337 0.0089115305 0.025810024
0.015922405 0.0035070153 0.03401032 0.010347872 0.004655502 0.013145613 0.019906256 0.03555808
0.034820363 0.0286295 0.020411542 0.03829458 0.02150185 -0.0015195339 0.00025992902 0.0028767295
0.02804744 -0.011240104 0.02737049 0.004849904 0.00972031 0.016172556 0.03069232 0.018276336
0.027561251 0.029490525 -0.007470564 -0.0028388188 0.036932915 0.055742912 0.008337595 0.047570806
0.018860072 0.022291228 0.020003192 0.0090117 -0.0034049503 0.017488135 0.02019038 0.017218348
0.040264864 0.050180573 -0.019023921 -0.010084977 0.017407617 0.016659565 0.017143182 0.01664928
-0.000796113 0.03241792 -0.023146814 -2.5038249e-05 0.020223388 0.03440382 0.016098281 0.02737169
0.026854895 0.0022969963 -0.0026830954 0.036233794 0.016999444 -0.00796386 0.01863344 -0.020264136
0.028793428 -0.010985082 0.032012977 0.025500936 -0.0036593892 0.012653582 -0.0035511544 0.03577841
0.045256987 -0.017835815 0.02412723 0.019271838 0.029152561 -0.0016543219 0.004562305 0.03766699
0.038181137 0.016324408 -0.006062243 -0.023197817 0.008746648 0.011123907 0.032084163 0.024031462
0.03803719 0.024419865 0.014713649 -0.0033796744 0.011845906 0.032287754 0.0018192313 0.009060273
00000000: 355c fa3b d3e5 cd3c 8285 f53c 63a7 633c
00000010: 9f7d 013d a7e4 7a3c c44d c93b 01d3 88bc
00000020: a9be 57bc 5383 523d 6642 263d c3bb eb3b
00000030: 929f 943c 8dba b53c ec2d fb3c 9a9a 383d
00000040: ede8 843b fccf c03b d0cb 27bc aeda a13c
00000050: d0da b73c bda5 8e3c 678b c23c d552 f838
00000060: 779a b63a bdfe 1f3d 0b16 b5bc 82ec 393c
00000070: 9a94 ac3a 80af a03b ab01 123c 8b6f d33c
00000080: b46f 823c f4d5 653b 684e 0b3d 1f8a 293c
00000090: 2e8d 983b b260 573c 7212 a33c 59a5 113d
000000a0: cc9f 0e3d 6a88 ea3c 1b36 a73c c7da 1c3d
000000b0: a624 b03c 192b c7ba 1547 8839 8387 3c3b
000000c0: bfc3 e53c 6a28 38bc 1438 e03c f2eb 9e3b
000000d0: ef41 1f3c 4f7c 843c 766e fb3c 41b8 953c
000000e0: 22c8 e13c 1d96 f13c a2cb f4bb 7a0b 3abb
000000f0: f846 173d ae52 643d 689a 083c 9bd9 423d
00000100: 7080 9a3c 189c b63c bcdd a33c cfa5 133c
00000110: 9625 5fbb 4743 8f3c 4c66 a53c 7e0d 8d3c
00000120: c5ec 243d 258a 4d3d 0ed8 9bbc 763b 25bc
00000130: 6b9a 8e3c a479 883c dc6f 8c3c 1264 883c
00000140: 3db2 50ba a7c8 043d 639e bdbc 3b09 d2b7
00000150: 85ab a53c 05eb 0c3d 8be0 833c 983a e03c
00000160: ccfe db3c 3489 163b dfd6 2fbb e369 143d
00000170: 6b42 8b3c da7a 02bc 28a5 983c f900 a6bc
00000180: 32e0 eb3c c6fa 33bc 0a20 033d 57e7 d03c
00000190: 5dd2 6fbb f850 4f3c 7cba 68bb 628c 123d
000001a0: 645f 393d 6a1c 92bc 78a6 c53c f9df 9d3c
000001b0: 5ad1 ee3c d5d5 d8ba 637f 953b b448 1a3d
000001c0: d363 1c3d c4ba 853c c8a5 c6bb 5909 bebc
000001d0: 1a4e 0f3c 0c41 363c af6a 033d a1dd c43c
000001e0: e2cc 1b3d 2b0c c83c 8411 713c 877d 5dbb
000001f0: 5515 423c 2a40 043d 4673 ee3a 8a71 143c

network_body._body_endoder.seq_layers.0.weight f4 [128, 241]
0.0919515 0.048565105 -0.069735624 0.035983495 0.068864815 0.13365304 -0.012651081 0.0099239405
-0.14611067 -0.08540903 0.0148532735 -0.14318378 -0.07446372 0.06765511 0.0013266429 -0.11656908
0.004398557 0.020067548 0.023255788 0.08177591 0.07974313 -0.012310249 0.096480854 0.0012226191
0.056854066 -0.08153054 0.0630353 0.053708404 0.057936452 0.0058702044 -0.040538274 0.04788486
-0.011000257 0.033818483 -0.014200203 -0.018935174 0.03148195 0.0010634274 0.003458241 0.11437137
-0.082660034 0.043661427 -0.021025676 0.124763615 -0.14058279 -0.030237542 0.0016151671 -0.010076486
-0.06776128 0.02493197 0.123460025 -0.02630164 0.007097613 -0.03897287 -0.055733975 -0.12856531
0.032243032 0.06668195 0.033746623 0.003940315 -0.03844539 -0.054280158 -0.1589487 -0.064570144
0.0022927546 -0.04804791 -0.023706438 -0.0012243593 -0.012171749 -0.0319055 -0.0306898 -0.064805925
0.020338489 0.046883695 -0.041195385 0.003226859 0.069174185 -0.009195359 -0.08536571 0.0487316
-0.019253338 0.004171363 0.0008151732 -0.01591896 -0.020269895 -0.09896783 0.007157462 0.15795363
-0.05125893 -0.009707939 0.039256867 -0.0064920676 0.1006035 -0.143948 -0.074956596 0.025881471
-0.02339938 -0.034385707 -0.002303033 -0.117470466 0.0012916893 -0.07493653 -0.007987139 -0.05712674
0.03693864 0.0871886 -0.030413376 0.15378274 -0.074036576 -0.092426 0.035244618 -0.062710226
0.09632251 0.011141729 -0.10058224 0.09978964 -0.06722371 0.006452465 -0.04888635 -0.07497605
0.031835794 -0.018650021 0.1352396 0.0051160855 0.049014855 0.0998784 -0.020013371 0.120210305
0.023224939 -0.09472951 -0.053831972 -0.065609574 -0.045678973 0.04035512 -0.011897989 0.05645144
-0.021057129 0.0272886 -0.037199683 -0.022012016 -0.07289603 -0.035205938 -0.031230666 -0.049061462
0.08302114 0.08651077 0.07375928 0.0815923 0.036801655 0.008987305 0.074854866 0.030858887
0.04347549 0.069950566 0.019997587 -0.024278259 -0.019970173 0.10501211 0.10033503 0.031233473
0.008546422 -0.034666207 0.15260981 -0.057529658 0.00632496 -0.1268207 -0.070240796 -0.011251255
0.069176696 -0.17299567 0.049786016 -0.1247634 0.083225705 -0.062102523 -0.0004645467 0.024767555
-0.19188811 0.07834431 -0.026095198 0.037979998 0.052018583 -0.017558122 0.07119856 -0.07886708
-0.033227205 0.037641514 -0.07050435 0.047627024 -0.05452376 -0.036251392 0.0060229115 -0.05336843
-0.048252866 -0.074848145 0.0001453537 -0.010710962 -0.076220736 -0.00866632 0.016023057 -0.09268224
-0.015579953 -0.16969372 0.017576057 0.101676546 0.028291617 -0.019086637 -0.10501236 0.03044161
-0.0013844774 -0.018134966 -0.036997285 -0.19226953 0.15696262 0.037025295 -0.012243192 -0.1567153
-0.012690628 0.060932506 -0.005700231 -0.075341806 0.08855174 0.09342098 0.11460249 0.03450541
0.05552634 -0.028292166 0.015813751 0.10953105 0.083715774 0.04026938 -0.021956418 -0.013518329
-0.037965037 -0.005111537 -0.027350986 -0.049956683 0.06445502 0.12663056 -0.11171794 -0.15942273
0.096259385 0.062262096 0.034952883 0.043666076 -0.013604195 0.073989406 -0.013220551 -0.13658823
-0.09533544 -0.08662845 -0.069865055 0.066061325 -0.02496987 0.018464928 -0.0807619 0.07934094
00000000: 1151 bc3d 34ec 463d 8dd1 8ebd 6e63 133d
00000010: ff08 8d3d 58dc 083e 7b46 4fbc 0698 223c
00000020: 099e 15be eeea aebd 255b 733c c59e 12be
00000030: 6f80 98bd c38e 8a3d c0e2 ad3a c5bb eebd
00000040: c521 903b b364 a43c ec82 be3c 217a a73d
00000050: 5e50 a33d edb0 49bc c197 c53d 4a40 a03a
00000060: cfdf 683d 7cf9 a6bd a718 813d 58fd 5b3d
00000070: c64e 6d3d d85a c03b 760b 26bd ea22 443d
00000080: 6c3a 34bc 4085 0a3d f8a7 68bc f01d 9bbc
00000090: 38f3 003d b462 8b3a a8a3 623b 893b ea3d
000000a0: aa49 a9bd 53d6 323d 0a3e acbc 1184 ff3d
000000b0: eff4 0fbe b9b4 f7bc 04b4 d33a d817 25bc
000000c0: 6dc6 8abd 213e cc3c 9cd8 fc3d 8976 d7bc
000000d0: 1893 e83b 04a2 1fbd 4f49 64bd a0a6 03be
000000e0: 4511 043d 8c90 883d e639 0a3d c21d 813b
000000f0: ea78 1dbd df54 5ebd 73c3 22be 5a3d 84bd
00000100: 0a42 163b e3cd 44bd 0134 c2bc ae7a a0ba
00000110: 046c 47bc 57af 02bd 2d69 fbbc f8b8 84bd
00000120: e79c a63c 1e09 403d 7ebc 28bd b679 533b
00000130: 32ab 8d3d 22a8 16bc 38d4 aebd c99a 473d
00000140: 2db9 9dbc eeaf 883b 59b1 553a 7b68 82bc
00000150: 0d0d a6bc a5af cabd 2589 ea3b 99be 213e
00000160: e2f4 51bd 0c0e 1fbc cfcb 203d 69bb d4bb
00000170: 3509 ce3d 1b67 13be d882 99bd 6105 d43c
00000180: 0eb0 bfbc 07d8 0cbd 7bee 16bb 5b94 f0bd
00000190: e74d a93a 5378 99bd 7ddc 02bc bbfd 69bd
000001a0: f94c 173d f08f b23d 7925 f9bc 3979 1d3e
000001b0: 7da0 97bd d849 bdbd a95c 103d 386e 80bd
000001c0: bc44 c53d cc8b 363c 10fe cdbd 835e cc3d
000001d0: 96ac 89bd 336f d33b 0e3d 48bd 0b8d 99bd
000001e0: 4066 023d eec7 98bc 407c 0a3e d6a4 a73b
000001f0: cdc3 483d 0c8d cc3d 15f3 a3bc d230 f63d
00000200: 3a42 be3c 8c01 c2bd ea7e 5cbd 505e 86bd
00000210: e019 3bbd 694b 253d c8ef 42bc a039 673d
00000220: 0080 acbc 588c df3c b25e 18bd 8b52 b4bc
00000230: 844a 95bd 1a34 10bd 74d7 ffbc acf4 48bd
00000240: fd06 aa3d 8f2c b13d 1b0f 973d dd19 a73d
00000250: 55bd 163d 7d3f 133c 824d 993d c7cb fc3c
00000260: 5b13 323d 3e42 8f3d fbd1 a33c 33e3 c6bc
00000270: 7d98 a3bc 9710 d73d 747c cd3d 57dd ff3c
00000280: 4b06 0c3c 27fe 0dbd bf45 1c3e 38a4 6bbd
00000290: 9c41 cf3b 49dd 01be 68da 8fbd 2f57 38bc
000002a0: 83ac 8d3d c725 31be 6cec 4b3d f483 ffbd
000002b0: 3d72 aa3d 375f 7ebd 678e f3b9 54e5 ca3c
000002c0: 517e 44be fb72 a03d 99c5 d5bc ea90 1b3d
000002d0: 7011 553d 0dd6 8fbc 8dd0 913d 1085 a1bd
000002e0: 4019 08bd fd2d 1a3d 9664 90bd 8e14 433d
000002f0: 4e54 5fbd 577c 14bd d85b c53b db98 5abd
00000300: cca4 45bd fc49 99bd 166a 1839 087d 2fbc
00000310: 9e19 9cbd 2efd 0dbc c942 833c 30d0 bdbd
00000320: 0f43 7fbc 31c4 2dbe aafb 8f3c cb3b d03d
00000330: d2c3 e73c 945b 9cbc b810 d7bd af60 f93c
00000340: 5a77 b5ba c88f 94bc 778a 17bd 4ee2 44be
00000350: cfba 203e d6a7 173d ab97 48bc fa79 20be
00000360: 5aec 4fbc 5d94 793d 01c9 babb ce4c 9abd
00000370: 9d5a b53d 8053 bf3d b6b4 ea3d 8b55 0d3d
00000380: 966f 633d f9c4 e7bc d78b 813c d151 e03d
00000390: 2d73 ab3d 81f1 243d f2dd b3bc fb7b 5dbc
000003a0: 3a81 1bbd ae7e a7bb 2d0f e0bc 619f 4cbd
000003b0: fe00 843d 71ab 013e 60cc e4bd b63f 23be
000003c0: a423 c53d 8a06 7f3d c12a 0f3d 33db 323d
000003d0: 21e4 5ebc c287 973d 039b 58bc c9dd 0bbe
000003e0: 3a3f c3bd 426a b1bd 6915 8fbd 294b 873d
000003f0: 9d8d ccbc c343 973c 7f66 a5bd 817d a23d

network_body._body_endoder.seq_layers.2.bias f4 [128]
-0.0039491314 0.007225847 0.01727965 -0.0044197836 0.0141345775 0.027500486 0.009372651 -0.00074401894
0.006789264 0.04587927 0.0025414124 0.035583276 0.0026244712 0.015554067 0.008100588 0.0074845715
0.0024004737 0.005691394 0.0045085754 0.03207245 0.023815313 0.025267 -0.005573955 0.039036237
0.039351333 0.045537133 0.014135393 0.008955303 0.026739176 -0.00016376533 0.009147668 0.010100341
0.0032177246 0.015886143 0.016648268 0.018910343 0.013346775 -0.012221806 0.01274071 0.013781827
0.018556986 0.008587126 0.02176257 -0.004929432 -0.0062828204 0.015499287 0.012062846 0.011116735
0.008399311 0.020023543 0.0090994 0.01515444 0.002062513 0.009118827 0.018183671 0.015671832
0.0012463672 0.022736002 0.009813993 -0.0045192135 0.012806641 0.022159526 0.008029795 0.012536401
0.0033067537 0.011810796 0.012028134 0.009653942 0.007912283 0.014292593 0.01775332 0.017862625
0.031972304 0.031102741 -0.00042710576 0.026791854 0.029129384 0.017749835 0.01445116 -0.006843716
-0.01340465 0.022011654 0.0051395483 0.01790262 0.02081938 0.012010891 0.014294871 0.015737297
0.028541224 0.014893401 0.019790756 0.005421092 0.023117479 0.011978435 0.025653146 0.023190212
0.016594108 -0.0069757383 0.0034608752 0.0018028163 0.016519187 0.03492263 0.004699952 0.0047401097
0.02892138 -0.009331342 0.012785557 0.048518132 0.006881697 0.024827909 0.046335634 -0.012600403
0.0014974969 0.041583568 -0.0053786794 -0.005457174 0.02176414 0.021367483 0.013350289 0.015777593
-0.015385 0.008419679 0.01614544 -0.00614872 0.0150098475 0.0031258347 0.014230449 0.014392984
00000000: b767 81bb ccc6 ec3b 0d8e 8d3c d5d3 90bb
00000010: b794 673c b348 e13c bf8f 193c 440a 43ba
00000020: 7978 de3b e7eb 3b3d d38d 263b c5bf 113d
00000030: 52ff 2b3b 7cd6 7e3c 54b8 043c 2341 f53b
00000040: 4451 1d3b e07e ba3b acbc 933b 675e 033d
00000050: 5518 c33c bdfc ce3c b9a5 b6bb 76e4 1f3d
00000060: dd2e 213d 2585 3a3d 2398 673c 43b9 123c
00000070: 1e0c db3c 6cb8 2bb9 1ae0 153c e77b 253c
00000080: 76e0 523b a823 823c f361 883c dde9 9a3c
00000090: 6fac 5a3c f83d 48bc 69be 503c 2ccd 613c
000000a0: d204 983c 04b1 0c3c 6b47 b23c 1387 a1bb
000000b0: 1ee0 cdbb b9f0 7d3c 3ea3 453c f722 363c
000000c0: 449d 093c 6a08 a43c a615 153c 544a 783c
000000d0: 3a2b 073b 2267 153c ecf5 943c 3762 803c
000000e0: 255d a33a da40 ba3c dfca 203c e915 94bb
000000f0: f2d2 513c e587 b53c 678f 033c 7a65 4d3c
00000100: 1fb6 583b 1282 413c a711 453c 912b 1e3c
00000110: 85a2 013c 7b2b 6a3c 696f 913c a454 923c
00000120: 64f5 023d 2dcb fe3c 2aed dfb9 977a db3c
00000130: bfa0 ee3c 1a68 913c 8fc4 6c3c 4041 e0bb
00000140: 2d9f 5bbc c951 b43c a869 a83b 84a8 923c
00000150: 688d aa3c 54c9 443c 0935 6a3c 81eb 803c
00000160: 49cf e93c 7403 743c 3920 a23c 6aa3 b13b
00000170: de60 bd3c 3341 443c 8c26 d23c 66f9 bd3c
00000180: 5ef0 873c bc94 e4bb dacf 623b 7a4c ec3a
00000190: 3f53 873c 080b 0f3d 0e02 9a3b ec52 9b3b
000001a0: 88ec ec3c 7ce2 18bc 837a 513c f3ba 463d
000001b0: dc7f e13b e663 cb3c 6fca 3d3d ec71 4ebc
000001c0: a847 c43a 8853 2a3d a23f b0bb 18d2 b2bb
000001d0: b64a b23c dc0a af3c 2cbb 5a3c 0340 813c
000001e0: 5e11 7cbc b1f2 093c 7143 843c 347b c9bb
000001f0: ddeb 753c ceda 4c3b d426 693c 8dd0 6b3c

network_body._body_endoder.seq_layers.2.weight f4 [128, 128]
-0.05760069 -0.045448657 0.25329623 0.06159861 -0.026190333 0.11924333 0.13695244 0.033935722
0.19676672 0.028322736 0.10160534 0.044548426 -0.0069449446 0.17471077 0.037485447 -0.26374853
0.014432669 0.017123772 0.09419969 -0.13233447 -0.0133651765 0.07821619 -0.104017794 0.03288357
-0.028904978 -0.16740401 0.007980151 0.056211397 0.11734101 -0.06725687 0.096938744 0.09617647
-0.082431406 -0.04311456 -0.09448017 0.12619866 0.006352224 0.14130774 -0.13388155 0.028802875
-0.031123344 0.056868333 -0.051749244 0.028729541 -7.670826e-05 -0.09705389 0.0373657 0.102119096
0.11427791 -0.06774053 0.015984043 -0.055892576 0.07859881 0.030355927 0.04045223 0.06512195
-0.076043814 -0.059340358 0.09215999 -0.0048190434 -0.034384493 -0.23600806 -0.00905416 0.0069243056
-0.2290324 -0.1022629 0.059052233 -0.014220128 0.05907391 -0.095556766 -0.070885554 0.040905762
-0.004017154 0.0074349856 -0.11122316 -0.0044893897 -0.10632733 0.1007111 0.07575083 0.04522632
0.16081452 -0.026818298 -0.056272075 0.030020222 0.058379453 -0.025542382 0.105826825 -0.004498603
0.113425314 0.051099736 0.22874938 -0.11348206 -0.11448198 -0.015496024 -0.028949674 0.010910815
-0.010202368 0.015646528 0.08891297 0.025871996 0.0018502934 -0.004662226 0.03900003 0.07289898
-0.03493812 -0.03748459 -0.013163274 -0.10125112 0.10023581 -0.08734909 0.15006326 -0.06597302
-0.17859496 -0.02497289 -0.09147796 0.10983021 -0.05838048 -0.049916927 0.088296175 0.09745082
-0.0033930892 -0.053100795 -0.059024014 -0.026162239 -0.030835923 -0.040230878 0.054389406 0.016274212
-0.039175514 -0.057115447 0.057194896 -0.020720165 0.10642471 -0.04489647 -0.041595988 -0.07831517
-0.088623814 0.070049554 0.112572476 -0.021431742 -0.012115263 -0.0068854042 0.10423157 0.06428647
-0.1038803 -0.00021378938 0.028095284 -0.041595444 -0.09653603 -0.021471553 -0.10390471 -0.16699307
-0.115127765 -0.01726432 -0.10226764 0.09337767 -0.13971022 0.027845064 0.12638848 -0.10089392
-1.9022857e-05 -0.078210756 0.09198931 0.0037648398 -0.04408821 0.04019796 -0.041187957 -0.055537395
-0.047586992 0.040195264 -0.0342366 0.06156669 -0.049003843 -0.038988 0.08070563 -0.07092081
-0.0469771 -0.06311931 0.009457927 -0.07219782 -0.018553054 -0.0522398 0.042914692 -0.11688395
0.014169411 0.013332599 -0.16031714 0.024006832 -0.11973236 -0.059705224 0.08855616 0.19620708
0.02917823 0.024416924 0.049839728 0.15878351 0.007229354 -0.1181913 0.005617114 -0.17050792
0.25018677 -0.014567253 0.02897716 -0.029916825 -0.07543894 0.12609613 0.059611473 0.15589559
0.040038377 0.05748335 0.012305392 0.019709859 0.0609645 -0.09364027 -0.20037347 -0.04343289
-0.12499728 0.04834675 0.09669103 0.0693371 -0.09618476 -0.09250557 0.008339004 -0.114143476
-0.14043625 0.17654732 -0.0005287883 0.112127095 -0.09060985 -0.12294988 -0.047849063 0.08575888
-0.13649537 -0.08447038 0.01283024 -0.11554739 0.05342155 0.070867725 -0.0521472 -0.07291986
-0.09519925 -0.017596954 -0.02474033 -0.030728845 0.10291782 -0.06479154 -0.002018455 0.07781423
0.08391069 -0.050602015 0.07154494 -0.112683535 -0.084444806 0.10890654 0.07867184 -0.030184167
00000000: b3ee 6bbd 5f28 3abd 0bb0 813e d34e 7c3d
00000010: 1c8d d6bc d935 f43d 433d 0c3e 2f00 0b3d
00000020: 377d 493e 1505 e83c 7616 d03d 6978 363d
00000030: 6b92 e3bb 61e7 323e 578a 193d 0c0a 87be
00000040: 0077 6c3c 2747 8c3c c4eb c03d b082 07be
00000050: 9df9 5abc cf2f a03d 4807 d5bd ecb0 063d
00000060: 22ca ecbc f56b 2bbe 2ebf 023c ec3d 663d
00000070: 7c50 f03d f8bd 89bd d287 c63d 2bf8 c43d
00000080: ccd1 a8bd e598 30bd d27e c1bd 393a 013e
00000090: 5126 d03b fab2 103e 3f18 09be 02f4 eb3c
000000a0: 62f6 febc c5ee 683d 04f7 53bd 375a eb3c
000000b0: 6fde a0b8 31c4 c6bd c70c 193d d123 d13d
000000c0: 890a ea3d 8cbb 8abd f8f0 823c 9def 64bd
000000d0: 6af8 a03d feac f83c 3db1 253d a85e 853d
000000e0: dcbc 9bbd e00e 73bd 60be bc3d 11e9 9dbb
000000f0: c1d6 0cbd 19ac 71be e657 14bc 49e5 e23b
00000100: 7887 6abe 366f d1bd c1e0 713d 8afb 68bc
00000110: 7cf7 713d 44b3 c3bd 722c 91bd cd8c 273d
00000120: 55a2 83bb 2ea1 f33b f8c8 e3bd bb1b 93bb
00000130: 25c2 d9bd 9f41 ce3d 4023 9b3d 3c3f 393d
00000140: 90ac 243e 0cb2 dbbc 8c7d 66bd f8ec f53c
00000150: 4b1f 6f3d 423e d1bc bcbb d83d 0469 93bb
00000160: 884b e83d f54d 513d 473d 6a3e 4869 e8bd
00000170: 8775 eabd 09e3 7dbc de27 edbc 46c3 323c
00000180: d527 27bc 262d 803c 0118 b63d 82f1 d33c
00000190: 8b85 f23a 96c5 98bb 7fbe 1f3d 0f4c 953d
000001a0: 461b 0fbd 7189 19bd c6aa 57bc bf5c cfbd
000001b0: 6f48 cd3d 14e4 b2bd 2faa 193e dd1c 87bd
000001c0: 99e1 36be f293 ccbc cc58 bbbd a9ee e03d
000001d0: 5f20 6fbd b175 4cbd a0d4 b43d 4c94 c73d
000001e0: 975e 5ebb 3880 59bd 2ac3 71bd 3152 d6bc
000001f0: 9e9b fcbc 22c9 24bd 6dc7 5e3d 7f51 853c
00000200: 8176 20bd e3f1 69bd 3245 6a3d 56bd a9bc
00000210: 33f5 d93d 5ce5 37bd 8e60 2abd b463 a0bd
00000220: 6780 b5bd 2476 8f3d 668c e63d 9f91 afbc
00000230: 197f 46bc f59e e1bb 5d77 d53d a0a8 833d
00000240: 32bf d4bd a62c 60b9 1528 e63c fc5f 2abd
00000250: afb4 c5bd 1ce5 afbc fecb d4bd 3b00 2bbe
00000260: 1bc8 ebbd e76d 8dbc b271 d1bd cb3c bf3d
00000270: 3210 0fbe 551b e43c fb6b 013e 79a1 cebd
00000280: 4693 9fb7 f62c a0bd e464 bc3d 88bb 763b
00000290: d795 34bd 9ea6 243d b4b4 28bd 2e7b 63bd
000002a0: 94ea 42bd caa3 243d ad3b 0cbd 5b2d 7c3d
000002b0: 41b8 48bd e2b1 1fbd fe48 a53d ee3e 91bd
000002c0: 0f6b 40bd b244 81bd 6cf5 1a3c 73dc 93bd
000002d0: 93fc 97bc 67f9 55bd 51c7 2f3d da60 efbd
000002e0: d126 683c f970 5a3c 2d2a 24be faa9 c43c
000002f0: 3d36 f5bd 778d 74bd ef5c b53d 82ea 483e
00000300: 2f07 ef3c 0006 c83c be24 4c3d 2598 223e
00000310: 38e4 ec3b 480e f2bd c40f b83b a199 2ebe
00000320: 7b18 803e 7dab 6ebc 8261 ed3c 2114 f5bc
00000330: bb7f 9abd 581f 013e 292b 743d 18a3 1f3e
00000340: 48ff 233d a973 6b3d 8e9c 493c 9276 a13c
00000350: e9b5 793d 78c6 bfbd b42e 4dbe b0e6 31bd
00000360: 93fe ffbd 3e07 463d f205 c63d 9c00 8e3d
00000370: 84fc c4bd 8f73 bdbd 51a0 083c 0ec4 e9bd
00000380: 85ce 0fbe d2c8 343e 629e 0aba e4a2 e53d
00000390: a891 b9bd 26cd fbbd 61fd 43bd 5aa2 af3d
000003a0: 71c5 0bbe cefe acbd ed35 523c 1ca4 ecbd
000003b0: 8ed0 5a3d 1923 913d 4d98 55bd 0257 95bd
000003c0: d3f7 c2bd 7d27 90bc 3cac cabc 0fbb fbbc
000003d0: 94c6 d23d 6db1 84bd 0e48 04bb 115d 9f3d
000003e0: 5ed9 ab3d 0f44 4fbd 2786 923d a0c6 e6bd
000003f0: 66f1 acbd 640a df3d b41e a13d c944 f7bc
