Assets/Hide and Seek/Brain/BlockySeekerBehavior.onnx (onnx, 215524 bytes, 6 tensors)

action_model._discrete_distribution.branches.0.bias f4 [7]
00000000: 3571 2cbc 1ddd e439 4f15 9d3c c646 e1ba
00000010: 352a b6bc 1c77 ccba 49bf ca3b
-0.010525038 0.0004365229 0.0191752 -0.001718723 -0.022236923 -0.0015599462 0.0061873537

action_model._discrete_distribution.branches.0.weight f4 [7, 128]
00000000: c869 b73c 363d 013b 8d45 c83c dfb5 75bc
00000010: 278b bd3c fbb9 99bc 83b2 ff3a 765c 6dbc
00000020: f471 17bc abca 05bc 1be7 9bbc 0ac2 c0ba
00000030: 7e83 19bb 97cc 96bb 2536 123a 528a a23b
00000040: 479c c13b 76c9 843c 0849 d6bc 3eac 38bc
00000050: af7e c83a f278 58bc 5b7e a5bc fe02 92bc
00000060: cdc2 94bc e971 27bc e116 c9bc 3ab2 ffbb
00000070: c11e 0cbb 35fc 49bc b421 05bc a987 7bbc
00000080: 7fe3 7e3c 9ef2 4b3b 7af8 393c 9b6b f9bb
00000090: 768a a7bc c891 8eba f991 d6bc f445 06bb
000000a0: 32af 70bc 3500 953c 3a30 36bb dc24 e73b
000000b0: 9db6 853a 2282 43bb c325 5bbc 8181 0ebc
000000c0: 3e14 ab3c 227d 14bd 2fe8 713c 56b9 993a
000000d0: 183b 03bd ce74 9bbc ef69 84bc 2bcb 65bc
000000e0: 123d 48bc d29c a8bc e7cd 9a38 1312 a8bb
000000f0: 09c7 433c 9e24 263b e063 14bc 7bdf a9bb
00000100: 874b 9fbc 949a 103c 83e9 143c 9a20 66bc
00000110: 0726 903c 0b02 49bc 7bfa 683b b8c0 d73c
00000120: 9129 58bc 26c6 1fbc 4e08 653a 13c0 12bd
00000130: ccaa c13b 1da8 f4bc daf6 213c e4e4 7bbb
00000140: 2b4a 37bc e019 cd3c e038 c23c a597 aabc
00000150: c765 96bb b1fa e3bc 2342 ae3b 08dc 97bc
00000160: f22e aebb 643e d6b9 adef b43b ab3c d0bb
00000170: ed51 81bc 1562 3dbc 6449 de3b e1d7 f9bb
00000180: 8588 56bc f2fc 00bb 7de6 0c3c 92e3 babc
00000190: bb23 33bd 1080 eaba 1623 b8b9 9f42 7ebc
000001a0: 6322 c0ba 4093 f0bb 0c84 9c3a 2b52 a33b
000001b0: 60b2 6b3c 42b0 6a3b 2608 833c 71ed 053b
000001c0: 1840 443c 26e6 673b 39bd 213b dfb7 1bbc
000001d0: 3562 acbc 43c1 39bc 95aa 8dbc 54ce a4bc
000001e0: 7bf0 383c d172 1cbc ad1f 47bc c046 84bc
000001f0: b046 88bc f7dd 053c f8f1 7cbc ada6 a3ba
00000200: 6894 733d 1ddc 503d d4ed 12bd 53d9 ec3c
00000210: 2c49 d1bc 4554 c2bb 6a64 8abd 86bc ac3c
00000220: 8df5 233b 15a1 11bc 9cca fa3c 53b9 5abc
00000230: fdd8 963d 4746 3bbc 2ad5 6dbd 975a 73bc
00000240: 0654 303b 7bee 7e3d 3761 3bbd f496 58bd
00000250: cf6d 43bc 830e 483d ccce 833d f551 b03c
00000260: 00d4 1c3d 9e51 febc 3a28 37bd 2008 4439
00000270: a8ea 1c3d 6279 5ebd 7030 9b3d b4fc d0bd
00000280: f17a 543d fa0e 5dbd ab09 b73a 08f2 203c
00000290: 3746 4f3d 97d2 093d 3639 42bd 05a0 283d
000002a0: 1ead 863b 5918 d5bc f0b0 90ba 6d79 43bd
000002b0: 37e8 83bd e1e7 59bc 5608 203b 146c 1cbd
000002c0: 400d 31bd 731c 243b 70e1 723b 3083 663c
000002d0: 6ba9 6ebd 7342 263b 543f acbd 9ae8 833d
000002e0: dfb6 0abc 3263 353d be57 673b fcb7 983c
000002f0: 715d c6bd 9d5f 6bbd 1d23 07bc fd4b 58bc
00000300: 0dd6 9bbc 58a1 7c3d 3134 f3bc df41 6d3d
00000310: 07c1 d1ba b696 a0bd 1dd0 243c e6ab 343c
00000320: 6e37 4bbd 299a 9f3c 1534 debd 56df d4bd
00000330: aeaf 62bc 2de9 283d 6351 8f3c b992 24bd
00000340: e9b0 ebbb 0d72 d6bc aa12 363d ed3f c93d
00000350: 3586 47bc e368 c4bd 6950 bc3c 4195 673c
00000360: 81cd 46bd a14b 91bc 14fe 013c 45bd 5bbd
00000370: 4e51 afbd 386f 623d b7e7 d9bc ebad 9e3d
00000380: fb49 aa3c 0102 343d ca0c fbbc 2e4c 8dbd
00000390: 1451 cebd 4891 0f3d 0b3e 2e3c 345c 2c3d
000003a0: 3e56 753d 8eb7 0bbd 1977 983c d150 fdbb
000003b0: 7221 163d 0b23 81bc 9600 56bd 10f9 1b3c
000003c0: d6b9 f23c 6f48 2ebc 53ae 3f3d 6d08 92bd
000003d0: cfef a33c 6bf6 9eba 4c4b 0fbd 3630 a3bd
000003e0: ead3 e63c 652c b83d 1478 1d3d cda9 7b3d
000003f0: 3b0d 9bbc ecfe b53d 5a1a 2d3c 5af0 1b3c
0.022389308 0.0019720322 0.024447227 -0.014996975 0.023137642 -0.01876544 0.0019508157 -0.014487376
-0.009243477 -0.008165996 -0.019031098 -0.0014706266 -0.0023424323 -0.0046020257 0.0005577526 0.0049603367
0.0059085223 0.016209345 -0.02615787 -0.0112715345 0.0015296544 -0.013212429 -0.020201853 -0.017823692
-0.018159295 -0.010220029 -0.024547042 -0.0078032287 -0.0021380635 -0.012328197 -0.008125711 -0.015352168
0.015557169 0.0031119953 0.011350745 -0.0076117045 -0.020451766 -0.0010877186 -0.026192652 -0.0020488473
-0.014690207 0.018188575 -0.0027799741 0.0070539545 0.0010201518 -0.0029832204 -0.013375702 -0.008697868
0.020883676 -0.03625215 0.01476483 0.0011728208 -0.032038778 -0.018976595 -0.016163794 -0.01402549
-0.012221592 -0.02058259 7.3816445e-05 -0.0051291077 0.011949309 0.0025351415 -0.009057015 -0.0051841117
-0.019445194 0.008825917 0.009088877 -0.014045859 0.017596258 -0.0122685535 0.0035549689 0.026337013
-0.013193504 -0.009751832 0.0008736894 -0.035827707 0.005910253 -0.029865319 0.009885514 -0.003843599
-0.011187117 0.025036752 0.02370876 -0.020824263 -0.0045897695 -0.0278295 0.0053179427 -0.018537536
-0.005315655 -0.00040863745 0.0055217356 -0.0063548884 -0.015786136 -0.011559029 0.006783651 -0.0076246117
-0.013094072 -0.0019682017 0.008599875 -0.022813592 -0.043735247 -0.0017890949 -0.00035121356 -0.015518813
-0.0014658686 -0.0073417723 0.0011941209 0.0049841604 0.01438579 0.0035810624 0.015995096 0.0020435716
0.011978172 0.0035384982 0.0024679436 -0.0095042875 -0.021042923 -0.011337581 -0.017293254 -0.020117916
0.011287804 -0.009548859 -0.012153548 -0.016147017 -0.016635269 0.008170596 -0.015438549 -0.0012485586
0.059467703 0.050991166 -0.03587134 0.028912222 -0.025547586 -0.005930456 -0.06757434 0.021085989
0.0025018186 -0.008888503 0.03061419 -0.013349849 0.07365606 -0.01143033 -0.058064617 -0.014853141
0.002690555 0.06223915 -0.04574701 -0.052878335 -0.011928036 0.048841964 0.06435928 0.021523455
0.038288116 -0.031044777 -0.044716097 0.00018695043 0.038309723 -0.05431498 0.07577598 -0.10204449
0.05187506 -0.05396936 0.0013964673 0.00982333 0.05060407 0.0336481 -0.04741784 0.04116823
0.0041099926 -0.026012586 -0.001103906 -0.047723223 -0.06440776 -0.013299913 0.002441903 -0.03818901
-0.043225527 0.002504137 0.003706064 0.0140693635 -0.05826704 0.0025369197 -0.084105164 0.064408496
-0.008466451 0.044284053 0.00353001 0.018642418 -0.09685791 -0.05746423 -0.008248118 -0.013201711
-0.019022966 0.061677307 -0.029687973 0.057924148 -0.0016002961 -0.07841246 0.010059384 0.011027312
-0.04961341 0.019482689 -0.108497776 -0.103941604 -0.013835831 0.041238 0.017494863 -0.040178988
-0.00719272 -0.02617743 0.044451393 0.09826646 -0.012177994 -0.09590318 0.022987561 0.014134706
-0.048535828 -0.017736258 0.007934112 -0.0536473 -0.085604295 0.055281848 -0.026599748 0.07748016
0.02078723 0.043947224 -0.030645747 -0.06899296 -0.10074058 0.03505066 0.010634909 0.04208012
0.0598967 -0.0341106 0.018611478 -0.0077305813 0.03665299 -0.01576378 -0.052246653 0.00951983
0.02962963 -0.010637387 0.046797108 -0.07130513 0.02001181 -0.0012127882 -0.034983918 -0.0796818
0.02817722 0.089928426 0.038444594 0.06144123 -0.018927207 0.08886513 0.010565365 0.0095177535

network_body._body_endoder.seq_layers.0.bias f4 [128]
00000000: f223 bd3c 8e9f 353d 7cd3 583c e19b 473d
00000010: b3af 4e3d ca26 6abb f9c9 443b f11b 823d
00000020: 4d47 323c 616e 633d 5e23 c8bc c33d 3c3b
00000030: 20dc 233b fab6 b93c 53a8 aabb a429 d43d
00000040: 8199 1e3d f364 333c 0dad ec3c 2707 6e3c
00000050: 304d 863c 0584 09bd d630 803c ddc4 c7bc
00000060: 2d85 b23c 9e45 c93c d832 1dbd 2005 823c
00000070: 54d2 f63c 532a 1f3d fa99 4b3d d166 ad3b
00000080: 64fd dd3a 4470 5e3c 3801 9d3c 5c5d 833b
00000090: edef d8ba 6b5d 383d 4f7e ef3c 7a18 3e3c
000000a0: 57ce 6eba ec32 33bd 346f bc3c eb4f 863c
000000b0: 0dc5 2c3d 6d85 8f3c ec6b 0b3d 034f 7a3b
000000c0: 3af7 793c def4 f43c 3cdb 9d3c a0a9 0d3d
000000d0: 0bc4 b63c 86a1 be3c 94c2 263c b5f2 7dbd
000000e0: 59a5 4f3b 31ca 6d3b d998 cc3c 0dc1 d43c
000000f0: b23c f33c fdea 06bc e0b2 b43c 4847 3d3d
00000100: 8a01 083b 6a6f 7f3c a356 183d ed77 433d
00000110: c8b2 663c 729a db3c e7af 323d 42b8 1d3c
00000120: 1679 e03c 31bf b73c 02b1 723c e2dd 4c3c
00000130: 0d7b f53c f527 243d 545f 9c3d e316 513c
00000140: 507c e13c 2627 413d bb6c 043d 40f3 0fbb
00000150: aa89 713c 8325 2c3d d403 b0bb 6ac5 0b3d
00000160: df8b 9a3b 3621 453c 0462 a13c 5583 0a3d
00000170: 8158 2d3d 1978 823d fe31 003d c186 603c
00000180: e59a 043d ed20 983d 1151 cb3c ebe9 f23b
00000190: e6ec 253d 2ff2 1b3c 104c d43c a117 4c3d
000001a0: e8a8 e93c 655d 9bbc b6c6 0d3c 7dd0 3e3c
000001b0: 5f22 ee3c dd3c 673c e398 49bb c045 813d
000001c0: 7354 c33c 5595 393c e872 393d f756 113d
000001d0: 23d4 a13b 34d9 793d 2014 f83c b849 043d
000001e0: 0caf 493c 65b4 cd3c 716e 4b3d 4a38 d03c
000001f0: 0fe3 983c 6f83 c13c 89c0 123d 80ec 4b3d
0.02308843 0.044341616 0.013234016 0.048732642 0.05046053 -0.0035728686 0.0030027612 0.06352986
0.010881257 0.055525187 -0.024430927 0.0028723336 0.002500303 0.022670258 -0.005208054 0.10359505
0.03872061 0.010949361 0.02889111 0.014528072 0.016394228 -0.03357317 0.015648287 -0.024385864
0.021792019 0.024569329 -0.038378567 0.015871584 0.03012959 0.038858723 0.04970739 0.0052917977
0.0016936478 0.013576571 0.01916562 0.004008932 -0.0016550996 0.045010965 0.029235033 0.011602515
-0.00091097265 -0.043749735 0.023002245 0.01639553 0.04218011 0.017519677 0.03403847 0.0038194067
0.015256697 0.029901918 0.019269578 0.034585595 0.022310277 0.02327038 0.010178227 -0.06199904
0.0031684248 0.0036283846 0.024975227 0.02597096 0.029692028 -0.0082347365 0.02205795 0.046210557
0.002075287 0.015590528 0.037192 0.047721792 0.014080711 0.026807044 0.043624785 0.00962645
0.027401488 0.022430034 0.01481271 0.012504073 0.029965902 0.04007717 0.0763537 0.012761804
0.027525097 0.047156475 0.032330256 -0.0021965057 0.014742294 0.04202796 -0.00537155 0.034123816
0.004716381 0.012031844 0.019700058 0.033816654 0.042320732 0.06370563 0.031297676 0.013704003
0.03237428 0.07428155 0.024818929 0.007413139 0.040509127 0.00951819 0.025915176 0.04982722
0.028522924 -0.018965432 0.008653333 0.011646387 0.029069124 0.014113632 -0.0030761294 0.06312132
0.02384398 0.011327107 0.0452756 0.035483327 0.0049386187 0.060998157 0.030283034 0.032296866
0.012309801 0.025110433 0.049665872 0.025417466 0.018662957 0.023622243 0.035828147 0.04978609

network_body._body_endoder.seq_layers.0.weight f4 [128, 280]
00000000: 4b23 2cbd f0c1 b8bd 5176 c43d b06f b2bc
00000010: 0dfe 883d 810f a13d 687e 213d 1810 84bd
00000020: f6d5 c13c df4a 003d a7aa 2c3c a1e5 c7bd
00000030: c896 91bc e6a0 bdbc de4f 493d d50a 033d
00000040: b698 633d d975 18be 74dd 943d 0540 ebba
00000050: 8108 9b3d cb9d 5dbd 491b a0bd 0fd2 c1bc
00000060: e575 173d 2083 ce3c a455 90bd 2778 263d
00000070: c01e d33c fcb4 8abd c582 d5bc c71a 00bd
00000080: e4a1 9b3d 1eab d53d 56ac a93d de3f 58bd
00000090: 251d 643d 511b 553d 1abc e5bd f7d2 743d
000000a0: 19dc 5e3d 0c91 4abc 32a6 d73b 0b09 71bd
000000b0: f3ef 003d bfcd 20bd 259a 423d 96d7 68bc
000000c0: 03e5 7c3c 7eb4 d73c c890 94bc 2537 5e3c
000000d0: 51c5 3c3d ebb8 233b 324a b8bd 8124 023e
000000e0: 4d36 04bd c7a7 a93b 162c 663c abf3 9b3d
000000f0: d9c0 48bb 7b6b 1dbd 94a5 bd3c 5dfc 9ebd
00000100: d482 d23d b8a3 cc3c 62d8 9e3d 44ce 393c
00000110: a127 f43b 78aa 1ebe 12f4 0dbd 1407 25bd
00000120: 7127 383d df98 a13d 151c 09be 6ce2 acbc
00000130: 27b8 ddbc 1129 193c 22c6 14be 62df 333d
00000140: b330 4b3c d564 a23c 91ed 1fbd b892 49bc
00000150: 3b15 b83c 3b31 08be 8b7f b2bd f15a 05bd
00000160: de70 dc3c 1a9e 0bbd b1e0 aabd f96e 703d
00000170: c6a3 8a3d fd13 02bd 335e e5bd 8e62 ebbd
00000180: a631 833d e6dd 163d 18fa abbc 1bff 5a3c
00000190: 2235 97bd 87f0 023d 298f 16bd bb9d 8b3d
000001a0: d7b0 15bd 803b 2d3c a5f8 2d3e 09fd 1b3c
000001b0: eb93 7abd f1af cd3d a6cf 6c3d 6fdf 3fbd
000001c0: b6ff c83c b547 7cbd 97ef 6fbd 49ec 07be
000001d0: e415 6fbd 09ad f03b e71b 35bd fbeb 2cbc
000001e0: 003f 33bd 616f 033e 87b7 4abb 8712 3b3c
000001f0: 92d9 b63d e002 03bc 7125 ee3d 9a01 f13b
00000200: 12be 613d 2f59 b5bc b28e 4fbd 75b7 25bc
00000210: c1b9 a9bd f3fd 7a3d 0f33 053d 9846 043d
00000220: 3f43 28bc 46ac 01bd 7136 b33d 9b6f f63c
00000230: 41ad 8f3c 8aeb d5bc b8ad 81bd e7ab af3d
00000240: 92f0 41be 5263 2a3c 4567 8e3c b796 2ebd
00000250: 054c 083e c0ca 3cbd a6ba 4c3d ac33 073d
00000260: fa57 933d 9e88 093e 46f1 86bd ea76 8e3c
00000270: 6b09 eebd 64a9 a5bd 4627 86bc 2349 37bd
00000280: 6c0a bfbc ec7d 01bc 4d4f 00bc 4371 6ebc
00000290: 418c d5bd 5ebb af3d 2f45 a5bb 2048 0a3d
000002a0: 21ab febd 07d3 5c3d 95e0 273c df77 b7bc
000002b0: eebe aa3b ba02 96bd 016e b53d f2d1 a7bd
000002c0: 3d02 cc3b 816b 443d b6e9 30bd 6b28 29bd
000002d0: 94b3 1abe 0cfc ea3d 879f bfbd d29b 6dbd
000002e0: 8c95 9dbd e321 5fbd dea5 8a3c c660 6bbd
000002f0: bcc7 24bc 6253 05bc bdde 2bbc 9e71 e3bc
00000300: f83f a8bd 9410 083d dbb8 5a3d 1ae5 a43b
00000310: f237 e93d 4c40 2f3d 8cc8 8ebd ef12 a13d
00000320: 9089 04bb f8b0 9e3d 3183 623d cec6 de3d
00000330: d799 abbd 933e 8d3c 23a3 403d 9660 b73c
00000340: 2783 8f3d 5447 fdbc 1695 c63c ee61 42bd
00000350: 8abd 9fbd 2858 823d 8285 4d3d dbb4 533b
00000360: 9885 afbd faac 52bd d59f fa3d 0caf 68bb
00000370: 56e7 8c3d 8975 2e3d 88a1 55bd 0c2a 053d
00000380: 2a0f 4a3c 2011 753a 0cbb ac3d cf63 8d3d
00000390: 9d16 f6bc bc37 2dba 0f19 e13c c76d f23c
000003a0: 9586 45bd e3a2 643d 0eba d2bd 0707 6f3d
000003b0: c2f1 2c3d f90a dc3d 926b 6bbd 1c93 87bd
000003c0: 53e5 223e 27e4 853d 7442 12bc f3c3 3b3d
000003d0: 28f7 2d3d 4aa4 b5bd 80b0 72bd a3f1 b63c
000003e0: aa33 bebd 2dc1 8e3d 07c3 74bd e421 343d
000003f0: 6bb3 983d 81cf bc3d a0c2 a43d 52a8 053e
-0.042025845 -0.09021366 0.095928796 -0.021781772 0.06689081 0.07864285 0.03942719 -0.06448382
0.023661595 0.031321403 0.010538734 -0.09760595 -0.017772093 -0.023148011 0.049148433 0.031992752
0.05556556 -0.14888705 0.07268801 -0.0017948156 0.07569981 -0.05410556 -0.07817704 -0.023659734
0.036977667 0.02520901 -0.07047585 0.04064193 0.025771499 -0.06772801 -0.026063332 -0.031275537
0.075992376 0.10433029 0.082848236 -0.052795283 0.055691857 0.052028004 -0.11217518 0.059771504
0.05440912 -0.012363683 0.0065810913 -0.058846515 0.031478833 -0.039258715 0.047510285 -0.014211556
0.01543546 0.026331183 -0.018135443 0.013562952 0.046086613 0.0024982046 -0.08998527 0.12709238
-0.032278348 0.0051774713 0.014048597 0.07614835 -0.0030632524 -0.03843258 0.023150243 -0.07762978
0.1027886 0.024980411 0.077561155 0.011340681 0.007451013 -0.15494716 -0.03465659 -0.040289953
0.04495949 0.07890486 -0.13389619 -0.02110406 -0.02706535 0.00934817 -0.14528707 0.043914206
0.0124017475 0.019823471 -0.03904492 -0.012303047 0.022471061 -0.1330003 -0.08715733 -0.03255743
0.026909288 -0.034086324 -0.08343638 0.05869958 0.067695186 -0.031757344 -0.11199608 -0.11493407
0.06405954 0.036832713 -0.020993277 0.013366486 -0.07383181 0.031967666 -0.036757622 0.06817194
-0.0365456 0.010573268 0.16989382 0.0095207775 -0.06117622 0.10043324 0.057815216 -0.046843942
0.024535995 -0.061591823 -0.0585781 -0.1327373 -0.058370486 0.007344846 -0.044216063 -0.010554309
-0.043761253 0.12835456 -0.0030932145 0.0114179915 0.08928217 -0.007996291 0.11628235 0.0073549272
0.055112906 -0.022137253 -0.050673194 -0.01011454 -0.08287383 0.06127734 0.032519396 0.032293886
-0.010269939 -0.031658433 0.08750618 0.030082515 0.017538669 -0.02611329 -0.06331962 0.0857771
-0.18939427 0.010399656 0.017383227 -0.0426242 0.13310249 -0.046091795 0.04998269 0.033008263
0.071945146 0.13431022 -0.06588988 0.017390687 -0.1162289 -0.08088949 -0.016376149 -0.044747483
-0.0233204 -0.007903557 -0.007831407 -0.014553371 -0.10427142 0.08580659 -0.0050436477 0.03376019
-0.12434984 0.05391219 0.010246416 -0.022396026 0.005210749 -0.07324739 0.08858872 -0.08194341
0.0062258528 0.047954086 -0.043191634 -0.04129831 -0.15107566 0.114738554 -0.09356599 -0.05800993
-0.076945394 -0.054475676 0.016924795 -0.057465337 -0.010057386 -0.008137556 -0.010490117 -0.027764138
-0.08215326 0.033218935 0.05339895 0.005032194 0.11387624 0.042785928 -0.06971845 0.078649394
-0.0020223595 0.07748598 0.055300895 0.10877763 -0.08378952 0.017241752 0.04703058 0.022384923
0.07007437 -0.030917801 0.024241012 -0.047456674 -0.077998236 0.06364471 0.05017615 0.0032303843
-0.08570403 -0.051434495 0.12237517 -0.0035504727 0.06880061 0.04259256 -0.052156 0.032510802
0.012332717 0.000934856 0.08434114 0.069038026 -0.03004008 -0.00066077313 0.02747777 0.029593362
-0.04822405 0.055819403 -0.10289393 0.05835631 0.042222746 0.1074428 -0.057475634 -0.06619856
0.15907793 0.06537657 -0.0089269765 0.04584117 0.042472035 -0.08869226 -0.059250355 0.022332018
-0.09287198 0.06970439 -0.059756305 0.043977633 0.07456096 0.09219266 0.08044934 0.1305249

network_body._body_endoder.seq_layers.2.bias f4 [128]
00000000: 20ef dfbb 9899 273c 4e70 f13c 3fde 113c
00000010: 7eb8 c3ba 8221 1e3d a239 2c3d 006c 7d3c
00000020: d0e0 aa3c f516 003b 507c 533c c718 de3c
00000030: b6ac 973b 0ada a03c 1c5b 2b3d 89fc 483a
00000040: 3e71 803c 3341 a33c a579 083d 5eeb 0c3d
00000050: 82e5 51bc 7bae a43c 4d22 a53c 75d2 f03c
00000060: 51aa 983c 864e 023d 5357 c63c 6fe5 3fbc
00000070: 15bb 983c bf32 003d 45d0 c23c 5a8f 343d
00000080: 426f d23c 6181 dc3c 07a4 46bc da4c d43c
00000090: cc5f 2a3c 6b20 383c 75c6 a33c 4d46 9639
000000a0: c37e 07bc f622 e23c 3038 2a3c fb01 e13c
000000b0: 089a 113d 7736 49bc 2684 e43b 2113 213d
000000c0: a7fd 3b3c d7d4 b63c ee2a 1cbc d76b 623c
000000d0: 60f1 1f3d e66f 213d 9aab 2b3d dc48 ca3b
000000e0: 6e86 373d 2ff4 0c3c 0b0d 263c 6cfd ea3c
000000f0: e8a8 263d 894d 123d e170 103d 97af da37
00000100: 7ffa a63c 5189 4a3b 3e3f 143d 653a ca3b
00000110: c6ea 083c d6ec 253d 51bc 8c3b 272c 9fbb
00000120: c2e7 0e3d 0d71 fb3c 4007 eb3c d369 443d
00000130: 88e2 98bc e3c8 493b f90b c3ba bf58 eb3c
00000140: 4e9b b53c 97c6 c03c 9a2c 3f3b 22ba 883c
00000150: 1c35 fb3c 38df 543d 7303 b83b 88d4 9c3c
00000160: 245a 073d fc98 9b3c a2a2 c03c e0df 923c
00000170: 0f55 413d 6ef1 9f3c 1284 e63c 13cb e83c
00000180: 99d6 f63c d066 6d3c 92f6 dc3a da8d 353d
00000190: f82b 253d e7ed 873b 6dd1 cd3c 4497 ec3a
000001a0: 3ab4 1f3c bb50 8f3c e5f7 893c da0e d83a
000001b0: 79de 1a3b d5e8 d13b b558 783c 6a61 d73c
000001c0: fb1f ce3b 26c8 4ebc 0a43 3f3c 8712 0b3d
000001d0: f91e 533c 0086 49bc 9035 a93c a134 e13c
000001e0: 2b2a dd3b 7b80 d93c 853a 263b 73e0 b13c
000001f0: 8a9a a9b9 a5dc b23c d47f df3c ea62 ce3b
-0.006833926 0.010229491 0.029472496 0.008903085 -0.0014932302 0.038606174 0.04204715 0.015467644
0.020859152 0.0019544933 0.012908056 0.027111424 0.004628743 0.01963522 0.041834936 0.0007667025
0.015678998 0.01992855 0.033319134 0.03440415 -0.012811067 0.02010273 0.020157957 0.029397229
0.0186359 0.031813167 0.024211561 -0.011712416 0.018643895 0.031298395 0.023780951 0.044082023
0.025687817 0.026917161 -0.012124068 0.025915552 0.010398816 0.011238198 0.019992093 0.00028662608
-0.008269968 0.027604561 0.010389373 0.027466765 0.035547286 -0.012281052 0.006973761 0.039324883
0.01147405 0.022318287 -0.00953172 0.013819656 0.039048553 0.039413355 0.0419117 0.0061732363
0.044805937 0.00860314 0.010134946 0.028685294 0.040688425 0.035718475 0.0352639 2.606939e-05
0.020383118 0.00309046 0.036193125 0.006171512 0.008356756 0.040509067 0.00429491 -0.0048575583
0.03488899 0.030693555 0.02868998 0.047952484 -0.018662706 0.0030789904 -0.0014880887 0.02872884
0.022168782 0.023532195 0.0029170872 0.016690318 0.030664973 0.05197069 0.0056156456 0.019144312
0.03304495 0.018993847 0.02351505 0.017929018 0.04720026 0.019524302 0.028139148 0.028417146
0.030131625 0.014489844 0.0016858152 0.044324733 0.040325135 0.004148233 0.025124276 0.0018050452
0.009747559 0.01749455 0.016841838 0.0016483918 0.002363114 0.0064059296 0.015157868 0.026291568
0.0062904335 -0.012620961 0.011673698 0.033953216 0.012885802 -0.0123000145 0.020655423 0.027490916
0.0067494116 0.026550522 0.002536447 0.021713471 -0.00032349332 0.021833727 0.027282633 0.0062984126

network_body._body_endoder.seq_layers.2.weight f4 [128, 128]
00000000: 3919 9ebd f17a f3bd c5f0 c53d b90d 033e
00000010: 34ba 793e cd45 8e3c e0a4 4a3c 0708 a63d
00000020: e142 bfbd c013 a13d d428 eabb 0479 eabd
00000030: 9bb6 4b3e 5ba8 363e eda5 ce3d ab36 80bd
00000040: e09c 0bbe e5be c5bb f695 28be 4e44 14be
00000050: 40ad 083e 8e81 bd3b 455e 09bc cc43 91bd
00000060: f78d 113e ecaa d3bc 97b7 83bd effd 88bb
00000070: d27f f9bd 858a ac3d fa65 eebd d807 473d
00000080: 82d5 66bd 0c25 a03b c8b2 a33d ae84 ffbc
00000090: 906b b6bc ab6b 83bd 35ed 93bd 706c b63c
000000a0: 44de d13d babc 1a3d 59a9 db3d de63 083e
000000b0: 4a74 93ba 6641 bf3c 53d2 8cbc 2f08 d23d
000000c0: c62c eebd e2aa 3cbc 3408 893e 7f6b 09bd
000000d0: f2d1 673d 4031 fb3d 3fee 5fbd ce18 d8bc
000000e0: 00ab 18bb 431e 27bb a611 0f3d ffd5 2d3c
000000f0: 614f dabc 8c43 b93d 53b1 ce3d 0342 09be
00000100: 590c 0f3e e43b b83c e405 893d 0dbb dbbc
00000110: 770a 343e ac66 953d f0d2 cabd d8a0 cb3d
00000120: 1243 593d 9d6f 3c3d d843 75bd 7df8 11bd
00000130: 1ada ea3c 11dd 34bd 3837 e63c 761d 203b
00000140: 276d 08be ab17 053c 0881 b0bd e60c f73d
00000150: dded 743c fb6b 8dbd 4763 133e c651 c53c
00000160: 970b 1bbc e802 49bd 7b4d ca3d 39a5 e9bd
00000170: b3fd eebd b50c 063d 6010 8b3d 20db f73d
00000180: 0d52 c83d 26e7 593d 1e37 f0bc 6748 a6bd
00000190: 0613 d7bd 7aa8 8c3c eb37 443e 4bd0 59be
000001a0: b35b 5bbe 2e34 aebc ff2f 8c3d b578 6e3d
000001b0: 6624 14bd a6b3 cdbd e880 31bd 2583 923d
000001c0: e5d7 f43d 7d53 853d 7bb0 2a3e c30f 123e
000001d0: 9806 38be d880 9a3c 9785 60bc d449 073e
000001e0: 47ce f4bd e458 913d e7f2 553e 4798 9c3d
000001f0: c2a6 ad3d 473b d8bd e457 34be 2840 18bb
00000200: c347 1f3d 5d6d a0bd 518e 6cbd 3f0c dbbd
00000210: aba1 803c 01ef 2f3d eebb 003e f501 a43d
00000220: ce4e 943d 7a98 913c ee9a 063d 9d80 8a3c
00000230: 0d5e 26be 87ac 65bd 4940 2a3e 3425 0338
00000240: f2f5 50be 2c7f 80bd c187 55bd 2f3b 253b
00000250: 0dd4 d63c 3751 973d 5d64 863d a586 a93d
00000260: c1e8 acbd a48d bdbc 2d6e b5bc 8bd5 9c3d
00000270: 6350 b23d 5fda 583d 4884 59bc 3b05 0d3e
00000280: a539 a9bb 9d32 003e 9c9f 8e3d a32d 923d
00000290: 4b94 0d3e 266d 833d 99ce c63d f8e0 793d
000002a0: 01c4 db3d 974e a4bd 1d65 ea3d a6e7 613e
000002b0: 0733 afbd e44f f7bd 0a3b 03be 5040 7ebc
000002c0: 201e efbc 1bde 593e 2842 f33d 5641 a4bd
000002d0: d120 b03d 3b96 e13d bd73 d5bd 5f90 8dbd
000002e0: f5b8 893e 8fd9 b2bd 8747 2dbc 251e ccbd
000002f0: 404d 3c3e d95d 1b3e 98ee f33d 29a7 03bd
00000300: 73c9 f93d 7287 e33d 8136 aabd 3697 583d
00000310: f835 f9bd 4c14 cb39 5f8d c6bd efb6 de3c
00000320: 4ddc 03be 8187 0ebe 456b ae3d 6098 bb3d
00000330: 906b ac3d 8014 0b3d aeca f93d e713 583e
00000340: 3924 bfbc 4a9a da3d d97d 91bd f490 823d
00000350: 1223 2b3d 5813 b83b ca19 983d d4cb 1a3e
00000360: 917f e5bd 08c6 883e 0c84 75bc 19a4 883d
00000370: 37b9 53bd a2b8 e3bd a6da f73d 153a 1ebd
00000380: 6110 0cbd c16c 693d 6859 86bc 6f8e bdbd
00000390: 5834 2a3b 15f1 173c 52a3 a33d 13c5 c8bb
000003a0: 2268 db3d 0c6d fdbc 30b5 1e3e dd8d 91bd
000003b0: 5204 0ebe e0d7 bbbc a109 013e 8d11 99bd
000003c0: d451 963d b90f 1bbe 73cc cf3d d79c 0b3e
000003d0: 510f a73d ac82 09bc 55a4 713c 4c17 233b
000003e0: 7b37 253e c90a 6b3b dd44 253d 6266 89bd
000003f0: f849 85bd 188b f8bb cd4a febc 7508 46bd
-0.077196546 -0.118886836 0.09665064 0.12798204 0.24387437 0.017367268 0.012368411 0.08107
-0.09338928 0.07865095 -0.0071459804 -0.11448863 0.19893877 0.1783766 0.100902416 -0.06260427
-0.13634062 -0.0060347193 -0.16463456 -0.14479181 0.1334734 0.0057832664 -0.008384292 -0.07093009
0.14214312 -0.025838338 -0.06431501 -0.004180662 -0.12182583 0.08424858 -0.11640544 0.048591465
-0.05635596 0.004887229 0.07993084 -0.031191196 -0.022268087 -0.064170204 -0.07222978 0.022268504
0.10247472 0.03777764 0.1072566 0.13319346 -0.0011249867 0.023346614 -0.017190134 0.10255467
-0.116296336 -0.011515351 0.2676407 -0.033549782 0.056596704 0.12265253 -0.05467057 -0.026379015
-0.0023295283 -0.0025500215 0.03492894 0.010610103 -0.026649179 0.09046087 0.10092416 -0.13404088
0.13969554 0.022489496 0.06690577 -0.026822591 0.17582117 0.07294974 -0.099035144 0.09942788
0.05304248 0.04600488 -0.059879154 -0.035637368 0.028668452 -0.044156138 0.028102502 0.0024431623
-0.13322888 0.008123319 -0.08618361 0.12063007 0.014949289 -0.06905361 0.1439334 0.024086844
-0.009463212 -0.049075037 0.098780595 -0.11408467 -0.11669483 0.032726962 0.06790233 0.12102342
0.09781275 0.053198956 -0.029323157 -0.081192784 -0.10501675 0.01717018 0.19161956 -0.21270864
-0.21421699 -0.021265116 0.06845092 0.058220584 -0.036167525 -0.10044031 -0.043335825 0.0715392
0.11955241 0.06510065 0.16668884 0.14263825 -0.17971265 0.018860266 -0.013703725 0.13211757
-0.11953407 0.07097033 0.20893441 0.07646232 0.08479072 -0.10558181 -0.17611653 -0.00232316
0.038886797 -0.078333594 -0.05775291 -0.10695695 0.01570209 0.04295254 0.1257169 0.08008186
0.07241593 0.017772902 0.032862596 0.01690703 -0.16246815 -0.056072738 0.16626085 3.1267482e-05
-0.2040632 -0.06274256 -0.05213142 0.0025212278 0.02622416 0.073885374 0.065621115 0.082776345
-0.08442832 -0.023138829 -0.022147262 0.076579176 0.08706739 0.05294263 -0.013276167 0.13771527
-0.0051643425 0.12519307 0.06964037 0.07137611 0.138261 0.06417303 0.09707374 0.061005563
0.10730744 -0.08022802 0.11445067 0.22061023 -0.085546546 -0.12075785 -0.1281549 -0.015518263
-0.02918917 0.21276133 0.11877853 -0.08020274 0.08600009 0.11014982 -0.10422466 -0.06912302
0.26898924 -0.08732902 -0.0105761355 -0.09966687 0.18388844 0.15172519 0.119107425 -0.03214184
0.121966265 0.111098185 -0.08311177 0.05287858 -0.12168497 0.000387343 -0.09694933 0.027186839
-0.12877007 -0.13918878 0.08516554 0.091599226 0.084189534 0.033955097 0.12196861 0.21101342
-0.023332702 0.106739596 -0.07104082 0.06375304 0.041781493 0.0056175403 0.07426794 0.15116817
-0.11205972 0.26713586 -0.014985096 0.06671924 -0.051690307 -0.111192 0.12102251 -0.03862961
-0.034195308 0.05698848 -0.016400054 -0.09255683 0.002597114 0.009273787 0.07990135 -0.0061270087
0.10713221 -0.030935787 0.15498805 -0.071071364 -0.13868836 -0.022930086 0.1260133 -0.07474051
0.07339826 -0.15142716 0.101464175 0.13634048 0.08157218 -0.008392971 0.014748652 0.0024885712
0.16134445 0.0035864583 0.040348876 -0.06708981 -0.06508249 -0.0075849406 -0.031041527 -0.04834791
