Assets/Hide and Seek/Brain/HiderBehavior_char.onnx (onnx, 195281 bytes, 6 tensors)

network_body._body_endoder.seq_layers.0.weight f4 [128, 241]
0.0058776564 -0.029675765 -0.024131047 0.008814814 -0.026083302 0.0673307 0.1128109 -0.059134603
-0.10069274 -0.0003238502 -0.005127494 0.039354518 0.02061039 -0.037783314 -0.04441079 -0.0077621294
-0.008114373 0.030020863 -0.10081516 -0.04269591 -0.094066545 -0.030979762 -0.13209137 -0.014569642
-0.09776263 -0.067877516 -0.055563547 0.0353144 -0.07669355 0.0021871494 0.0055504655 -0.020436117
0.06678027 -0.06523561 0.014846536 -0.023419773 0.020385103 0.06318426 -0.10352964 0.047001164
-0.095774755 0.03313432 -0.037261758 -0.0020857248 0.03639192 -0.053803913 0.024956174 -0.040277958
0.052963063 0.04027733 -0.06647744 -0.009316684 -0.02669008 0.08418476 0.05375034 0.1313645
-0.10393167 -0.04298698 -0.13457659 -0.02209676 0.13660496 0.12793939 0.07689496 0.14425804
-0.04647198 0.0255246 -0.062466945 0.036231782 -0.03972034 -0.049747143 0.010097993 -0.012974767
-0.06966885 0.0029055325 0.007154374 -0.008011433 -0.008360548 -0.052400474 0.0376398 0.0420809
-0.034880623 0.019064497 0.004657911 0.012180576 0.042315762 -0.08580078 0.10114513 -0.03237586
0.027886117 -0.008111192 0.026223728 0.009765287 -0.03778075 -0.13579683 0.084955595 -0.005463038
0.022092674 0.018227214 -0.04794295 -0.0232451 0.036181882 0.14706673 -0.08021774 0.006104536
-0.05439859 -0.039898645 -0.009802405 -0.021865813 -0.07404756 -0.019962553 -0.012623725 -0.068602465
-0.02840181 -0.007405995 0.039833415 -0.020352261 0.008550505 0.061597463 0.02709277 -0.0011084091
0.024512079 -0.034025706 -0.0001869069 -0.10238131 0.092990965 0.038904876 -0.040428326 0.02559273
0.10736682 0.055888593 -0.05036102 0.052880157 0.029166277 0.017568104 -0.03408973 -0.037969124
0.10087149 0.09991194 0.024119113 0.05041199 0.101279795 -0.054165576 0.059317626 0.003888078
-0.03624493 0.05339603 0.09676425 -0.018617216 0.061668087 -0.075342886 -0.05187032 -0.13296139
0.07932361 0.018305743 -0.0075495327 -0.123317845 -0.0106978975 0.078857504 -0.08677268 0.026392397
0.09786565 0.040084466 0.012092336 0.08084312 -0.018093752 0.0146658365 0.025798703 -0.03513999
-0.02075837 -0.07851769 -0.010596686 0.022849945 -0.16839588 0.05638793 -0.05043365 0.058426395
0.066366784 -0.057570685 0.031187844 -0.027550306 0.0060622566 0.10959849 -0.02746072 0.09112329
0.0644154 0.09059927 0.020355145 0.0049586683 0.021900536 -0.1825058 -0.025641046 -0.0014154846
-0.033443797 -0.050251897 0.0498303 -0.013248577 0.053000305 0.029108904 -0.009743477 -0.010469611
-0.11788283 0.058664586 0.032346357 -0.06507213 0.021480838 0.022993298 -0.06303168 -0.01676047
0.020172853 -0.0073060784 0.023499139 -0.049320213 0.021228554 -0.011253796 -0.11679272 0.008105096
-0.0004573053 0.09872378 -0.039565355 0.16925263 0.017738855 -0.011159833 -0.10617538 -0.04213757
-0.2590178 -0.055181794 -0.0064503374 -0.028041929 0.014602887 -0.13729677 -0.1372708 0.048274633
-0.03795564 -0.097485356 0.022598643 0.058436804 0.012439446 0.02920138 0.043174 0.006552801
0.0016336916 -0.07712206 0.06890369 -0.07002558 0.09345523 0.020465514 0.07871478 -0.00535019
0.072573856 0.008378931 0.12741089 -0.044897698 0.042412326 0.09820209 0.109159105 0.018692683
00000000: 5b99 c03b 971a f3bc 79ae c5bc 026c 103c
00000010: a6ac d5bc aee4 893d 6709 e73d 2037 72bd
00000020: ff37 cebd 70ca a9b9 8a04 a8bb 3432 213d
00000030: 1fd7 a83c adc2 1abd 17e8 35bd 7659 febb
00000040: 26f2 04bc 50ee f53c 2e78 cebd e8e1 2ebd
00000050: f6a5 c0bd 45c9 fdbc f642 07be 82b5 6ebc
00000060: c637 c8bd 5e03 8bbd 9a96 63bd d5a5 103d
00000070: 8211 9dbd 4756 0f3b aee0 b53b a569 a7bc
00000080: 18c4 883d 3f9a 85bd e33e 733c d3da bfbc
00000090: a9fe a63c c066 813d 5907 d4bd 4b84 403d
000000a0: 8e25 c4bd dab7 073d c99f 18bd a8b0 08bb
000000b0: b20f 153d 7e61 5cbd e470 cc3c 80fa 24bd
000000c0: ccef 583d d7f9 243d 5325 88bd 01a5 18bc
000000d0: 28a5 dabc 0f69 ac3d 5129 5c3d 6a84 063e
000000e0: 21da d4bd 1e13 30bd 72ce 09be 4404 b5bc
000000f0: 2ce2 0b3e 8b02 033e 1b7b 9d3d 61b8 133e
00000100: 6759 3ebd f718 d13c 57dd 7fbd c767 143d
00000110: ccb1 22bd a9c3 4bbd 0d72 253c 1e94 54bc
00000120: 8bae 8ebd bf6a 3e3b 3d6f ea3b 6342 03bc
00000130: aefa 08bc e1a1 56bd 312c 1a3d 065d 2c3d
00000140: fcde 0ebd 262d 9c3c 64a1 983b 0a91 473c
00000150: 4b53 2d3d 52b8 afbd 2e25 cf3d 8d9c 04bd
00000160: 6d71 e43c cee4 04bc 25d3 d63c 95fe 1f3c
00000170: fdbf 1abd 530e 0bbe 33fd ad3d 4903 b3bb
00000180: b2fb b43c 3d51 953c d45f 44bd 826c bebc
00000190: 7433 143d a998 163e 3349 a4bd 8f08 c83b
000001a0: 0ed1 5ebd c36c 23bd 449a 20bc ef1f b3bc
000001b0: 3fa6 97bd 8288 a3bc bed3 4ebc 737f 8cbd
000001c0: eaaa e8bc fdad f2bb 5d28 233d c9b9 a6bc
000001d0: 6b17 0c3c 9f4d 7c3d a8f1 dd3c 0a48 91ba
000001e0: 8ecd c83c 8a5e 0bbd 70fc 43b9 4bad d1bd
000001f0: 0c72 be3d b85a 1f3d 2c98 25bd d8a7 d13c
00000200: 23e3 db3d 70eb 643d 5b47 4ebd dd98 583d
00000210: 1eee ee3c fcea 8f3c aca1 0bbd 8385 1bbd
00000220: b695 ce3d a29e cc3d 7295 c53c ce7c 4e3d
00000230: c86b cf3d b9dc 5dbd 0af7 723d 20cf 7e3b
00000240: 9075 14bd ccb5 5a3d 562c c63d 2283 98bc
00000250: ad97 7c3d 5f4d 9abd f975 54bd 0827 08be
00000260: 6b74 a23d edf5 953c 1262 f7bb 118e fcbd
00000270: 3c46 2fbc 0b80 a13d e0b5 b1bd de34 d83c
00000280: c96d c83d 9c2f 243d ef1e 463c 1491 a53d
00000290: 5939 94bc fa48 703c cd57 d33c f3ee 0fbd
000002a0: 750d aabc e2cd a0bd b99d 2dbc cf2f bb3c
000002b0: f86f 2cbe 08f7 663d 8493 4ebd 8450 6f3d
000002c0: 4feb 873d 3dcf 6bbd a67d ff3c 2eb1 e1bc
000002d0: e5a5 c63b 2c75 e03d 4ef5 e0bc d99e ba3d
000002e0: 39ec 833d 1c8c b93d d5bf a63c 537c a23b
000002f0: c168 b33c cde2 3abe 2c0d d2bc c887 b9ba
00000300: 5dfc 08bd efd4 4dbd db1a 4c3d 8f10 59bc
00000310: d916 593d cc75 ee3c 1ba3 1fbc bb88 2bbc
00000320: 8e6c f1bd 474a 703d 9d7d 043d 8944 85bd
00000330: 95f8 af3c 715c bc3c c116 81bd 414d 89bc
00000340: 8a41 a53c d467 efbb 4481 c03c fe03 4abd
00000350: 81e7 ad3c d761 38bc 0631 efbd 3dcb 043c
00000360: 7ac2 efb9 b12f ca3d 480f 22bd 9050 2d3e
00000370: 1351 913c bbd7 36bc 7a72 d9bd 7298 2cbd
00000380: fb9d 84be 4e06 62bd 5a5d d3bb 30b8 e5bc
00000390: f340 6f3c 8697 0cbe b790 0cbe 9fbb 453d
000003a0: 6077 1bbd 67a6 c7bd ca20 b93c 6e5b 6f3d
000003b0: d1ce 4b3c bc37 ef3c 38d7 303d e1b8 d63b
000003c0: 9821 d63a 2cf2 9dbd 611d 8d3d 9269 8fbd
000003d0: 7565 bf3d 4ba7 a73c 3735 a13d a650 afbb
000003e0: 9aa1 943d c947 093c 0078 023e a6e6 37bd
000003f0: 8cb8 2d3d 2d1e c93d cf8e df3d 6621 993c

network_body._body_endoder.seq_layers.0.bias f4 [128]
-0.008143924 0.0040573124 0.024545234 0.0014046947 0.02952705 -0.00035351995 0.022710115 -0.009785321
-0.009459037 0.0023855781 -0.018230664 -0.018424999 0.016824203 0.016534915 0.0017363502 0.023141606
-0.0032116186 0.00026498365 0.034701105 -0.0015418618 -0.008768282 -0.009093383 0.0015538249 -0.009504422
0.008419159 -0.0045057256 0.0019946455 0.032164294 -0.020805229 9.5195355e-05 -0.0035823563 -0.011171855
0.008488824 0.010445306 0.012457288 0.012724679 0.0021734992 0.029134486 0.0065332814 0.01996498
-0.011974515 -0.022753008 0.022933338 0.0013746391 0.01414113 0.011889631 0.006058995 0.015124526
-0.0008179484 -0.015784668 0.0026804195 -0.014736417 -0.002425209 0.017925208 -0.011093707 0.028307619
-0.0067463936 -0.0016835728 0.0035336104 0.01156426 -0.014635198 0.0119956145 0.008162622 0.036088735
0.021597713 -0.023205847 0.019476298 0.024033481 -0.0034462682 -0.0019595886 0.0011628469 0.0057803676
-0.0048987702 -0.023927458 0.026219124 0.0011857566 0.0022583362 -0.005238301 0.009585625 0.01939397
-0.01320003 -0.010970121 -0.008069783 0.008899661 -0.00090356136 -0.0012838125 0.02273056 0.012347993
-0.012935254 0.02486932 0.022221627 -0.020443328 0.019938914 -0.005982059 -0.015359998 0.004584557
0.018577157 0.037977967 -0.010221583 -0.011988837 0.0045125894 -0.0049174502 0.015485692 0.006575492
0.04119921 0.005026785 -0.010267637 0.008818909 0.00059940544 0.0153243765 0.011406005 -0.019752366
0.0048725377 0.032211572 -0.009434982 0.028453933 -0.0031619533 0.009144181 -0.010178265 0.022406444
-0.008620626 0.002277336 0.027372334 0.001346896 -0.009099393 -0.010871362 -0.0020385524 0.019601597
00000000: 186e 05bc 34f3 843b 1613 c93c bc1d b83a
00000010: b6e2 f13c a558 b9b9 900a ba3c 9c52 20bc
00000020: 14fa 1abc 5c57 1c3b 7958 95bc 06f0 96bc
00000030: e9d2 893c 3b74 873c 3f96 e33a 7793 bd3c
00000040: 057a 52bb 81ed 8a39 bf22 0e3d 4c18 caba
00000050: d7a8 0fbc 6afc 14bc b6a9 cb3a 6fb8 1bbc
00000060: 83f0 093c c4a4 93bb 99b8 023b b5be 033d
00000070: ba6f aabc 9ea3 c738 f7c5 6abb 280a 37bc
00000080: b514 0b3c ca22 2b3c a719 4c3c 2c7b 503c
00000090: 4471 0e3b 72ab ee3c 2315 d63b 998d a33c
000000a0: c230 44bc 8464 babc b2de bb3c 3c2d b43a
000000b0: 33b0 673c bacc 423c 898a c63b dccc 773c
000000c0: 976b 56ba d94e 81bc faa9 2f3b 0371 71bc
000000d0: 41f0 1ebb e3d7 923c 61c2 35bc 61e5 e73c
000000e0: da10 ddbb 54ab dcba 2594 673b 0678 3d3c
000000f0: 78c8 6fbc 4189 443c 85bc 053c c8d1 133d
00000100: b0ed b03c 301a bebc c28c 9f3c dde1 c43c
00000110: c9da 61bb 716c 00bb ab6a 983a 3d69 bd3b
00000120: dd85 a0bb 8403 c4bc 7dc9 d63c 646b 9b3a
00000130: 9800 143b 0ea6 abbb 060d 1d3c 1ae0 9e3c
00000140: f044 58bc 06bc 33bc 2037 04bc e2cf 113c
00000150: fadc 6cba 9945 a8ba 7035 ba3c 3d4f 4a3c
00000160: 63ee 53bc bfba cb3c 210a b63c c478 a7bc
00000170: ef56 a33c 2605 c4bb 80a8 7bbc 0d3a 963b
00000180: 1f2f 983c c98e 1b3d 6d78 27bc d46c 44bc
00000190: 58de 933b 9022 a1bb b3b7 7d3c 3a77 d73b
000001a0: 81c0 283d bbb7 a43b 9739 28bc 2f7d 103c
000001b0: 6b21 1d3a 1813 7b3c 41e0 3a3c b7cf a1bc
000001c0: cfa9 9f3b 48f0 033d 2f95 1abc 3918 e93c
000001d0: c638 4fbb 7ad1 153c bdc2 26bc b88d b73c
000001e0: 873d 0dbc 5c3f 153b f23b e03c 558a b03a
000001f0: 9f15 15bc cc1d 32bc 3c99 05bb 8793 a03c

network_body._body_endoder.seq_layers.2.weight f4 [128, 128]
0.0925487 0.0046065114 -0.10745983 -0.034063026 -0.09439089 0.18777898 0.02437085 0.0333316
0.061982088 -0.049396332 -0.057757713 0.095055595 0.04912438 0.035967752 -0.08444157 -0.12040795
-0.028949426 0.098231025 -0.2285292 0.06248418 0.12305732 0.122978896 0.04395949 -0.08434264
0.17924488 -0.017866988 0.17186725 -0.042608388 0.18444636 -0.058761675 0.085119456 -0.11271469
0.13739058 0.15091729 -0.12248336 0.041342136 0.003921081 -0.19292784 0.037272252 -0.035919428
-0.053337045 0.07248032 0.17556226 -0.024062619 -0.037512537 -0.057903707 -0.001930227 -0.04361095
-0.04101874 0.10276138 -0.07247461 -0.07721731 0.07037524 -0.13246816 -0.03034364 -0.07611814
-0.03635973 0.0073794527 -0.053283226 -0.05635335 0.041771986 -0.019815616 0.1252807 -0.15807958
-0.023245025 0.1566476 0.05288045 -0.06496107 0.07385875 -0.093203224 -0.06031286 0.015779193
-0.1817715 0.03257561 0.12977768 0.08242824 0.03977228 -0.0062641823 -0.035907272 0.09963327
0.1393832 0.040051978 0.08609836 0.057558447 0.031027187 -0.047388136 0.01671463 -0.015274285
-0.013907877 -0.011627541 0.03454067 0.019562 -0.062454067 0.06383586 -0.011204831 -0.15821528
0.10718475 -0.055265155 -0.0007325543 -0.040945135 -0.018314097 0.056528475 -0.057276387 0.014163826
-0.17928551 -0.006837475 -0.14592154 0.00010391527 0.18240611 -0.032583535 -0.086210795 -0.08233693
0.016034458 -0.115481116 -0.031003578 0.011116185 0.06413533 0.13788705 -0.04068654 -0.01036711
0.015332897 0.033044375 0.029850233 -0.007715655 -0.0399358 0.07324828 0.030620638 0.020276688
-0.1432065 0.022403115 0.03957613 -0.018516617 -0.026010178 0.07960419 0.059669908 0.017361348
-0.14462134 0.027001496 0.057791315 -0.054121234 0.058806844 -0.044974122 0.049321968 -0.034690876
-0.03508261 -0.03007686 0.079591446 -0.12127049 -0.024836933 0.031001449 -0.025221363 0.04733101
-0.17602351 -0.03928073 -0.056932677 0.039608173 0.03443413 0.009478817 0.096645415 0.010045872
0.026925929 0.1722221 0.05478013 0.116516046 -0.012098142 -0.086099595 0.016353142 0.010926345
-0.114141546 -0.038859338 0.10413688 -0.03555002 0.08729472 0.024670139 -0.13590418 -0.08713854
-0.0067352657 -0.11908078 0.031938013 0.033522524 0.039778847 0.072381824 0.0046037296 0.00029022267
-0.09280694 -0.037465513 -0.11166513 -0.05909424 -0.027093071 -0.096844 0.012007892 0.071449436
-0.014323778 0.04224468 -0.105561815 0.052759733 0.04056947 0.028933063 0.16108945 0.06330443
-0.058653727 -0.10998645 -0.103253014 -0.06530183 -0.052745312 -0.07095687 0.06552599 0.030016042
-0.06753351 -0.1856827 -0.039742623 -0.03569824 -0.011834478 0.13122572 -0.0073750024 -0.073541604
-0.026806036 0.13111055 0.15992989 -0.0190703 0.008351491 -0.17752986 -0.09545925 0.05973139
-0.15197922 0.17121273 -0.03808857 0.09942458 -0.011681113 0.016063571 -0.12497309 0.19228096
0.0005792469 0.055021834 0.08415505 0.024774753 0.19215603 0.03442483 0.046119146 -0.011763723
0.100438066 0.026605505 -0.05198996 0.061034195 0.05136438 0.09672273 -0.043560658 -0.18029062
0.016128521 0.044397045 0.0017621862 -0.035503883 0.22661519 -0.044695355 -0.040024746 0.17727344
00000000: 2c8a bd3d 38f2 963b e613 dcbd ac85 0bbd
00000010: 0350 c1bd 2249 403e 60a5 c73c b786 083d
00000020: eee0 7d3d cf53 4abd 5a93 6cbd 82ac c23d
00000030: a536 493d ec52 133d b4ef acbd 7198 f6bd
00000040: 5927 edbc 592d c93d 8f03 6abe 69ef 7f3d
00000050: 7a05 fc3d 5cdc fb3d de0e 343d d6bb acbd
00000060: f88b 373e ca5d 92bc f8fd 2f3e 2286 2ebd
00000070: 82df 3c3e 15b0 70bd 1c53 ae3d f6d6 e6bd
00000080: 1eb0 0c3e 108a 1a3e 8ed8 fabd 5f56 293d
00000090: 697c 803b e08e 45be caaa 183d 4020 13bd
000000a0: f277 5abd 9070 943d 98c6 333e f81e c5bc
000000b0: bfa6 19bd 702c 6dbd acff fcba 65a1 32bd
000000c0: 4403 28bd 8f74 d23d 916d 94bd 1c24 9ebd
000000d0: e520 903d bca5 07be 3a93 f8bc d4e3 9bbd
000000e0: f1ed 14bd 56cf f13b 833f 5abd c5d2 66bd
000000f0: 1a19 2b3d 5c54 a2bc 9549 003e 9ddf 21be
00000100: 5a6c bebc 3a68 203e 2c99 583d 4f0a 85bd
00000110: 4243 973d 55e1 bebd 9e0a 77bd 5e43 813c
00000120: 4f22 3abe 016e 053d 71e4 043e 23d0 a83d
00000130: 42e8 223d c543 cdbb 8113 13bd 870c cc3d
00000140: 78ba 0e3e 8b0d 243d 5654 b03d 68c2 6b3d
00000150: ba2c fe3c 101a 42bd 1fed 883c ff40 7abc
00000160: dddd 63bc 7181 3ebc 857a 0d3d 7d40 a03c
00000170: d6cf 7fbd 60bc 823d 7894 37bc 3003 22be
00000180: ae83 db3d b75d 62bd e308 40ba 16b6 27bd
00000190: 7207 96bc 678a 673d a59a 6abd 640f 683c
000001a0: 9f96 37be e60c e0bb 756c 15be 16ed d938
000001b0: abc8 3a3e 5076 05bd 498f b0bd 44a0 a8bd
000001c0: b25a 833c 5d81 ecbd 37fb fdbc a920 363c
000001d0: 6259 833d 4332 0d3e eea6 26bd d0da 29bc
000001e0: d536 7b3c 8a59 073d 7a88 f43c 9bd3 fcbb
000001f0: b993 23bd 3203 963d 22d8 fa3c 4c1b a63c
00000200: baa4 12be bd86 b73c 951a 223d 29b0 97bc
00000210: 4c13 d5bc 8607 a33d 6f68 743d 6339 8e3c
00000220: 9e17 14be 3e32 dd3c 96b6 6c3d 3aae 5dbd
00000230: 72df 703d c936 38bd d505 4a3d 0518 0ebd
00000240: c8b2 0fbd bf63 f6bc d700 a33d aa5c f8bd
00000250: d376 cbbc c0f6 fd3c 089d cebc 29de 413d
00000260: 823f 34be d5e4 20bd 3d32 69bd 2e3c 223d
00000270: cd0a 0d3d 0a4d 1b3c 08ee c53d 7197 243c
00000280: c493 dc3c fd5a 303e 2161 603d f79f ee3d
00000290: 4937 46bc fc54 b0bd 06f7 853c 6a04 333c
000002a0: 0bc3 e9bd f82a 1fbd b745 d53d e69c 11bd
000002b0: 93c7 b23d 0819 ca3c 772a 0bbe b175 b2bd
000002c0: 81b3 dcbb a0e0 f3bd 6fd1 023d ea4e 093d
000002d0: 25ef 223d ec3c 943d e2da 963b 0729 9839
000002e0: 9111 bebd 7075 19bd b0b0 e4bd cd0c 72bd
000002f0: 4af2 ddbc 2656 c6bd c0bc 443c 1554 923d
00000300: 48ae 6abc c208 2d3d cb30 d8bd 971a 583d
00000310: 2c2c 263d 0805 ed3c a2f4 243e c1a5 813d
00000320: e43e 70bd 9340 e1bd 5176 d3bd f7bc 85bd
00000330: 780b 58bd d651 91bd 7e32 863d 34e4 f53c
00000340: 024f 8abd 9b23 3ebe 29c9 22bd 5138 12bd
00000350: 66e5 41bc 0960 063e 01aa f1bb fb9c 96bd
00000360: 5598 dbbc d841 063e a9c4 233e 5139 9cbc
00000370: b1d4 083c 63ca 35be 2480 c3bd e7a8 743d
00000380: 71a0 1bbe 6452 2f3e c302 1cbd 1d9f cb3d
00000390: 2462 3fbc c097 833c e4f1 ffbd 4de5 443e
000003a0: 9ad8 173a 935e 613d 7c59 ac3d 6cf4 ca3c
000003b0: 8dc4 443e 0d01 0d3d 6ee7 3c3d a1bc 40bc
000003c0: 79b2 cd3d caf3 d93c 6df3 54bd fefe 793d
000003d0: 7563 523d 9116 c63d a96c 32bd 1b9e 38be
000003e0: f61f 843c add9 353d 28f9 e63a 856c 11bd
000003f0: d00d 683e 7a12 37bd fdf0 23bd 2b87 353e

network_body._body_endoder.seq_layers.2.bias f4 [128]
-0.0018810611 0.016190123 -0.010458905 0.012115752 0.008143114 -0.005828477 -0.0021474208 -0.0061822417
-0.004396292 -0.0039625643 -0.008292476 -0.007836911 -0.018841278 0.006896935 -0.012157723 -0.014618781
0.0029847617 -0.008273442 0.008423454 0.0145362 0.013821495 -0.0014989923 0.0008682155 -0.0031537842
0.015163029 -0.008769367 -0.0013995303 0.014225686 0.003048271 -0.018633204 0.016637309 0.018903755
0.006458874 0.033500604 -0.0041251928 -0.0035991708 -0.0002815407 0.0317314 0.006180685 0.003234126
0.021857304 -0.015647966 -0.0009043902 0.010903347 0.026510797 0.0022774711 0.0061602453 0.008703389
-0.0005220463 0.0039575985 -0.011247435 0.0027552317 0.036788322 -0.014504024 -0.004796542 -0.009372493
-0.004854491 0.018473433 0.004150378 0.0010963066 -0.004767692 -0.0040832846 0.0042893044 -0.0016687114
0.0026867166 0.023403792 0.015429458 0.02327871 -0.014708364 -0.0007802804 -0.005306317 0.00038771663
0.009097386 0.01721338 -0.008714153 0.026211038 0.016581118 0.0029250297 0.005148285 0.008173892
0.04037412 -0.0020054397 0.027104111 0.016455678 0.003110523 -0.0031554 -0.0031357394 -0.0055309976
-0.014836069 0.02134308 0.017886795 -0.008305517 0.0107091 0.023493154 -0.0107449405 0.0017048924
0.002873143 0.009359481 0.033066843 0.008371236 0.006328216 -0.0008459968 0.00457217 0.00037171345
-0.009287827 0.0023338208 -0.012094139 -0.007758115 0.0057018455 0.005905848 0.014322953 0.016587382
-0.008410713 0.0014207857 0.016881432 -0.005034765 0.008315808 0.01592912 0.01222949 0.026998673
0.0046226485 -0.004537347 0.026689015 -0.0024875817 -0.005772984 -0.0027061016 -0.00993585 -0.0030168744
00000000: f08d f6ba 26a1 843c d45b 2bbc 2681 463c
00000010: b26a 053c cffc bebb bebb 0cbb 6794 cabb
00000020: c50e 90bb 66d8 81bb 2add 07bc 6366 00bc
00000030: 0659 9abc afff e13b 3031 47bc 9d83 6fbc
00000040: fe9b 433b 558d 07bc 8702 0a3c 3e29 6e3c
00000050: 8d73 623c d679 c4ba f598 633a b8af 4ebb
00000060: 5a6e 783c 64ad 0fbc 7270 b7ba da12 693c
00000070: 80c5 473b a9a4 98bc f74a 883c 0cdc 9a3c
00000080: f6a4 d33b ee37 093d a02c 87bb 11e0 6bbb
00000090: c19b 93b9 c9f8 013d 5887 ca3b a1f3 533b
000000a0: 170e b33c 2a30 80bc 9914 6dba f4a3 323c
000000b0: 2c2d d93c a041 153b e2db c93b a998 0e3c
000000c0: efd9 08ba beae 813b 2947 38bc 1e91 343b
000000d0: 5aaf 163d 49a2 6dbc 502c 9dbb 168f 19bc
000000e0: 6c12 9fbb 9955 973c e5ff 873b f2b1 8f3a
000000f0: 4d3a 9cbb 13cd 85bb 4b8d 8c3b aab8 daba
00000100: a013 303b 4fb9 bf3c d6cb 7c3c feb2 be3c
00000110: 5afb 70bc bb8b 4cba 9de0 adbb 7246 cb39
00000120: 340d 153c 1303 8d3c cfc5 0ebc 88b8 d63c
00000130: 20d5 873c dbb1 3f3b f2b2 a83b caeb 053c
00000140: 555f 253d b26d 03bb 7109 de3c 0fce 863c
00000150: ebd9 4b3b d4ca 4ebb fa80 4dbb 5f3d b5bb
00000160: fc12 73bc afd7 ae3c 5487 923c dd13 08bc
00000170: 3975 2f3c b774 c03c 8c0b 30bc b276 df3a
00000180: 574b 3c3b 8258 193c 1971 073d 8227 093c
00000190: ec5c cf3b e2c5 5dba 24d2 953b 89e2 c239
000001a0: f82b 18bc 04f3 183b 7f26 46bc c937 febb
000001b0: 8cd6 ba3b d885 c13b d2aa 6a3c 43e2 873c
000001c0: 16cd 09bc a839 ba3a ee4a 8a3c acfa a4bb
000001d0: 073f 083c c97d 823c 335e 483c 522c dd3c
000001e0: 9679 973b 06ae 94bb eca2 da3c b206 23bb
000001f0: 4d2b bdbb da58 31bb fac9 22bc c1b6 45bb

action_model._discrete_distribution.branches.0.weight f4 [6, 128]
-0.022222683 -0.013534971 -0.026203614 0.00036053295 -0.022195289 0.0055575115 -0.0034935188 -0.0031548552
0.0027307556 -0.020286672 -0.008131068 0.002414049 0.00058692455 0.018346515 -0.011894345 0.0065563913
-0.0014565039 0.0017100079 0.014719639 -0.021555537 0.0153049985 0.0038512663 -0.015028709 0.012588728
0.020676304 0.0015749227 -0.00020499677 0.0025064645 -0.008949827 -0.0163839 0.006416464 -0.020309595
0.022767063 0.008536012 -0.00027777805 -0.016025288 -0.012439924 0.027184958 0.02324421 -0.004242515
0.0041407445 -0.0053893486 -0.013119044 0.020747015 0.0016128261 0.01537603 0.01148559 0.0013554544
-0.005106922 0.01251501 -0.007929594 -0.022446 0.024654169 -0.016876176 -0.02214549 -0.0038018327
-0.0126847355 0.0020486363 -0.029645087 -0.014583942 0.008893848 -0.008988671 -0.0051378943 0.017581997
-0.00023811791 0.019216603 -0.016296571 0.012234695 0.0014879444 0.0024800033 -0.0090267565 -0.017804727
0.019552285 0.013710446 -0.006795283 0.0093469545 0.004376795 0.022417862 0.0019323134 0.0011670622
0.023556005 -0.017700532 -0.004701006 0.009904413 -0.0059340536 0.0048748017 0.019486438 -0.01417461
-0.0075968206 0.008702509 0.024895456 -0.016356386 0.0116508715 0.02170818 -0.018919911 -0.0068210545
0.0006900558 0.0062947115 0.033872973 0.0012215314 0.020466309 0.0116580045 -0.001660785 -0.0076045925
0.003178312 0.0002292699 0.0010756166 0.0009418068 0.012682348 0.017854989 0.0011555834 0.004453495
-0.0071849395 0.010332244 -0.009830135 -0.013616816 0.0019144873 0.008327384 0.0031597305 0.016198002
0.0013696544 -0.004681433 0.0041852603 -0.0076039685 -0.008261651 -0.0240409 -0.001017513 -0.0026589192
0.013336446 -0.01653449 0.006954723 0.0046216142 0.024250695 0.016433267 -0.019619163 -0.006558094
0.018983765 0.029887166 0.018979881 -0.0076372 0.011938412 0.0140894605 0.017805934 0.030016689
0.03261015 0.015030656 0.018944884 -0.0047543785 -0.01803348 0.0022971926 -0.019284427 -0.004245913
-0.001970433 0.012294097 0.006609801 -0.012132463 0.02352046 0.026039394 -0.014657213 -0.013393899
-0.014248249 -0.009063315 0.013658079 0.019292353 0.049066737 0.017460633 -0.008913157 0.016829135
-0.048052188 0.0066814595 0.014536061 -0.035584413 0.008181947 0.011674327 -0.002263636 0.011683891
-0.012155212 -0.010117085 -0.0071195555 -0.018117797 0.0017531207 -0.005938597 -0.009456437 0.012746403
0.007385962 -0.014002324 -0.0008352726 0.022224689 -0.007818666 0.011014187 0.004905577 0.005236736
0.0005941463 0.0018369964 -0.012766565 -0.038464498 0.023294047 0.008927535 0.031567562 0.019680895
-0.016912261 0.014277527 0.0029491626 -0.0047362903 -0.035461865 -0.0026946724 -0.008773709 0.03448756
-0.016848013 0.026087647 -0.028311677 -0.02564199 -0.013361711 0.03640255 -0.0031972139 -0.019534834
0.017888594 -0.005512985 0.0075210636 0.006173326 -0.008922966 0.0022277017 0.00072690955 0.022489969
0.0057478314 0.008027128 0.0027000443 0.0044675823 0.008798488 -0.018204296 -0.008444297 -0.014470276
0.023507543 0.0038097096 -0.009273428 0.012799355 0.029710187 -0.0098847365 -0.0134327365 0.0001316804
0.015166651 -0.0015067268 -0.022856912 0.007435268 0.0017260285 -0.022259247 0.050623327 -0.04334225
0.0037703319 0.0042814603 -0.05827968 -0.004730453 0.004961875 0.0005639488 0.0016124925 -0.013467382
00000000: 580c b6bc c8c1 5dbc f6a8 d6bc ea05 bd39
00000010: e5d2 b5bc c91b b63b 85f3 64bb b0c1 4ebb
00000020: 7af6 323b 3c30 a6bc 2c38 05bc 0635 1e3b
00000030: d7db 193a 6e4b 963c 80e0 42bc ffd6 d63b
00000040: 29e8 beba 5822 e03a a42a 713c 3d95 b0bc
00000050: d1c1 7a3c 8765 7c3b f93a 76bc f440 4e3c
00000060: 5a61 a93c a36d ce3a 67f4 56b9 7f43 243b
00000070: 4ca2 12bc 8737 86bc 3441 d23b 4f60 a6bc
00000080: fe81 ba3c a1da 0b3c bda2 91b9 7747 83bc
00000090: d3d0 4bbc fdb2 de3c a46a be3c cc04 8bbb
000000a0: 15af 873b 2299 b0bb 42f1 56bc a5f5 a93c
000000b0: 7765 d33a beeb 7b3c 0e2e 3c3c 81a9 b13a
000000c0: f757 a7bb c20b 4d3c 21eb 01bc ace0 b7bc
000000d0: 8af7 c93c e83f 8abc 756a b5bc 2b28 79bb
000000e0: a3d3 4fbc 6a42 063b 41da f2bc 7cf1 6ebc
000000f0: 81b7 113c 3845 13bc c85b a8bb 1f08 903c
00000100: 4aaf 79b9 236c 9d3c 6380 85bc 0874 483c
00000110: 2107 c33a 8d87 223b f6e4 13bc 38db 91bc
00000120: 1d2c a03c c7a1 603c f7aa debb f823 193c
00000130: 386b 8f3b aaa5 b73c ae45 fd3a 1cf8 983a
00000140: 86f8 c03c b500 91bc e60a 9abb 1e46 223c
00000150: 7372 c2bb cdbc 9f3b 06a2 9f3c a03c 68bc
00000160: c0ee f8bb f894 0e3c 8ef1 cb3c d4fd 85bc
00000170: 4ce3 3e3c 5ad5 b13c eefd 9abc 2783 dfbb
00000180: dce4 343a de43 ce3b 63be 0a3d cb1b a03a
00000190: f6a8 a73c 3701 3f3c b3ae d9ba f22f f9bb
000001a0: 3a4b 503b 2c68 7039 b4fb 8c3a 96e3 763a
000001b0: 9fc9 4f3c a044 923c f276 973a a0ee 913b
000001c0: a46f ebbb 9348 293c 930e 21bc 1119 5fbc
000001d0: 89ef fa3a 946f 083c 7b13 4f3b acb1 843c
000001e0: fa85 b33a b566 99bb 8224 893b b62a f9bb
000001f0: e05b 07bc 6cf1 c4bc 125e 85ba 4341 2ebb
00000200: 1c81 5a3c 5773 87bc 72e4 e33b e970 973b
00000210: 65a9 c63c 0f9f 863c 5eb8 a0bc 48e5 d6bb
00000220: d783 9b3c eed5 f43c b27b 9b3c 7a41 fabb
00000230: 5499 433c 7bd7 663c c0dd 913c 8fe5 f53c
00000240: 3892 053d 2443 763c 4d32 9b3c 9eca 9bbb
00000250: f3ba 93bc 7f8c 163b 60fa 9dbc 4d21 8bbb
00000260: 6122 01bb 2e6d 493c 0897 d83b 3dc7 46bc
00000270: fbad c03c 9150 d53c cf24 70bc 1672 5bbc
00000280: 7d71 69bc 4c7e 14bc 23c6 5f3c ff0a 9e3c
00000290: 34fa 483d 9a09 8f3c 7d08 12bc 41dd 893c
000002a0: 5fd2 44bd 25f0 da3b a928 6e3c f6c0 11bd
000002b0: 930d 063c ad45 3f3c 8359 14bb ca6d 3f3c
000002c0: a826 47bc 21c2 25bc 294b e9bb c66b 94bc
000002d0: f8c8 e53a 9098 c2bb 2cef 1abc 4ad6 503c
000002e0: f105 f23b 016a 65bc 32f6 5aba 8d10 b63c
000002f0: dd19 00bc d974 343c f6be a03b ed98 ab3b
00000300: 7cc0 1b3a 5fc7 f03a db2a 51bc f38c 1dbd
00000310: 28d3 be3c cc44 123c fd4c 013d d439 a13c
00000320: 958b 8abc 4aec 693c bd46 413b e232 9bbb
00000330: 7640 11bd 1a99 30bb 9abf 0fbc d442 0d3d
00000340: d804 8abc c3b5 d53c e4ed e7bc 270f d2bc
00000350: 14eb 5abc d71a 153d 5988 51bb 8407 a0bc
00000360: 1a8b 923c 45a6 b4bb 4173 f63b 9d49 ca3b
00000370: a231 12bc a2fe 113b 138e 3e3a e23c b83c
00000380: 4e58 bc3b 3784 033c 3af3 303b cc64 923b
00000390: 8927 103c 2d21 95bc f359 0abc bd14 6dbc
000003a0: e492 c03c 52ac 793b 93ef 17bc 63b4 513c
000003b0: c762 f33c 97f3 21bc fb14 5cbc b013 0a39
000003c0: 8c7d 783c 5d7d c5ba 6b3e bbbc 8ca3 f33b
000003d0: e83b e23a 0659 b6bc 685a 4f3d a587 31bd
000003e0: ac17 773b 7e4b 8c3b acb6 6ebd ea01 9bbb
000003f0: 3997 a23b f7d5 133a 455a d33a 4ba6 5cbc

action_model._discrete_distribution.branches.0.bias f4 [6]
0.008301649 -0.005230249 0.0007391654 0.005956552 0.006552225 -0.009417678
00000000: a403 083c 8262 abbb 8dc4 413a 2e2f c33b
00000010: 0cb4 d63b 9b4c 1abc
