Assets/Hide and Seek/Brain/HiderBehavior_NoWalls.onnx (onnx, 169648 bytes, 6 tensors)

network_body._body_endoder.seq_layers.0.weight f4 [128, 190]
0.09762446 0.020243723 0.07264211 0.03720132 -0.013529788 0.016920153 -0.111703455 0.03961916
-0.0051240185 -0.0764115 0.07537929 0.14735621 0.026907776 -0.08683266 0.06784237 0.00197331
0.012184914 -0.033774015 -0.09496274 -0.028836992 -0.019430768 -0.105549805 0.10858082 0.08147927
0.04916091 0.063559756 -0.037449863 -0.018708695 0.06614459 0.025587374 -0.041075468 0.0017785128
-0.008880438 -0.044446684 -0.04620507 -0.00938043 -0.11819226 -0.0026123691 -0.06776645 0.07873198
-0.034932286 0.01762844 0.019802175 0.10690675 0.10368283 0.08278773 0.11566943 0.058261998
-0.13520607 0.15925412 0.100877486 0.01575948 0.044457372 0.008792781 0.016394656 0.0217143
-0.03887918 0.049792252 -0.090658195 -0.07812615 -0.019065598 -0.093814895 -0.044759184 -0.039075878
0.03522495 0.124979 -0.052842587 -0.03998429 -0.11527704 0.0015217775 -0.024800241 -0.0025560868
-0.015156683 -0.09287879 -0.019556329 0.032869164 0.0990166 -0.0994695 -0.117911614 -0.047897644
-0.09198797 -0.03099225 0.032774854 0.06859729 -0.0062657176 -0.040425994 -0.03858507 -0.07223745
-0.071769424 0.030503618 0.0017880775 0.12847915 0.067295626 0.012148475 0.057737257 0.02217441
-0.042175114 -0.004079959 0.08527938 -0.13687064 -0.035670802 0.0018364785 0.026444675 0.06009273
0.09566232 -0.01813711 0.003120551 0.012879813 -0.1684013 0.07223613 0.016879903 0.048635513
-0.018254394 -0.14474417 -0.008867742 0.082819015 0.081106156 0.018450845 0.045457467 0.08118
0.081115626 -0.0049692215 -0.028509945 -0.005413144 -0.09624081 0.009922873 -0.0010532461 0.012697658
0.068695135 0.012602342 -0.15374307 0.11271522 0.13455132 0.015478212 0.04997058 -0.04336969
0.08083304 0.11687252 -0.073848724 0.04968877 0.009028877 -0.0711194 -0.017680354 0.14692895
-0.0067708385 -0.020101732 0.094720855 -0.061705697 0.03705218 0.06596647 -0.07046956 0.074339464
-0.09269777 -0.08768996 -0.0459481 0.04425454 0.0032928337 0.026856119 -0.008668316 0.114029646
0.06474901 -0.18064113 0.111779064 0.050142113 -0.060289014 0.101875864 0.10295729 0.092798956
0.026655879 -0.014460395 -0.06551897 -0.012489683 0.12648901 0.04720835 0.06781984 -0.007259432
0.05881335 -0.094972186 -0.07900515 0.015848724 -0.073989056 -0.020845762 0.0958209 0.1462974
0.06962318 0.026882673 0.014372562 0.021250322 -0.08307387 0.1920174 0.124963805 -0.03098095
-0.08016583 -0.018044015 -0.037444677 -0.012023027 -0.049206644 -0.022770807 0.040599547 -0.0006487036
-0.10155656 0.04574519 -0.0757835 -0.034806736 -0.026998315 0.08269071 0.06573411 0.1164179
0.044022053 -0.033838872 -0.046681684 -0.07365516 0.065299764 0.018392963 0.030686209 0.037030224
0.111203544 0.062039435 -0.14408396 -0.02440516 0.035665527 -0.12941723 0.016429449 0.11186524
0.04250263 -0.06741558 0.2162389 0.026891585 -0.05083903 0.03355217 -0.00794597 -0.06608594
-0.061801136 0.061554912 0.0032773595 -0.0202406 0.041929558 0.0767278 -0.042431656 0.05570547
0.04903784 -0.037317567 -0.028234383 0.05069275 0.010968602 -0.12476383 -0.14360267 -0.06772514
0.08525991 -0.11677591 -0.02619521 0.024217475 0.014412355 -0.109497055 0.06150657 -0.02984509
00000000: 55ef c73d 2ad6 a53c 63c5 943d 6960 183d
00000010: 0bac 5dbc 229c 8a3c c8c4 e4bd b347 223d
00000020: 62e7 a7bb a27d 9cbd 7560 9a3d 8ce4 163e
00000030: b26d dc3c 52d5 b1bd f1f0 8a3d a652 013b
00000040: 3ca3 473c 9f56 0abd d37b c2bd 8e3b ecbc
00000050: 462d 9fbc 7f2a d8bd 9f5f de3d 9ade a63d
00000060: f35c 493d 9e2b 823d 0765 19bd fa42 99bc
00000070: d176 873d 9d9c d13c c03e 28bd fd1c e93a
00000080: 427f 11bc ba0d 36bd 8741 3dbd 60b0 19bc
00000090: c90e f2bd 4834 2bbb 23c9 8abd 3b3e a13d
000000a0: 2815 0fbd 8569 903c 2c38 a23c edf1 da3d
000000b0: aa57 d43d 9d8c a93d 18e4 ec3d 22a4 6e3d
000000c0: 7673 0abe 8313 233e db98 ce3d 061a 813c
000000d0: ef18 363d 990f 103c 164e 863c 30e2 b13c
000000e0: c63f 1fbd f6f2 4b3d 01ab b9bd 9a00 a0bd
000000f0: 752f 9cbc 0622 c0bd 6855 37bd 070e 20bd
00000100: 0a48 103d fdf4 ff3d 7871 58bd 91c6 23bd
00000110: 5e16 ecbd 6176 c73a e029 cbbc 0584 27bb
00000120: bc53 78bc 3c37 bebd 9834 a0bc d1a1 063d
00000130: 37c9 ca3d aab6 cbbd a57b f1bd 5230 44bd
00000140: 3064 bcbd 76e3 fdbc ed3e 063d bc7c 8c3d
00000150: a650 cdbb ba95 25bd 610b 1ebd 3af1 93bd
00000160: d9fb 92bd b9e2 f93c ed5d ea3a 0a90 033e
00000170: 4ad2 893d 660a 473c e77d 6c3d 1ca7 b53c
00000180: d0bf 2cbd 2db1 85bb f5a6 ae3d d127 0cbe
00000190: 8c1b 12bd feb5 f03a 81a2 d83c cb23 763d
000001a0: 9bea c33d 4794 94bc 2882 4c3b da05 533c
000001b0: 6471 2cbe 89f0 933d b947 8a3c 0836 473d
000001c0: 3d8a 95bc d137 14be 014a 11bc 049d a93d
000001d0: fc1a a63d 3a26 973c 9c31 3a3d b341 a63d
000001e0: f31f a63d dad4 a2bb b08d e9bc be60 b1bb
000001f0: e719 c5bd 8c93 223c 130d 8aba d609 503c
00000200: 09b0 8c3d 0e7a 4e3c d36e 1dbe 3dd7 e63d
00000210: d2c7 093e 5498 7d3c f3ad 4c3d 6ba4 31bd
00000220: cb8b a53d dc5a ef3d 003e 97bd 7486 4b3d
00000230: dbed 133c 0ca7 91bd 64d6 90bc 8b74 163e
00000240: e9dd ddbb 63ac a4bc 02fd c13d 1dbf 7cbd
00000250: 07c4 173d 6e19 873d 5852 90bd 4a3f 983d
00000260: 54d8 bdbd cb96 b3bd 1334 3cbd 4044 353d
00000270: 95cc 573b 5d01 dc3c 8d05 0ebc 6088 e93d
00000280: 219b 843d fdf9 38be 6cec e43d d161 4d3d
00000290: 9df1 76bd 4ba4 d03d 46db d23d 610d be3d
000002a0: 6e5d da3c 4beb 6cbc cf2e 86bd 87a1 4cbc
000002b0: 5686 013e 8b5d 413d 21e5 8a3d 88e0 edbb
000002c0: 44e6 703d c780 c2bd 74cd a1bd 2fd5 813c
000002d0: 9387 97bd bbc4 aabc bf3d c43d fcce 153e
000002e0: 9996 8e3d 0d39 dc3c e57a 6b3c 2815 ae3c
000002f0: a222 aabd 36a0 443e 06ed ff3d c3cb fdbc
00000300: fc2d a4bd 0bd1 93bc 975f 19bd 3bfc 44bc
00000310: e88c 49bd d889 babc b64b 263d c30d 2aba
00000320: e3fc cfbd 4f5f 3b3d 6134 9bbd 8291 0ebd
00000330: 922b ddbc bf59 a93d 9b9f 863d 826c ee3d
00000340: 7850 343d a19a 0abd 4b35 3fbd 84d8 96bd
00000350: e2bb 853d d7ac 963c a561 fb3c 01ad 173d
00000360: afbe e33d 101d 7e3d bf8a 13be 55ed c7bc
00000370: 0416 123d f385 04be 0d97 863c 9a19 e53d
00000380: 3d17 2e3d 2e11 8abd bb6d 5d3e be4b dc3c
00000390: 963c 50bd 006e 093d d02f 02bc 1158 87bd
000003a0: 3023 7dbd 0121 7c3d f8c8 563b 9dcf a5bc
000003b0: 54be 2b3d 7723 9d3d d1cc 2dbd 6b2b 643d
000003c0: e7db 483d 4eda 18bd cb4b e7bc 33a3 4f3d
000003d0: a7b5 333c 2e84 ffbd 940c 13be 7ab3 8abd
000003e0: bf9c ae3d 3528 efbd 5697 d6bc ba63 c63c
000003f0: cc21 6c3c fe3f e0bd 50ee 7b3d b17d f4bc

network_body._body_endoder.seq_layers.0.bias f4 [128]
0.02816279 0.00897388 0.012807028 -0.018443681 0.021865167 0.027028257 -0.014902204 -0.016828978
-0.030021641 0.0002094186 0.023810228 0.053852934 0.015451868 0.045028303 -0.04224391 0.012744439
0.020523272 0.038130682 0.03354725 0.031254046 0.07172706 0.02211371 0.022844305 0.059614904
0.049127225 0.04275185 0.021866316 0.002104798 0.045259096 0.053158008 0.047328077 0.048262343
0.018230675 0.017046954 -0.04680375 0.054469608 0.008147594 0.012793319 0.031146642 0.0153694395
-0.044326 0.015817568 0.0006302105 -0.009920812 0.038505446 -0.0013110081 0.037355814 0.026348079
0.004616937 0.005998562 0.009064815 0.029378077 0.04140342 -0.023301516 0.036686823 0.0024295829
0.019121861 0.01985563 0.04828015 0.017287366 0.014932185 0.008549676 0.044009972 0.021023186
0.010709562 0.007971551 0.025191363 -0.028345572 0.011570728 0.011529664 0.037036933 0.039246865
0.042994916 0.049114954 0.04260565 0.06392596 0.023760945 0.0013995885 0.014571618 0.058848232
0.033877183 -0.023856614 0.048882388 -0.015437742 0.0046758936 0.010260534 0.03000492 0.046311773
0.007059216 0.030980967 0.006385911 0.0069106915 0.03662944 0.0029238549 0.051005486 0.04090736
0.021151466 0.013746626 0.06304634 -0.023459276 -0.024669452 0.026302941 0.03539517 0.038139526
0.034284376 0.0066323904 0.010880457 -0.011720302 0.02226641 0.01681973 0.03222874 0.034974582
0.013387712 0.011755296 0.029987345 0.0048096473 0.02144289 0.0117554255 0.029253064 -0.0030487832
0.020380965 0.049787745 0.048609108 0.005911943 0.03680108 -0.013048359 0.0033056515 0.027802462
00000000: a7b5 e63c 2e07 133c 92d4 513c 3417 97bc
00000010: 941e b33c 5d6a dd3c 6028 74bc eddc 89bc
00000020: f2ef f5bc 6197 5b39 ab0d c33c e594 5c3d
00000030: d529 7d3c 996f 383d f307 2dbd 0dce 503c
00000040: 6c20 a83c eb2e 1c3d d768 093d 3e04 003d
00000050: a3e5 923d d027 b53c fb23 bb3c c22e 743d
00000060: a139 493d 901c 2f3d fd20 b33c a7f0 093b
00000070: 9a61 393d 36bc 593d 16db 413d bcae 453d
00000080: 7f58 953c 0ea6 8b3c 4ab5 3fbd 861b 5f3d
00000090: 7c7d 053c 129b 513c 3e27 ff3c 1ad0 7b3c
000000a0: 2e8f 35bd d893 813c b634 253a e78a 22bc
000000b0: e3b7 1d3d 22d6 abba 6902 193d edd7 d73c
000000c0: ad49 973b 968f c43b 9784 143c 4baa f03c
000000d0: a296 293d d2e2 bebc ec44 163d a339 1f3b
000000e0: 73a5 9c3c 46a8 a23c 68c1 453d 3c9e 8d3c
000000f0: 20a6 743c f113 0c3c cd43 343d d138 ac3c
00000100: 2977 2f3c 1c9b 023c 1e5e ce3c f934 e8bc
00000110: 2793 3d3c eae6 3c3c 0ab4 173d 52c1 203d
00000120: 701b 303d c32c 493d 4383 2e3d 9deb 823d
00000130: 50a6 c23c 6672 b73a ccbd 6e3c d80a 713d
00000140: cdc2 0a3d f26e c3bc e638 483d 95ee 7cbc
00000150: 3d38 993b cc1b 283c e1cc f53c 6ab1 3d3d
00000160: ff50 e73b cccb fd3c e740 d13b 1573 e23b
00000170: c008 163d 259e 3f3b 21eb 503d 7a8e 273d
00000180: d745 ad3c 8739 613c 711e 813d ab2d c0bc
00000190: 9717 cabc 4479 d73c 87fa 103d 3138 1c3d
000001a0: c66d 0c3d 8654 d93b f243 323c 8206 40bc
000001b0: 0c68 b63c 88c9 893c 4902 043d 8241 0f3d
000001c0: 2258 5b3c 4999 403c 05a8 f53c 3f9a 9d3b
000001d0: 00a9 af3c d499 403c 1fa4 ef3c 18ce 47bb
000001e0: fbf5 a63c 3cee 4b3d 581a 473d f9b8 c13b
000001f0: bbbc 163d c9c8 55bc a1a3 583b fdc1 e33c

network_body._body_endoder.seq_layers.2.weight f4 [128, 128]
0.03166968 -0.073490806 0.01447825 -0.029464748 -0.070947915 -0.042717922 -0.03942255 0.0035436403
0.0067815273 -0.11459898 -0.0891241 0.14166981 -0.01779719 -0.052837383 0.030804204 -0.010499954
-0.076908216 0.019280137 0.045937702 -0.16567828 -0.15912913 0.023690464 0.030394495 -0.164927
-0.079896234 0.09765774 0.01411083 0.11159132 -0.06910851 -0.11390223 0.02779962 -0.00322978
0.16210519 -0.032399844 -0.04813463 -0.050938886 0.047017828 0.08677342 0.022485277 0.11643582
-0.11163907 -0.10973597 -0.018934084 0.06933181 0.036751844 0.02457642 0.06834589 0.10892413
-0.006470041 0.13292691 -0.0783165 -0.084108375 0.0081709195 -0.1612316 0.076892816 0.028016372
0.036892198 -0.06568894 0.1685181 0.05533151 -0.01932315 -0.095488034 0.018147925 -0.07224008
0.17003955 -0.0430303 -0.011142085 -0.027432594 0.00046612555 -0.085916154 -0.013141023 0.031527866
0.07426164 0.12213445 0.15100281 -0.008911846 0.03465174 -0.0047982377 0.06520747 -0.07289423
-0.055193946 -0.11024545 0.11971204 0.013339293 -0.06386571 -0.13627186 0.065643944 -0.08112312
0.04185112 0.049448576 -0.04543425 -0.04513117 0.12271621 0.13893579 -0.0026753838 -0.09118368
0.10392959 -0.01009782 0.04609564 -0.11154656 0.04725121 -0.05003088 -0.2648806 -0.12744676
0.14557154 0.057282187 -0.011576964 0.07413595 0.08650692 0.10367072 0.014871081 -0.04276888
0.05563512 -0.053278588 0.055818543 -0.017667556 -0.09756407 0.11407467 -0.014838906 0.02441754
0.1361405 0.026319768 -0.08721488 0.16599286 -0.06264244 -0.066476546 -0.020142682 -0.036881514
0.10598405 0.17329907 -0.018983971 -0.09773941 0.16455697 0.05897087 -0.16607578 -0.1314476
-0.019743696 0.008284308 0.008655307 0.052882586 -0.024856271 0.12756498 0.0793234 0.027364293
-0.07573003 0.13923493 -0.12851454 0.05031814 0.0076114754 0.11621079 0.0726328 0.048478764
0.17637525 -0.049280252 0.15459427 0.03204133 0.014620144 0.11130771 -0.0961132 0.0687334
0.10510365 0.025884753 -0.06916406 -0.10174286 -0.0061729504 0.046011623 -0.1528756 -0.008080516
-0.1601961 0.21359584 0.11574248 0.009071183 0.09728868 0.047058024 -0.22672547 0.046785887
-0.015091665 0.010424883 0.01805061 -0.0128466515 0.09871469 0.03989476 -0.069539174 -0.13649112
-0.022133831 -0.017738694 0.12879464 -0.2019317 0.08011483 0.13184647 0.047603782 -0.049219456
-0.18323629 -0.038975146 0.08715891 -0.22079472 0.20271073 -0.051442735 -0.04057432 0.10822465
0.0426079 0.049214832 0.03688416 0.11047738 -0.030538267 -0.14938115 0.007476061 -0.001243421
0.15363036 -0.09590789 -0.015992966 -0.052663244 0.07753112 0.014822236 -0.014127383 0.08327557
-0.070218876 -0.021180326 -0.24864353 -0.088128135 0.10679926 0.054623287 0.19008747 0.023578601
0.07644742 0.25301063 0.028639013 0.02251857 0.02035875 0.10478062 -0.0070730103 0.091938116
-0.046492476 -0.08945503 -0.05345928 -0.105659075 0.07609743 0.0013589172 0.131422 0.06490074
0.16524696 -0.047028862 -0.06192374 -0.007606174 0.054345176 -0.019132989 -0.0911186 -0.032459736
0.061842475 -0.100034684 -0.1460788 -0.12180203 0.011220959 0.016809093 -0.041253556 -0.06663033
00000000: 11b8 013d 5982 96bd 2f36 6d3c 0e60 f1bc
00000010: 244d 91bd fdf8 2ebd 8a79 21bd 6b3c 683b
00000020: 9337 de3b dfb2 eabd b286 b6bd e411 113e
00000030: 6acb 91bc 036c 58bd 1959 fc3c 0008 2cbc
00000040: 0e82 9dbd 61f1 9d3c 2c29 3c3d 91a7 29be
00000050: bff2 22be 8112 c23c e0fd f83c a0e2 28be
00000060: a3a0 a3bd c800 c83d 1c31 673c fd89 e43d
00000070: c388 8dbd 9345 e9bd 07bc e33c b7aa 53bb
00000080: e7fe 253e b3b5 04bd d128 45bd 4ba5 50bd
00000090: c495 403d 43b6 b13d 0b33 b83c e775 ee3d
000000a0: 06a3 e4bd 41bd e0bd a71b 9bbc d6fd 8d3d
000000b0: 1a89 163d 7d54 c93c eef8 8b3d 9d13 df3d
000000c0: a302 d4bb fe1d 083e 6764 a0bd 0341 acbd
000000d0: 52df 053c e619 25be fb79 9d3d 9782 e53c
000000e0: 461c 173d ec87 86bd 0290 2c3e 4ba3 623d
000000f0: 954b 9ebc 3b8f c3bd f5aa 943c 9bf2 93bd
00000100: d91e 2e3e 8a40 30bd 4b8d 36bc 52ba e0bc
00000110: 5062 f439 cff4 afbd 724d 57bc 5d23 013d
00000120: 7d16 983d a021 fa3d 7ba0 1a3e fe02 12bc
00000130: fcee 0d3d 893a 9dbb 7e8b 853d 9249 95bd
00000140: 0c13 62bd 5ec8 e1bd 962b f53d 0d8d 5a3c
00000150: 06cc 82bd da8a 0bbe 5570 863d e123 a6bd
00000160: 146c 2b3d 978a 4a3d 4419 3abd 76db 38bd
00000170: a352 fb3d 2f45 0e3e 7e55 2fbb 82be babd
00000180: 09d9 d43d 5471 25bc c8ce 3c3d 8672 e4bd
00000190: 7c8a 413d 2eed 4cbd 6e9e 87be 6781 02be
000001a0: b510 153e baa0 6a3d 4ead 3dbc 97d4 973d
000001b0: 8a2a b13d 5051 d43d d6a5 733c 6c2e 2fbd
000001c0: a7e1 633d a63a 5abd fca1 643d 8dbb 90bc
000001d0: accf c7bd fb9f e93d e21e 73bc 4b07 c83c
000001e0: 6a68 0b3e 8e9c d73c b79d b2bd 08fa 293e
000001f0: ae4a 80bd db24 88bd 4402 a5bc 1211 17bd
00000200: 2a0e d93d 5075 313e 4684 9bbc 9a2b c8bd
00000210: 9f81 283e 708b 713d c50f 2abe 339a 06be
00000220: 88bd a1bc e8ba 073c fdce 0d3c 699b 583d
00000230: 619f cbbc 65a0 023e 4f74 a23d 152b e03c
00000240: 5918 9bbd 9a93 0e3e 5199 03be 651a 4e3d
00000250: af69 f93b ecff ed3d 81c0 943d ab91 463d
00000260: b79b 343e 17da 49bd f64d 1e3e c53d 033d
00000270: 5489 6f3c 4cf5 e33d ffd6 c4bd 19c4 8c3d
00000280: 9540 d73d 430c d43c e3a5 8dbd 905e d0bd
00000290: 7646 cabb af76 3c3d 6c8b 1cbe 2464 04bc
000002a0: 720a 24be deb8 5a3e 650a ed3d 4d9f 143c
000002b0: 4a3f c73d eabf 403d b92a 68be 8fa2 3f3d
000002c0: 0843 77bc 21cd 2a3c dfde 933c c37a 52bc
000002d0: ed2a ca3d b068 233d 8e6a 8ebd 54c4 0bbe
000002e0: 0252 b5bc bd50 91bc bee2 033e 2fc7 4ebe
000002f0: 3e13 a43d c302 073e 2ffc 423d 579a 49bd
00000300: 4ba2 3bbe 67a4 1fbd 5f80 b23d 0318 62be
00000310: 6793 4f3e 9eb5 52bd 4231 26bd e3a4 dd3d
00000320: 9f85 2e3d 7e95 493d d813 173d f741 e23d
00000330: 632b fabc 5ff7 18be bff9 f43b 49fa a2ba
00000340: 4751 1d3e 5b6b c4bd ae03 83bc 6ab5 57bd
00000350: a3c8 9e3d f7d8 723c 8a76 67bc 628c aa3d
00000360: eace 8fbd 5d82 adbc 699c 7ebe 867c b4bd
00000370: 92b9 da3d abbc 5f3d 4aa6 423e e927 c13c
00000380: 7790 9c3d 9c8a 813e 5d9c ea3c dd78 b83c
00000390: 65c7 a63c 3997 d63d b6c4 e7bb 0d4a bc3d
000003a0: e56e 3ebd 3334 b7bd 1ef8 5abd c963 d8bd
000003b0: f8d8 9b3d b21d b23a 7d93 063e aeea 843d
000003c0: 8036 293e 56a1 40bd bfa3 7dbd 363d f9bb
000003d0: 0c99 5e3d c9bc 9cbc 639c babd 80f4 04bd
000003e0: 894e 7d3d fcde ccbd ae95 15be 5873 f9bd
000003f0: 1dd8 373c 39b3 893c 7df9 28bd 7c75 88bd

network_body._body_endoder.seq_layers.2.bias f4 [128]
0.0043278304 0.03486963 0.026816083 0.015303906 0.023746034 0.022056518 0.00049843424 0.0066360184
0.02890636 0.039814327 0.014276808 0.017914575 0.05094169 -0.0038786875 0.077324234 0.013938944
0.057928365 0.0017206499 0.05362982 0.038964942 0.026094537 0.013756275 0.014899388 0.0018133046
0.010994457 0.047513016 0.015807346 0.009976991 -0.027772076 0.008986387 0.0040031173 0.04584918
0.028738316 -0.011739827 -0.003165278 -0.006649845 -0.006343353 0.02104441 -0.007060171 0.05494728
0.07363657 0.03030229 -0.0041333456 0.012814778 0.041584514 0.012751513 -0.02348586 0.00093254313
0.0036102177 0.0056198863 0.007440293 0.008744431 0.00551356 0.0093024485 0.035458393 0.0569507
0.03561825 0.03359952 0.039410368 0.078411385 0.046582542 0.0540113 0.041401986 0.023245666
0.0125865545 0.011950929 0.0268115 0.031559467 0.036212876 0.01428563 0.010228086 0.028170992
-0.016786387 0.0018559146 0.044267576 0.01240182 -0.0010836752 0.02002918 0.036816537 0.00719005
0.021352315 -0.012138857 0.017932968 0.033401273 0.008184734 0.024380986 0.016023792 0.022215882
0.0028106917 0.078693695 -0.025470868 0.012103647 -0.004982554 0.020753056 0.016953025 0.032070667
0.052706532 -0.0041630464 -0.008241245 0.022173062 0.012533103 0.025006255 0.0792208 0.021950305
0.037071634 0.015909683 0.016832756 0.018085057 0.05659469 0.0027567898 0.019346917 -0.0073717954
0.024220666 0.036528572 0.0029655048 0.05875594 -0.015389027 0.03988838 0.03892076 0.007950124
0.02164485 0.042716656 0.020643242 0.029376175 -0.01176961 0.018338516 0.059939545 0.020364871
00000000: 79d0 8d3b 75d3 0e3d 67ad db3c 3cbd 7a3c
00000010: 0b87 c23c dfaf b43c 5ba9 023a f572 d93b
00000020: 08cd ec3c 5914 233d 46e9 693c 96c1 923c
00000030: 3ca8 503d 9431 7ebb 2b5c 9e3d 2b60 643c
00000040: 4b46 6d3d 6e87 e13a f1aa 5b3d b499 1f3d
00000050: 36c4 d53c 0062 613c 901c 743c 68ac ed3a
00000060: 1822 343c 029d 423d 687e 813c 8976 233c
00000070: 4482 e3bc a43b 133c 952c 833b 5acc 3b3d
00000080: 9e6c eb3c 6758 40bc 8d70 4fbb f1e6 d9bb
00000090: e7db cfbb 5465 ac3c 0259 e7bb 6610 613d
000000a0: c5ce 963d 823c f83c 0471 87bb 13f5 513c
000000b0: 8654 2a3d b9eb 503c 6b65 c0bc e975 743a
000000c0: 6799 6c3b 0627 b83b b4cd f33b cd44 0f3c
000000d0: 18ab b43b 4c69 183c d23c 113d 2345 693d
000000e0: 71e4 113d a69f 093d c46c 213d 2696 a03d
000000f0: 56cd 3e3d f43a 5d3d 2195 293d b26d be3c
00000100: d637 4e3c d4cd 433c caa3 db3c 8044 013d
00000110: f453 143d 460e 6a3c b493 273c dac6 e63c
00000120: 9b83 89bc 2942 f33a eb51 353d 0131 4b3c
00000130: 1b0a 8eba 3c14 a43c f0cc 163d 839a eb3b
00000140: 0deb ae3c 0ee2 46bc 29e8 923c c6cf 083d
00000150: 4319 063c a2ba c73c 5444 833c 15fe b53c
00000160: 9533 383b 292a a13d 48a8 d0bc 604e 463c
00000170: b144 a3bb 5002 aa3c 12e1 8a3c 885c 033d
00000180: cee2 573d 2a6a 88bb 4906 07bc 48a4 b53c
00000190: a557 4d3c ebd9 cc3c 843e a23d 20d1 b33c
000001a0: 6dd8 173d 0655 823c d9e4 893c 1d27 943c
000001b0: d5cf 673d 42ab 343b 6d7d 9e3c 1a8f f1bb
000001c0: 6b6a c63c fc9e 153d ea58 423b 12aa 703d
000001d0: 4222 7cbc ff61 233d 606b 1f3d 3d41 023c
000001e0: 8a50 b13c a9f7 2e3d 041c a93c 4ea6 f03c
000001f0: 53d5 40bc a83a 963c 2b83 753d 3bd4 a63c

action_model._discrete_distribution.branches.0.weight f4 [7, 128]
-0.00029553563 0.008643193 0.002746267 -0.0053279386 0.018167708 -0.0031721094 0.022159075 0.003030259
0.014539076 0.021418938 0.008200534 -0.00020899909 -0.0050829183 -0.007955708 0.0044177114 0.014678501
-0.014489384 0.019398512 0.015333532 0.01328332 -0.0016277311 0.013674286 -0.00676043 0.019150209
-0.0021357276 0.03273836 0.010914139 0.037149183 -0.014651964 0.0032847258 -0.009252304 -0.017476605
0.024290267 -0.019573536 -0.017081436 -0.013751917 -0.00917181 -0.015010503 -0.03765084 -0.004810262
0.017074432 0.025781777 -0.008207964 0.014043712 0.0073498245 -0.012124872 -0.016708054 0.02119295
-0.024746941 0.013733683 -0.0047075427 0.007763238 0.01731453 -0.022595331 0.01279896 0.018095952
-0.014607859 0.01868294 0.006343574 -0.0176658 0.02266487 0.0045095515 0.007886319 0.0067685577
0.0038185664 0.0018251581 -0.0005329938 0.02926626 -0.018013524 -0.0049410923 -0.015255799 -0.0003653113
-0.018284403 0.0145865735 -0.018897261 0.006292627 -0.003832448 -0.004266886 0.014896075 -0.01454586
0.0041952142 0.012953567 -0.027571851 0.008270745 0.009522617 -0.007798238 0.0153692085 0.010551277
0.015019545 0.0125882225 0.0071710106 -0.027660886 -0.006273961 -0.0023881898 -0.020340811 -0.002268737
0.0073499777 -0.00888718 0.0031602553 -0.0143399695 0.0031636872 -0.006848041 0.013515596 0.009717408
0.01178078 0.00900097 0.008609208 0.027638871 -0.0009215289 0.022141553 0.0003054102 0.0047487635
-0.012690903 0.00770249 0.002513585 -0.010435982 0.0038191513 0.0011567735 -0.030212274 0.013393049
-0.006044818 0.006733793 0.007636826 0.023660727 0.013088778 0.009695803 -2.3087014e-05 0.008492143
0.023902511 0.022205848 0.041399073 0.026638253 0.04557293 0.048510376 -0.028734468 0.0356776
-0.055011705 -0.025744474 0.03274117 0.02277482 -0.00030658892 -0.017277839 -0.019417217 0.029467553
-0.009791773 0.034803562 0.0025020896 -0.014945584 -0.0060643945 0.02150502 0.026670555 0.023662828
-0.04020187 -0.015701966 0.030007115 0.014641841 -0.00936966 -0.019438658 0.015385326 -0.021106321
0.024895787 -0.012607213 0.015278263 0.0138527565 -0.018824307 -0.022549206 -0.027559044 -0.041603714
0.028251158 0.014259994 -0.037245166 -0.012370809 -0.018351343 0.033004686 -0.02186286 -0.012841018
0.010454317 0.027800454 0.031563193 0.001078704 0.007448186 -0.040844873 -0.016595969 -0.029427016
-0.0089110425 0.022083389 -0.023118218 -0.00145143 -0.04286194 0.024131797 0.029770236 -0.033502672
0.04571794 0.03066478 -0.017939692 -0.025399705 0.0086486265 0.025019217 -0.034082785 -0.026988344
-0.020456767 -0.027759673 0.0050680726 0.026233433 0.018419705 0.028641982 -0.048309814 0.016788576
0.04040683 -0.004370075 0.009816864 -0.03888544 -0.010393061 -0.026134629 0.029637782 0.046579063
-0.04662805 -0.001768498 -0.017128725 0.01100901 0.015002626 -0.012968542 -0.055860497 -0.0018595309
-0.030072907 0.013196048 0.010144264 -0.020658141 0.03664621 0.04570791 -0.0066426755 0.014932289
-0.0186722 -0.035615727 0.02625697 -0.014628402 -0.006530373 -0.024453368 0.041987933 0.0209746
-0.047355812 -0.019427497 0.021247571 0.009993199 -0.006458929 -0.01709662 0.011208145 0.027045412
-0.005877538 -0.017185008 -0.011334568 0.00057307497 -0.01918403 0.0035461122 -0.013156848 0.032745
00000000: 1ff2 9ab9 2e9c 0d3c b7fa 333b fd95 aebb
00000010: 72d4 943c 2ae3 4fbb f386 b53c 4f97 463b
00000020: 4e35 6e3c c576 af3c 885b 063c c426 5bb9
00000030: 9c8e a6bb a858 02bc 73c2 903b 187e 703c
00000040: e264 6dbc a1e9 9e3c 7f39 7b3c 48a2 593c
00000050: 9859 d5ba 1d0a 603c 9986 ddbb e6e0 9c3c
00000060: 90f7 0bbb a918 063d 38d1 323c be29 183d
00000070: cb0e 70bc 8e44 573b fa96 17bc 192b 8fbc
00000080: 62fc c63c ae58 a0bc 5eee 8bbc b84f 61bc
00000090: 5c45 16bc 9dee 75bc c437 1abd 679f 9dbb
000000a0: aedf 8b3c 4e34 d33c b27a 06bc 9917 663c
000000b0: ccd6 f03b 66a7 46bc 54df 88bc d69c ad3c
000000c0: 19ba cabc 3e03 613c bb41 9abb c362 fe3b
000000d0: 34d7 8d3c d819 b9bc bbb2 513c f63d 943c
000000e0: cd55 6fbc f70c 993c c1dd cf3b deb7 90bc
000000f0: adab b93c dcc4 933b 9f35 013c c7ca dd3b
00000100: ea40 7a3b 253a ef3a 9cb8 0bba ccbf ef3c
00000110: 1991 93bc e3e8 a1bb 75f3 79bc 4187 bfb9
00000120: 2cc9 95bc 86fc 6e3c 6ece 9abc 6232 ce3b
00000130: cf29 7bbb 3cd1 8bbb ab0e 743c c251 6ebc
00000140: 0278 893b 333b 543c 5dde e1bc 0582 073c
00000150: c004 1c3c 5d88 ffbb 22cf 7b3c 43df 2c3c
00000160: 8a14 763c d53e 4e3c ccfa ea3b 1599 e2bc
00000170: cd95 cdbb 2d83 1cbb c6a1 a6bc 17af 14bb
00000180: 15d8 f03b 899b 11bc 491c 4f3b 31f2 6abc
00000190: dd55 4f3b 8865 e0bb 8570 5d3c c335 1f3c
000001a0: 2c04 413c ce78 133c a30d 0d3c ea6a e23c
000001b0: c292 71ba 3462 b53c 771f a039 849b 9b3b
000001c0: 81ed 4fbc 2b65 fc3b f5ba 243b aefb 2abc
000001d0: ba4a 7a3b e19e 973a bb7f f7bc 856e 5b3c
000001e0: 9c13 c6bb 26a7 dc3b 573e fa3b 24d4 c13c
000001f0: 5072 563c 25db 1e3c fcaa c1b7 a122 0b3c
00000200: 33cf c33c 0ae9 b53c 1392 293d 7738 da3c
00000210: aeaa 3a3d d1b2 463d 8c64 ebbc ad22 123d
00000220: f453 61bd 13e6 d2bc 9b1b 063d 4292 ba3c
00000230: abbd a0b9 418a 8dbc db10 9fbc f065 f13c
00000240: ac6d 20bc 2e8e 0e3d 19fa 233b 53de 74bc
00000250: d4b7 c6bb 4c2b b03c 357c da3c 8cd8 c13c
00000260: b7aa 24bd 69a1 80bc 7bd1 f53c 55e4 6f3c
00000270: 3483 19bc d23d 9fbc bc12 7c3c 2ae7 acbc
00000280: 40f2 cb3c 7c8e 4ebc ae51 7a3c acf6 623c
00000290: 6f35 9abc 1db9 b8bc 81c3 e1bc a868 2abd
000002a0: f96e e73c c0a2 693c 638e 18bd efae 4abc
000002b0: 8e55 96bc ec2f 073d be19 b3bc 2263 52bc
000002c0: 9548 2b3c c7bd e33c 6848 013d 4d63 8d3a
000002d0: ea0f f43b f44c 27bd 45f4 87bc ed10 f1bc
000002e0: 9fff 11bc 39e8 b43c 6b62 bdbc e93d beba
000002f0: 0090 2fbd 0cb0 c53c b6e0 f33c 193a 09bd
00000300: bc42 3b3d b434 fb3c 43f6 92bc 0b13 d0bc
00000310: f8b2 0d3c 1af5 cc3c 649a 0bbd a916 ddbc
00000320: f394 a7bc 4168 e3bc 1312 a63b 7fe7 d63c
00000330: ece4 963c 97a2 ea3c 83e0 45bd 3288 893c
00000340: a281 253d d932 8fbb e9d6 203c 5746 1fbd
00000350: a847 2abc 4a18 d6bc efca f23c b0c9 3e3d
00000360: 0efd 3ebd f2cc e7ba 8a51 8cbc 225f 343c
00000370: 93cd 753c 027a 54bc facd 64bd 81bb f3ba
00000380: 755b f6bc 3d34 583c 2134 263c 433b a9bc
00000390: 561a 163d 3838 3b3d cdaa d9bb 8fa6 743c
000003a0: 71f6 98bc cce1 11bd db18 d73c f7ab 6fbc
000003b0: bdfc d5bb 6e52 c8bc 8afb 2b3d edd2 ab3c
000003c0: 2bf8 41bd 6a26 9fbc 630f ae3c 84ba 233c
000003d0: 6ca5 d3bb 360e 8cbc 5ea2 373c 578e dd3c
000003e0: 5d98 c0bb 93c7 8cbc a0b4 39bc 693a 163a
000003f0: d427 9dbc e465 683b d28f 57bc 9f1f 063d

action_model._discrete_distribution.branches.0.bias f4 [7]
0.010037764 0.016449524 0.014225683 -0.026543295 -0.015350262 0.005397004 0.0010179213
00000000: 6f75 243c 27c1 863c d712 693c 5371 d9bc
00000010: aa7f 7bbc 5ad9 b03b c56b 853a
