Assets/Hide and Seek/Brain/HiderBehavior_blindfold2.onnx (onnx, 199893 bytes, 6 tensors)

network_body._body_endoder.seq_layers.0.weight f4 [128, 249]
00000000: 6c22 cc3d fd0d ff3d db46 863d f656 8abd
00000010: 155f 7e3d 0191 983d a633 1e3d 16b0 363d
00000020: d7ef 923d 4573 483c e094 d13c 0485 453b
00000030: e5a4 c93a 0708 0f3d e8c5 b4bd c677 8b3d
00000040: 4023 b4bc d798 8c3d 0048 d03d aa7c cb3c
00000050: 1209 f53c d993 87bd d972 893a 2af2 a9bd
00000060: d737 77bd a837 4d3d 8981 3d3c 527d 613d
00000070: 8e49 10bd fa9a eebc 753c bd3c 3c91 c83c
00000080: 03f3 863d d4e3 9ebb 2776 19bd 8fca 4a3d
00000090: 3a5c 6bbc b973 6d3c 8fb9 b5bd 4b68 3fbd
000000a0: 38cc f7bc 0d7b 13bd b2a4 42bd 5069 3fbd
000000b0: 78bb 01bd d80d 9bbd 1e3f 4ebd c799 903d
000000c0: 7741 b53d 158a b3bd 0dcf ca3d be98 5bbd
000000d0: f7c1 363d ae1e 3c3d 8af6 f5bc ef76 073d
000000e0: e905 2dbd ffda 233e 6abe fdbd 746b 3c3d
000000f0: 5141 703d 6624 bc3d b9a1 623a 6009 02be
00000100: 0381 243d 6108 c03c c0ac debc 23a6 bd3c
00000110: 742b 04bd d411 1f3e fd9a 1e3e 01e6 ad3c
00000120: 3b6d 433e a9b2 c0bc 71b8 5ebd 8e31 d43a
00000130: e0b3 3b3e ee2a dabc aeb7 f1bd 363b b33d
00000140: 7766 dabc 58e6 13bd 3cea af3d 5bfb 9dbd
00000150: 0a45 f43d 0235 82bd 6fa0 f8bc 38b7 10bc
00000160: 9669 563d 2002 503d 266d 62bc 6763 8e3d
00000170: 3d53 68bd 7541 843d 1a5b a4bd 5016 273d
00000180: 6001 87bd 9ecb e33d 53a4 573d b153 203d
00000190: 46ef e1bc af4d bb3d c319 a4bd 2bf6 77bd
000001a0: fb4f 27bd 3504 af3d 4593 493d f2f9 c0bc
000001b0: 3a7a 80bd d0d9 94bd 0060 c53d 5ba5 26bd
000001c0: 1fcc 203d 3c81 90bd a470 9c3c d0bf 783d
000001d0: 2cfe 1ebd 616f 2c3d edcc 893d 8152 c2bd
000001e0: cbd6 593c 223f 9c3c 33c2 93bd 815c 4dbd
000001f0: 0da8 8b3b c129 633d 5b7f 7abd 1789 2a3d
00000200: 0dee a73b c912 9cbc 531f 1ebd e111 833b
00000210: 1f6b b1bd efcf 843a 3420 93bd 21ec c5bc
00000220: a988 86bd bdb8 113e f139 213d f2d0 ba3c
00000230: 259a bfbd 8f02 c2bd 6faa 0a3e 4f10 623c
00000240: a91f aebd 92a8 52bd 05d7 f4bd 6125 1c3e
00000250: 2d77 933c 3d2f 4abd 2e79 bdbc f24f 693d
00000260: f22b c23d 7ab6 51bd d455 073d b7dd 0abe
00000270: 2f50 96bd 2225 473d b4b6 b9bc ffbd 803d
00000280: 7c0f c33d 1d7a 00bc 46f8 e9bc be86 a23c
00000290: dea1 393d 70b6 153c 2d49 693d c1b7 02bb
000002a0: 4aca 2abd 7f84 213e d6a4 543c 51bd 93bd
000002b0: 70df 343b f915 01bc 5641 1d3e 54cd aa3d
000002c0: 18d2 383d eb7c a8bd 034e ae3d 9d5c 883c
000002d0: b4b7 033d 301b 09bd d7bb c83c 6ba1 72bd
000002e0: d11d 383d 2445 833c cc63 6f3d 7a23 e53c
000002f0: 95c4 9e3d fc9a 9fbc b12d 3fbd 4785 11bc
00000300: 23c2 933d 81df 06bd e26f f9bd c7fd 493d
00000310: fe9f 903d 7200 0b3d 8a32 cf3c 74bd 85bd
00000320: 8efa ae3c 7fc8 993d 2dcc fbbd 1473 fc3c
00000330: 5f2a 5dbd 17ba 93bd 5e2a 2b3d 8225 bcbd
00000340: bcc9 b73d 71e9 b0bd b442 88bd fcd3 e5bd
00000350: ffd1 873d ed2e a5bb c50e 99bd 5426 1f3b
00000360: fe1a 553a 5a25 04bc 54a0 ddbb 67e9 d6bd
00000370: fad4 b33c 3a3c 70bd 5573 003e 745e 9e3a
00000380: e158 853d d659 813d 6f3e e6bd 9a89 323e
00000390: 1c0f df3b f946 8fbc 374c 3abd adf9 f33b
000003a0: 95a5 f53b 9b48 993c 2db2 4abc 6cf1 593d
000003b0: 7638 0bbd 559c 05bd e49a 933d 8abb b63d
000003c0: 9996 24bd 2255 0a3d b9db 80ba 7a54 e2bb
000003d0: 7ec8 863b 3f4c aa3d b37f 303d 87aa 0fbd
000003e0: f133 163d d74d 03bd 9b50 143b 4081 75bd
000003f0: d4bd 683d 22ed 0a3d 8df9 1b3d 02cc 9f3d
0.09967503 0.1245384 0.06556483 -0.06754868 0.062102396 0.07449532 0.038623475 0.044601522
0.07174652 0.012234514 0.025583684 0.0030139098 0.0015384225 0.034919765 -0.0882681 0.06809954
-0.021989465 0.068650894 0.10169983 0.024839718 0.029911552 -0.066199966 0.0010486498 -0.08298142
-0.060355987 0.050101906 0.011566528 0.055051155 -0.035226397 -0.029126633 0.023100117 0.024483316
0.065893196 -0.0048489366 -0.037466194 0.04950958 -0.01436525 0.014492922 -0.08873283 -0.04673032
-0.030248746 -0.036006022 -0.047520347 -0.046731293 -0.031672925 -0.07571 -0.050353162 0.07060581
0.08850377 -0.087665714 0.09902773 -0.053612463 0.044618573 0.045927696 -0.030024786 0.03307241
-0.042241964 0.16001509 -0.12389834 0.046000913 0.05865604 0.0918663 0.00086453144 -0.12698889
0.040162098 0.023441495 -0.027181983 0.02315051 -0.032268003 0.15534145 0.15488811 0.021227838
0.19084637 -0.023522692 -0.054375116 0.0016189085 0.18330336 -0.026631799 -0.11802612 0.08751528
-0.026660187 -0.036108345 0.085895985 -0.07713958 0.11927231 -0.06357767 -0.030349938 -0.008832745
0.05234679 0.050783277 -0.013819968 0.06952553 -0.056720007 0.064577974 -0.08025189 0.040792763
-0.06592059 0.11122821 0.052646946 0.039142314 -0.027579915 0.09145676 -0.08012726 -0.0605375
-0.04084776 0.08545724 0.049212713 -0.023556683 -0.06273313 -0.07268107 0.09637451 -0.04068504
0.039257165 -0.070558995 0.01909668 0.0607298 -0.038816616 0.042098407 0.067285396 -0.094883926
0.01329584 0.019073073 -0.07214775 -0.050137047 0.0042619766 0.05545974 -0.061156612 0.041634645
0.0051248134 -0.019051926 -0.03860409 0.003999934 -0.0866301 0.001013277 -0.07183877 -0.024160447
-0.065690346 0.14230628 0.039361898 0.022804711 -0.093555726 -0.09473144 0.13541578 0.013797834
-0.085021324 -0.051430292 -0.11955074 0.15248634 0.018001163 -0.049361456 -0.023129072 0.056961007
0.09481038 -0.051199414 0.033040836 -0.1356114 -0.073395126 0.048619397 -0.022670127 0.06286239
0.09524438 -0.007841614 -0.028560769 0.01983964 0.045320384 0.009137735 0.05695455 -0.0019945952
-0.041696824 0.157732 0.012978753 -0.072138436 0.0027599 -0.007878774 0.15356955 0.083399445
0.045122236 -0.08226951 0.08510973 0.016645724 0.032157615 -0.033473194 0.024503632 -0.05923597
0.04495031 0.01602418 0.058444783 0.027971018 0.07752339 -0.019483082 -0.046674434 -0.008881873
0.07214763 -0.032927994 -0.12179543 0.049314287 0.07061766 0.03393597 0.025292654 -0.06530276
0.021359708 0.07508945 -0.12294803 0.030816592 -0.053995486 -0.07213228 0.04178845 -0.091868415
0.08974025 -0.086382754 -0.066533476 -0.112220734 0.066318505 -0.0050409944 -0.0747352 0.002428432
0.00081293273 -0.008065546 -0.0067634974 -0.10493737 0.021952141 -0.058651187 0.12543996 0.0012082593
0.06511093 0.06315963 -0.11242377 0.17435303 0.006807221 -0.017489897 -0.04548284 0.007445535
0.0074965456 0.018711379 -0.012371582 0.053208753 -0.033989392 -0.032619793 0.072072774 0.08922489
-0.040182684 0.033772595 -0.0009831107 -0.006907043 0.004113256 0.08315324 0.043090533 -0.035074737
0.03667063 -0.032056656 0.0022631052 -0.059937716 0.05682166 0.033917554 0.038079787 0.07802583

network_body._body_endoder.seq_layers.0.bias f4 [128]
00000000: fe65 a73c ff4b b23b 95ce b03c 237c 033d
00000010: d4df 053d 29b1 fa3b ffc6 92bc 792d 313d
00000020: c06f bbbb 2010 543c 3e06 e03c 8ee8 19bd
00000030: e493 f73b b189 853c 360a b43b 1580 603c
00000040: 0354 fbbb 7fab 9e3c 4ee2 613d 63cd cc3c
00000050: 0ff7 bfbb 56d9 453d 3325 8a3a 88d7 f93c
00000060: 878e 7a3c 0b7c 433b 2982 063d 18e8 dd3c
00000070: dd98 ce3c f63c 813c 4aeb 483c b22c cb3c
00000080: dd77 863c 7117 e63c 36cb dd3c c667 eb3c
00000090: 7e91 323d 19ae 593d 9f5e 793c d276 173d
000000a0: a0e8 313d 2da0 9b3c 6444 fa3a fb55 c9bb
000000b0: f232 583c de7e 6b3c 939d 54b8 1625 2c3d
000000c0: 8e98 363d b7b8 233d e2b7 473a fac1 bd3c
000000d0: cfaa 05bc 4602 c93c 93dc 3b3d 1a6f d33c
000000e0: 0c83 b83c fee4 4e3d 3a95 0ebc 4e0d 1a3c
000000f0: 40d0 133d 9a6c 943c f5de 073d cbe8 54ba
00000100: 136e c03c 9c47 063d 6141 5a3d 5a83 e63c
00000110: ed2b 323d 05c8 4e3d 9529 013d 3874 d1bb
00000120: 195b fb3c 8122 8e3c 323a b43c c6c1 adbc
00000130: b230 4f3d d31a d53b 7ef9 633c 1375 2dbc
00000140: fe74 cd3c f2d1 303b 77ed a73b 6571 c4bb
00000150: 1881 383d 68fd b83c ce5d e239 f795 243b
00000160: 7e3e df3c 7263 bf3c a912 403d 924b 223d
00000170: 4bc1 093d 0045 143d 3e74 a23c b124 233d
00000180: 4b6c 823c a5d4 0f3c c8e3 c93b d165 233d
00000190: 33fb 083d 4036 803b e7bf e93c 9597 983b
000001a0: 2339 e03c 78bd af3c 9ac6 8abb 19ee b33c
000001b0: 5cbd 2d3d 4276 413d b5ba bb3c 80ee be3b
000001c0: 1dde 1e3d 6394 3e3d 8451 833c 0b99 3a3c
000001d0: 7ae0 a23c d01d 45bb 11a1 6f3c e1bd a33c
000001e0: 298e f73c 0809 0cba 4c27 803c 2543 5e3c
000001f0: 0b99 813b aa84 303d 2d18 593b 0d4d 383d
0.020434376 0.0054411883 0.021582881 0.032100808 0.032684162 0.0076505137 -0.017917154 0.043256257
-0.0057201087 0.012943298 0.027346727 -0.037575297 0.0075554717 0.016301008 0.0054943813 0.013702412
-0.007669927 0.019368885 0.05514746 0.02500028 -0.005858309 0.04830297 0.0010539651 0.030498281
0.01529277 0.0029828574 0.032838974 0.02708821 0.025219375 0.015776139 0.0122631285 0.024801586
0.016414577 0.02808735 0.027074438 0.028736006 0.043595783 0.053144548 0.015220313 0.03697855
0.04343474 0.018997276 0.0019093868 -0.006144283 0.01319574 0.014373509 -5.069149e-05 0.042027555
0.04457908 0.03997108 0.0007618648 0.023163784 -0.0081584 0.024537217 0.045864653 0.025809813
0.022523426 0.050511353 -0.008702571 0.009402586 0.036087275 0.018118192 0.033171613 -0.0008121847
0.023489987 0.032783136 0.053285006 0.028138805 0.043498922 0.050483722 0.031533796 -0.006392028
0.030683087 0.017350437 0.022000406 -0.021210562 0.05058355 0.006503442 0.013914464 -0.010586995
0.0250802 0.0026980606 0.0051247436 -0.005994963 0.04504499 0.022581771 0.0004317597 0.00251138
0.027251478 0.023362849 0.046892796 0.03962285 0.033631604 0.036198616 0.01983082 0.039829914
0.015920779 0.008778726 0.006161187 0.03989202 0.033442687 0.003912717 0.028533889 0.004656742
0.027370995 0.02145265 -0.004235101 0.02196412 0.042416915 0.04723192 0.022916177 0.0058267713
0.038786042 0.04652823 0.01603008 0.011389027 0.01988243 -0.0030077584 0.014625804 0.019988002
0.030219154 -0.0005341922 0.015643738 0.013565813 0.0039550117 0.04309527 0.0033125982 0.044995356

network_body._body_endoder.seq_layers.2.weight f4 [128, 128]
00000000: 4cd4 eabb 1468 e43c 8cbc 05be 78a7 623c
00000010: 3ab9 a83d 8be7 4fbe 76e1 64be 53c4 59bd
00000020: 7b7a 6e3d 7443 653d 5915 60bd d715 1cbc
00000030: cf3c d63c 72d8 393d 5b8a 923d f938 413d
00000040: 108c 00be 368a d23d 7b3f 313e 3731 99bc
00000050: ccf6 b6bc 0026 9c3d da43 1abd a82d a3bd
00000060: d3b7 a2bd 73b5 8ebd 58f1 0b3e 3bac 5ebd
00000070: d5b4 d83c ee0b b33d c62b 6dbd 0fa6 913d
00000080: 1a09 f23c 1b87 ac3d 47ff 893d 124b c0bc
00000090: a73f 773e 7112 843d c391 89bc 7578 173c
000000a0: 8447 afbd 669d 103e 400f 203c 8aa9 79bd
000000b0: 19db da3d 39a8 11be 2b3b 423d aebe 2dbe
000000c0: 07a9 2b3e 9068 133d 967e 16be 0ad2 413e
000000d0: edcc 6e3d cf58 19bc 27b1 103b d4ba 013c
000000e0: 868b 993d e79f 243d e950 483c 2eb7 82bd
000000f0: 3375 073d db3b a1bc 972d 1c3e 2e0c d5bc
00000100: 8077 3bbd b51f a23d 0a53 813d 2297 ce3d
00000110: c4e3 de3d 5217 b2bd 3b2c 583e 3863 5cbd
00000120: 75f7 c33d a09f a23d 0c9a 3c3e 2805 cc3d
00000130: 05af 2c3d 6fa1 edbd 86d0 ddbc 4f13 b4bc
00000140: 4cc7 113d 831f 553d d185 f2bc 5768 a7bd
00000150: c414 013d db32 c53c 897b 20bb e905 873d
00000160: ecdb 49bb 1a24 cebd 3de9 443e 9551 303e
00000170: b101 6d3d 1edf 083b 9c5e 90bd 5e6f c03d
00000180: c09f 1bbd 6756 2ebb 23cb 1a3e 157a 95bd
00000190: fa35 023e f8f9 a93b 9bf2 803d d720 29bd
000001a0: 0ea1 103e e58a f5bc fbfe 9abc 35e4 87be
000001b0: 207b d23d c072 193c 7783 fc3c 084a 88bd
000001c0: 179a a4bd 137e e53d 957d 3b3c 09dc 16be
000001d0: a36b 19be c917 62bd ca0c f33d 1e40 e7bc
000001e0: 411f 9fbd ce68 20be 1a25 10bd a499 63bd
000001f0: 2060 b63c f3bc b93d 54e6 f73c b65e 0a3e
00000200: 72cc b43d 9976 fabd 6f49 aa3d d755 153e
00000210: 38b7 c7bd 21e9 32bd 8967 30be c2db c53d
00000220: 979d ed3d 3ccf 6e3d e685 2f3e e1e3 5d3d
00000230: 0cdd 08bc 32e1 07be 9a1d ae3c ee1d 1e3d
00000240: 999b 36be 887b 16bd 9389 793c 1d98 fbbc
00000250: 11aa f9bd 625a a8bb a986 e33d 778b 223c
00000260: dfe2 b33d 288c c9bd dd67 1f3e 0b2e ab3a
00000270: 5743 82bd 141e 1d3c 4141 89bd 9f12 abbd
00000280: 68c8 87bd 41f2 4e3d 5e78 2639 e2e8 22bd
00000290: a070 5bbd 284a e83d 72ee ab3c 978a 80bb
000002a0: cf41 32bd ebcd ac3d 3196 42be 3336 36bc
000002b0: 9499 843d 524e bf3d 4b62 093e 1901 83bc
000002c0: c5f2 093e d684 da3d b3e8 593d d3a1 683e
000002d0: a2e6 76be b759 1f3d b831 92bd a55b a8bc
000002e0: dfa5 aa3c d96e 093d c8e4 9a3c 3b9e d03d
000002f0: b7a5 033e 68ca eb3d 1903 643d f54a 23be
00000300: 8666 f3bc 621d bcbd 702a b8bb 0a9d 04bd
00000310: d48a 99bd 96d2 02be 191a 243e fa20 ce3d
00000320: 1251 773e e028 00be 4fc8 1f3d ae3c 0fbe
00000330: d0c4 6c3b 75e7 10be 2aad 85bc 993d 80bd
00000340: d512 92bd 3cb9 743e 41c2 4a3d 9b09 31be
00000350: 01d1 10be 5eef 19bd 49fa c83d c2e8 3fbd
00000360: 9f6d f8bd 626e 233e bbdb cbbc 1578 d63d
00000370: b790 e43d 790d c4bd 75e4 8a3d 4234 fdbd
00000380: d8cb e43c c615 c7bd c35c 163e 5e60 563d
00000390: d27f 09bd c990 bdba 1308 953d 1789 cfbd
000003a0: ddfc fabc babc 013e 0636 f8bc e26f d03c
000003b0: 3d55 85bc 1497 25be e5f1 ad3d df95 c03d
000003c0: bbd9 10be 2fed dd3d cbd4 623d ab81 d2bc
000003d0: 6606 92bd ea86 433d c83c 243c 1895 3abd
000003e0: f180 6cbd 0230 703d 7bfd a93b 1519 5abe
000003f0: bb23 ba3d b8cc dd3c 8144 0f3e aed2 d1bb
-0.007166421 0.02788166 -0.13060206 0.013833873 0.08238454 -0.2030317 -0.22351632 -0.053165745
0.058222275 0.05597253 -0.05470786 -0.009526691 0.026152043 0.045372434 0.071552955 0.047173474
-0.1255343 0.10280268 0.17309372 -0.018700225 -0.022334479 0.076244354 -0.037662365 -0.079676926
-0.07945218 -0.069682024 0.13666284 -0.05436347 0.026453415 0.0874251 -0.057903074 0.07111751
0.029545356 0.08424207 0.067381434 -0.023473296 0.24145375 0.0644883 -0.016793137 0.009245028
-0.085585624 0.14122543 0.009769261 -0.0609527 0.10686321 -0.14224328 0.04741971 -0.1696727
0.16763698 0.03598839 -0.14696726 0.1892778 0.0583009 -0.0093595525 0.0022078247 0.007918078
0.07497315 0.040191557 0.012226322 -0.06382595 0.033070754 -0.019681862 0.15251766 -0.026006784
-0.04576826 0.07916204 0.063146666 0.1008742 0.108832866 -0.08695854 0.21110623 -0.05380556
0.09568683 0.07940602 0.18418139 0.09961921 0.0421591 -0.11603057 -0.02707697 -0.021981863
0.035590455 0.052032005 -0.029604824 -0.08174198 0.031513944 0.024072101 -0.0024487695 0.06592924
-0.003080125 -0.100654796 0.19229598 0.17218621 0.05786294 0.0020884941 -0.07049295 0.093962416
-0.037994146 -0.0026601793 0.15116553 -0.07298676 0.12715903 0.0051872693 0.06296273 -0.041291084
0.14123937 -0.029973457 -0.018920412 -0.26541296 0.102773905 0.009365737 0.030824406 -0.06654745
-0.08037203 0.112056874 0.011443515 -0.14732374 -0.14982466 -0.055198465 0.11867674 -0.028228816
-0.07769633 -0.1566498 -0.035191633 -0.055566445 0.022262633 0.09069242 0.030261196 0.13512692
0.08828057 -0.12229652 0.083147876 0.14583527 -0.09751743 -0.04367936 -0.17226996 0.09661056
0.116023235 0.058303103 0.17140922 0.0541724 -0.008353483 -0.13269499 0.02125435 0.038602762
-0.17832793 -0.036738902 0.015230554 -0.030712182 -0.12190641 -0.0051377276 0.11109669 0.009920946
0.087835066 -0.09841186 0.15566964 0.0013059987 -0.063605 0.009589691 -0.06701899 -0.08353161
-0.06630021 0.050524 0.00015875834 -0.039772876 -0.053574204 0.11342269 0.020987723 -0.003922771
-0.04351979 0.08437713 -0.19002606 -0.011121321 0.06474605 0.0934111 0.13416402 -0.015991734
0.13471515 0.10669868 0.053200435 0.22717981 -0.24111417 0.038903918 -0.07138389 -0.020551512
0.020831047 0.03355298 0.01890792 0.1018643 0.12856184 0.11513215 0.055667017 -0.15946563
-0.029711973 -0.09185292 -0.0056202933 -0.032376327 -0.074971825 -0.12775645 0.1602558 0.100648835
0.2415202 -0.12515593 0.03900939 -0.13987991 0.0036128052 -0.14150794 -0.016317923 -0.06261749
-0.07132498 0.23898786 0.04950166 -0.1728882 -0.14142229 -0.037581794 0.09813363 -0.046852835
-0.121302836 0.15960076 -0.02488505 0.104721226 0.11160415 -0.09572882 0.06781856 -0.12363483
0.027929232 -0.0972095 0.14683823 0.052337997 -0.033569165 -0.0014462705 0.07276931 -0.1013357
-0.030638153 0.1266965 -0.030299198 0.025443975 -0.016275996 -0.16170913 0.08493403 0.09403586
-0.14145558 0.10836255 0.055378716 -0.025696596 -0.07130127 0.047736086 0.010024257 -0.045552343
-0.057740156 0.058639534 0.005187688 -0.2129863 0.09088846 0.027075157 0.13990976 -0.006403289

network_body._body_endoder.seq_layers.2.bias f4 [128]
00000000: 6fdb 443d 8a1c 1a3d 4734 913c 2bcd a13c
00000010: 0422 133d 5398 123d 3e31 1f39 c3c3 b23c
00000020: a295 7a3c 7da2 403d 266e 653d d144 df3b
00000030: fb41 6c3c 41db ff3c 0e0f 99ba 8e44 ec3c
00000040: f8c3 3d3c 38c8 ff3c acb4 8abb 2f13 a43c
00000050: dcff 243d 4d0e e838 1573 203c 727f 6abc
00000060: 6ca4 b73c 194f c83b 8ae4 143d 6f55 a93c
00000070: e405 5b3c e234 113c 3350 bf3c 8748 863d
00000080: 7d55 a23c 19c6 143b 44f3 613d 741f 8c3c
00000090: 49e2 c13b 66e5 05bb 35a4 16bb 14f2 dc3c
000000a0: 4e13 fc3c ee85 463c 52f6 763c 3f60 f43c
000000b0: dd92 f5b9 8979 5b3c 4035 e9bb 7ff6 9e3c
000000c0: 7c1d f8ba 7c7a 6e3c c3cb 4c3c 7ece d83b
000000d0: e39c ee3c 6e2e 473c 6ce4 69bc de6d 513c
000000e0: 8abc 573c d2f8 863d de4d bf3c 1feb ce3b
000000f0: 4d06 8d3c 1fc2 43bc 4743 3a3c bc43 523d
00000100: 6388 c2ba dcec a0b9 5e6e b53c d3a7 073d
00000110: 4ae1 25bc c254 8b3b 5ef7 e13c e385 da39
00000120: d67e a9b9 ecf6 8f3c 265b 003c c7c1 893c
00000130: 0026 5abb 95d3 523c 753b 123c b86d 363c
00000140: d9ca ba3b f19d 283c a05a ce3c cb3d e63c
00000150: 6e0e 943c 07e1 2f3c bf9a 093c abe1 40bc
00000160: cb9e 863c 1774 a3bb 293f 7f3c 97aa 2a3c
00000170: e07b 483c 1b96 143d 4a30 013d 5fa9 c33c
00000180: 7e42 ce3c 01ad c73c 1df0 093d 89e5 f43a
00000190: 15ab 59bc 2386 8d3b 2d79 f43a ab26 b93c
000001a0: 87c8 873c 386b 223c 5935 093d 7a99 803c
000001b0: d171 293d 9b79 a2bb 4ada 013d b925 083c
000001c0: b1e6 463c d155 6d3a 9328 133d 6fa6 be3c
000001d0: 66c6 cb3c 79dc e83c d0b0 813c 140b bd3a
000001e0: 5754 623c bfe4 c73c bed2 213c d683 0f3d
000001f0: b5f1 f73c fef1 ef3c be3c 1d3c 3c5d 98bc
0.04806083 0.037624873 0.017725123 0.019751152 0.03592111 0.0357898 0.00015181766 0.021821862
0.015294464 0.04702996 0.05601325 0.0068136235 0.014420028 0.031232478 -0.001167746 0.028841283
0.011582367 0.031223401 -0.0042329635 0.020028679 0.04028307 0.00011065286 0.009793063 -0.014312612
0.02241727 0.006112945 0.036350764 0.02067062 0.013368104 0.008862706 0.023353672 0.06556802
0.019816155 0.0022701083 0.055163637 0.017104842 0.005916868 -0.0020430922 -0.0022986059 0.0269709
0.030770924 0.012116892 0.015073376 0.02983105 -0.00046839463 0.013395675 -0.0071169436 0.019404648
-0.0018929685 0.01455557 0.012499752 0.0066164127 0.029127544 0.012157066 -0.014275651 0.012782542
0.01316751 0.065904275 0.02335256 0.0063146497 0.017214919 -0.011948138 0.011368579 0.051334128
-0.0014841672 -0.00030694052 0.022147354 0.033119034 -0.010124514 0.0042520473 0.027583774 0.00041679954
-0.00032328692 0.017573796 0.0078342315 0.016816033 -0.003328681 0.012867828 0.0089253085 0.011134557
0.005700451 0.010291562 0.025189698 0.028105637 0.018073287 0.010734803 0.008398711 -0.011772553
0.01643314 -0.004988204 0.015579023 0.010416648 0.012236565 0.036275964 0.031540193 0.023884473
0.02517819 0.024374487 0.033676255 0.001868413 -0.013285418 0.004318969 0.0018651836 0.022601446
0.016575111 0.009913258 0.033498142 0.015698183 0.04136831 -0.004958344 0.031702317 0.008309775
0.012139962 0.000905362 0.035927366 0.023272721 0.024874877 0.028425442 0.015831381 0.0014422857
0.0138140535 0.024401067 0.009876905 0.035037838 0.030266622 0.029290196 0.009597002 -0.018599145

action_model._discrete_distribution.branches.0.weight f4 [7, 128]
00000000: a860 baba 8b08 f73a ce93 953c d383 4abc
00000010: 33b7 8dbc d2c9 05bc de03 0dbc 85fd f3bc
00000020: b53e cebb 6dc1 d7bc ae4b 1bbc e2ad 373b
00000030: ec9b b1bc cda8 f3bc c657 fc3b 6d01 cabb
00000040: 5920 c2bc 855d 093d 7bce 893c 3cfc 2fbc
00000050: 9348 b7bc 07ec 0e3d d473 f83c b660 3d3c
00000060: 6cb7 b4bc 4403 8c3b 3829 943b abc7 1dbc
00000070: 019b f23b 421d c3bc 4ae6 1fbc cdd6 22bd
00000080: 9e0b 02bb 78c6 91bc 3de0 c6bc b546 66bc
00000090: 4aca c73b a952 7e3b 1db4 c0bc e0bf 4fbc
000000a0: eef0 01bd a120 a9bc 58a2 8fbc 1e27 f13b
000000b0: 584f bb3a 1844 c13c 2e8d 833c fb4f 5c3c
000000c0: edeb 0e3c b5cc 1d3c 0b28 853b b37c 1a3c
000000d0: a745 6abc 9bf3 e6bb a9d7 2d3c 5b57 3b3c
000000e0: 592e 1e3b 5b7c 55bd f3c5 babc a97b 91bc
000000f0: c5e0 67bc b5be 033d e516 d93b be73 40bc
00000100: f82f 723c dd60 853c 4e96 0bbc 3fac 99bc
00000110: 010f a53c 428b a13c fbbd 48bc 65d0 1d3c
00000120: 77d5 96bc 27f7 f3bb 7749 16bd 68be 9eba
00000130: 657d 93bb 352b 2f3b 9788 dfbb 50cd 803b
00000140: b9fd a8bc 91e3 703c 4e99 c1bc efef 9bbc
00000150: c780 c6bc 325f bbbc 0db7 3dbb 22b1 6c3c
00000160: 4caa 82bc 8456 f33b 64ce aabc b523 88bc
00000170: dcbc 273d 86d9 aabc f89c 45bc ebc3 cabb
00000180: 5db6 6dbb b0c2 46bb 3aba ddbb 1420 03bc
00000190: 7cd7 aaba 4114 cc3c b18c 013c b2eb b6bc
000001a0: ff59 cfbc 3002 6f3c 4aea f3bc df6e 193c
000001b0: 9bfb 7ebc 2c1d b0bc 0eac 203c dda0 b23c
000001c0: 0d37 093c b4e7 36bc d3bb 853c 44d1 51bc
000001d0: 976c 51bb c4fa f0bb 3fb3 a63b c672 993c
000001e0: f7cb abbc 606b 85bc 2fb1 4cbc bc41 d338
000001f0: 03ec 99bc 2e83 bfbb 2745 ca3b 11a2 ba3c
00000200: 832e c1bd ed98 87bd 8477 33bd 076e b33c
00000210: b9c3 b53c 146e 913c f76b 8b3c 7329 b7bc
00000220: 3d39 7fbc 4449 d6bd 167e dcbb e5f0 0fbc
00000230: 8de1 d23c e5ef 44bc 940d 803c 240e 5dbd
00000240: dac3 473c 7e1a 2ebd 45e4 223c bb8d 59bc
00000250: de29 8dbd 93c0 b03c 661b d4bc 357b eb3a
00000260: 611c 2dbd 27ec d13b 2887 813c 5cf1 1d3c
00000270: ed8a 0dbc 5aba 233d 7745 023d 41a3 66bd
00000280: ac61 dcbc 5561 4d3d 7d19 86bd d991 95bc
00000290: 10c2 eb3c ef2d b83c 8f5c 4b3c ac83 183d
000002a0: e7af e9bb b510 123c f6c2 a1bb 471c d83c
000002b0: b71e ea3b 69cf ccbc 28ed b43c 52be 01bd
000002c0: 96e9 5dbc a884 db3c 083b d9bb 7613 503c
000002d0: 20af 18bc 0403 18bd 0040 4ebb 2cd2 27bc
000002e0: 5c3b 583c 07ce bebd a8e7 10bc 2b17 f83c
000002f0: c511 6fbc 975b c3bb 9bae 28bd 4107 ffbd
00000300: 6638 d5bb be25 d0bb 6760 05bd 0f4f 46bc
00000310: 357e d13b 6674 0abd 244a c43c 2c14 83bc
00000320: 88cf db3c 0000 6f3d 952c 133c 15e1 0fbd
00000330: 57a8 283d 6367 f03c ae4e 88bc 48a1 b8bc
00000340: 6e7f 4dbc d490 a83b 5078 e4bb 7b53 01bc
00000350: 105e 18bd d312 d73a fbe4 233d 7f58 a73c
00000360: f465 833d 3e21 ca3c 6e60 b2bc 5ebd b53c
00000370: c3f4 03bd 82be f2bb 0e70 0a3d ee9d dbbc
00000380: bb10 853c 415c 4dbc 5138 d73c dd35 e93c
00000390: 8c70 f43a 0f7f 13bd cc40 de3c ff26 83bc
000003a0: 25eb 103d ee58 9dbc a701 843b 1f0e 21bd
000003b0: fc33 04bc 14cb 053d 782f 87bd 1797 58bc
000003c0: f4d2 dcbc 191f 413b 54d0 22bd 8b36 4c3d
000003d0: 5a90 083d b675 97bc 2edd 4bbd 24fc 0c3c
000003e0: f498 733d 28b4 043d 030d 2aba 443a 89bd
000003f0: f368 fdba 2dad edbc 72ab 003d 13c9 c9b9
-0.001421948 0.001884715 0.018258955 -0.012360531 -0.01729927 -0.0081657935 -0.008606879 -0.029783973
-0.0062940964 -0.02633735 -0.009478493 0.0028027226 -0.021680795 -0.029743576 0.007700893 -0.0061647207
-0.023697065 0.033536453 0.01682209 -0.01074129 -0.022373473 0.034893062 0.030328669 0.011558702
-0.022060119 0.00427285 0.004521515 -0.009630124 0.007403732 -0.023817662 -0.009759495 -0.03975563
-0.001984335 -0.017794833 -0.024276847 -0.014054944 0.006097113 0.0038806594 -0.023523385 -0.012680024
-0.03172391 -0.020645441 -0.017533466 0.0073593995 0.0014290614 0.02359204 0.01605853 0.013446803
0.008723241 0.0096313255 0.0040636114 0.009429145 -0.014298833 -0.007048083 0.010610499 0.011434401
0.0024136512 -0.052120548 -0.022799468 -0.017759161 -0.01415271 0.032164294 0.0066250437 -0.011746345
0.014781944 0.01628154 -0.008519722 -0.018758891 0.020148756 0.019719724 -0.012252326 0.009632205
-0.018412335 -0.0074452343 -0.036691155 -0.0012111189 -0.004501032 0.0026728634 -0.0068217027 0.003930725
-0.020628797 0.014702694 -0.023632672 -0.019035308 -0.024231328 -0.022872541 -0.0028948218 0.014446529
-0.015950345 0.007426085 -0.020850368 -0.016618589 0.040951595 -0.020855676 -0.01206135 -0.006187906
-0.0036272027 -0.0030328445 -0.0067665847 -0.0080032535 -0.001303419 0.024912002 0.007907079 -0.022329185
-0.025311468 0.014587924 -0.029774804 0.009364813 -0.015562917 -0.021498285 0.009806646 0.021805221
0.008374942 -0.011163641 0.016324913 -0.0128062405 -0.0031955594 -0.0073541123 0.005087286 0.018731486
-0.020971281 -0.016286552 -0.012493416 0.00010073508 -0.018789297 -0.0058444953 0.0061727944 0.022782357
-0.094326995 -0.06620965 -0.04381515 0.021903051 0.022188054 0.017752685 0.017019255 -0.022358632
-0.0155776115 -0.10463193 -0.006728898 -0.008785461 0.025742317 -0.012020086 0.015631475 -0.053968564
0.012192691 -0.042505734 0.009942119 -0.01327842 -0.06892751 0.021576202 -0.02589197 0.0017965796
-0.042263392 0.0064063254 0.015811518 0.009640064 -0.0086390795 0.03997264 0.031804528 -0.056308035
-0.026902042 0.05014165 -0.0654783 -0.018258022 0.02877906 0.02248284 0.012412204 0.037234947
-0.007131565 0.008915116 -0.0049365712 0.026380671 0.007144775 -0.025001245 0.022085741 -0.031675644
-0.013544461 0.026796654 -0.0066293515 0.012699952 -0.009319097 -0.03711225 -0.0031471252 -0.01024298
0.013197746 -0.0931664 -0.008844294 0.030284485 -0.014591639 -0.005961846 -0.04118214 -0.124525554
-0.0065069674 -0.0063521555 -0.03256264 -0.01210381 0.006393219 -0.033802412 0.023961134 -0.01600083
0.026832357 0.05834961 0.008982797 -0.035126764 0.041176166 0.029346174 -0.01663908 -0.022537842
-0.012542589 0.005144218 -0.00697235 -0.007893438 -0.03719908 0.0016408808 0.040013295 0.02042794
0.064159304 0.024674054 -0.021774497 0.022185024 -0.032215845 -0.007407964 0.03379827 -0.026808705
0.01624333 -0.012534202 0.026271971 0.028468067 0.0018649264 -0.036009844 0.027130507 -0.016009806
0.0353805 -0.019207444 0.0040285173 -0.039320108 -0.008069035 0.032664374 -0.06600851 -0.013219616
-0.026956059 0.0029467999 -0.03974946 0.049856704 0.03334079 -0.018488746 -0.04977148 0.008605037
0.05947204 0.032398373 -0.0006486924 -0.067005664 -0.0019333645 -0.02901324 0.031413503 -0.0003848752

action_model._discrete_distribution.branches.0.bias f4 [7]
00000000: b318 9abc 1053 fdbb 3fbd 2a3c 9644 303c
00000010: 8242 d3ba c0bd 7c3b 7e47 093c
-0.018810606 -0.007730849 0.010421096 0.01075854 -0.0016117843 0.0038565248 0.0083788615
