Assets/Hide and Seek/Brain/HiderBehavior_assets.onnx (onnx, 199377 bytes, 6 tensors)

network_body._body_endoder.seq_layers.0.weight f4 [128, 249]
000000 c9 d7 93 bd 27 db 16 3d 60 e1 2d 37 ce ab 34 3e
       -0.07218892 0.036830094 1.0364078e-05 0.17643663
000010 9f ef e8 bd 29 16 12 be 0c cf 5a 3d e2 94 3b 3d
       -0.11373829 -0.14266266 0.05342011 0.045796283
000020 5f da b5 3d 06 45 60 bd 0c 96 8f 3d 8d 15 a8 bc
       0.088795416 -0.054753326 0.07011041 -0.020518089
000030 3e c5 0b bd 9f 22 1e be ce ec 67 bc e6 54 a6 bd
       -0.03412365 -0.15442894 -0.01415558 -0.08121662
000040 69 57 a0 3d 44 0e bf bd 41 90 db bd 5a 7a a9 bd
       0.07829172 -0.09328893 -0.107208736 -0.0827529
000050 55 46 17 3e 43 1f 7b 3d 8d 28 87 bd 2f 62 d9 bc
       0.14772923 0.06130911 -0.06599531 -0.026536075
000060 ab bf 17 3e a9 e1 ad 3c f7 4a a3 3d 6b 3e 0a 3d
       0.1481921 0.021225767 0.07973283 0.033750933
000070 2a 78 40 3d f3 f3 81 be b0 75 42 bc 38 fc 87 bc
       0.046989597 -0.2538143 -0.011868879 -0.01659976
000080 93 85 9e bd 50 b4 27 bd 06 2e 96 bd b6 83 d4 3d
       -0.07740321 -0.040943444 -0.07332997 0.10376684
000090 2c bc 35 bd a8 70 69 3c f8 40 0e bd ac 4e 6e bd
       -0.044368908 0.014248051 -0.034729928 -0.058180496
0000a0 3b 2c 8e 3d 5f 6a ac 3d 55 e3 eb 3c 33 dd c1 bd
       0.0694203 0.08418726 0.028794924 -0.094660185
0000b0 22 cd e3 bb 4e 42 53 bc 2a 04 93 3c 50 91 8b bd
       -0.006951944 -0.012894226 0.017946322 -0.068148255
0000c0 19 49 9b bd 41 c9 f7 bb 46 3e e9 3c 04 08 21 3c
       -0.07582302 -0.007561833 0.028472077 0.009828571
0000d0 bd 85 4b 3b f3 f5 a0 bc 34 e0 10 3e b2 38 22 3c
       0.0031055056 -0.019648528 0.14148027 0.0099012125
0000e0 8f 5f d1 bc 36 b9 d0 bc ec 94 54 3d 61 ec 95 bd
       -0.025558261 -0.02547894 0.051899835 -0.07320476
0000f0 44 cd 8d bd bb 7c 1b bd e2 9b c5 bc 27 77 20 bd
       -0.06923917 -0.03796075 -0.024122182 -0.039176133
000100 37 9f 1e 3e 95 e0 1d 3d 00 78 64 bd 87 2e 03 be
       0.15490423 0.038544256 -0.055778503 -0.12810718
000110 62 09 65 bd 8d 16 a5 bd 3f 6b ab 3b 3d e1 d6 bc
       -0.05591715 -0.08060942 0.0052312906 -0.026230449
000120 72 7f ad bd a0 40 95 bd 96 ae 9f 3d 68 95 a0 3b
       -0.08471574 -0.07287717 0.077969715 0.004900623
000130 9a 50 b3 3d c2 b9 95 bd 2a b8 4f bc 2e f7 4f bd
       0.08755608 -0.07310821 -0.0126781855 -0.05077284
000140 09 4b 38 3d 89 4a b6 bd 24 9a f0 3c 79 b4 93 3b
       0.044993434 -0.08900935 0.029370375 0.004507598
000150 2a c2 ad 3b b6 bb 30 3c 8c b3 09 3d 1a cc a2 bc
       0.005302687 0.010786941 0.033618495 -0.019872714
000160 08 5f 4a 3d 14 f1 03 be bc 97 e8 3d bb 3c 19 3e
       0.049407035 -0.12884933 0.11357066 0.14964573
000170 f2 30 21 bd d9 0c 00 be d9 3f 97 bd 5f 5a 80 3d
       -0.03935332 -0.12504901 -0.07385225 0.06267237
000180 c3 b5 01 3e e8 91 0f be 02 ef b2 3d be 29 b6 bc
       0.12666993 -0.14020503 0.08736993 -0.022236701
000190 8e 1e 82 bd d9 88 49 3d 68 63 41 3c bf fc 37 bd
       -0.06353484 0.049202774 0.011803485 -0.04491877
0001a0 8f cd 60 bd a6 fa 77 bd 3c 08 de 3d 6d 3b b1 3d
       -0.054883536 -0.06054177 0.10841414 0.08653913
0001b0 6d 01 8c 3d 64 a9 01 bd bf 43 af 3d 4c 7b a1 3c
       0.068362094 -0.031655684 0.085578434 0.019712113
0001c0 4f c1 01 3b f5 96 ae bb 13 68 67 bd 54 c8 b9 3d
       0.0019799059 -0.005328054 -0.056495737 0.09071413
0001d0 2d 02 13 3d d5 17 ab bd 9f b9 4d 3d 6d a5 12 3a
       0.035890747 -0.08354155 0.05022585 0.00055941084
0001e0 38 95 a9 3d bc 26 9f bd 9c 57 73 bd 25 d5 c0 bd
       0.08280414 -0.0777106 -0.059409723 -0.09415654
0001f0 90 e5 37 3d 25 e4 ab 3d 2d f8 9d bc 6a e4 78 3d
       0.044896662 0.083931245 -0.019283378 0.060764708
000200 a5 89 20 3d 67 80 58 3d fa fc fd 3d ed dd 6f 3d
       0.039193768 0.05285683 0.12401767 0.058561254
000210 9a 9c ac bc fa 09 a6 bc 3f dc 1a be a0 2b a5 3a
       -0.021070767 -0.02026843 -0.1512308 0.0012601502
000220 6b a5 0d b9 d2 68 d4 bd e2 d3 90 3d ae e5 fb bc
       -0.00013508431 -0.103715554 0.070716634 -0.030749168
000230 cb de 2b 3e 20 be 1d 3d 68 d8 3e bd 44 30 41 3c
       0.16784208 0.038511395 -0.0465931 0.011791293
000240 16 2b 6e 3b 2d b9 82 3c 59 c0 ed bd 5c 51 8b 3d
       0.00363416 0.01595744 -0.11608953 0.068026274
000250 8a c7 07 3c 32 b5 36 bd f8 7f 0a 3e c6 63 c1 bd
       0.00828732 -0.044606395 0.13525379 -0.094428584
000260 06 c7 2c 3c 33 13 08 3d 7d f6 f8 bc 4d 43 8c 3c
       0.010545498 0.033221435 -0.030390972 0.017121935
000270 44 24 8a bd 6b 49 20 bd b0 ed de 3d b7 a9 3f bc
       -0.06745198 -0.039132517 0.10885179 -0.011698178
000280 39 d6 16 3d 89 6a 7d 3e 55 b0 5f bd 52 b6 cf 3c
       0.036825392 0.24747671 -0.054611523 0.025355492
000290 da 42 dc bd 46 0e 29 3d f2 24 a2 3d 2c 71 eb bd
       -0.107549384 0.041273378 0.07917203 -0.11496195
0002a0 4e e6 1f 3b 72 91 90 bd 94 e3 42 3d 32 1d fc 3d
       0.0024398747 -0.070589915 0.047580317 0.12310256
0002b0 69 84 93 bd a5 3f 3a bd e1 3f dc 3b 19 5b 41 3c
       -0.072029896 -0.045470852 0.006721482 0.0118015045
0002c0 4a 84 9d 3d d3 6b 70 3d 1b a9 65 bd 8b dd 89 bc
       0.07691248 0.05869658 -0.056069475 -0.016829273
0002d0 5a 02 8b 3b 44 11 0b 3e c7 19 6c bd 69 14 4c 3e
       0.0042422237 0.13580805 -0.05764177 0.19929661
0002e0 77 e7 b0 bd d5 ea 27 3d b8 e6 13 3e 46 7f c5 3b
       -0.086378984 0.040995438 0.14443481 0.006027135
0002f0 3d 06 92 3d 9b dc 93 bd 6a 89 69 bd cc a0 f8 3d
       0.07130096 -0.072198115 -0.057015814 0.121400446
000300 74 f7 9a bb 95 5a 39 3d 4a 91 7a bd dc ab 93 3c
       -0.0047292057 0.0452524 -0.061173715 0.018026285
000310 1e cb 62 3d fd 8b e7 bd 41 19 ed 3d de 54 af bc
       0.05536949 -0.113059975 0.115770824 -0.021402773
000320 75 89 c2 3c 7b ae 07 3e 69 76 0e 3d 3d bc a1 bc
       0.023747185 0.13250153 0.034780893 -0.01974308
000330 48 8d 80 3d fa 00 73 3c 56 07 99 3d e2 54 3a bd
       0.06276947 0.014831776 0.07472102 -0.045491107
000340 f4 c9 69 bd 38 5c 2e bd 2c f7 d2 3b 0e 62 9c bc
       -0.057077363 -0.042568415 0.0064381566 -0.019089725
000350 22 1b 48 bd be 6b 8a 3d 2d a7 38 bd e3 5a 24 3e
       -0.048854 0.067588314 -0.045081306 0.16050296
000360 17 7d 50 3e de 97 c3 bd ab b0 10 3e 7f cd 83 bd
       0.20360218 -0.09550451 0.14129893 -0.0643568
000370 4d 51 88 3c a6 1c c6 3d 55 22 ff bc 70 6e 43 3d
       0.01664033 0.09673433 -0.0311443 0.047712743
000380 5c 66 17 3d 89 99 de bb b8 0f f4 bc 26 de d8 b9
       0.036962852 -0.006793205 -0.029792652 -0.00041364244
000390 9d fd 0b be bd 17 97 3b 89 99 9c bc f9 d3 08 bd
       -0.13670965 0.004610984 -0.01911618 -0.033405278
0003a0 b9 85 a0 3d 22 8c f9 3d 8b ec 8e 3c da 72 be bd
       0.078380056 0.12184931 0.017446777 -0.0929925
0003b0 68 24 d1 3c f8 aa 49 3d 15 cd ea 3d f4 74 61 bd
       0.025530055 0.049235314 0.114648975 -0.055043176
0003c0 49 31 ad bc 1e 10 3b 3d aa 78 cd 3d 45 4c b5 bd
       -0.021141665 0.045669667 0.100327805 -0.08852438
0003d0 75 37 be 3d b2 4a ea 3d 1a f4 06 3c 23 aa 28 bd
       0.09287921 0.11440028 0.008236909 -0.04117788
0003e0 36 51 d1 3d e7 44 82 bd b2 71 5e bd 98 aa 45 bd
       0.10220568 -0.06360798 -0.054307647 -0.048258394
0003f0 02 9c 83 bd ab 85 31 3e 3b 5c 12 3e af bd 86 3d
       -0.064262405 0.17336147 0.14292996 0.06579148

network_body._body_endoder.seq_layers.0.bias f4 [128]
000000 d4 3e 96 3c 35 e7 0a 3d d2 92 a0 3c ed 12 2e 3d
       0.018340506 0.033911902 0.01960126 0.042498518
000010 41 84 9a 3d 9f a8 2b 3b 53 9b 3e 3d 0a 90 74 3d
       0.07544757 0.0026193035 0.046534847 0.05970768
000020 10 2d 32 3d 11 a9 5f bb 3a c6 0f bd ad 02 35 3c
       0.043500006 -0.003412787 -0.035101153 0.011048001
000030 35 e1 87 3d bf 61 01 3d 3b bc f5 ba 47 17 e8 3b
       0.06634752 0.03158736 -0.0018748114 0.007082853
000040 e3 3e 07 3d c6 89 5b 3d 3f d0 aa 3b fa 21 ac 3c
       0.033018958 0.053598188 0.005212813 0.021012295
000050 b5 6a 9b 3c 5f d6 f0 3b d1 4c f2 3c 66 ea 32 3d
       0.01897178 0.007349774 0.029577645 0.04368057
000060 39 e8 de 3a 27 a1 e6 3c 9d b5 d2 3c 0a a4 d2 3c
       0.0017006464 0.028153015 0.025721366 0.025712986
000070 2e e4 3a 3d 1b 5f fb 3b a9 5d 22 3d 96 1a 5b 3d
       0.045627765 0.0076712496 0.039640103 0.05349215
000080 07 08 29 3d a7 f2 83 3c 2d 40 d7 3c 56 23 42 3c
       0.04126742 0.016106917 0.026275719 0.011849245
000090 6e 1c 33 3d 08 c6 1d 3d d0 c3 a2 3b 54 17 29 3d
       0.043728285 0.038518935 0.0049671903 0.041282013
0000a0 84 7f 46 bc fb 24 64 3d 9c 8b f5 3c 24 8f 06 3d
       -0.012115363 0.05569933 0.029973798 0.032851353
0000b0 9e 4f c5 3c ce 57 18 3d ad 79 de 3b b1 ae 9b 3c
       0.024085816 0.037193112 0.006789407 0.019004198
0000c0 16 dc 9f 3c cd d8 fa 3b ce e2 1c 3d e6 0c e8 3b
       0.019514125 0.007655239 0.038302235 0.0070816157
0000d0 b4 02 43 3d 2c b1 a5 3c d7 8b fa 3c 13 3b 6c 3c
       0.04761 0.020226084 0.030584259 0.014418381
0000e0 d2 a4 9f 3c 1f 54 56 3c 10 18 15 3c ba 5c da 3c
       0.019487772 0.0130815795 0.009099975 0.026655544
0000f0 2d f2 53 3d bc 08 89 3c 2e e7 e1 3c 15 a0 b5 3c
       0.05174463 0.016727798 0.027576055 0.02217106
000100 62 a6 e4 3b 11 a8 15 3d 7d 78 16 3c 46 36 77 3b
       0.006977842 0.036537234 0.009184 0.0037721558
000110 17 83 84 3d 7e 1b bc 3c 89 20 2c 3d 76 45 b1 3b
       0.06470316 0.022962328 0.042023215 0.0054098917
000120 bb 3c a8 bc da be 46 3d da 6b 99 3c d5 a5 8e 3c
       -0.020536771 0.048521854 0.018728185 0.01741306
000130 29 dc cd 3c 22 c8 ed ba e9 5a fc 3c 68 56 31 3d
       0.025129395 -0.0018141309 0.030805068 0.043295294
000140 c0 69 84 3c e5 62 0e 3d e6 fd 50 3d 39 a4 a2 3c
       0.016163707 0.034762282 0.051023386 0.019853698
000150 6f ff 40 3d a3 fe 7f 3c 0b 68 8b 3c e4 ea 48 3c
       0.0471186 0.015624675 0.017017385 0.012263034
000160 b3 65 93 3b 84 22 ce 3c 1c eb 64 3d 1b 89 c0 3c
       0.0044982075 0.025162943 0.05588828 0.023502877
000170 97 a2 70 3d db 8a 4e bc 0b ba f1 3b 50 fe 4c bc
       0.058748808 -0.012606348 0.0073769144 -0.012511805
000180 99 5d 51 3d 02 70 f1 3c 55 5a e7 bb bd 6e 0b 3d
       0.051114652 0.029472355 -0.007060329 0.034041155
000190 6b 6f c6 3c 07 5a cf 3c c4 e0 86 3c 1f 9c 1b 3d
       0.02422305 0.025311483 0.016464598 0.037990686
0001a0 6b d6 9a 3b 53 ab b7 3c 4c 11 31 3c ba a5 08 3d
       0.0047252676 0.022420561 0.010807347 0.033361174
0001b0 32 c0 1a 3d d5 a2 49 3b 41 c1 fd 3c 8b 0a c1 3c
       0.037780948 0.0030767221 0.03097594 0.023564598
0001c0 a7 2e 32 3d 64 85 a5 bb e9 9d b2 3c 33 bf 3f 3d
       0.043501522 -0.005051302 0.021803813 0.0468132
0001d0 d1 a4 8c bb b6 da 15 3c f0 77 9d 3c 8c 0c 3f 3d
       -0.0042921086 0.009146383 0.01922223 0.046642825
0001e0 20 c7 b1 3c 4c 0f a1 3c 62 e8 27 3d 6d eb d9 bb
       0.021701396 0.019660614 0.040993102 -0.0066503794
0001f0 05 58 74 bc 17 c0 ec 3c f1 8a 96 3c 1b dc 2d bc
       -0.014913564 0.02890019 0.0183768 -0.010611559

network_body._body_endoder.seq_layers.2.weight f4 [128, 128]
000000 ff 17 3c 3d 3f 31 aa bd e3 04 14 3c bc 32 1f 3e
       0.045921322 -0.08310174 0.009034368 0.15546697
000010 3a 37 bf bd af e6 f2 bd d1 92 87 3d 91 f8 b3 3d
       -0.093367055 -0.11860406 0.066198 0.08787645
000020 35 1d 30 3e eb 55 39 be da 36 c7 3d 3d 21 7c bc
       0.17198642 -0.18099181 0.09727259 -0.015388784
000030 d9 ef 77 3c 4c fa 38 ba 2b 73 16 bd c9 22 86 3d
       0.015132868 -0.000705634 -0.036730926 0.065496035
000040 eb 94 f5 3d ca f2 81 3d 35 7a 94 bc 64 e0 10 bd
       0.119912945 0.063451365 -0.01812468 -0.035370246
000050 ed b1 fe 3d 67 8a 4e 3c 6a 96 9f 3b ce b1 03 3e
       0.124362804 0.01260624 0.0048702257 0.12860796
000060 06 70 79 bd 20 bd 35 3e e5 ef d9 bd 13 d0 82 3b
       -0.06089785 0.17747927 -0.106414594 0.0039920895
000070 61 3b 43 be c7 94 95 3d 24 ac 33 3e ac 9a cc 3c
       -0.1906562 0.07303768 0.17546135 0.024976097
000080 09 81 bf 3d 52 6f df bd 76 1d f4 bd bf 5a 4b 3d
       0.093507834 -0.109099045 -0.11919682 0.04964709
000090 4a 23 27 bd 92 91 14 3e eb 6e 84 bd e9 0d 69 3e
       -0.04080514 0.14508656 -0.064664684 0.22759213
0000a0 c9 81 17 3e 57 4a ef bd 5a cd 8a 3e 45 c9 a1 3d
       0.14795603 -0.11684101 0.27109796 0.07899717
0000b0 34 53 2f be 01 d9 06 3e 74 23 34 bd 14 09 88 bd
       -0.17121583 0.13168718 -0.043979123 -0.066423565
0000c0 41 25 2b 3d e6 e9 3c 3e b6 b8 51 3d df d5 08 bd
       0.041783575 0.184486 0.051201545 -0.03340709
0000d0 1b 88 29 3c 75 0b f8 bc fc 9e a3 3d 67 20 cb bd
       0.0103473915 -0.0302789 0.07989308 -0.0991829
0000e0 56 36 93 bd 81 0d 46 3e 96 88 15 be 62 56 79 3e
       -0.07188098 0.19341089 -0.14602885 0.24349359
0000f0 e2 aa d4 bd ea ee 45 3e 83 92 5d be 84 31 18 3e
       -0.10384156 0.1932942 -0.21637921 0.14862639
000100 e5 60 5d 3e 83 e2 bc 3d 03 9d db bd 2a e7 94 bd
       0.21618994 0.09222891 -0.10723307 -0.072706535
000110 8a 97 96 3d 7b 1d 60 3e 02 1a 23 be 4e dd c2 bd
       0.073531225 0.21886246 -0.1592789 -0.09514867
000120 e8 f0 1c 3e 01 f6 07 bd 92 d7 39 bd c7 52 80 bd
       0.15326273 -0.033193592 -0.0453716 -0.062657885
000130 04 f5 6c bd d8 54 85 bd ab 4c f2 3c f5 d3 c0 bc
       -0.057850853 -0.06510323 0.029577574 -0.023538569
000140 81 30 07 3e 54 11 0a 3e 11 64 cf bd 5e 7d 8e 3d
       0.13202097 0.13483173 -0.10126508 0.06957506
000150 7e db c4 3c 4d 9c 54 bd a6 7b f3 bd 6b f4 e9 bc
       0.024030443 -0.051906873 -0.118888184 -0.02855893
000160 f6 6d 08 bd 0b da 92 3c 1e e2 ba bd 93 0a d6 3d
       -0.033307992 0.017926237 -0.0912516 0.104512356
000170 05 6c 18 be 5b 79 b9 bd ac 8a 95 bc 35 66 f6 bc
       -0.14884956 -0.0905635 -0.0182546 -0.030078033
000180 97 9c 81 bd 3f ca 5c 3e a4 e8 18 3d 70 48 6c be
       -0.06328695 0.21561526 0.03733124 -0.23074508
000190 7b 65 2a bd 3c 64 32 3d 1b fe 2b be 4e 47 70 be
       -0.041600686 0.043552622 -0.16796152 -0.234647
0001a0 df 37 02 be 56 d3 e1 bd 97 e6 d3 3c 8a 1b bd 3d
       -0.12716626 -0.11026637 0.02586679 0.09233768
0001b0 e3 0b 3e 3d 59 3d cf bc ce 0a 31 bd 46 75 e6 bd
       0.046398055 -0.025297808 -0.043223195 -0.11252837
0001c0 da 61 0c bd e1 f5 c1 3a 6d 4d 44 3d 5a 9c 4e bd
       -0.034273006 0.0014798009 0.0479254 -0.050442077
0001d0 37 69 87 3e 54 cf 04 3e ba 81 c5 3b 68 5c 14 3e
       0.2644746 0.12969714 0.0060274275 0.14488375
0001e0 43 8c 49 bb 44 89 90 bd 8a b6 c6 bd ae 6f 00 bd
       -0.0030753769 -0.07057431 -0.09702785 -0.031356506
0001f0 38 ea ae bd b1 27 16 3e 66 43 99 bb 51 d9 ac 3d
       -0.085407674 0.14663579 -0.004677224 0.08439887
000200 8c 6a 37 3d 12 74 b4 3d 19 91 90 3a 8b 99 5e bd
       0.044779345 0.08811201 0.0011029571 -0.05434565
000210 bc 1d a1 3d 96 18 dc 3d d9 8e ce bc e7 19 e0 bd
       0.078669995 0.10746877 -0.0252146 -0.109424405
000220 81 af 1e be 68 ba 38 be 91 b3 01 3d 96 cb 44 ba
       -0.15496637 -0.18039858 0.03166539 -0.00075071433
000230 2d 2b 0e bd 99 66 d0 bd d9 f9 3a be e7 bf b4 bc
       -0.034709144 -0.10175819 -0.18259372 -0.022064162
000240 1f 12 00 3e 50 58 00 3e c6 e4 ae 3d d6 f7 d5 3d
       0.12506913 0.12533689 0.08539729 0.104476616
000250 0f 95 b4 3d ca 58 82 3d 4a f1 f8 3c 4b bb 30 3d
       0.08817493 0.063645914 0.030388493 0.043147366
000260 2e 9f d0 bd 69 7b d9 bb 31 a1 a9 ba fa f7 82 3d
       -0.10186611 -0.006637026 -0.0012941716 0.06394954
000270 f9 f3 4b 3d e0 bc e8 3d 2c ea b8 bd 9e 07 4b 3e
       0.049793217 0.1136415 -0.0902904 0.19827124
000280 83 ba 64 3d 80 16 0c 3d da 40 fa 3d 10 23 22 3e
       0.055841934 0.034201145 0.12219401 0.15833688
000290 00 17 9f 3d db 66 a1 bd 31 b1 04 be 93 89 d4 bd
       0.07768059 -0.07880946 -0.12958218 -0.10377803
0002a0 6c d4 49 3d 92 33 dc 3d cf 6b 61 bd c4 b2 0a 3d
       0.049274847 0.10752024 -0.055034455 0.03386189
0002b0 f0 d6 32 3e 0a 1c 9a 3d 1c 96 3a 3d 58 a9 a6 3c
       0.17464805 0.07524879 0.04555331 0.020344421
0002c0 54 d3 1f be 94 fa 85 bd 9b 70 06 3d 70 43 11 be
       -0.15607959 -0.065419346 0.032822233 -0.14185882
0002d0 19 93 09 3e f6 f9 07 3d 48 04 0c bd 02 8c 79 bd
       0.1343502 0.033197366 -0.03418377 -0.060924537
0002e0 d8 fc 91 3d f9 b9 40 be c5 f9 85 3d d8 b4 97 b9
       0.07128304 -0.18820943 0.065417804 -0.00028935703
0002f0 ac fa 24 3d 97 c4 4e be 08 f4 00 bc 5f ac f5 3d
       0.04027812 -0.2019218 -0.007870682 0.11995768
000300 82 ca e6 bc c5 ed 14 3e 1e 37 94 bd be 79 26 bd
       -0.028172735 0.14543827 -0.07237075 -0.040643446
000310 04 f5 ee bc 6d d1 cf bd c3 1c 91 bd bd 5d 99 bc
       -0.029169567 -0.10147367 -0.07085564 -0.018721456
000320 49 1c f5 bd f6 13 68 bc 3f 97 d3 3d a6 60 80 3d
       -0.119682856 -0.014164915 0.10331582 0.06268434
000330 f1 65 2d 3e 7d e0 bc bd e1 f7 23 bd d3 63 ac bc
       0.16933419 -0.09222505 -0.040031318 -0.021043694
000340 9a 7f 05 3e 1b c8 39 3e 85 2a 08 3e ed de 34 be
       0.13036957 0.1814274 0.1329747 -0.17663164
000350 be 66 5e 3b 50 5b a5 3d c2 14 83 3c aa 88 ba bc
       0.003393575 0.08074057 0.016001109 -0.022770245
000360 73 a3 04 be 06 d1 52 bd 5e a8 2e 3e b8 14 47 3e
       -0.12952976 -0.05146887 0.17056414 0.19441497
000370 d0 4f a7 bd 87 26 5d 3e 5d 0f fc 3d a8 81 12 be
       -0.0816952 0.21596728 0.12307618 -0.14307272
000380 9a 00 53 3d 72 ca 49 be 45 55 58 3d 1e a4 b2 3b
       0.051514246 -0.19706133 0.052815694 0.005451693
000390 d1 09 b4 bc c3 ec ba 3d cb 0d a6 3d e5 b5 11 3e
       -0.021977337 0.0912719 0.081080996 0.14229544
0003a0 eb ab 35 be 37 6d 91 3d d0 ce 2a 3c 9e 8c 13 be
       -0.17741363 0.07100909 0.0104252845 -0.1440911
0003b0 9e 32 05 bd ed 8c 92 39 e6 05 32 3d 4c 02 f0 3d
       -0.032518975 0.00027952288 0.043462656 0.11719188
0003c0 d2 26 f1 3c f5 e5 6e bd 8b 75 74 3c 65 8e 03 3e
       0.029437456 -0.058324773 0.014920603 0.12847288
0003d0 98 22 9e bd 23 2a bd 3d 3e ee 3c 3e bd 4c 1e 3d
       -0.07721442 0.092365526 0.18450257 0.038647402
0003e0 d4 ed 80 bc c6 c3 95 be df 3c 1c be 57 89 3e be
       -0.015738405 -0.29250926 -0.15257595 -0.18607078
0003f0 ce f2 95 bc 5b 2d 86 3e 83 14 15 bd 3f e7 f7 3c
       -0.018304255 0.26206478 -0.036396515 0.030261634

network_body._body_endoder.seq_layers.2.bias f4 [128]
000000 8c 12 fc 3c 8e f9 68 3d c0 e6 a2 3c 32 a8 1e 3c
       0.030770563 0.05687862 0.01988542 0.009683656
000010 1b e3 77 3c 09 1b 3b 3d df 7b 6d bb 7e 81 15 3c
       0.01512983 0.04568008 -0.0036237163 0.009125112
000020 c5 20 85 3c ab 2c 17 bb a0 23 f3 3b f9 bd 05 3d
       0.016250977 -0.0023067396 0.0074200183 0.032651875
000030 a7 39 53 bb 8b 2f b6 3c d0 d2 98 bb 00 ee 78 bc
       -0.0032230408 0.022239467 -0.0046638027 -0.015193462
000040 ff f3 ba 3c 42 95 54 3d ef 21 93 3c cb dc 12 3d
       0.022821425 0.051900156 0.017960517 0.035855096
000050 ba b2 03 3d 33 b4 ef 3c ec 7d 44 3c 99 46 d3 3c
       0.03215287 0.02926073 0.011992913 0.0257905
000060 c8 c4 2a 3d a0 06 11 3c c3 e0 cc 3c 35 3d 25 3d
       0.04169157 0.008851677 0.025009518 0.040341575
000070 99 75 0a 3d 98 e3 1b 3d a6 86 72 3d f1 cb 3c 3c
       0.033803556 0.038058847 0.059210442 0.011523233
000080 b3 08 43 3d 72 05 a1 3c c6 af 72 bc a5 a7 a0 3c
       0.047615718 0.019655917 -0.0148124155 0.01961119
000090 c0 c0 c2 3b 0c 9e 0a 3d 93 1e 17 bc 8d ef ad bc
       0.0059433877 0.03384213 -0.009223598 -0.02123239
0000a0 2f 0b 4b 3d 16 bd 21 3d 09 87 17 3d d3 ca 59 3c
       0.049571212 0.039486967 0.036994014 0.013292986
0000b0 f9 88 c5 3c 44 bf e7 3c c8 7a 99 3c 5c f4 05 3d
       0.024113165 0.028289445 0.018735304 0.032703742
0000c0 f3 73 fe 3c c4 fa 2d 3d 53 cc c8 3c 91 49 c3 3a
       0.031061148 0.042475477 0.024511492 0.0014899244
0000d0 fc 8a 85 3b 50 02 e6 3c 97 12 0d 3d 09 e0 c5 3c
       0.004075406 0.028077275 0.034441557 0.02415468
0000e0 43 d9 f0 3b fa 69 d3 3b 9e b3 1b 3d 09 e4 77 3d
       0.0073501184 0.0064518424 0.038013093 0.060520206
0000f0 44 84 cb 36 3b e2 c1 3c 2a 8f 19 3c 9d 76 90 ba
       6.065269e-06 0.023667445 0.009372512 -0.0011021678
000100 f6 5d 8b 3c 74 ab c1 3c 29 36 e4 3c 30 d7 ba bb
       0.017012578 0.023641326 0.027857857 -0.005701922
000110 8a 3e 4d 3c 8b 02 13 3d 6e e9 f1 3c 21 e1 9b 3c
       0.0125271175 0.035891097 0.029530253 0.019028248
000120 5f e4 d8 3c 25 24 9e 3c f8 7b e6 3c 84 3c 90 3c
       0.026476083 0.019304344 0.028135285 0.017606981
000130 2d 23 06 3d a4 a5 11 3d dc 33 19 3d 90 c1 c2 3c
       0.03274839 0.035558358 0.037402973 0.023773938
000140 32 f9 1d 3d a8 ce 9d 38 62 41 88 3c 2c 75 a7 3c
       0.03856773 7.524836e-05 0.01663274 0.020441614
000150 34 26 0a 3d dc e9 14 3d 01 9c 9e 3c be 85 8c 3c
       0.03372784 0.03635584 0.019361498 0.017153617
000160 3c b7 03 3d d5 60 12 3d ba 9e f3 3c 6a f5 9f 3c
       0.032157168 0.035736877 0.029738773 0.019526202
000170 4b 91 45 3c a0 7a 19 3c e9 c9 0a 3d 96 3b 0a 3c
       0.012058566 0.009367615 0.033883963 0.008437058
000180 5f ec 3a 3d 11 0e c0 3c 62 41 e9 3c 74 72 1b 3d
       0.045635577 0.023444207 0.02847356 0.037950948
000190 b9 e6 55 3b db 78 0d 3d 43 5b 8e bb cf a0 b8 bb
       0.0032638742 0.034539085 -0.0043443753 -0.0056344043
0001a0 7e 03 b5 3b c9 10 21 3a 2e 65 26 bc 66 b7 d5 3c
       0.005524098 0.0006144164 -0.010155959 0.026088428
0001b0 dd 48 dc 3c 8c 63 4d 3b 7e fb 02 bc ad 56 7f bc
       0.026890213 0.0031339852 -0.007994531 -0.01558463
0001c0 1c 6e ed 3c 49 a3 0d 3c 74 a1 3f 3d bb dd f1 3b
       0.028983168 0.008644887 0.046784833 0.0073811687
0001d0 03 bc 01 3d a3 39 9e 3b 28 91 ea 3c 7b f9 4a b9
       0.031673443 0.004828648 0.028633669 -0.0001935716
0001e0 cd 1b 27 3d f1 f9 3f 3d 7a 7c be bc 80 92 0c 3d
       0.040797997 0.046869222 -0.023252714 0.0343194
0001f0 82 b4 1c 3d 35 45 15 3d 37 c4 e1 3c 66 10 0c 3d
       0.038258083 0.036442954 0.027559383 0.034195326

action_model._discrete_distribution.branches.0.weight f4 [6, 128]
000000 84 c0 7d 3d d5 18 f3 bc ac 13 03 3e d3 03 47 3d
       0.061951175 -0.029674927 0.12800473 0.04858763
000010 61 b1 26 bd 0b 1d 43 bc a4 57 80 3c 19 1b 64 3d
       -0.040696505 -0.01190878 0.01566679 0.055689905
000020 4c 3e 9b bb f4 17 59 bd 40 81 5c 3d ad dd 9e 3c
       -0.004737651 -0.05300136 0.0538342 0.019392813
000030 95 83 a1 bc 96 96 ee bc a2 a5 cb 3a cb 90 81 3c
       -0.019716064 -0.02912454 0.0015537033 0.015816113
000040 3c d1 89 bb 8c 69 a5 ba 19 65 38 39 66 9b ad bc
       -0.004205851 -0.0012619956 0.00017585269 -0.021192264
000050 aa b5 3e bd ee 1d 3e bd 48 22 82 3c 8b 94 5a 3c
       -0.046559967 -0.046415262 0.015885487 0.0133410795
000060 85 62 0c 3d 68 e7 84 3c cb 85 ac 3c 40 49 2c bd
       0.034273643 0.016223624 0.021059891 -0.042062044
000070 4a 21 90 ba 6c dc 0e 3d c8 63 3e bc f3 68 3e 38
       -0.0010996249 0.03487818 -0.011620469 4.539727e-05
000080 9b 36 f5 bc 2f a8 56 bc ab 8e 1c 3d e5 a9 e0 3c
       -0.029933264 -0.0131016215 0.038221996 0.027424762
000090 4a f5 c3 3c db 18 f9 bc cd a3 88 3d f0 8c 6e 3d
       0.023920674 -0.03040736 0.066718675 0.058239877
0000a0 85 6a 45 bc 2b e7 6b bc 3d 4f 13 bc 25 7c 83 ba
       -0.012049322 -0.014398376 -0.00899106 -0.0010031505
0000b0 e2 97 2a 3b 64 bf 8e 3b bc 32 84 bc c7 b2 68 3b
       0.002603047 0.0043563116 -0.016137473 0.003550695
0000c0 b5 2c 51 3d bd ef 3b bc 47 68 a3 3b 32 d3 03 bc
       0.051068027 -0.011470732 0.004986796 -0.008045958
0000d0 15 46 1f 3a 9b cf a6 bc 36 02 78 bb a1 47 2f bd
       0.00060758117 -0.020362666 -0.0037843115 -0.04279292
0000e0 85 a1 ca 3c cb 42 68 3d e0 95 c7 3c 28 30 b5 bb
       0.024735222 0.056704324 0.024363458 -0.0055294223
0000f0 b7 8e 15 bc 38 5b ec bc 57 d0 8d bb d6 41 f3 bc
       -0.009128264 -0.02885209 -0.0043278146 -0.029694479
000100 74 bd 04 bc 54 c9 67 bc b8 bb 3c bd 28 f9 a0 3d
       -0.00810181 -0.014147121 -0.04607746 0.07860023
000110 4d 87 be 3b 8a ad de bc 5f a9 20 bd c2 57 ab bc
       0.005814469 -0.02718236 -0.039224025 -0.02091587
000120 bb ee fd bb ec fc d0 3c 2a dd 98 bc ae d5 90 bc
       -0.007749406 0.025511228 -0.018660147 -0.017680015
000130 e7 85 09 bd 0d 91 5e bc 00 1a c0 bc 9a 2d 58 b9
       -0.033574965 -0.0135843875 -0.023449898 -0.00020616353
000140 3c 92 a1 bb 66 f9 22 3d db ab b7 3c b7 ec fd bc
       -0.0049307626 0.039788626 0.022420814 -0.030996663
000150 66 a2 3d bd d4 62 57 b9 95 f0 d3 3c f3 44 01 3e
       -0.046297453 -0.00020540814 0.025871554 0.12623958
000160 02 ff 89 bd 26 c8 c9 3c c4 1b 2b 3b e6 69 cf bc
       -0.06738092 0.024631571 0.002610908 -0.025319051
000170 48 19 89 3c d3 41 86 bc db 8d 1b 3b 1c 8b 0d 3d
       0.016735688 -0.01638881 0.0023735675 0.034556493
000180 95 6c 0a bd 23 50 09 bd a6 43 13 bd e4 d7 51 3c
       -0.03379496 -0.03352369 -0.035953186 0.01280782
000190 83 65 06 3d 4a d5 66 3c 2c 93 b2 3c 39 0e 55 3d
       0.032811653 0.014088938 0.021798693 0.052015517
0001a0 e4 1d 4e 3d 7a dd 97 3c 9e 20 28 3d a4 29 ba 3b
       0.050321475 0.018538225 0.04104673 0.0056812335
0001b0 65 b2 68 3c 1b 73 f4 3c 45 e5 0e 3b dc f8 4a bd
       0.014202689 0.029840043 0.0021804136 -0.049553737
0001c0 85 ff a9 bb b1 5b 28 3d 69 68 86 bd 92 e1 e1 3c
       -0.005187931 0.04110307 -0.065628834 0.02757338
0001d0 62 6a 08 3b a7 73 24 ba 55 d1 36 bd 3f ba 8a 3d
       0.0020815362 -0.0006273337 -0.04463323 0.06773805
0001e0 d0 58 28 bd 92 b4 d0 bc 97 de 67 3d d9 db b5 3b
       -0.041100323 -0.025476728 0.056608763 0.0055498895
0001f0 b0 70 1f bd b0 5c b5 bc 64 98 5d bc 28 d1 af bc
       -0.038925827 -0.022138923 -0.013525102 -0.021462038
000200 98 32 45 be c1 5c 49 3d 01 a6 1d be 5b e7 37 be
       -0.19257581 0.049160723 -0.15395357 -0.17959349
000210 79 89 3d 3d 0f 65 38 bb 47 5f 2a 3b a5 ed 0b be
       0.046273682 -0.0028136407 0.002599673 -0.13664873
000220 10 af aa bd 9f 5f 01 3c 0a a7 3d 3b 18 35 4d 3d
       -0.08334172 0.007896333 0.0028938674 0.050099462
000230 cf 0b 50 bd 3c c7 41 3c e0 e4 d3 bd 46 3a 08 bc
       -0.05079251 0.011827286 -0.10346389 -0.008314675
000240 72 94 af bd f3 c9 b6 bd c2 0a 26 bd d4 d7 96 3d
       -0.085732356 -0.089252375 -0.040537603 0.07365385
000250 11 e6 96 3d a2 13 c8 3c 6c d3 e9 bd 16 ec 70 bd
       0.073681004 0.024423424 -0.11417279 -0.0588189
000260 46 f9 39 be db 1b e2 3c ff 8b b5 3d db 37 37 3d
       -0.18161497 0.027601173 0.08864593 0.044731002
000270 7e 16 a8 3d 35 c0 d8 bd bb 46 48 bd 71 8a b8 3d
       0.08207415 -0.105835356 -0.04889558 0.090107806
000280 1e 85 6b 3c a7 12 08 bd ff 47 5b 3d 73 52 6c 3d
       0.014374999 -0.033220913 0.053535458 0.057695817
000290 b3 92 5c 3d 5a b6 e6 3d 23 4f a7 bd 31 67 b4 bd
       0.05385084 0.112652496 -0.08169391 -0.08808745
0002a0 f6 8c bb bb d0 7f 98 3d 0d 70 37 3b 50 23 27 bc
       -0.005723591 0.07446253 0.0027990371 -0.01020129
0002b0 4a 90 96 3d d3 ba b4 bc 5d 87 d7 3c 76 56 58 3d
       0.0735174 -0.022061741 0.026309663 0.05281683
0002c0 8f 10 21 be 22 72 22 be de 81 82 bd e4 98 49 3d
       -0.15728973 -0.1586385 -0.063724265 0.049218073
0002d0 1e 68 3d 3c d4 3c 53 3d f6 91 de bc 4f f0 a3 3c
       0.011560468 0.051571682 -0.027169209 0.020012049
0002e0 6a df 60 bd 33 e6 e1 bd a0 2d 00 3d 55 fd bd bd
       -0.054900564 -0.11030235 0.03129351 -0.09276835
0002f0 60 ab e9 3c ea 91 9f 3d 25 8d 23 bd 16 a0 c4 3c
       0.0285241 0.07791503 -0.039929528 0.024002116
000300 e1 11 40 3d e8 65 90 3d ca fc 29 bd dc 11 26 bd
       0.04689205 0.07050687 -0.041500844 -0.040544376
000310 e9 8a 0b be 79 a9 0b bd da 46 a8 3d 59 aa 83 3d
       -0.13627209 -0.03409717 0.08216639 0.064289756
000320 40 f1 82 3d fe e5 95 3d ca b4 d3 3d 6a 39 a5 3d
       0.06393671 0.07319258 0.10337217 0.080675915
000330 7a c1 24 3c e8 e1 4c 3d 9f 7b bc bd 88 5f e8 3c
       0.010055894 0.05002013 -0.09203266 0.028365865
000340 f6 8e 81 3c fb cf ec bb 26 f9 00 be 11 2d aa bd
       0.01581524 -0.0072269416 -0.12595043 -0.08309377
000350 6b 79 77 3d 77 50 a3 3c b2 70 87 bc df 7e 06 be
       0.060418528 0.01993583 -0.01653323 -0.13134335
000360 5b c9 db 3d ca c6 df bc 2e fc 13 3d 68 cf 95 bd
       0.10731765 -0.02731647 0.03612917 -0.0731495
000370 bf b1 3e bc 9d bc b1 bd 5d 3d 1f bb 76 f6 cc 3d
       -0.011639058 -0.08678553 -0.002429805 0.10007946
000380 ec 95 5b bd 31 93 cc bd 7d b8 81 bb f6 77 64 3c
       -0.053609774 -0.09989012 -0.0039587603 0.013944617
000390 bf 4a f9 bd bf ee cb bd db 81 de 3c 04 32 89 bd
       -0.1217246 -0.099576466 0.02716153 -0.06698993
0003a0 5c 51 8b 3d d1 b7 7f bd c3 0a 5c bd 3e 18 a4 bd
       0.068026274 -0.06243116 -0.0537212 -0.08012436
0003b0 5d 66 6c bd 55 60 4d 3d 6f 00 1d 3d e9 6d a4 3c
       -0.05771481 0.050140698 0.03833049 0.02007194
0003c0 7f d9 6f 3b 5a d1 03 be 7e ea 2d 3d 50 7e 6a bd
       0.0036598144 -0.1287283 0.042459957 -0.057249367
0003d0 05 9e 8b bd 6e 9d 70 3d 92 1a 51 3d 14 85 ca bd
       -0.06817249 0.058743887 0.05105073 -0.09888664
0003e0 9f 87 95 3d d3 54 d6 bd 9a 57 fb bc 55 66 bc 3d
       0.07301258 -0.10465398 -0.03068142 0.09199206
0003f0 09 e3 ca 3d cf 52 87 bc 28 a2 21 3d d7 49 a5 3d
       0.09906585 -0.016518978 0.039461285 0.080707245

action_model._discrete_distribution.branches.0.bias f4 [6]
000000 1f bc c3 bc 7b 65 16 3c 16 a8 06 3d 86 a3 3c bc
       -0.023893414 0.009179468 0.032875143 -0.011513596
000010 a4 33 0a bd 30 f0 86 3c
       -0.033740655 0.016471952
