Assets/Hide and Seek/Brain/HiderBehavior_obs.onnx (onnx, 197329 bytes, 6 tensors)

network_body._body_endoder.seq_layers.0.weight f4 [128, 245]
000000 03 a8 7d bc 58 37 aa bc c7 f8 fb bc 3a ba 8e 3c
       -0.015481952 -0.020778343 -0.030758275 0.017422784
000010 32 ef a9 3c c3 c0 4a bd da 86 aa bc 30 be bd 3d
       0.02074394 -0.04950024 -0.020816255 0.09264791
000020 0a 77 7d 3d 59 fe 8f 3d 51 3a 72 3d 18 f0 41 bd
       0.061881103 0.07030935 0.059137646 -0.047348112
000030 dd 72 ac bd 25 6b 60 bd 18 5e 28 3d 71 bf 40 bd
       -0.08420346 -0.05478968 0.04110536 -0.047057573
000040 f7 13 7c 3d 90 30 08 3d 41 d0 38 bd bf 1d 9a 3d
       0.061542477 0.033249438 -0.04512048 0.07525205
000050 4f fd 54 3c 3a 91 04 3d 37 18 78 3c c7 8c 8f bd
       0.012999847 0.03236506 0.015142492 -0.07009273
000060 d0 2f 88 3d 57 6b 6d 3d d1 0b 57 3d 20 8d 61 3d
       0.066497445 0.057963695 0.052501503 0.055066228
000070 8d a6 07 bd 61 c8 33 3d 3c dc 60 bd 79 db ec bc
       -0.03311782 0.043892268 -0.054897532 -0.028913246
000080 fe d2 e8 bd 72 d4 4b 3d 65 71 19 bd 30 67 ed 3c
       -0.113683686 0.04976315 -0.037461657 0.028979868
000090 51 9d 23 bd f9 47 68 bd 2b c4 47 bc 68 89 15 3d
       -0.03994495 -0.056709263 -0.012192766 0.036507994
0000a0 7a 61 05 bd eb 6a 60 bd 49 b4 92 3d e9 aa 90 bc
       -0.032563664 -0.054789465 0.07163293 -0.017659621
0000b0 10 09 00 3c 28 65 0f bd b7 6d 84 3d 96 cb 50 bd
       0.007814661 -0.03500858 0.06466239 -0.050975405
0000c0 fd ce 1a bd 4b 5e 25 bd 47 76 c5 bd 44 e6 13 bd
       -0.037795056 -0.040373128 -0.096417 -0.03610827
0000d0 dd 2f 2e 3e c3 e6 43 3d 92 03 7e 3d 24 dd 37 3d
       0.17010446 0.047827493 0.062015124 0.04488863
0000e0 b9 be 9b 3d 46 8e 26 3b 7e 2d 22 bd b8 ca ea 3b
       0.07604737 0.0025414391 -0.039594166 0.0071652792
0000f0 c8 d1 96 3d c2 22 81 bd 61 c2 a0 3d 8e 42 65 3d
       0.07364231 -0.06305458 0.07849575 0.055971675
000100 27 12 17 3d 76 a5 48 3d 4a f6 8a 3d fa 19 5b 3d
       0.036882546 0.04898592 0.06785257 0.05349157
000110 e0 84 17 3d 9e a8 1a bd 56 c5 79 bc 20 1f f0 3d
       0.036991954 -0.037758462 -0.015244802 0.117246866
000120 72 6d ad bd 0e 33 88 bd 24 12 71 bb 24 1b 0e bd
       -0.08468141 -0.06650363 -0.0036784494 -0.034693852
000130 fc 1c 17 bd 5d 4a 78 bc c1 1d 5d 3c 99 21 a7 3d
       -0.036892876 -0.015154448 0.013495863 0.08160705
000140 7f d3 9c 3d 19 47 0c be 01 12 84 bc fb 25 6a 3b
       0.07657527 -0.13698997 -0.016121866 0.0035728205
000150 11 61 18 bb c0 83 82 bc 50 ec 9c bc 51 f8 0d bd
       -0.0023251215 -0.015931964 -0.019155651 -0.03466064
000160 c9 91 c1 3d 97 db 8d 3c b4 7f d3 bc 82 95 3a be
       0.094516344 0.017316623 -0.02581773 -0.18221095
000170 29 45 d2 3d ea fc 30 bb fa 1e 62 3d 2f 6f 97 3d
       0.102670975 -0.0027006217 0.055205323 0.073942535
000180 c7 7f aa bd 65 30 0b 3d 93 c0 62 3d af bc 32 3d
       -0.08325153 0.0339817 0.055359434 0.043636974
000190 e1 41 c1 3c 0e a8 e5 bd 50 85 a6 3c 89 3e 9f 3c
       0.023590984 -0.112136945 0.02032724 0.019438999
0001a0 94 1a 85 3d 5a 2b 51 3d 6e 03 13 bd 09 6a 8b bc
       0.0649921 0.051066734 -0.035891943 -0.017018335
0001b0 52 00 b9 bd d5 12 b4 bd f1 9b 9f bc ab a0 87 3c
       -0.09033264 -0.087926544 -0.019483538 0.016556105
0001c0 81 bc 6b bc 47 38 8c bc 84 67 2f 3d 49 60 94 3d
       -0.014388205 -0.017116679 0.04282333 0.072449274
0001d0 44 fc 40 bd 8d 5e a4 3c a5 9b 6f 3d 30 80 ea 3d
       -0.04711558 0.020064617 0.058498044 0.11450231
0001e0 72 1c 51 bd e9 3d d3 3c 17 35 41 3d 70 43 52 3d
       -0.05105252 0.025786357 0.04716977 0.051333845
0001f0 10 5f 93 bd 44 a1 40 3e 6a a1 15 be c9 b4 df 3d
       -0.07195866 0.18811518 -0.14612356 0.10923154
000200 f5 1d 35 3d ad 55 fc bd 10 35 19 bd fb 6f 97 bc
       0.044218022 -0.12321029 -0.03740412 -0.018486014
000210 93 1c 94 bb 19 9d 8c 3d 6b 07 27 bd 33 11 32 3e
       -0.004520008 0.068659015 -0.04077856 0.17389373
000220 d2 52 a3 bc 99 36 ef 3d 8e f8 ce bb e5 5d 2d 3d
       -0.019936953 0.116803356 -0.006316251 0.042325873
000230 85 7d 5a 3d 58 1a 44 bd b5 88 ec bd 82 0e 41 3d
       0.05334236 -0.047876686 -0.11549512 0.047132976
000240 ae a4 fd 3d d7 21 35 39 3b 5c cb bd a9 04 c4 3d
       0.12384926 0.00017274111 -0.09929701 0.09571201
000250 aa 6c 26 3c f6 72 1f 3d 2e 44 c8 3a ee 55 34 3d
       0.0101577435 0.038927995 0.0015279108 0.04402726
000260 26 0a 9e 3d b4 4f 27 be 5b 63 fa bc 29 f3 37 3c
       0.077167794 -0.16338998 -0.030564955 0.0112274075
000270 2b b8 79 be 2d 17 18 3d 51 43 e2 3c a4 67 b6 bc
       -0.24386661 0.037131477 0.02761999 -0.022266217
000280 5e 1c e6 3d 69 10 81 be e0 54 bc 3d e9 97 e9 bc
       0.11235879 -0.25207832 0.09195876 -0.02851482
000290 03 5c 88 bd d7 f4 0a 3e 38 7c 43 be 8b 26 a2 3d
       -0.06658175 0.13569961 -0.19090354 0.07917508
0002a0 7c e2 27 3d 5d dc c9 3d 0f e2 39 bc d2 3a 8f be
       0.040987477 0.09856484 -0.0113454005 -0.27974564
0002b0 08 ba ea ba d2 68 46 be 6a a2 d2 3d 28 5c ff 3d
       -0.0017908225 -0.19375923 0.10284884 0.12468749
0002c0 c8 6d 1f be d7 6b f9 3d a3 71 82 bd dc 41 17 bc
       -0.15569222 0.12178772 -0.06369331 -0.009232011
0002d0 9b 22 a7 3d ea 60 61 bd 5e ab c5 3d c1 93 80 bc
       0.08160897 -0.055024065 0.09651826 -0.015695455
0002e0 ba 54 ae 3d 46 16 19 3e 7e ff ee bd 3d 1d 8d 3d
       0.08512254 0.14949903 -0.11669825 0.068903424
0002f0 71 16 35 bd 07 00 1c 3d b6 fc f7 3c 06 66 81 bd
       -0.044210855 0.038085964 0.03027187 -0.063182876
000300 b2 e1 57 3d e1 c1 17 3c 7c b3 94 3d 46 e4 45 3d
       0.052705474 0.009262533 0.072607964 0.0483134
000310 c0 b9 1e be d7 fa 08 3d 12 b5 ba 3c c9 84 97 3d
       -0.15500546 0.033442345 0.02279142 0.07398374
000320 94 98 9e 3d 08 b2 0d be 1a fc a7 3d 8b ba 04 bd
       0.07743946 -0.13837445 0.082023814 -0.032404464
000330 b5 f6 a3 3d b2 7b 86 bc 78 86 55 bd de 79 28 3e
       0.0800604 -0.016416404 -0.052130193 0.16452739
000340 0d 4b 04 bc c2 bb 87 3d a3 cb db 3d c4 4c 31 be
       -0.008074534 0.06627609 0.107322 -0.1731444
000350 11 1c 07 bd 68 19 e5 bd 60 72 4b bd c9 47 f8 bc
       -0.03298575 -0.111864865 -0.049669623 -0.030307667
000360 ca 60 25 be ec df c1 3d d2 52 e9 3d ea 11 9a 3d
       -0.16150203 0.09466538 0.1139275 0.07522948
000370 51 6c c0 3d 5b f5 81 be c7 7b 2a 3d 3b 6c ed 3d
       0.0939566 -0.25382504 0.04162195 0.11592909
000380 1c 7d d6 3d 40 b4 49 bd 20 d8 53 3d 14 1f 6e 3c
       0.104730815 -0.049244165 0.051719785 0.014533777
000390 05 74 f5 bd e1 0b f6 3d ca 22 e4 3d 51 d9 d8 bd
       -0.119850196 0.120139845 0.11139448 -0.10588325
0003a0 28 d6 91 3d 43 33 dd 3d d1 7e 82 3d c3 a7 2e bd
       0.07120925 0.10800793 0.063718446 -0.04264046
0003b0 4e 82 81 3d 2e f3 cd bc 77 44 f0 bc 77 33 df bd
       0.06323682 -0.025140371 -0.029329522 -0.10898488
0003c0 98 21 af bd 05 60 11 bd 12 e3 be bd 94 9e b5 3c
       -0.085513294 -0.035491962 -0.09320654 0.022170343
0003d0 0c d4 9d 3d a3 3f 53 3d c5 8c 8b 3d 97 40 9c 3d
       0.0770646 0.05157436 0.06813959 0.07629507
0003e0 3a 30 f3 bc 93 1b e7 3d 05 cf e3 3c 62 fd 99 3d
       -0.029686082 0.11284556 0.027808676 0.07519032
0003f0 6e 5e 00 3d 89 f2 2e 3e 71 d3 a3 3d d8 35 20 3d
       0.031340055 0.17084707 0.079993136 0.03911385

network_body._body_endoder.seq_layers.0.bias f4 [128]
000000 96 b4 2c 3d 36 ef 33 3c 0d 9d f2 bc f3 06 73 3d
       0.042164408 0.010982325 -0.029615903 0.0593328
000010 0e 5c 1f 3c 54 13 4e 3d 50 48 9e 3d 31 39 49 3d
       0.009726537 0.0503114 0.07728636 0.049126808
000020 99 85 63 bc 80 6c d6 3c 09 33 69 3c fb 44 1a bd
       -0.013886833 0.026174784 0.014233359 -0.03766344
000030 b1 0b 4a 3c e6 99 7b 3c 6a f5 2d 3d d2 19 38 bb
       0.012331889 0.015356516 0.042470373 -0.0028091562
000040 1e 6a 9a 3c c4 f5 8c 3c 0b bc 38 bd 30 0e 67 bd
       0.018849429 0.017207034 -0.045101207 -0.056410015
000050 67 2a 15 3c ba b6 4a 3c 3f 2b 62 3d 93 6a 05 3a
       0.009104348 0.012372667 0.055217024 0.0005089428
000060 5a 25 fc 3c 24 d7 db bb dd b4 6c b9 09 ea 9d 3c
       0.03077953 -0.0067089964 -0.0002257409 0.019276636
000070 a1 cf af 3c 3f e4 7d 3b 36 df 87 3d 47 e6 08 3d
       0.02146131 0.0038740782 0.06634371 0.033422735
000080 ee a2 db 3a 34 d4 3b bb 71 a5 75 bb 38 23 a1 3c
       0.0016756931 -0.0028660418 -0.0037482644 0.019670114
000090 de c3 d7 3c 6f 41 09 3c a2 2f b6 3c a5 e4 ae ba
       0.026338514 0.008377417 0.02223951 -0.0013343288
0000a0 2c e0 57 bc a7 45 27 bc 0f 20 24 3d a6 20 58 3b
       -0.013176005 -0.0102094775 0.040069636 0.0032978444
0000b0 cc 42 97 3c e6 44 94 bb 93 96 08 bd 23 2d d0 3c
       0.018464468 -0.004524815 -0.033346724 0.025412148
0000c0 5d 6c 3d bb 8a 83 f3 bb 3a 76 14 bc 49 2e a7 3c
       -0.00289037 -0.007431452 -0.0090613905 0.020407813
0000d0 0d 8d f5 3c 0e 05 ef bb e2 b0 b1 bc 67 51 ed ba
       0.029974485 -0.0072943037 -0.02169079 -0.0018105925
0000e0 c8 e1 4e bc ca 63 d5 b9 88 a3 c9 3b 96 cf 90 bb
       -0.012627073 -0.00040700875 0.0061535276 -0.0044192774
0000f0 8a 39 10 bd 36 c4 11 3c 5f d4 41 3c 55 3f 2b 3b
       -0.035211124 0.008896878 0.011830418 0.0026130278
000100 5d 6a 09 bd 84 a9 89 bc d1 f3 34 3d f7 49 76 bc
       -0.0335487 -0.016804464 0.044177834 -0.015032283
000110 ec 50 30 3d 82 e2 f2 3c 23 1f 20 3d 12 78 3b 3d
       0.043045923 0.029649023 0.039092194 0.045768805
000120 db f5 71 bb dc 8e 8f 3c 66 03 12 3d f2 82 f0 3b
       -0.0036920223 0.017524175 0.035647772 0.0073398286
000130 c1 98 69 3d 6e fa 97 3c e0 9f 46 3d 00 f4 48 3c
       0.057030443 0.018552031 0.048492312 0.012265205
000140 1c 17 3d 3a cf 66 a0 3b 8f 31 d7 3c 84 49 1f 3b
       0.00072132214 0.0048950682 0.026268749 0.0024305293
000150 7d 11 03 bd d3 38 4a 3c ca 1a 23 3c f9 8c fd 3c
       -0.0319991 0.0123426495 0.0099551175 0.03095101
000160 1a 80 46 3c 82 d9 0f bd aa f7 1b bd 44 06 47 3c
       0.012115503 -0.03511954 -0.038077988 0.01214749
000170 5a ac 86 3c 05 00 79 3c 9c 36 e7 bb fd 36 29 3d
       0.016439606 0.015197759 -0.0070560705 0.041312207
000180 ca f2 51 3c 26 28 0a 3c f0 49 06 3d ca 9e 20 3d
       0.012814233 0.008432424 0.032785356 0.039213933
000190 3a 75 42 bc c3 f4 25 3d 05 e1 ab bc 0d 8a f8 3b
       -0.011868769 0.040516626 -0.020981321 0.0075848163
0001a0 25 72 c5 bc 36 f8 90 3c 62 3c 6f 3b be 3c 58 3d
       -0.02410228 0.017696481 0.0036504497 0.052792303
0001b0 71 ec 27 3d ca be 0b bd ea 61 21 3d 47 1a 32 3c
       0.040996972 -0.034117498 0.03940002 0.010870523
0001c0 eb 32 1f 3d c2 c1 e5 3b 44 80 b9 3c 9b f1 ab 3c
       0.03886692 0.007011623 0.02264417 0.02098923
0001d0 d0 84 0e 3d 1b aa 2a 3c f3 21 26 bd 41 e8 3c 3c
       0.03479463 0.010416533 -0.04055972 0.011529983
0001e0 1f c0 6f 3c 4f 1e 8f 38 56 ec f1 3c 71 9c 1d 3d
       0.014633208 6.824417e-05 0.02953164 0.038479272
0001f0 7f 14 43 3d 97 1a a5 b9 67 01 f4 bc 83 3f 89 3c
       0.04762697 -0.00031491063 -0.029785825 0.016753918

network_body._body_endoder.seq_layers.2.weight f4 [128, 128]
000000 c3 df b7 3d 4e 51 7d bd d1 1f 16 be d8 9f 4b bc
       0.08978226 -0.061845116 -0.14660574 -0.012428246
000010 5d b4 0d 3e 42 88 96 3d 78 95 16 3e fc 9d f7 3c
       0.13838334 0.07350208 0.14705455 0.0302267
000020 d5 8e 75 bd 19 f0 f1 3d a1 75 d0 3d d3 ca 5f bd
       -0.05995067 0.11813373 0.10178686 -0.054636788
000030 e0 78 33 be 6e 7a a1 3c 59 bb 08 3e e5 08 f4 bd
       -0.17526579 0.0197117 0.13352717 -0.11915759
000040 df fa 69 3c de 63 60 3c c6 d6 48 be 73 a0 c3 ba
       0.014281004 0.013695685 -0.1961318 -0.0014925137
000050 73 18 73 3d 9b 80 d8 3d f0 cb 56 3c 0e 45 18 bd
       0.05934949 0.105714045 0.013110146 -0.03717523
000060 95 5b 0b 3d 28 0f 54 be f2 1d 68 bd 90 73 92 bd
       0.034022886 -0.20708907 -0.056669183 -0.07150948
000070 fc 47 e0 3d 48 a6 fd 3d 5c 62 c6 bd 78 d1 bc 3c
       0.1095123 0.12385231 -0.09686729 0.023049101
000080 ca 5e 1b 3d 6b 6a c2 3d e5 69 60 bd c9 0a 5c 3c
       0.037932195 0.09492954 -0.05478849 0.013430306
000090 67 18 81 bd b9 fd ed bd 87 cc 1e be 8f b5 38 be
       -0.063034825 -0.116206594 -0.15507708 -0.18038009
0000a0 e5 76 74 be 59 3a 85 bd 7e 76 fb 3d f3 8d f7 3d
       -0.2387348 -0.065052696 0.1227846 0.120876215
0000b0 fe 66 55 3d a9 f3 b7 bc da 89 81 be e4 84 90 bd
       0.052100174 -0.022455053 -0.25300485 -0.07056597
0000c0 9d 38 1c be ef b6 c3 bd cc a1 44 3e c8 77 52 bd
       -0.15255971 -0.09556376 0.19202346 -0.051383764
0000d0 b6 13 64 bd 3a 52 b6 bd 15 fd a3 3d 73 6d 1d be
       -0.05568286 -0.08902402 0.08007256 -0.15373783
0000e0 ab 44 07 3d dc 53 37 3c 9b 0e 32 bd 89 84 82 3d
       0.03302447 0.011189427 -0.04347096 0.06372935
0000f0 47 3b ef bd 1f 6d 3c be 89 a4 87 bd f7 7a 47 bc
       -0.11681228 -0.18401001 -0.066231795 -0.012175313
000100 3e 43 8f bd e1 c8 8e bd 11 1c 4b 3d 7f 6a 7a bd
       -0.06995247 -0.06971908 0.049587313 -0.06113672
000110 9f c1 a8 bc 85 de 33 be d8 23 ed 3d ab 56 3b 3e
       -0.020600138 -0.17565353 0.11579102 0.1829478
000120 39 fc 16 bd 47 e7 ed bd cb 40 71 3d 0e c8 af bd
       -0.036861632 -0.11616378 0.058899682 -0.08583079
000130 3e 3f 89 3c 30 cb 42 be 21 4a bb 3d 48 21 18 bd
       0.016753789 -0.19022822 0.09144998 -0.037141114
000140 c4 d6 6b 3c e7 79 8b bd be fc db bc 09 96 22 3b
       0.014394466 -0.068103604 -0.026853915 0.0024808666
000150 4d 4c ba bd da 84 50 3d 75 ee a0 bb 22 6b 26 bd
       -0.090965845 0.050907947 -0.004911239 -0.040629514
000160 de a1 03 be f2 4e 4f bd fe 42 b0 bd 15 a1 3a 3e
       -0.12854716 -0.050612397 -0.08606528 0.1822551
000170 b5 1c 03 be 0d be 18 3e 5c 13 6c bd 7e 3c ee bd
       -0.1280392 0.14916249 -0.05763565 -0.11632632
000180 f2 79 19 3c 71 ba b4 bd df e9 39 bd 00 de fd 3c
       0.009367453 -0.088246234 -0.045389052 0.030989647
000190 22 8c 0f be d6 1c e7 3d f4 ee 93 bc 95 bf 92 3d
       -0.140183 0.11284797 -0.018058278 0.071654476
0001a0 4b 1b 9b 3d c6 b1 c2 bd 58 7f 75 bc 97 e9 21 3d
       0.07573565 -0.09506564 -0.014983974 0.03952941
0001b0 d3 7a 0d be 8d 7d 7a bd d0 28 bf 3d be cd ac bd
       -0.13816385 -0.06115489 0.09333956 -0.0843768
0001c0 ac 16 a8 3d ad 72 60 3e a8 2b 0c 3e a0 58 e1 bd
       0.08207449 0.21918745 0.13688529 -0.11003232
0001d0 12 4c 84 3d 08 e2 36 bd 83 e9 87 bd f2 b7 bf bc
       0.06459822 -0.044649154 -0.06636336 -0.023403142
0001e0 76 8c 9c bd bf 1b a5 bc 0b cd 16 3d d1 85 3e 3b
       -0.07643978 -0.020154832 0.036816638 0.002907146
0001f0 29 20 c5 3d f0 ea 1f 3c ae bd d9 bc c3 94 fa bd
       0.09625275 0.009760603 -0.026579704 -0.12235405
000200 84 46 01 3e e3 78 27 3d 60 92 71 bd e7 1f 85 3d
       0.12624556 0.04088677 -0.058977485 0.065002255
000210 77 20 54 be ce d6 a3 3b eb 02 40 3e 14 fb 05 3e
       -0.2071551 0.004999972 0.18751113 0.1308406
000220 c1 fa ff bd cf 87 5a bd 1b 16 98 3d 0b 58 8f bc
       -0.124989994 -0.053352173 0.07426091 -0.017498037
000230 0c 5a 81 3c 5a 45 fd bd f9 9f 56 3d 5c 9f 85 3b
       0.015790008 -0.123667434 0.052398656 0.004077835
000240 13 0d f1 bd 41 7f c3 3c 38 0a 0f be cd 3b 86 be
       -0.11770072 0.02386439 -0.13968742 -0.262175
000250 1d 35 8b 3d fe bb 2a bd f1 4e 35 bd 04 0b 1d be
       0.0679724 -0.04168319 -0.044264738 -0.15336233
000260 3c b2 5d bd 55 b6 ec bd 58 93 b4 3c 19 41 a9 3a
       -0.054125056 -0.115582146 0.022042915 0.0012913077
000270 27 5c 49 3e ba 74 ee 3d a0 ce 84 3c e0 a6 0e 3c
       0.1966406 0.116433576 0.016211808 0.008706778
000280 71 a3 54 be fe c6 96 bd 5f 4d 05 3e 14 3f 5e bd
       -0.20765473 -0.073621735 0.13017796 -0.054259375
000290 23 af 2c 3e 77 15 18 3d 30 bc 01 be d1 ef e5 3d
       0.16863684 0.037129845 -0.12669444 0.11227382
0002a0 ad 0e 28 be 62 13 1c 3e 4a 91 4b 3c f2 ba 5f bd
       -0.16411848 0.15241769 0.012424776 -0.054621644
0002b0 6a 35 e9 bd f9 f0 34 be c0 18 18 be 58 0f 82 3d
       -0.11387141 -0.17670049 -0.14853191 0.06350583
0002c0 c3 eb f4 3c 6b f4 c1 bc fc 26 d8 3c 39 34 c3 3d
       0.029897576 -0.023676118 0.026385777 0.09531445
0002d0 27 fa 21 3d d1 3d 87 bc c5 3d cf bd 98 38 8d bc
       0.039545204 -0.016508969 -0.101192035 -0.0172389
0002e0 b8 e8 f8 ba 8c fe a2 bd 75 10 ca 3d 79 3f 10 bc
       -0.0018990254 -0.07958707 0.0986642 -0.008804196
0002f0 7e db 9f bc 3a cb 1c be 32 26 b3 3c f5 03 16 bd
       -0.019513842 -0.153119 0.021868799 -0.036624867
000300 3e e5 3a bd c3 c0 1b bd 64 74 c0 3c 81 8a e3 3d
       -0.04562878 -0.03802563 0.023493 0.11110402
000310 ed a4 39 3e d7 a8 b7 bd 77 b6 2e bd cc 2a 2a be
       0.1812932 -0.089677505 -0.04265448 -0.16617888
000320 95 2d ff bd 9e ca b6 bc 88 a1 f5 3d 85 fe a8 3c
       -0.12459866 -0.022313412 0.119937 0.020629177
000330 c6 55 81 3d 98 ad c3 bc d3 5c 3d 3e d0 90 05 bd
       0.06315188 -0.023886487 0.18492441 -0.032608807
000340 a9 97 e3 3c 97 63 33 bd 1e 53 08 3d fc b3 6e 3d
       0.027782278 -0.04379615 0.03328239 0.058277115
000350 3a a1 99 bd 27 a5 b0 bc 92 39 55 bd e8 30 99 be
       -0.07501455 -0.021563126 -0.052056856 -0.29920125
000360 39 33 ca bc 94 34 8a 3d 1e 7c e7 bb 60 bd 0d 3e
       -0.024682628 0.0674831 -0.0070643565 0.13841772
000370 be b9 eb bc 4e 6d 96 bc 0f 17 c6 bc 84 c7 0b 3e
       -0.028775092 -0.018362667 -0.024180917 0.13650328
000380 9d 3a d5 3d 91 42 fa bd d6 f8 8b bd a3 5e 10 3e
       0.1041157 -0.12219728 -0.06834571 0.14098601
000390 3d 53 b0 3d be d9 a0 bd 0a f2 fc bd 1f 6f 02 be
       0.086096264 -0.07854031 -0.12350853 -0.12737702
0003a0 47 d8 0e bd f6 4b d3 bb 07 15 27 be 59 a1 8e 3b
       -0.034874227 -0.0064482642 -0.16316615 0.0043527302
0003b0 42 d8 80 3e cd 44 a8 bd 05 a7 ce 3c 0f e5 36 3e
       0.25164992 -0.08216248 0.025226125 0.17860816
0003c0 3a f7 2e 3d 4f a8 de 3d ad 20 f6 3c 4e 8f 82 bd
       0.042716242 0.10871946 0.030044878 -0.063749894
0003d0 4a d3 0e bd 11 bf 99 bd 29 b8 8e bc 17 f0 ed 3b
       -0.03486947 -0.07507146 -0.017421799 0.007261287
0003e0 dc eb 53 3d 24 ee 0f be d1 1a 44 bc c3 94 05 3e
       0.051738605 -0.14055687 -0.011969284 0.1304503
0003f0 26 83 46 3e a8 58 f0 bc b9 af bb 3c cb b0 a1 3d
       0.19385967 -0.02933915 0.02291094 0.07895049

network_body._body_endoder.seq_layers.2.bias f4 [128]
000000 f9 57 34 3d 66 6d 4d 3d 4f 24 32 ba ac f8 a8 3b
       0.04402921 0.05015316 -0.00067955715 0.005156597
000010 3a b1 ae 3c 27 86 ce bb e1 f2 54 3c 68 f9 ed bb
       0.021324743 -0.0063026133 0.01299736 -0.0072623976
000020 6b 3c d0 3c 70 8c 73 3a b8 aa 8e 3b 89 b9 1b bc
       0.025419435 0.0009290641 0.0043538474 -0.009504684
000030 2e 3e fa bb dc aa 0f 3a 62 61 a9 bc 46 65 05 3d
       -0.007636807 0.0005480477 -0.020676319 0.032567285
000040 c4 04 dc 3b 76 35 19 3d ec b9 47 3a 0c 42 12 bb
       0.0067144353 0.0374045 0.0007618952 -0.00223172
000050 d6 a5 3a 3d 89 dc e5 3c 0a 94 34 3d 94 cc 0a bd
       0.04556831 0.02805926 0.044086494 -0.033886507
000060 41 1f c3 3b e7 10 60 3b 3a ec 0e 3d ad a3 aa 3c
       0.0059546535 0.0034189762 0.034893252 0.02083
000070 56 58 74 3d 87 fa 22 3d 55 b6 e6 bb a5 52 15 bc
       0.059654556 0.039789703 -0.0070407786 -0.009113942
000080 e8 73 c5 3c e7 77 67 3b 92 7c 06 3c 1b 5b 2c 3c
       0.02410312 0.003531927 0.008208411 0.010519768
000090 63 f8 99 3d 18 c7 92 3b 9e 8a 36 3b 2b 3b 38 bd
       0.07518079 0.0044793 0.0027853618 -0.044978302
0000a0 8d ed 3a 3b 85 f9 43 bc 1e 20 e6 bc c5 f4 09 3a
       0.002852294 -0.011961346 -0.028091487 0.0005262609
0000b0 a9 1f 3a 3d 74 f1 24 bc 2f 61 e6 bb 59 85 17 3d
       0.04544035 -0.010067333 -0.007030628 0.036992405
0000c0 d7 54 d5 bb 0c a7 84 3d 4d 68 1c 3b 7a a8 8b 3d
       -0.006510358 0.06477174 0.002386588 0.06819244
0000d0 58 da 40 3d 04 6e 3f bc 16 87 63 3d 34 f7 d7 3b
       0.04708323 -0.011683945 0.05554875 0.006590748
0000e0 bc 01 3b 3c 3e 8e f2 3c 52 76 83 3c 5e 86 17 3c
       0.011413988 0.029608842 0.01604763 0.009248344
0000f0 b1 c8 d0 3b b4 5d 68 bd 02 f2 19 3d 11 8c 88 3c
       0.0063715805 -0.056729987 0.037584312 0.016668351
000100 42 19 23 3b 7a fc 2b ba 96 35 4d 3d 5a 21 0d bc
       0.002488688 -0.0006560754 0.05009993 -0.008613909
000110 d5 5c 20 bc 97 6a df bc 6a af 8a 3b cc 24 42 3d
       -0.009787758 -0.027272506 0.0042323368 0.047398373
000120 d5 48 44 ba 1c 1e 33 3c e2 3b a5 3b b4 c5 b3 3b
       -0.00074876595 0.010932472 0.005042539 0.0054862145
000130 66 98 4d bb 68 e6 19 3d 18 6c 46 3d 00 84 03 bd
       -0.0031371354 0.03757325 0.04844293 -0.032108307
000140 3d c6 3d 3c 83 83 f0 3c 27 9c 28 bb d0 52 37 3d
       0.011582908 0.029359585 -0.002572784 0.04475671
000150 be b5 c4 3c 64 30 b2 3b fc 26 2b 3c a7 e5 3b 3b
       0.024012443 0.0054378975 0.010446306 0.002867082
000160 f7 ed 8c ba 14 63 74 3c c7 84 83 bc 85 dd 55 bb
       -0.0010752071 0.0149162 -0.016054524 -0.0032633257
000170 d4 ea 13 bd 75 60 fe 3b 46 a5 8f 3b 5e 6c 20 3c
       -0.03611262 0.0077629634 0.004383716 0.009791462
000180 8e ba 75 3c 52 f1 10 3c c5 4d 8f 3c b0 aa 46 3c
       0.014998091 0.008846598 0.017493138 0.012125656
000190 6e bf 71 3c 46 77 a3 3b 17 c3 82 bc 7d 18 bd 3b
       0.014755113 0.0049885837 -0.015962167 0.0057707415
0001a0 29 26 f0 bc d9 68 12 3d ae a1 79 3b ae 97 56 39
       -0.029315071 0.03574452 0.0038090753 0.00020465135
0001b0 21 a8 4a 3d c1 1a 43 bb 94 58 2f 3d 99 4b 7b 3d
       0.049476746 -0.0029770585 0.042809084 0.061351392
0001c0 b8 ca 3c 3b a7 25 0b 3d 71 5d d8 bc 3f 95 71 3d
       0.0028807353 0.033971455 -0.026411744 0.058980223
0001d0 4a e5 74 3c 98 13 1d 3d d8 65 08 3d ca 5e ab 3c
       0.014947245 0.038348764 0.03330025 0.020919222
0001e0 82 23 29 3d 9a f8 9d bb 51 72 8f 3c 9d 64 0c bb
       0.04129363 -0.0048208954 0.017510565 -0.0021422275
0001f0 c0 81 63 3d c1 f6 19 3d 91 e2 c8 bc f5 e5 a0 3b
       0.05554366 0.03758884 -0.024522098 0.0049102255

action_model._discrete_distribution.branches.0.weight f4 [6, 128]
000000 d1 5b 64 bc 73 00 31 bd 1e 86 ab 3b 16 5b 66 bb
       -0.013937906 -0.04321332 0.005234494 -0.0035149506
000010 09 bb ff bc 52 87 1b bc 32 6c 62 3c 4b 50 9d bc
       -0.031217115 -0.009492712 0.013819741 -0.019203326
000020 d5 2a ea 3a 26 ae db bc 8d dd de 3c 2a b0 26 bc
       0.0017865548 -0.026816439 0.027205253 -0.010173837
000030 08 e2 a9 3a 88 0c f6 3c 80 b4 cc 3c 26 df 1b bd
       0.0012961039 0.030035272 0.024988413 -0.038054608
000040 3f 23 66 3a 10 12 43 3b 09 fb 04 bc a8 bc 4a 3c
       0.0008779056 0.0029765405 -0.008116492 0.012374081
000050 df e4 5c 3c 55 42 86 3c 9c 25 7c bc da cb 47 3c
       0.0134823015 0.016389051 -0.015389826 0.012194598
000060 62 19 5c 3c 8e bd e6 3c 63 60 09 3d c0 0f a9 3c
       0.013433786 0.028166559 0.033539187 0.020637393
000070 0a 23 ef 3b eb 8b 92 bb 50 5f c9 3b fb 7c 91 3c
       0.007297878 -0.004472246 0.0061453953 0.01775979
000080 f2 e0 1f bd bd 40 af bc ba 4e 84 3b 7c d9 5e bb
       -0.039032884 -0.021393174 0.0040377053 -0.0034004143
000090 88 d3 a2 bc aa 16 01 bb c9 62 fb bc 25 78 24 3c
       -0.019876257 -0.0019697347 -0.030686753 0.01003841
0000a0 bf 1e 46 3c fc c3 89 bb 9c 0a 33 3c 43 18 51 bc
       0.012092291 -0.0042042714 0.010927822 -0.012762132
0000b0 37 2b 83 bb 8d 38 43 3a ad db 00 3d 51 f7 85 3b
       -0.0040029543 0.00074470864 0.0314595 0.0040883203
0000c0 34 2f 60 bc e7 6e 1d bd c1 6e db 3b 0c 5c 17 bc
       -0.013683129 -0.038435843 0.0066965525 -0.009238254
0000d0 f3 03 07 3b e1 d3 95 3c 63 1c 9d bc c6 18 17 bc
       0.002060172 0.018289508 -0.019178575 -0.009222215
0000e0 9e 97 d9 3b d2 58 b3 bc 25 59 dd bc c3 7e 15 3b
       0.0066403886 -0.021892939 -0.027020046 0.0022811152
0000f0 e3 13 a9 bc 21 03 81 3c a7 14 77 bc 98 37 2d bd
       -0.020639366 0.015748562 -0.0150806075 -0.042289346
000100 48 0e 14 bc 48 16 ee bc 07 ba f6 bc 2c f9 06 3c
       -0.009036608 -0.029063359 -0.030118002 0.008238118
000110 4f f6 49 bb 62 76 63 3c 05 9a 81 3a c6 f8 8e bc
       -0.0030816977 0.013883205 0.000988782 -0.017452609
000120 e3 af c1 3c 6a f2 a4 3c f3 fc eb 3c 9f 4d 44 3c
       0.02364344 0.020135123 0.028807139 0.011981397
000130 3d f3 a6 bb 9c 37 15 bc f2 ee 3a 3a b1 06 30 3b
       -0.005094914 -0.009107497 0.00071309425 0.0026859457
000140 d5 51 6b 3c 4f 66 18 3c b9 62 e7 3c 12 f7 d3 bc
       0.014362772 0.009301736 0.028245317 -0.025874648
000150 f4 0a 19 bc c3 30 26 3b 75 d6 3a ba a7 3f 0a 3b
       -0.00934099 0.0025358654 -0.00071272935 0.0021095069
000160 53 6f b3 bb 23 0b 27 bc cd 8c ab bc 0e e0 5d bc
       -0.0054759174 -0.010195526 -0.020941162 -0.013542188
000170 e9 c6 46 3c 1b 0b 3c 3d f5 81 1b bd c3 8e 84 3c
       0.012132385 0.04590903 -0.037965734 0.016181355
000180 88 62 20 3a c2 eb 27 bd d0 c9 75 3c 8e 32 05 ba
       0.0006118198 -0.04099632 0.015001729 -0.00050810806
000190 5f 10 0c 3d f0 11 b6 3c 45 8b 5d bc 0f 33 f2 3c
       0.0341953 0.02222535 -0.013521974 0.029565362
0001a0 15 1a 6d bb 57 66 c3 bc 6e ba 36 3c 31 21 10 bc
       -0.0036178876 -0.02385251 0.011152847 -0.008796976
0001b0 b3 fb 4e bd bc 36 92 bc db 61 43 3a 7a 1c ec 3a
       -0.050533008 -0.017848365 0.0007453241 0.0018013858
0001c0 78 e6 fe 3b 54 d4 d2 3a 5f ff 08 3a a3 1f 16 bd
       0.007778939 0.0016085007 0.00052260415 -0.036651265
0001d0 53 84 35 3c 76 38 f0 bc d9 b1 a9 bc 9d 71 7d bc
       0.011078912 -0.029323798 -0.020714687 -0.015468982
0001e0 13 4b c8 3b e1 ad c0 bb 5e 1b c2 bc 8c 2c be 3c
       0.006112465 -0.005880103 -0.02369469 0.023214601
0001f0 df d5 2a bd 0d d4 50 3c b9 57 1c 3d d6 0f a9 bc
       -0.04170787 0.012745869 0.038169596 -0.020637434
000200 a1 d0 2c bc 1b 45 66 bd ad 1b 80 bb 3e 6a 82 3d
       -0.010547788 -0.056218248 -0.003909549 0.0636792
000210 d8 b0 b0 3c 39 d3 c2 3c ec e1 51 3d 55 cd 92 3c
       0.0215687 0.02378236 0.051240847 0.017920176
000220 63 a5 09 3d af 6d 97 ba c4 61 b0 bc fd 12 89 3d
       0.03360499 -0.0011553074 -0.021530993 0.06693075
000230 16 35 3f 3d 2f 6b 91 3c 2d 28 e2 3c cc 2c 86 bc
       0.046681486 0.017751304 0.027607048 -0.016378783
000240 65 58 5d bc 73 0c eb 3b 13 99 d7 3b e5 44 a9 3c
       -0.013509844 0.007173115 0.006579527 0.020662734
000250 24 1b 5a bd 8d dd 3b bd f6 5f 58 bd 32 16 02 3d
       -0.05324854 -0.045865584 -0.05282589 0.03175945
000260 38 3c 4c 3d b1 ab 19 3c b5 f5 55 bd 2b ba 57 3c
       0.049862117 0.009379313 -0.052236278 0.0131669445
000270 17 51 8d bd ce 2f 1a bd b7 e8 2c 3d 20 ec d6 3c
       -0.06900232 -0.037643246 0.04221412 0.02623564
000280 4c 93 c6 3b ab 36 ea 3c 2f 1b 68 bc 5c 15 c3 3c
       0.0060600396 0.02859052 -0.014166637 0.023813896
000290 d6 66 1c bd 8f 48 00 3d 98 cb 35 3d f5 fa 8c 3c
       -0.03818401 0.031319197 0.044383615 0.01720951
0002a0 55 c9 d7 3c cf 80 6d 3d ea 46 06 3d c1 e9 19 3d
       0.02634112 0.05798417 0.032782473 0.03757644
0002b0 aa fc 32 bd d2 78 7f 3c fd c3 5f 3a 70 c7 24 bd
       -0.04369799 0.015592771 0.00085359794 -0.04022926
0002c0 bc 24 88 3d 5f d7 a2 bd 38 a8 85 3c a2 42 a3 bd
       0.066476315 -0.07951235 0.016315565 -0.079716936
0002d0 03 89 65 bd b2 22 66 3d 24 19 5b bd dd 0e 1b 3d
       -0.056038868 0.05618543 -0.053490773 0.03785597
0002e0 94 49 80 3d 55 02 98 bc 19 6c 8f 3d d0 f6 c0 3c
       0.06264034 -0.0185558 0.0700304 0.02355519
0002f0 11 77 fb 3a 7f 42 b6 3c ae 38 66 bd 03 39 8d bc
       0.0019185265 0.022248505 -0.056206398 -0.0172391
000300 a2 46 e3 3c 0b 94 09 3d b7 8f 5f bd fa 4e 0a 3c
       0.027743641 0.03358845 -0.054580417 0.008441681
000310 fe 0d 8d 3b 81 68 27 3d 53 52 9b 3c 42 c8 47 bd
       0.0043046465 0.040871147 0.018960154 -0.048774965
000320 35 2d 84 3d b8 42 1e bc 4e e3 f0 3c 17 3e fa 3c
       0.06453935 -0.009659462 0.029405262 0.030547185
000330 c0 8a 60 3d 0d d8 19 bd 31 a5 7e bd 88 41 21 3d
       0.054819822 -0.037559558 -0.062169258 0.039369136
000340 b6 3a 7b bc 12 4f b8 3d 90 b8 8a 3c ca 0f 2f bd
       -0.015333822 0.089994565 0.01693371 -0.042739667
000350 6a 45 a7 3d f9 60 99 bc 2e 40 6e 3d 7d 9e b3 3c
       0.081675366 -0.018722998 0.058166675 0.021926159
000360 dc 6e 04 bd af 61 71 3d 29 72 bc 3c 58 16 a5 3d
       -0.032332286 0.05893105 0.023003655 0.08060902
000370 31 7d 26 3c de 8d 19 3b cf b3 97 3d 25 7c 08 3d
       0.010161684 0.0023430507 0.07407343 0.03332152
000380 68 81 18 bd 05 14 42 bb 5d aa c9 bc 7e d4 51 3c
       -0.037232786 -0.0029613983 -0.024617368 0.01280701
000390 8b 67 03 3c 47 c8 b7 3c 17 10 50 3c 48 a0 17 3d
       0.008020292 0.022434367 0.012699149 0.03701809
0003a0 f5 0e 07 3d bf 62 29 bd 8a 57 36 3d c7 28 52 3d
       0.03297325 -0.041353937 0.044517078 0.05130842
0003b0 35 e4 09 bd 1c dd 5a 3d 33 8c 3c bd bb 53 8e bd
       -0.0336649 0.053433523 -0.046032142 -0.06949564
0003c0 78 f9 b5 bc d5 55 4c bd e7 cf 84 3c a2 54 80 bd
       -0.022213683 -0.049886543 0.016212417 -0.062661424
0003d0 99 bb 1d 3b 86 dc 35 bd e0 ea 24 bd 89 3e 81 3d
       0.0024068116 -0.04439976 -0.040263057 0.06310756
0003e0 82 c7 8b bd 32 7c a4 3b c9 ec f4 bc d2 c0 37 3d
       -0.068251625 0.005019688 -0.029898064 0.044861622
0003f0 ac 0c e2 bc ca f1 0f bd 37 2b bf 3c 14 95 7b 3d
       -0.027593933 -0.035142697 0.023336036 0.06142147

action_model._discrete_distribution.branches.0.bias f4 [6]
000000 26 0b da ba 4d 74 a6 bb ac 0f b7 3c e5 a7 0e bc
       -0.0016635403 -0.005079782 0.02234634 -0.008707021
000010 fd 81 17 3b 44 b8 9f bb
       0.002311825 -0.004874261
