Assets/Hide and Seek/Brain/HideAndSeek.onnx (onnx, 261808 bytes, 6 tensors)

network_body._body_endoder.seq_layers.0.weight f4 [128, 370]
0.10695393 -0.009506704 0.029504525 -0.07303809 0.04560674 -0.051397786 0.073914155 -0.080353744
-0.0072955946 0.080640905 -0.006827474 -0.063634224 -0.02917689 -0.00031202336 -0.052527744 -0.05141705
0.06433965 0.08076271 -0.0045703347 0.084790915 0.052934803 -0.03966492 -0.0067760777 0.042846363
-0.024677739 0.020644717 0.008123148 0.09955044 -0.012220381 -0.06095381 0.07978396 0.0029897892
0.0528761 -0.04391643 0.0064394646 0.03399068 0.041350476 0.116441175 0.015593301 -0.053774484
-0.017487582 0.01660282 -0.083078645 0.014739567 0.049824573 -0.02864895 0.03874441 0.05639374
-0.005463995 0.06499147 -0.009624307 -0.0063335933 -0.10516918 0.025606615 0.014231864 0.022655511
0.0003912732 0.033426948 0.059328556 0.02735717 -0.052056756 0.06494249 -0.09527176 0.0082916785
-0.042645417 0.020504583 -0.014500204 -0.06753959 0.09597749 -0.051013175 -0.035729483 0.081362665
-0.052307855 -0.012565517 0.0033642428 -0.06871661 0.01905977 0.001547286 -0.027289374 0.09407419
-0.008167753 -0.04321425 0.021245392 0.037212394 0.048723616 0.07127868 -0.025227644 -0.037575852
-0.020270009 -0.02219848 -0.01915117 0.01742335 0.004482609 0.031156646 -0.01427814 -0.018090934
0.046518825 0.043890264 -0.00030873934 -0.12729152 0.061971523 -0.015734626 -0.010524445 0.0095050605
0.015848013 -0.01014373 -0.07026448 0.037880596 -0.0598315 0.07460633 0.025100293 0.05605673
-0.07128424 0.044878636 0.03750314 -0.030570539 -0.027382685 -0.06902169 0.011655217 -0.0064471317
-0.008263049 -0.029832179 0.019684866 0.05588525 0.017723527 -0.118440606 0.013428966 -0.021387497
0.025838727 -0.036321346 0.089731 0.026962291 0.045375295 -0.06588868 -0.0382327 0.0027057405
-0.03187269 0.06612262 0.004542481 0.0118194055 -0.03473742 -0.031495813 0.0567141 -0.047729615
0.06082128 0.043432362 -0.056417882 -0.042352285 -0.08696055 -0.0657338 0.04305979 0.050140977
0.00074479677 0.04913708 0.023941586 0.05140381 0.0019702022 -0.019785427 -0.04762766 0.0631251
-0.00682129 0.02784294 0.025898099 -0.0015984226 0.051637568 -0.04243031 0.06172424 0.030790636
0.0091674235 0.015761185 0.05939021 -0.052886747 -0.009820447 0.03126305 0.051232483 0.056387026
-0.012387273 0.035852913 0.03767681 -0.071001634 0.026002895 -0.0016445987 -0.07217853 0.004148512
0.084043264 -0.056499448 0.0070857136 0.007141653 0.07540586 0.08210885 0.016637841 0.0390145
0.013484994 -0.037197273 -0.060774796 0.07114812 -0.11026467 -0.032345407 -0.02732114 0.011834063
-0.004759248 0.040176537 0.021425687 -0.0076664137 -0.09186127 0.02409477 0.0044007106 -0.0910393
0.01852452 -0.13087893 0.034643464 0.05931661 0.02607548 0.0011399997 0.012301356 0.02956647
-0.018151203 0.01932536 -0.0047070896 0.1309176 0.053158745 -0.053096488 0.0064483173 0.006997104
-0.0779665 -0.009490118 -0.042806253 0.0070668627 0.021255465 0.06793675 -0.043062508 -0.027964491
-0.07940164 0.0031806936 -0.030089704 -0.046410367 0.008353742 0.024887545 0.023413852 0.027569333
0.08782125 -0.011736466 0.1093385 -0.038035315 -0.057091687 0.013800333 0.042903837 -0.0017874702
0.0036953771 -0.01819931 0.024307238 -0.07230247 0.01394539 0.005332119 0.024740718 -0.011102961
00000000: a90a db3d 02c2 1bbc 79b3 f13c fe94 95bd
00000010: 22ce 3a3d 7c86 52bd 4e60 973d 8190 a4bd
00000020: e20f efbb 0f27 a53d 01b9 dfbb a952 82bd
00000030: 6004 efbc 1197 a3b9 5527 57bd af9a 52bd
00000040: 82c4 833d eb66 a53d bfc2 95bb dca6 ad3d
00000050: 2ad2 583d af77 22bd dc09 debb ab7f 2f3d
00000060: f828 cabc 1c1f a93c f416 053c 1ae1 cb3d
00000070: fe37 48bc b4aa 79bd c665 a33d 57f0 433b
00000080: 9c94 583d b7e1 33bd 2502 d33b d039 0b3d
00000090: 1e5f 293d b678 ee3d 0b7b 7f3c a242 5cbd
000000a0: 1e42 8fbc a302 883c 2325 aabd 3a7e 713c
000000b0: da14 4c3d 34b1 eabc 75b2 1e3d 1ffd 663d
000000c0: 500b b3bb 3f1a 853d 45af 1dbc 088a cfbb
000000d0: f062 d7bd f7c4 d13c c42c 693c 0d98 b93c
000000e0: cd23 cd39 b2ea 083d 8002 733d 251c e03c
000000f0: 7739 55bd 9100 853d d71d c3bd d2d9 073c
00000100: f6ac 2ebd 3af9 a73c 4392 6dbc 3252 8abd
00000110: d98f c43d 31f3 50bd 1459 12bd 78a1 a63d
00000120: c340 56bd 99df 4dbc a17a 5c3b 4bbb 8cbd
00000130: 3c23 9c3c 4ece ca3a f78d dfbc f8a9 c03d
00000140: 0ad2 05bc 6d01 31bd d10a ae3c 066c 183d
00000150: 6a92 473d 8efa 913d 34aa cebc 23e9 19bd
00000160: 4a0d a6bc 96d9 b5bc eae2 9cbc 6abb 8e3c
00000170: dae2 923b 393c ff3c dcee 69bc 7033 94bc
00000180: 868a 3e3d 47c6 333d 4bde a1b9 b558 02be
00000190: dad5 7d3d e7e5 80bc b96e 2cbc 1dbb 1b3c
000001a0: b1d3 813c e331 26bc d3e6 8fbd af28 1b3d
000001b0: e011 75bd 34cb 983d 219f cd3c be9b 653d
000001c0: 79fd 91bd a9d2 373d e49c 193d 116f fabc
000001d0: a751 e0bc 3e5b 8dbd 86f5 3e3c 7642 d3bb
000001e0: bd61 07bc 9d62 f4bc 2842 a13c efe7 643d
000001f0: ee30 913c fd90 f2bd 2a05 5c3c d534 afbc
00000200: bdab d33c b1c5 14bd e3c4 b73d 06e0 dc3c
00000210: 72db 393d a5f0 86bd e499 1cbd cb52 313b
00000220: f08c 02bd 4c6b 873d 18d9 943b 2ea6 413c
00000230: d348 0ebd c101 01bd 0b4d 683d 2180 43bd
00000240: bc1f 793d 22e6 313d 7016 67bd 9779 2dbd
00000250: 5f18 b2bd 719f 86bd 765f 303d a060 4d3d
00000260: 773e 433a f643 493d 2521 c43c cd8c 523d
00000270: 821e 013b 0c15 a2bc 3915 43bd bc47 813d
00000280: 2185 dfbb e116 e43c 4028 d43c 2a82 d1ba
00000290: ea81 533d 68cb 2dbd 8fd2 7c3d a53c fc3c
000002a0: f632 163c 9a1d 813c 2643 733d c69f 58bd
000002b0: f1e5 20bc af0d 003d 27d9 513d 15f6 663d
000002c0: fdf3 4abc 81da 123d 0053 1a3d 4e69 91bd
000002d0: 0604 d53c 938f d7ba 56d2 93bd 3ef0 873b
000002e0: e01e ac3d f76b 67bd 462f e83b 8704 ea3b
000002f0: 636e 9a3d af28 a83d 154c 883c abcd 1f3d
00000300: 2af0 5c3c 2b5c 18bd feee 78bd 1bb6 913d
00000310: 71d2 e1bd 9e7c 04bd 95d0 dfbc a8e3 413c
00000320: 77f3 9bbb 2790 243d ec84 af3c 8a36 fbbb
00000330: c321 bcbd 6562 c53c d633 903b d072 babd
00000340: bcc0 973c 2005 06be 4ee6 0d3d f9f5 723d
00000350: 3f9c d53c 0b6c 953a a08b 493c 6235 f23c
00000360: d5b1 94bc 3850 9e3c ee3d 9abb 430f 063e
00000370: fcbc 593d b47b 59bd 684c d33b f647 e53b
00000380: e6ac 9fbd 717c 1bbc 9c55 2fbd 2491 e73b
00000390: f11f ae3c 6c22 8b3d 5062 30bd ca15 e5bc
000003a0: 549d a2bd 2f73 503b af7e f6bc cc18 3ebd
000003b0: 22de 083c f7e0 cb3c 68ce bf3c 15d9 e13c
000003c0: a1db b33d 4e4a 40bc ddec df3d ebca 1bbd
000003d0: f9d8 69bd cb1a 623c efbb 2f3d 8c49 eaba
000003e0: 242e 723b b816 95bc f91f c73c 5113 94bd
000003f0: 347b 643c 0eb9 ae3b 0cad ca3c 32e9 35bc

network_body._body_endoder.seq_layers.0.bias f4 [128]
0.0 0.0 0.0 0.0 0.0 0.0 0.0 0.0
0.0 0.0 0.0 0.0 0.0 0.0 0.0 0.0
0.0 0.0 0.0 0.0 0.0 0.0 0.0 0.0
0.0 0.0 0.0 0.0 0.0 0.0 0.0 0.0
0.0 0.0 0.0 0.0 0.0 0.0 0.0 0.0
0.0 0.0 0.0 0.0 0.0 0.0 0.0 0.0
0.0 0.0 0.0 0.0 0.0 0.0 0.0 0.0
0.0 0.0 0.0 0.0 0.0 0.0 0.0 0.0
0.0 0.0 0.0 0.0 0.0 0.0 0.0 0.0
0.0 0.0 0.0 0.0 0.0 0.0 0.0 0.0
0.0 0.0 0.0 0.0 0.0 0.0 0.0 0.0
0.0 0.0 0.0 0.0 0.0 0.0 0.0 0.0
0.0 0.0 0.0 0.0 0.0 0.0 0.0 0.0
0.0 0.0 0.0 0.0 0.0 0.0 0.0 0.0
0.0 0.0 0.0 0.0 0.0 0.0 0.0 0.0
0.0 0.0 0.0 0.0 0.0 0.0 0.0 0.0
00000000: 0000 0000 0000 0000 0000 0000 0000 0000
00000010: 0000 0000 0000 0000 0000 0000 0000 0000
00000020: 0000 0000 0000 0000 0000 0000 0000 0000
00000030: 0000 0000 0000 0000 0000 0000 0000 0000
00000040: 0000 0000 0000 0000 0000 0000 0000 0000
00000050: 0000 0000 0000 0000 0000 0000 0000 0000
00000060: 0000 0000 0000 0000 0000 0000 0000 0000
00000070: 0000 0000 0000 0000 0000 0000 0000 0000
00000080: 0000 0000 0000 0000 0000 0000 0000 0000
00000090: 0000 0000 0000 0000 0000 0000 0000 0000
000000a0: 0000 0000 0000 0000 0000 0000 0000 0000
000000b0: 0000 0000 0000 0000 0000 0000 0000 0000
000000c0: 0000 0000 0000 0000 0000 0000 0000 0000
000000d0: 0000 0000 0000 0000 0000 0000 0000 0000
000000e0: 0000 0000 0000 0000 0000 0000 0000 0000
000000f0: 0000 0000 0000 0000 0000 0000 0000 0000
00000100: 0000 0000 0000 0000 0000 0000 0000 0000
00000110: 0000 0000 0000 0000 0000 0000 0000 0000
00000120: 0000 0000 0000 0000 0000 0000 0000 0000
00000130: 0000 0000 0000 0000 0000 0000 0000 0000
00000140: 0000 0000 0000 0000 0000 0000 0000 0000
00000150: 0000 0000 0000 0000 0000 0000 0000 0000
00000160: 0000 0000 0000 0000 0000 0000 0000 0000
00000170: 0000 0000 0000 0000 0000 0000 0000 0000
00000180: 0000 0000 0000 0000 0000 0000 0000 0000
00000190: 0000 0000 0000 0000 0000 0000 0000 0000
000001a0: 0000 0000 0000 0000 0000 0000 0000 0000
000001b0: 0000 0000 0000 0000 0000 0000 0000 0000
000001c0: 0000 0000 0000 0000 0000 0000 0000 0000
000001d0: 0000 0000 0000 0000 0000 0000 0000 0000
000001e0: 0000 0000 0000 0000 0000 0000 0000 0000
000001f0: 0000 0000 0000 0000 0000 0000 0000 0000

network_body._body_endoder.seq_layers.2.weight f4 [128, 128]
0.07954481 0.07151098 -0.10897742 0.007455788 -0.07490909 0.070029385 -0.012716546 -0.122304
-0.07795113 0.06509307 0.041442245 -0.06255385 -0.18553008 -0.04701578 -0.1423613 0.10545806
0.17790486 -0.042067602 0.053132333 0.06882794 0.07548179 -0.052004658 0.08787016 -0.14820105
0.08493949 0.04706735 -0.03265985 -0.027779426 0.15986916 0.061313808 -0.11539121 0.1810142
-0.05955375 -0.0148647865 0.12509808 -0.0988459 -0.030302411 -0.016242823 0.00017866041 0.04505432
0.11090731 0.013419063 -0.11000311 -0.06726296 0.008454507 -0.11691964 -0.02230825 0.1229963
0.1394283 0.1911738 -0.11338641 0.06886472 0.12839669 -0.029049272 -0.020065973 -0.033885453
-0.0046665175 0.022685478 0.114461504 0.05955001 -0.03683213 -0.04295971 -0.010755606 0.14793761
-0.001323132 0.05060188 -0.025854565 -0.07491033 -0.038720928 0.06589677 -0.09976686 0.017352143
-0.09130945 0.013798566 0.13939236 -0.010583309 -0.08248903 -0.021721784 -0.0101893945 0.0876035
0.098804384 -0.07566753 0.038119905 -0.050736323 0.107357666 0.12053047 -0.08947802 0.0035876476
-0.0483959 -0.06386169 0.015813058 -0.05890907 0.13713168 0.10858523 -0.11873838 -0.088714465
0.06002042 -0.054604474 0.08278124 -0.09259684 0.04639567 -0.049783755 -0.039068326 0.082144074
0.019266106 0.06813765 -0.10444484 -0.14264733 -0.07312652 0.0028102566 0.0054568164 -0.15139277
0.11563963 0.02036261 -0.008010882 -0.116605766 0.006778941 -0.0076756254 -0.08538221 -0.19273525
-0.04872822 -0.0032140731 0.015723709 -0.1265955 -0.16200994 0.09484408 -0.0012335164 -0.06217369
-0.17679861 -0.14338012 -0.055226367 -0.013176753 -0.09429298 -0.04160218 0.027734412 0.1401867
0.04936414 0.064297006 0.013467348 0.03950721 -0.0131432405 -0.0911381 -0.038166482 -0.14188403
-0.10101057 0.01441389 0.050209515 -0.002985211 0.06709544 0.038835388 -0.00022833746 0.09443137
0.022554645 0.018334454 -0.0268274 -0.05472078 -0.08406975 0.050519787 -0.147894 0.08613158
0.18210146 -0.07990485 0.10172226 0.0010032745 0.06082495 0.01046628 0.10438917 -0.016277546
0.035971873 -0.040621705 0.06295738 -0.037893303 -0.0020122728 -0.0059825415 0.06642687 -0.027806435
0.017328905 0.07510009 -0.0556577 -0.049864616 0.020328859 -0.012787391 -0.101472974 0.0491838
0.12969634 0.01825114 0.09651567 0.036963776 -0.09593395 0.11129457 -0.05711448 -0.116575114
-0.0013797438 0.16423824 0.18883954 0.035062168 -0.05674331 0.1314923 0.07869872 -0.029663876
0.22831254 0.07085815 -0.111209445 -0.13218792 0.043931887 0.11608502 0.0033932342 -0.09591969
0.0856948 0.14943169 -0.056079548 0.013877565 -0.07243525 0.07029589 -0.09770148 0.044242132
0.07116615 -0.08327759 -0.06299396 0.12752146 -0.1516791 0.08928699 0.04406651 -0.12106895
0.056868874 -0.122562625 -0.04064796 -0.107022405 -0.03580673 -0.023281569 -0.07403625 -0.010553199
0.1245304 -0.1676415 -0.024189964 -0.062513046 -0.064511545 0.024863653 -0.020573776 0.02293262
-0.047024354 -0.0946709 0.0745468 0.16245884 -0.029770052 -0.0199521 -0.060035136 -0.05830634
0.09792187 -0.061742887 -0.200971 -0.035011694 -0.046987135 0.0979229 -0.19504298 0.009483455
00000000: 64e8 a23d 5974 923d 8e2f dfbd af4f f43b
00000010: f069 99bd 916b 8f3d 0f59 50bc 857a fabd
00000020: d8a4 9fbd 844f 853d 58bf 293d 3c1c 80bd
00000030: 99fb 3dbe 9e93 40bd 29c7 11be 65fa d73d
00000040: b12c 363e 144f 2cbd 4aa1 593d aaf5 8c3d
00000050: 3296 9a3d d602 55bd 45f5 b33d 04c2 17be
00000060: c1f4 ad3d b2c9 403d 56c6 05bd ae91 e3bc
00000070: beb4 233e 3024 7b3d 3a52 ecbd c95b 393e
00000080: a2ee 73bd 6f8b 73bc b619 003e b86f cabd
00000090: c33c f8bc ab0f 85bc ca56 3b39 e18a 383d
000000a0: 5f23 e33d a1db 5b3c 4f49 e1bd 2ac1 89bd
000000b0: c684 0a3c 9073 efbd cbbf b6bc 7ce5 fb3d
000000c0: 4bc6 0e3e 11c3 433e 2237 e8bd f208 8d3d
000000d0: 6c7a 033e bdf8 edbc 6561 a4bc 79cb 0abd
000000e0: 96e9 98bb e5d6 b93c cb6a ea3d b6ea 733d
000000f0: 4add 16bd 85f6 2fbd 4838 30bc f57c 173e
00000100: f16c adba eb43 4f3d f4cc d3bc 966a 99bd
00000110: d699 1ebd e3f4 863d 9152 ccbd 1526 8e3c
00000120: 7300 bbbd 6113 623c dfbc 0e3e 9e65 2dbc
00000130: 02f0 a8bd e2f1 b1bc 6bf1 26bc 7769 b33d
00000140: f459 ca3d 94f7 9abd 9e23 1c3d e4d0 4fbd
00000150: 56de db3d aed8 f63d 4140 b7bd bd1e 6b3b
00000160: c73a 46bd ebc9 82bd 638a 813c a34a 71bd
00000170: 3f6c 0c3e ef61 de3d 1c2d f3bd eeaf b5bd
00000180: f9d7 753d f1a8 5fbd 3689 a93d 69a3 bdbd
00000190: 6309 3e3d 0dea 4bbd 1c06 20bd 273b a83d
000001a0: f4d3 9d3c c18b 8b3d 2de7 d5bd 2412 12be
000001b0: 5bc3 95bd 482c 383b 18cf b23b b506 1bbe
000001c0: 78d4 ec3d 7dcf a63c 1340 03bc 01cf eebd
000001d0: e121 de3b d083 fbbb dedc aebd 645c 45be
000001e0: 3e97 47bd 33a3 52bb 02cf 803c 40a2 01be
000001f0: efe5 25be 9d3d c23d f1ad a1ba d7a9 7ebd
00000200: b20a 35be 3dd2 12be 0b35 62bd 4fe3 57bc
00000210: ae1c c1bd 0c67 2abd 4733 e33c 1a8d 0f3e
00000220: 0d32 4a3d 26ae 833d 27a6 5c3c 50d2 213d
00000230: bf56 57bc 9da6 babd 7554 1cbd 0c4a 11be
00000240: a1de cebd 3d28 6c3c 7ea8 4d3d 88a3 43bb
00000250: 5669 893d db11 1f3d df6d 6fb9 3c65 c13d
00000260: 85c4 b83c 2332 963c 23c5 dbbc e622 60bd
00000270: c32c acbd d6ed 4e3d 8671 17be c165 b03d
00000280: ce78 3a3e 27a5 a3bd c353 d03d 4e80 833a
00000290: 9523 793d c37a 2b3c fdc9 d53d 7d58 85bc
000002a0: 3e57 133d f262 26bd cdef 803d 0236 1bbd
000002b0: 56e0 03bb 3209 c4bb d00a 883d 52ca e3bc
000002c0: 59f5 8d3c 13ce 993d 54f9 63bd d73e 4cbd
000002d0: b588 a63c 3582 51bc 10d1 cfbd f474 493d
000002e0: 1ecf 043e 6a83 953c 02aa c53d 5467 173d
000002f0: 0579 c4bd 68ee e33d dff0 69bd efbe eebd
00000300: 85d8 b4ba 122e 283e 275f 413e 599d 0f3d
00000310: ac6b 68bd eba5 063e cb2c a13d a801 f3bc
00000320: c3ca 693e 141e 913d c7c1 e3bd 455c 07be
00000330: ecf1 333d fcbd ed3d 0661 5e3b 8b71 c4bd
00000340: c180 af3d 9f04 193e abb3 65bd ba5e 633c
00000350: ef58 94bd 4bf7 8f3d b717 c8bd 3d37 353d
00000360: 8fbf 913d 718d aabd fa02 81bd fc94 023e
00000370: c451 1bbe 19dc b63d 167f 343d fff2 f7bd
00000380: 56ef 683d 1d02 fbbd 7a7e 26bd 902e dbbd
00000390: 14aa 12bd fdb8 bebc 51a0 97bd 53e7 2cbc
000003a0: cb09 ff3d 37aa 2bbe 082a c6bc d706 80bd
000003b0: a11e 84bd dcae cb3c 568a a8bc 31dd bb3c
000003c0: 9c9c 40bd d1e2 c1bd feab 983d 9c5b 263e
000003d0: 53e0 f3bc 9672 a3bc 67e7 75bd a1d2 6ebd
000003e0: 438b c83d 1ce6 7cbd 58cb 4dbe 6c68 0fbd
000003f0: 9575 40bd cd8b c83d 59b9 47be 7e60 1b3c

network_body._body_endoder.seq_layers.2.bias f4 [128]
0.0 0.0 0.0 0.0 0.0 0.0 0.0 0.0
0.0 0.0 0.0 0.0 0.0 0.0 0.0 0.0
0.0 0.0 0.0 0.0 0.0 0.0 0.0 0.0
0.0 0.0 0.0 0.0 0.0 0.0 0.0 0.0
0.0 0.0 0.0 0.0 0.0 0.0 0.0 0.0
0.0 0.0 0.0 0.0 0.0 0.0 0.0 0.0
0.0 0.0 0.0 0.0 0.0 0.0 0.0 0.0
0.0 0.0 0.0 0.0 0.0 0.0 0.0 0.0
0.0 0.0 0.0 0.0 0.0 0.0 0.0 0.0
0.0 0.0 0.0 0.0 0.0 0.0 0.0 0.0
0.0 0.0 0.0 0.0 0.0 0.0 0.0 0.0
0.0 0.0 0.0 0.0 0.0 0.0 0.0 0.0
0.0 0.0 0.0 0.0 0.0 0.0 0.0 0.0
0.0 0.0 0.0 0.0 0.0 0.0 0.0 0.0
0.0 0.0 0.0 0.0 0.0 0.0 0.0 0.0
0.0 0.0 0.0 0.0 0.0 0.0 0.0 0.0
00000000: 0000 0000 0000 0000 0000 0000 0000 0000
00000010: 0000 0000 0000 0000 0000 0000 0000 0000
00000020: 0000 0000 0000 0000 0000 0000 0000 0000
00000030: 0000 0000 0000 0000 0000 0000 0000 0000
00000040: 0000 0000 0000 0000 0000 0000 0000 0000
00000050: 0000 0000 0000 0000 0000 0000 0000 0000
00000060: 0000 0000 0000 0000 0000 0000 0000 0000
00000070: 0000 0000 0000 0000 0000 0000 0000 0000
00000080: 0000 0000 0000 0000 0000 0000 0000 0000
00000090: 0000 0000 0000 0000 0000 0000 0000 0000
000000a0: 0000 0000 0000 0000 0000 0000 0000 0000
000000b0: 0000 0000 0000 0000 0000 0000 0000 0000
000000c0: 0000 0000 0000 0000 0000 0000 0000 0000
000000d0: 0000 0000 0000 0000 0000 0000 0000 0000
000000e0: 0000 0000 0000 0000 0000 0000 0000 0000
000000f0: 0000 0000 0000 0000 0000 0000 0000 0000
00000100: 0000 0000 0000 0000 0000 0000 0000 0000
00000110: 0000 0000 0000 0000 0000 0000 0000 0000
00000120: 0000 0000 0000 0000 0000 0000 0000 0000
00000130: 0000 0000 0000 0000 0000 0000 0000 0000
00000140: 0000 0000 0000 0000 0000 0000 0000 0000
00000150: 0000 0000 0000 0000 0000 0000 0000 0000
00000160: 0000 0000 0000 0000 0000 0000 0000 0000
00000170: 0000 0000 0000 0000 0000 0000 0000 0000
00000180: 0000 0000 0000 0000 0000 0000 0000 0000
00000190: 0000 0000 0000 0000 0000 0000 0000 0000
000001a0: 0000 0000 0000 0000 0000 0000 0000 0000
000001b0: 0000 0000 0000 0000 0000 0000 0000 0000
000001c0: 0000 0000 0000 0000 0000 0000 0000 0000
000001d0: 0000 0000 0000 0000 0000 0000 0000 0000
000001e0: 0000 0000 0000 0000 0000 0000 0000 0000
000001f0: 0000 0000 0000 0000 0000 0000 0000 0000

action_model._discrete_distribution.branches.0.weight f4 [7, 128]
-0.002666964 0.02186774 0.0056626084 0.0015009859 0.0058185738 0.0186403 0.024356004 0.0048118006
-0.012885465 -0.010253529 -0.0017779422 0.0077048256 0.0037891918 0.0020601486 0.0031382728 -0.00206749
-0.0074647777 -0.0016794925 -0.004035236 0.0064159604 0.0017206796 -0.0032673923 -0.015006201 -0.005358303
-0.008259322 -0.0015358069 0.002537264 0.0071800696 -0.0049240342 -0.01448471 -0.0144682275 -0.012400542
0.013691924 -0.0035147094 -0.010278015 0.0026585779 0.005730543 0.008546119 0.013055518 -0.0055718203
0.0044181407 0.017759534 -0.012092235 -0.0056199515 -0.006506839 0.0054908157 0.0036173302 0.009360179
0.008208618 -0.011889367 -0.0020956022 -0.002169532 0.010265797 -0.0072473334 0.004518354 0.006749358
-0.0015766372 -0.012516208 0.019506149 -0.0070435107 0.0061418675 -0.0007938083 0.0071017975 0.014821312
0.004799767 0.005122492 0.013162616 0.0021079169 -0.0014397977 0.0065682638 -0.014272104 0.0035777239
-0.00093503686 -0.0053715683 -0.00033155186 -0.0073274295 -0.005181582 0.0005103184 0.0037039947 0.0068654874
0.0031910043 -0.0016831063 -0.012254748 -4.8060156e-05 0.0016300211 -0.0028620164 -0.0058425837 -0.019135067
-0.0168645 -0.014899015 -0.022172533 -0.0016038753 -0.006920227 -0.004747996 -0.012033518 0.0090144165
0.0057119043 -0.0009996422 0.016282912 0.0013003035 -0.0068754815 0.016091807 -0.002528877 -0.005496005
-0.001118549 -0.0049829106 -0.008067089 -0.0070467363 -0.005025738 -0.0033326913 0.0022798472 -0.0028009873
0.007799161 0.005764304 -0.0052113957 -0.0034694616 0.0009969248 -0.0026509312 0.027685747 0.014265572
0.016025508 0.0025618395 -0.008529228 0.008113256 -0.00026607868 0.008892408 0.002613993 -0.006758537
-0.004535774 0.0071180253 -0.009011569 -0.00063875475 -0.0065291324 -0.007372702 -0.005682087 0.0017425874
0.0057492717 -0.017918061 0.013936356 0.002250307 -0.0034709435 0.010431047 -0.0032192469 -0.0038654294
0.019149827 0.026493076 0.016473735 0.0052026915 0.026552638 0.008869316 -0.008127228 -0.0018777844
-0.004729141 -0.0034964606 0.0029646184 0.01533519 -0.007305331 -0.011650964 -0.0009064762 -0.012125082
0.0008945311 0.008253668 0.014402038 -0.0029031069 -0.004439309 -0.004390017 0.010297533 -0.005270039
0.0034830235 0.0050282064 0.0013960284 0.00149977 0.007040892 -8.677535e-05 -0.014500434 -0.005713743
-0.0035289058 0.0074428865 0.01189259 -0.002609877 -0.003109454 -0.007541361 0.014414589 0.0051010377
0.0064928615 -0.015909648 0.0015612631 0.0009811708 0.0012095841 0.0020721245 -0.009900688 -0.00525925
-0.007304518 0.017699426 0.0054607578 -0.027997887 -0.00038877875 0.015536122 0.0016676935 -0.0004276556
0.004057872 0.0077481936 0.0027134446 -0.0097956145 -0.004634144 0.004792785 0.005819475 -0.003859097
0.0033927548 -0.008789133 -0.006898917 0.0052692457 -0.012603295 -0.007862191 0.003952072 -0.004073366
-0.012187932 0.0057179458 0.0029456588 -0.004993103 0.010572342 0.010941291 0.0034645353 0.007891583
-0.0032652782 0.0077551245 -0.013924408 -0.005168843 -0.004868278 0.004313459 -0.009739012 5.8400965e-05
0.0033921208 0.001512033 -0.0017858396 -0.0044288356 -0.01074343 0.009050064 0.0017904661 0.019773757
0.0040797456 -0.00046461503 -0.010474722 -0.006667554 -0.0060557593 0.0017844675 -0.014288666 -0.011882481
-0.014581911 0.00032773952 -0.017504275 0.0061959284 -0.016372424 0.0069997734 0.0014563911 0.008269421
00000000: 3bc8 2ebb fa23 b33c 678d b93b bbbc c43a
00000010: bca9 be3b 8bb3 983c 3e86 c73c 4fac 9d3b
00000020: 8f1d 53bc 6bfe 27bc d709 e9ba c378 fc3b
00000030: 1754 783b 8f03 073b 7bab 4d3b ba7e 07bb
00000040: 189b f4bb 6b22 dcba 033a 84bb fa3c d23b
00000050: 6d88 e13a bf21 56bb 92dc 75bc b494 afbb
00000060: 1b52 07bc 214d c9ba 3a48 263b ca46 eb3b
00000070: cb59 a1bb 4751 6dbc 250c 6dbc a52b 4bbc
00000080: 1754 603c 0a57 66bb 1f65 28bc 893b 2e3b
00000090: 47c7 bb3b 0505 0c3c d0e6 553c d193 b6bb
000000a0: 0dc6 903b 717c 913c 821e 46bc 9227 b8bb
000000b0: 5237 d5bb 4dec b33b bb10 6d3b 705b 193c
000000c0: 707d 063c 9fcb 42bc 5f56 09bb b52e 0ebb
000000d0: e031 283c 0a7b edbb b30e 943b b829 dd3b
000000e0: 2aa7 ceba c810 4dbc 5ccb 9f3c 40cd e6bb
000000f0: b841 c93b 9317 50ba 32b6 e83b 17d5 723c
00000100: 5d47 9d3b 94da a73b 03a8 573c fa24 0a3b
00000110: 98b7 bcba 973a d73b 8bd5 69bc 3f78 6a3b
00000120: 431d 75ba fb03 b0bb 23d4 adb9 ef1a f0bb
00000130: 43ca a9bb e3c6 053a b8be 723b e2f7 e03b
00000140: 2b20 513b ad9b dcba 23c8 48bc 3394 49b8
00000150: 6fa6 d53a ab90 3bbb 2573 bfbb 25c1 9cbc
00000160: 6b27 8abc 001b 74bc 2ca3 b5bc 2039 d2ba
00000170: 12c3 e2bb 1495 9bbb 3c28 45bc 34b1 133c
00000180: ed2a bb3b 6d06 83ba be63 853c f26e aa3a
00000190: b84b e1bb f7d2 833c 84bb 25bb d517 b4bb
000001a0: 479c 92ba af47 a3bb d32b 04bc 4fe8 e6bb
000001b0: f2ae a4bb 4869 5abb 7d69 153b c590 37bb
000001c0: 1b90 ff3b 7de2 bc3b 5bc4 aabb e85f 63bb
000001d0: 3fab 823a 3fbb 2dbb 38cd e23c 25ba 693c
000001e0: ed47 833c 89e4 273b 2dbe 0bbc 76ed 043c
000001f0: 7a80 8bb9 76b1 113c 864f 2b3b b876 ddbb
00000200: d4a0 94bb 533e e93b 43a5 13bc 1b72 27ba
00000210: 55f2 d5bb b596 f1bb cd30 babb 8867 e43a
00000220: 6364 bc3b e6c8 92bc 5055 643c e379 133b
00000230: c578 63bb fbe6 2a3c 00fa 52bb 2553 7dbb
00000240: 19e0 9c3c 0208 d93c edf3 863c 577b aa3b
00000250: eb84 d93c 9c50 113c 1128 05bc fd1f f6ba
00000260: e9f6 9abb e024 65bb 0b4a 423b 7340 7b3c
00000270: 8f61 efbb afe3 3ebc 97a0 6dba 48a8 46bc
00000280: f77e 6a3a 653a 073c 87f6 6b3c 0d42 3ebb
00000290: 9f77 91bb 22da 8fbb fcb6 283c 4bb0 acbb
000002a0: 7043 643b a7c3 a43b f1fa b63a ee93 c43a
000002b0: 48b7 e63b 29fb b5b8 3a93 6dbc 5a3a bbbb
000002c0: 3745 67bb 75e3 f33b 23d9 423c 780a 2bbb
000002d0: fbc7 4bbb 851d f7bb 2b2b 6c3c 9b26 a73b
000002e0: 12c2 d43b f354 82bc 4ca3 cc3a a19a 803a
000002f0: e88a 9e3a 7bcc 073b 7f36 22bc c955 acbb
00000300: bd5a efbb 63fe 903c 28f0 b23b d35b e5bc
00000310: 00d5 cbb9 388b 7e3c 8296 da3a f736 e0b9
00000320: e6f7 843b 8fe4 fd3b 0cd4 313b c97d 20bc
00000330: 04da 97bb cb0c 9d3b 4bb1 be3b e7e8 7cbb
00000340: fb58 5e3b 4c00 10bc 4f10 e2bb a3a9 ac3b
00000350: 0d7e 4ebc 6bd0 00bc 6280 813b df79 85bb
00000360: e4af 47bc 9b5d bb3b f40b 413b 2f9d a3bb
00000370: 9e37 2d3c 1a43 333c 420d 633b b34b 013c
00000380: 47fe 55bb b31e fe3b 3323 64bc 665f a9bb
00000390: 1386 9fbb eb57 8d3b 6190 1fbc 8ff3 7438
000003a0: 584e 5e3b 692f c63a d512 eaba c41f 91bb
000003b0: 3605 30bc b846 143c 13ae ea3a 93fc a13c
000003c0: 63af 853b 9397 f3b9 2b9e 2bbc 7f7b dabb
000003d0: 646f c6bb cbe4 e93a 021b 6abc bdae 42bc
000003e0: f8e8 6ebc 74d4 ab39 2065 8fbc 3707 cb3b
000003f0: 761f 86bc 5b5e e53b 60e4 be3a 777c 073c

action_model._discrete_distribution.branches.0.bias f4 [7]
0.0 0.0 0.0 0.0 0.0 0.0 0.0
00000000: 0000 0000 0000 0000 0000 0000 0000 0000
00000010: 0000 0000 0000 0000 0000 0000
