Assets/Hide and Seek/Brain/HiderBehavior.onnx (onnx, 169648 bytes, 6 tensors)

network_body._body_endoder.seq_layers.0.weight f4 [128, 190]
0.012807776 -0.16387348 0.0064622727 -0.06343683 0.026947316 -0.0024780016 -0.04448544 -0.14055488
0.08939254 -0.09947036 -0.13132516 0.072519675 0.044723354 -0.16364425 0.07261615 0.008135364
0.06135966 -0.07340167 -0.07774541 -0.011365621 0.0120017 -0.082544945 -0.08841551 -0.04878861
-0.1579107 -0.063397214 0.0516148 0.0034964753 0.089035645 0.04045221 -0.08499678 0.04191415
-0.033400167 0.029119799 -0.09173664 0.042410295 -0.10060188 0.03518617 0.018908015 -0.042692933
-0.020262174 0.021693042 0.057835888 0.17863616 -0.062782444 0.04588796 -0.08505741 0.06663355
0.07550541 -0.027680434 -0.0256679 0.01108269 -0.032628246 -0.034399394 0.038805753 0.007517448
-0.0007906013 -0.035737168 -0.07852656 -0.0067524705 -0.04224227 0.029880906 -0.02382373 -0.091683514
0.034429677 0.06366844 -0.15476035 0.059144396 -0.074773826 -0.07511822 -0.04319966 -0.0014522763
-0.0039226017 0.055083517 -0.0117218755 -0.053798124 0.0038398115 -0.048464388 0.029530225 0.032070246
0.059861388 0.037640467 0.10127181 0.02531842 0.025474627 -0.059582785 -0.026546435 0.11937119
-0.032245446 0.19643444 0.034748 -0.0050334553 0.15099594 0.037526917 0.08550067 0.05170796
0.1002108 0.08120237 0.09757638 -0.07549012 0.0053199236 -0.109688655 0.031738374 0.00233621
-0.024204798 -0.054694586 0.02050478 -0.08008179 0.03596017 0.013476467 0.036223 0.041077886
-0.023360658 -0.065844774 -0.03442939 -0.03930684 -0.053543005 -0.023504801 -0.12677382 0.015364331
-0.122270875 0.023224542 0.032172386 -0.03552097 0.008434881 0.031944916 -0.019161172 0.13034372
0.05654112 -0.031336296 0.028751751 -0.11328571 0.020853281 -0.07897132 -0.09536117 0.0661711
0.1262694 0.054897163 0.0049689705 0.05141128 -0.016289985 -0.027044518 -0.1254899 0.12792456
0.10138426 0.06988534 -0.06053169 0.16720946 0.12726474 -0.09286446 -0.056332137 0.07100399
0.04149455 -0.0110327685 0.16968922 0.10111336 0.026507704 0.0022862018 0.07981435 0.119374596
-0.020313252 0.07156051 -0.04360188 0.104661435 0.04529998 -0.14093478 0.106325544 -0.02539288
-0.023022505 -0.11506092 -0.03317007 0.26770332 0.020988885 -0.001485167 -0.054755647 -0.04557634
-0.07973159 0.0740891 -0.04066163 0.121830605 -0.062045395 -0.0035480515 0.07572573 0.014159027
0.0643332 0.0015892199 -0.039677072 0.10023151 -0.104497254 -0.09694629 0.043390755 0.028419819
0.100739874 -0.18472502 0.016581329 0.09084483 -0.16179878 0.05595729 -0.057177465 -0.048162375
-0.06858388 -0.009020125 0.012236779 0.053150713 0.14649254 -0.14365853 -0.058239345 -0.009632117
0.020364359 -0.011937619 0.08731665 0.0021712736 0.0013892965 -0.07160162 -0.01457641 -0.004776925
0.10617079 0.04540572 -0.107990205 -0.07600444 0.064749815 -0.007907759 -0.055067446 0.030909806
-0.06202852 0.056682467 -0.080550134 -0.051621515 0.0018827365 -0.06402753 -0.17532107 0.013534235
-0.18079801 0.014725801 -0.023921635 -0.07470401 0.07354624 -0.06736892 0.08226404 -0.020954903
-0.088661365 -0.0032882637 0.12673594 0.14448453 0.055512313 -0.049560763 -0.005225835 0.0014118557
-0.13751684 0.08540747 -0.011162059 0.10516197 0.02364062 0.052963074 0.088294886 0.13976748
00000000: b5d7 513c 73ce 27be 79c1 d33b 2beb 81bd
00000010: 9ec0 dc3c f865 22bb 5d36 36bd 9eed 0fbe
00000020: 7013 b73d 1eb7 cbbd 1a7a 06be 3285 943d
00000030: d62f 373d 5c92 27be c7b7 943d 314a 053c
00000040: 4454 7b3d 9d53 96bd fc38 9fbd df36 3abc
00000050: c7a2 443c 530d a9bd 3113 b5bd 91d6 47bd
00000060: 58b3 21be 66d6 81bd 0a6a 533d 1f25 653b
00000070: 5258 b63d 37b1 253d cb12 aebd 2cae 2b3d
00000080: 9dce 08bd a58c ee3c 6be0 bbbd 6bb6 2d3d
00000090: 5c08 cebd 601f 103d fbe4 9a3c c9de 2ebd
000000a0: dcfc a5bc 9bb5 b13c 53e5 6c3d 66ec 363e
000000b0: 1594 80bd 03f5 3b3d 9432 aebd 2c77 883d
000000c0: 95a2 9a3d 14c2 e2bc 7d45 d2bc 2c94 353c
000000d0: 32a5 05bd 61e6 0cbd c8f2 1e3d ed54 f63b
000000e0: 5b40 4fba 2361 12bd 88d2 a0bd d443 ddbb
000000f0: 3b06 2dbd cdc8 f43c fc29 c3bc 91c4 bbbd
00000100: 2206 0d3d 9964 823d 7f79 1ebe 6541 723d
00000110: 0523 99bd 95d7 99bd 20f2 30bd 4e5a beba
00000120: 2b89 80bb 419f 613d 1c0d 40bc 6c5b 5cbd
00000130: 59a5 7b3b 9882 46bd 5fe9 f13c 175c 033d
00000140: 3731 753d e42c 1a3d 9867 cf3d 9368 cf3c
00000150: 2ab0 d03c 140d 74bd e977 d9bc e278 f43d
00000160: cd13 04bd 1c26 493e eb53 0e3d afef a4bb
00000170: ae9e 1a3e d3b5 193d fa1a af3d bacb 533d
00000180: 523b cd3d 6e4d a63d 20d6 c73d 909a 9abd
00000190: c152 ae3b 72a4 e0bd 1900 023d 1a1b 193b
000001a0: 2449 c6bc 6e07 60bd a4f9 a73c ec01 a4bd
000001b0: f94a 133d 66cc 5c3c 925e 143d 4941 283d
000001c0: da5e bfbc a0d9 86bd d505 0dbd 3600 21bd
000001d0: e94f 5bbd 248d c0bc ffd0 01be adba 7b3c
000001e0: 2769 fabd 6541 be3c 31c7 033d 707e 11bd
000001f0: 7532 0a3c acd8 023d e4f7 9cbc d378 053e
00000200: a997 673d 7d5a 00bd cb88 eb3c 5702 e8bd
00000210: 80d4 aa3c b7bb a1bd b84c c3bd b784 873d
00000220: c44c 013e d9db 603d bfd2 a23b a294 523d
00000230: 9372 85bc 778c ddbc 6d80 00be a8fe 023e
00000240: 8da2 cf3d 0c20 8f3d 14f0 77bd f538 2b3e
00000250: b051 023e b92f bebd 87bc 66bd 8a6a 913d
00000260: 30f6 293d c9c2 34bc 03c3 2d3e 8514 cf3d
00000270: af26 d93c 1ad4 153b b575 a33d ab7a f43d
00000280: fa67 a6bc 518e 923d e397 32bd bc58 d63d
00000290: 798c 393d 3551 10be 35c1 d93d bb04 d0bc
000002a0: b199 bcbc 0fa5 ebbd 57dd 07bd 6910 893e
000002b0: e2f0 ab3c efa9 c2ba 7547 60bd 42ae 3abd
000002c0: 514a a3bd 07bc 973d cf8c 26bd 5382 f93d
000002d0: 5023 7ebd 6d86 68bb 1716 9b3d 43fb 673c
000002e0: 20c1 833d 5f4d d03a 6d84 22bd 2e46 cd3d
000002f0: a802 d6bd c78b c6bd 81ba 313d aed0 e83c
00000300: b550 ce3d 8e28 3dbe 91d5 873c db0c ba3d
00000310: 94ae 25be 7933 653d eb32 6abd e945 45bd
00000320: b575 8cbd 25c9 13bc c57c 483c 90b4 593d
00000330: 2402 163e 391b 13be 618c 6ebd 07d0 1dbc
00000340: 28d3 a63c 0196 43bc 12d3 b23d ed4b 0e3b
00000350: 0e19 b63a dfa3 92bd e5d1 6ebc c087 9cbb
00000360: 1270 d93d 59fb 393d f829 ddbd 37a8 9bbd
00000370: 8d9b 843d 8c8f 01bc 678e 61bd 9036 fd3c
00000380: 9e11 7ebd e02b 683d 78f7 a4bd 1571 53bd
00000390: 27c6 f63a de20 83bd 5e87 33be b2be 5d3c
000003a0: 1d23 39be 7c44 713c 4ef7 c3bc 6afe 98bd
000003b0: 699f 963d b7f8 89bd 0d7a a83d 9ea9 abbc
000003c0: 1794 b5bd e97f 57bb 11c7 013e c1f3 133e
000003d0: e160 633d 3a00 4bbd 7b3d abbb 040e b93a
000003e0: 37d1 0cbe 1dea ae3d 12e1 36bc 295f d73d
000003f0: f9a9 c13c cfef 583d f3d3 b43d 351f 0f3e

network_body._body_endoder.seq_layers.0.bias f4 [128]
0.004964631 0.02047342 -0.017609127 0.02689349 0.00409902 0.016748462 0.051718872 0.032246273
0.021958642 0.026490675 0.026338024 0.025255647 0.0061481358 0.01516389 0.021751877 0.011689411
0.015941849 0.02835777 0.0403355 -0.024953902 0.017128136 0.045721166 -0.01719368 0.0029367197
0.0017244628 0.026665928 0.0069421013 -0.034707453 0.01759012 -0.024829593 0.026198499 0.011456573
-0.04010965 0.037324972 0.02529777 0.009700963 -0.009808946 -0.0050491756 0.030336343 -0.0015913412
0.023718437 0.038426585 0.022733346 0.012528982 0.029347157 0.01303437 -0.0037119198 0.020396303
0.0067697833 0.02178918 0.03118529 0.023856446 0.027033538 -0.00061534945 0.016595492 0.009853981
-0.012305076 -0.03432401 0.031031648 0.024573043 0.034602292 -0.002483498 0.035374966 0.04075693
0.03648684 0.016761854 0.028085029 0.016781682 -0.0014965626 -0.005816688 0.015465313 0.01968265
0.032455165 0.017841054 0.019307798 0.022487596 0.027802842 -0.041122884 0.0367175 0.02641191
0.008300949 0.009076682 0.0077236444 -0.03620428 0.014078303 0.02202231 0.014678397 0.03369039
-0.007698271 0.031305097 0.035949316 0.032707747 0.04029132 0.03499976 0.013230132 -0.0022237094
0.020838521 0.020471377 0.020389814 0.005540065 0.019036213 -0.01063065 0.036461554 0.024821246
0.0066014933 0.033971302 0.025696317 -0.008831101 -0.00835985 0.035252336 -0.0050528212 0.022694144
-0.01542372 0.026525067 0.02245928 -0.025037456 0.010360382 0.019677503 0.0045648566 0.030363206
0.0045975302 -0.0060620885 0.029210135 0.035619948 0.011019429 -0.0075698756 0.031615112 0.043014273
00000000: 58ae a23b e0b7 a73c 0441 90bc bd4f dc3c
00000010: 1251 863b 1234 893c 2bd7 533d ab14 043d
00000020: 9ce2 b33c f902 d93c d7c2 d73c eee4 ce3c
00000030: 4d76 c93b f771 783c fe30 b23c f184 3f3c
00000040: 7b98 823c 8e4e e83c d636 253d 206c ccbc
00000050: 4e50 8c3c 1e46 3b3d c3d9 8cbc fb75 403b
00000060: 5f07 e23a 8172 da3c 917a e33b 6729 0ebd
00000070: 2819 903c 6e67 cbbc 3c9e d63c 5ab4 3b3c
00000080: 044a 24bd 12e2 183d 453d cf3c caf0 1e3c
00000090: b4b5 20bc 8e73 a5bb ec83 f83c 8d94 d0ba
000000a0: 2b4d c23c 3265 1d3d 483b ba3c 5c46 4d3c
000000b0: 7369 f03c 1c8e 553c ae43 73bb 2616 a73c
000000c0: 0fd5 dd3b 397f b23c 4b78 ff3c 986e c33c
000000d0: 7075 dd3c 674f 21ba 45f3 873c 9872 213c
000000e0: 3b9b 49bc 5597 0cbd 1536 fe3c 684d c93c
000000f0: 22bb 0d3d 2fc2 22bb 57e5 103d bdf0 263d
00000100: 3a73 153d 2850 893c 9312 e63c bd79 893c
00000110: 4f28 c4ba ea99 bebb 3962 7d3c 823d a13c
00000120: b5ef 043d 6727 923c 632b 9e3c e837 b83c
00000130: c9c2 e33c 7870 28bd 1765 163d ca5d d83c
00000140: b400 083c 5db6 143c a016 fd3b f04a 14bd
00000150: afa8 663c 2268 b43c a97d 703c effe 093d
00000160: c741 fcbb c639 003d 973f 133d 8ff8 053d
00000170: 8308 253d e95b 0f3d 32c3 583c a7bb 11bb
00000180: 8cb5 aa3c 97b3 a73c 8a08 a73c 6f89 b53b
00000190: d5f1 9b3c 2e2c 2ebc b658 153d ed55 cb3c
000001a0: 5751 d83b 7e25 0b3d 1581 d23c 52b0 10bc
000001b0: c1f7 08bc c164 103d 2392 a5bb 12e9 b93c
000001c0: c5b3 7cbc 194b d93c 86fc b73c 5a1b cdbc
000001d0: 97be 293c b732 a13c cb94 953b 42bc f83c
000001e0: e1a6 963b 7ca4 c6bb 184a ef3c 39e6 113d
000001f0: d68a 343c b80c f8bb d97e 013d bc2f 303d

network_body._body_endoder.seq_layers.2.weight f4 [128, 128]
0.07838631 0.02197149 0.0049984814 -0.06020457 -0.071977384 -0.14592612 0.26827702 0.14003377
-0.04856181 0.012722856 0.010989506 -0.052143328 0.08231821 0.11711394 -0.024950687 0.13952814
0.037353393 0.03054327 0.006221991 0.071354486 0.059522804 -0.017189527 0.10516999 -0.008889505
0.009239042 -0.09726732 0.10769286 -0.12736024 0.061261386 -0.021931991 0.058721755 -0.05442833
0.05688233 0.04693002 -0.1620951 0.01092836 -0.122452825 -0.0459995 -0.08278951 0.0062702186
0.02723907 -0.10128182 -0.048990928 -0.17851837 0.07722357 -0.06955067 0.14364728 0.09662987
-0.08446145 0.052389167 0.089754105 0.15662085 -0.11692474 0.16441864 -0.1590885 -0.11416379
0.062911466 0.07820979 -0.032872953 -0.033239163 0.06730247 0.081146784 -0.15589343 -0.15954436
-0.08384849 -0.044496 0.21849927 -0.006358369 -0.03343617 0.09707514 0.045854703 0.08102667
0.030450445 -0.031765893 -0.035848517 0.08581824 -0.00895029 0.062015947 0.15217242 0.11422206
0.00755062 0.03896961 -0.044291683 -0.019858649 -0.013636252 -0.1459851 0.08952289 0.030900663
0.026893394 0.22354282 0.2244466 -0.15169752 0.0592778 0.123374484 -0.03331661 -0.06350487
0.17858166 0.03434304 0.15319715 0.05326925 -0.113269255 0.01753983 0.162236 -0.009920487
-0.07363562 -0.13395831 0.0064619337 0.07270984 -0.046288367 0.033511557 -0.09933229 -0.0706873
0.18357544 -0.0837454 -0.16980428 -0.14721784 0.03556939 0.018392684 -0.0736648 -0.013288482
0.071282186 0.10590842 0.10025399 -0.015343852 0.122204654 0.09712688 0.09301865 0.13103351
-0.05864285 0.070481434 -0.0864953 -0.1784198 -0.07789456 0.11048852 0.08410702 0.0046204445
0.024912603 -0.2229463 0.14326027 -0.13419406 -0.08721876 -0.02775595 -0.011306909 -0.119732596
-0.013978229 -0.17919362 0.03464177 -0.22979157 -0.03132445 -0.08414039 -0.016425703 0.0035498498
-0.25012544 -0.1287903 0.0033492006 -0.14639622 -0.09333385 0.035570733 0.08356946 -0.038226217
0.0029842914 0.059281126 -0.014978112 0.06311103 0.0065372405 0.026641682 0.1844541 -0.03911533
0.032901578 0.0023090984 -0.15371819 -0.052485522 -0.026755208 0.05902056 -0.040275674 0.044610716
0.14507349 -0.010477717 -0.07011489 0.08513957 -0.005129781 0.028202882 -0.090427384 -0.007248363
-0.09696961 0.0032028975 0.09489313 0.105314836 0.056010555 -0.036147203 0.0872543 0.03854277
-0.06646363 0.0057026767 -0.06967205 -0.014849535 -0.015609188 -0.06745729 -0.095457226 0.114261
0.073864646 -0.024293857 -0.023263188 0.049287796 0.047084168 -0.14360633 -0.09880842 0.22492878
-0.070574135 -0.019466482 0.04201107 0.10680499 0.106508836 -0.105234936 0.10596747 -0.05790258
0.049814045 0.13011098 0.061762433 0.080189094 0.0928556 0.0999448 -0.05703666 0.18662968
0.13849661 -0.04333209 -0.0370689 0.003532507 0.075396985 -0.16244152 0.14599262 0.087896004
0.06485177 -0.01602432 0.11231608 -0.040443923 0.031703733 0.11819873 0.007951229 -0.059019055
0.015537958 -0.08267683 0.2368879 -0.05237656 0.14715815 0.044127695 -0.08811189 -0.021956928
0.12903045 -0.044082217 0.057640024 0.055106785 0.0044178357 0.014533304 -0.007744438 0.007946424
00000000: 0089 a03d 8efd b33c 4dca a33b 1199 76bd
00000010: e168 93bd a86d 15be 9b5b 893e 0365 0f3e
00000020: c0e8 46bd 8773 503c 540d 343c 3e94 55bd
00000030: 7396 a83d 6fd9 ef3d 6265 ccbc 77e0 0e3e
00000040: dfff 183d e135 fa3c d8e1 cb3b 4d22 923d
00000050: 2fce 733d 0dd1 8cbc 5d63 d73d 49a5 11bc
00000060: 5a5f 173c 1734 c7bd 138e dc3d b96a 02be
00000070: 38ed 7a3d b8aa b3bc 3986 703d 3ef0 5ebd
00000080: 72fd 683d b139 403d 42fc 25be dd0c 333c
00000090: 8cc8 fabd f969 3cbd 8c8d a9bd 6876 cd3b
000000a0: 7824 df3c d86c cfbd b6aa 48bd 85cd 36be
000000b0: 6427 9e3d 9570 8ebd 4618 133e e2e5 c53d
000000c0: 20fa acbd 0696 563d 00d1 b73d 3761 203e
000000d0: 3d76 efbd 5c5d 283e 19e8 22be b5ce e9bd
000000e0: bad7 803d 742c a03d caa5 06bd ca25 08bd
000000f0: e1d5 893d 4930 a63d 87a2 1fbe 995f 23be
00000100: c2b8 abbd 7041 36bd 46be 5f3e dd59 d0bb
00000110: 5ef4 08bd 55cf c63d 24d2 3b3d 50f1 a53d
00000120: 3673 f93c f41c 02bd e5d5 12bd 79c1 af3d
00000130: 3da4 12bc 6f04 7e3d 16d3 1b3e 41ed e93d
00000140: 316b f73b 999e 1f3d 326b 35bd 9bae a2bc
00000150: 966a 5fbc 1e7d 15be c757 b73d 6323 fd3c
00000160: 894f dc3c 69e8 643e 54d5 653e 9856 1bbe
00000170: 47cd 723d c3ab fc3d ff76 08bd d70e 82bd
00000180: 1cde 363e 4aab 0c3d b7df 1c3e db30 5a3d
00000190: b6f9 e7bd b1af 8f3c 3221 263e 8a89 22bc
000001a0: 46ce 96bd 5e2c 09be a1be d33b e6e8 943d
000001b0: df98 3dbd 6a43 093d ba6e cbbd 81c4 90bd
000001c0: 33fb 3b3e b582 abbd 2ce1 2dbe 46c0 16be
000001d0: 35b1 113d 41ac 963c 92dd 96bd efb7 59bc
000001e0: 65fc 913d 84e6 d83d f751 cd3d c864 7bbc
000001f0: 6f46 fa3d 75ea c63d 9080 be3d a62d 063e
00000200: 7c33 70bd 9258 903d 7324 b1bd aeb3 36be
00000210: 2f87 9fbd ce47 e23d 4d40 ac3d 1967 973b
00000220: 8415 cc3c 094c 64be d2b2 123e 2b6a 09be
00000230: c09f b2bd 7260 e3bc 9d40 39bc 5d36 f5bd
00000240: f104 65bc 887e 37be 87e4 0d3d 7b4e 6bbe
00000250: 114e 00bd cc51 acbd 328f 86bc 99a4 683b
00000260: 7110 80be 9be1 03be 437e 5b3b e4e8 15be
00000270: d125 bfbd 9eb2 113d 7726 ab3d 1893 1cbd
00000280: 1a94 433b c4d0 723d c166 75bc 5b40 813d
00000290: 5936 d63b a83f da3c 89e1 3c3e 6537 20bd
000002a0: cec3 063d 3e54 173b 4d68 1dbe 0ffb 56bd
000002b0: bd2d dbbc 8bbf 713d 1bf8 24bd bab9 363d
000002c0: 258e 143e bbaa 2bbc 6598 8fbd a85d ae3d
000002d0: b917 a8bb bb09 e73c fe31 b9bd ad83 edbb
000002e0: 0198 c6bd b4e7 513b 5457 c23d 4eaf d73d
000002f0: 536b 653d 170f 14bd 62b2 b23d 06df 1d3d
00000300: 151e 88bd 85dd ba3b 38b0 8ebd 774b 73bc
00000310: aebd 7fbc 0c27 8abd 147f c3bd ac01 ea3d
00000320: 5946 973d e903 c7bc 7192 bebc 00e2 493d
00000330: 54db 403d 8a0d 13be 125c cabd bb53 663e
00000340: 2c89 90bd 2c78 9fbc cd13 2c3d 93bc da3d
00000350: 4e21 da3d 6a85 d7bd 7905 d93d 412b 6dbd
00000360: d009 4c3d d03b 053e 9bfa 7c3d 2e3a a43d
00000370: 142b be3d dcaf cc3d 469f 69bd da1b 3f3e
00000380: 0ed2 0d3e fd7c 31bd 8fd5 17bd a281 673b
00000390: bc69 9a3d 1257 26be 177f 153e d202 b43d
000003a0: 01d1 843d 6f45 83bc f905 e63d 87a8 25bd
000003b0: c6db 013d 2d12 f23d df45 023c f7bd 71bd
000003c0: eb92 7e3c 7852 a9bd be92 723e ce88 56bd
000003d0: a0b0 163e 3ebf 343d 0274 b4bd 04df b3bc
000003e0: 8f20 043e 8e8f 34bd f217 6c3d a7b7 613d
000003f0: 7ec3 903b 181d 6e3c 0ec5 fdbb b831 023c

network_body._body_endoder.seq_layers.2.bias f4 [128]
0.014105325 0.017105205 0.0010195116 0.04595795 0.023124749 0.027152097 0.018105704 0.023959553
0.016698826 0.0094726775 0.021671928 0.0029209824 0.019671319 0.020015413 0.014625368 0.013400045
0.007931127 0.018804321 0.011514654 0.0014511285 0.021531956 0.012599086 0.024239983 0.010847649
0.016710078 0.0073578744 0.025109295 0.016923156 0.0023876464 0.004760641 0.0006858979 0.0061146254
0.024375461 0.009224234 0.022933394 0.021624496 0.010307622 0.010293973 0.019631125 0.02826644
-0.0006986597 0.0043298677 0.015302702 0.012286445 0.01540138 0.010426888 0.034723382 0.016770678
0.02543803 0.033805434 0.023413287 0.0070753577 0.016986871 0.012028956 0.013841311 0.027210545
0.013792362 0.018997848 0.030762143 0.02887961 0.017959569 0.036336057 0.014086197 0.024479086
0.0207216 0.012750481 0.014552817 0.017858636 0.009882125 0.040132683 0.008891343 0.015250894
0.016070982 0.010001913 0.006589811 0.001284678 0.012931231 0.019248547 0.016206477 0.010463476
0.024270913 0.017189028 0.0043486683 0.021021966 0.024873799 0.017499546 -0.005272082 0.032098
0.0152290175 0.012961195 0.019588875 0.012984375 0.024327252 0.010204027 0.034340724 0.046173524
0.022595173 0.015605688 0.028553888 0.012480671 0.014450131 0.017343948 0.022607427 0.02219888
0.04231005 0.024864445 0.010565799 0.0017137387 0.014300835 0.023127234 0.0048736096 0.008913654
0.030488813 0.028995983 0.009966103 0.018060653 0.007762114 0.017292364 0.01611036 0.018376248
0.021533068 0.0028098412 0.0092788655 0.0044531007 0.0024667408 0.014871362 0.0074867955 -0.004287278
00000000: 051a 673c 3720 8c3c 22a1 853a 673e 3c3d
00000010: 1d70 bd3c 136e de3c 6a52 943c d346 c43c
00000020: facb 883c 4a33 1b3c 5489 b13c f46d 3f3b
00000030: bf25 a13c 5df7 a33c 3d9f 6f3c dd8b 5b3c
00000040: 8ff1 013c 850b 9a3c f6a7 3c3c cb33 be3a
00000050: c963 b03c 666c 4e3c ee92 c63c 56ba 313c
00000060: 93e3 883c 531a f13b 02b2 cd3c 6ea2 8a3c
00000070: 0f7a 1c3b 27ff 9b3b d4cd 333a 325d c83b
00000080: 0caf c73c 3e21 173c d0de bb3c db25 b13c
00000090: 4de1 283c 0da8 283c 74d1 a03c 058f e73c
000000a0: 4226 37ba 90e1 8d3b 2fb8 7a3c 164d 493c
000000b0: 1256 7c3c 8ad5 2a3c 1b3a 0e3d a962 893c
000000c0: 6a63 d03c 9177 0a3d 39cd bf3c 67d8 e73b
000000d0: 0d28 8b3c 1915 453c abc6 623c a6e8 de3c
000000e0: 5cf9 613c 60a1 9b3c e400 fc3c ef94 ec3c
000000f0: f21f 933c 1ed5 143d cbc9 663c 5d88 c83c
00000100: 58c0 a93c 65e7 503c f06e 6e3c 464c 923c
00000110: a3e8 213c 2b62 243d ffac 113c e3de 793c
00000120: 4ba7 833c 10df 233c 57ef d73b a462 a83a
00000130: 84dd 533c 21af 9d3c 72c3 843c 006f 2b3c
00000140: cbd3 c63c 01d0 8c3c 467f 8e3b 4236 ac3c
00000150: 23c4 cb3c 355b 8f3c 6ec1 acbb 3179 033d
00000160: 2183 793c 315b 543c d978 a03c 6abc 543c
00000170: f249 c73c cb2e 273c dca8 0c3d 7320 3d3d
00000180: 8319 b93c 00af 7f3c d8e9 e93c ba7b 4c3c
00000190: 3ec0 6c3c e514 8e3c 3633 b93c 6dda b53c
000001a0: 4e4d 2d3d 85b0 cb3c 2c1c 2d3c 879f e03a
000001b0: 0d4e 6a3c 5375 bd3c cdb2 9f3b 930a 123c
000001c0: adc3 f93c fc88 ed3c de48 233c eff3 933c
000001d0: 5559 fe3b b7a8 8d3c e0f9 833c c989 963c
000001e0: 1e66 b03c 5025 383b 6206 183c 51eb 913b
000001f0: 0ba9 213b 03a7 733c cb53 f53b 4b7c 8cbb

action_model._discrete_distribution.branches.0.weight f4 [7, 128]
-0.030024838 0.00961879 0.020993497 -0.022842482 -0.017598612 -0.009531364 -0.033425547 0.0037156567
-0.03240146 -0.018525299 -0.0020536354 -0.015727252 -0.012790266 -0.0047618835 0.0014518301 0.005182294
-0.006618017 0.004738102 -0.008534529 0.001581113 -0.016398337 0.0034966213 -0.017777963 0.004253464
-0.022414995 -0.0359643 0.0018293544 -0.0012412579 0.002109306 0.01595225 -0.0036501468 0.0024770629
-0.002998061 -0.0077083055 -0.003952843 -0.005389331 -0.0025602132 -0.008773082 -0.015256674 0.011691478
0.001991149 -0.0230586 0.00044500368 0.014080067 -0.005539108 0.010945456 0.007835796 -0.019663535
-0.016288094 -0.009498434 -0.018071594 0.0043391194 -0.006053839 -0.018383961 -0.01556976 0.009492477
-0.01874099 -0.02302332 0.0035067808 0.0038686171 -0.004088933 -0.009497967 -0.028850418 -0.0016619165
0.0049573514 -0.0067859865 -0.0030965924 -0.00022478073 -0.029183205 0.01155939 -0.01642339 -0.016980795
-0.018199956 -0.0059647113 0.009202117 0.0053403336 0.0012342096 -0.005483066 0.011174728 -0.017251428
-0.0077478257 -0.0030043637 0.008392903 -0.01789288 0.009754608 -0.0056730164 -0.01136354 -0.009264718
-0.015621273 -0.011015315 -0.018744353 -0.006890934 0.017352432 0.0030541255 0.00921822 -0.010911216
0.010092817 0.012603236 0.0025816783 -0.01248064 -0.0071418644 -0.013911453 0.0048180483 -0.01587195
-0.008537892 -0.0019935463 -0.019744428 0.0079914415 -0.0013045481 -0.008223265 -0.027938804 -0.0061461064
-0.025273766 0.008496267 -0.021436742 -0.013370456 -0.00922123 -0.010439685 -0.014891932 0.008195661
0.0072950106 -0.0135757355 -0.011143338 -0.020979447 0.006410119 -0.0061334674 -0.015419659 0.0036093749
0.004770636 0.014425755 -0.02250782 -0.05888636 0.030282665 -0.03233417 0.03388995 -0.0006293242
-0.022923866 -0.0169484 0.045307938 -0.007055913 0.022488473 0.009445552 0.055796552 0.019755293
0.015853453 0.04750061 0.040307958 0.026127083 -0.058836203 -0.016792906 0.009361198 -0.01269351
0.024857776 0.017608369 -0.042303987 0.0079372525 0.010770733 0.024344979 0.0022411514 0.029064858
-0.0063414355 -0.0040216455 0.03953047 0.05208687 0.025104431 0.040824648 0.017848285 -0.0009313731
0.009725602 0.04484111 0.04814813 0.042213164 0.063452266 0.00036188017 -0.023644213 0.050682932
0.028242739 -0.056287266 0.014044791 -0.033405714 -0.044753637 -0.032079965 -0.009083074 0.0061396775
-0.0012597231 0.052321598 0.02684155 -0.030157221 -0.044496723 -0.036958493 0.016767124 -0.0385783
-0.026826382 -0.043252133 -0.009304807 0.058450162 0.0067790854 -0.02569008 0.0025863748 -0.015279529
0.046055034 0.019308213 -0.0014639357 0.0010770326 0.011651877 0.0095151 -0.06427931 -0.005181678
-0.04669362 0.018803379 -0.028998302 -0.01886321 0.026595963 0.0332632 -0.0015123247 -0.053481136
-0.014950315 0.020186085 -0.026457446 0.023204038 0.024630353 -0.038742814 -0.066555664 -0.07788012
-0.02786191 0.03155283 -0.04262155 0.021715228 -0.01338784 0.018594533 -0.00806628 0.04719287
-0.04126822 -0.050449047 0.006782466 0.0031717194 0.031223858 0.06018848 -0.020457555 -0.0318984
0.0058145206 -0.03988541 -0.02975979 -0.04650376 0.009444888 0.038053256 0.015198971 4.7187727e-06
0.022910602 0.030940248 0.00096585555 0.03066466 -0.0064963982 0.014815881 0.010520067 -0.005510438
00000000: a6f6 f5bc 2198 1d3c 8efa ab3c 2820 bbbc
00000010: f72a 90bc 7029 1cbc 3ae9 08bd 6082 733b
00000020: 65b7 04bd 5ec2 97bc 4996 06bb 70d6 80bc
00000030: 448e 51bc 9309 9cbb 564b be3a 3cd0 a93b
00000040: f3db d8bb 1542 9b3b 69d4 0bbc 593d cf3a
00000050: ce55 86bc 9227 653b 17a3 91bc a460 8b3b
00000060: a79f b7bc 4d4f 13bd f3c6 ef3a b4b1 a2ba
00000070: 483c 0a3b 4bae 823c 4d37 6fbb 3856 223b
00000080: 1e7b 44bb f495 fcbb da86 81bb fc98 b0bb
00000090: 40c9 27bb f9bc 0fbc 21f7 79bc 9d8d 3f3c
000000a0: f07d 023b 64e5 bcbc 624f e939 15b0 663c
000000b0: 6881 b5bb 9254 333c b661 003c 6c15 a1bc
000000c0: 9c6e 85bc 529f 1bbc e10a 94bc 2c2f 8e3b
000000d0: 485f c6bb f699 96bc 4f18 7fbc 5686 1b3c
000000e0: b486 99bc 679b bcbc 05d2 653b a088 7d3b
000000f0: 75fc 85bb 5c9d 1bbc b657 ecbc aad4 d9ba
00000100: 4771 a23b fb5c debb 33f0 4abb 1eb3 6bb9
00000110: 9e11 efbc 9963 3d3c 588a 86bc 4f1b 8bbc
00000120: 1318 95bc a073 c3bb 7ac4 163c f7fd ae3b
00000130: 34c5 a13a 4bab b3bb 3516 373c de52 8dbc
00000140: 79e1 fdbb dce4 44bb 6382 093c 1794 92bc
00000150: cbd1 1f3c b6e4 b9bb 242e 3abc 0bcb 17bc
00000160: 5ef0 7fbc 9479 34bc c28d 99bc 58cd e1bb
00000170: b026 8e3c b927 483b 0408 173c f5c4 32bc
00000180: 585c 253c ce7d 4e3c 6031 293b 997b 4cbc
00000190: 4d06 eabb ddec 63bc b8e0 9d3b e405 82bc
000001a0: 84e2 0bbc 28a6 02bb 11bf a1bc 89ee 023c
000001b0: 5ffd aaba e0ba 06bc ebdf e4bc 4765 c9bb
000001c0: ee0a cfbc ed33 0b3c 1b9c afbc c20f 5bbc
000001d0: a414 17bc 360b 2bbc 4afd 73bc 1847 063c
000001e0: fc0a ef3b c36c 5ebc 8c92 36bc 17dd abbc
000001f0: fa0b d23b 41fb c8bb bda2 7cbc 438b 6c3b
00000200: ff52 9c3b 005a 6c3c 5262 b8bc d332 71bd
00000210: 5a13 f83c d670 04bd 30d0 0a3d 3bf9 24ba
00000220: d5ca bbbc 5fd7 8abc d194 393d 4a35 e7bb
00000230: bf39 b83c 84c1 1a3c ed8a 643d dad5 a13c
00000240: 1adf 813c 0090 423d f519 253d 7708 d63c
00000250: 3bfe 70bd 4791 89bc b65f 193c 71f8 4fbc
00000260: 89a2 cb3c 6d3f 903c f246 2dbd 400b 023c
00000270: ba77 303c 1f6f c73c 48e0 123b 6d19 ee3c
00000280: d1cb cfbb 02c8 83bb b4ea 213d 0b59 553d
00000290: cfa7 cd3c bf37 273d 9136 923c 6427 74ba
000002a0: 2258 1f3c 50ab 373d f936 453d b6e7 2c3d
000002b0: 43f3 813d bcba bd39 82b1 c1bc e898 4f3d
000002c0: 515d e73c 7a8d 66bd 201c 663c 6ed4 08bd
000002d0: 974f 37bd 4866 03bd 2cd1 14bc 592f c93b
000002e0: 4b1d a5ba 2c4f 563d cfe2 db3c 470c f7bc
000002f0: 3242 36bd ca61 17bd 355b 893c 4804 1ebd
00000300: 00c3 dbbc 2629 31bd 3073 18bc 7069 6f3d
00000310: 1723 de3b 0174 d2bc 2b80 293b fd56 7abc
00000320: 34a4 3c3d 422c 9e3c 88e1 bfba 382b 8d3a
00000330: 84e7 3e3c 39e5 1b3c dfa4 83bd 11cb a9bb
00000340: cf41 3fbd 8b09 9a3c d98d edbc 0587 9abc
00000350: c7df d93c fe3e 083d 3239 c6ba 090f 5bbd
00000360: 2af2 74bc 4a5d a53c 49bd d8bc 6516 be3c
00000370: 98c5 c93c c9b0 1ebd 564e 88bd 9d7f 9fbd
00000380: a93e e4bc 8a3d 013d ef93 2ebd 22e4 b13c
00000390: ac58 5bbc 9053 983c 6e28 04bc 504d 413d
000003a0: dd08 29bd a9a3 4ebd 733f de3b 9fdc 4f3b
000003b0: 2dc9 ff3c 3288 763d 9a96 a7bc e6a7 02bd
000003c0: bc87 be3b e25e 23bd ceca f3bc ba7a 3ebd
000003d0: bbbe 1a3c bbdd 1b3d 1b05 793c f355 9e36
000003e0: 04af bb3c 6776 fd3c 7831 7d3a 7434 fb3c
000003f0: bddf d4bb 4fbe 723c 5c5c 2c3c e790 b4bb

action_model._discrete_distribution.branches.0.bias f4 [7]
-0.00455221 0.0020977382 0.009936753 -0.008951692 -0.009163594 0.010923168 -0.0003769386
00000000: b52a 95bb 357a 093b c3cd 223c 1eaa 12bc
00000010: e622 16bc 16f7 323c d89f c5b9
