Assets/Hide and Seek/Brain/SeekerBehavior_assets.onnx (onnx, 215212 bytes, 6 tensors)

network_body._body_endoder.seq_layers.0.weight f4 [128, 280]
0	0x3c580a9c	0.013186123
1	0x3df4196b	0.119189106
2	0x3d9172fc	0.0710201
3	0x3d5894a4	0.05287613
4	0xbded5a64	-0.11589506
5	0x3c0155ac	0.007893961
6	0xbbd9a2d7	-0.0066417265
7	0xbbbe8b11	-0.005814918
8	0x3d6bb00b	0.057540935
9	0xbb8cdb6a	-0.004298617
10	0x3d8da81e	0.069168314
11	0xbbd763bc	-0.0065731686
12	0x3d75e8df	0.060036536
13	0xbd1899d5	-0.03725608
14	0x3cfeaf7c	0.031089537
15	0x3d3f0d16	0.04664334
16	0x3d9660e4	0.07342699
17	0xbd64c889	-0.055855308
18	0xbcd756cc	-0.026286505
19	0xbb9d4fdd	-0.00480078
20	0xbe122946	-0.14273557
21	0x3d3f6e3f	0.046736
22	0xbb9699a5	-0.0045959526
23	0x3db3c44e	0.087776765
24	0xbd90f133	-0.07077255
25	0x3d93e0a2	0.0722058
26	0xbda88860	-0.082291365
27	0xbd6ba265	-0.05752792
28	0xbdb43d8d	-0.088008024
29	0xbd7fa502	-0.062413223
30	0x3dc43386	0.0958014
31	0xbc2ec46d	-0.010666949
32	0xbd998bd5	-0.07497374
33	0x3dc0bd9d	0.09411166
34	0x3d1195a4	0.0355431
35	0xbdeebe38	-0.11657375
36	0xbda9b42c	-0.08286318
37	0x3de9e2c0	0.11420202
38	0x3e034c12	0.12821987
39	0x3db22081	0.08697606
40	0xbcec60f2	-0.02885482
41	0xbb21bfcd	-0.0024680973
42	0x39786205	0.00023687638
43	0x3e0ab95d	0.13547273
44	0xbc4bfa03	-0.012449744
45	0x3d564ab9	0.052317355
46	0xbd9764c6	-0.07392268
47	0x3d0aa80d	0.033851672
48	0x3d11dd79	0.035611603
49	0x3d791f2c	0.060820743
50	0x3d29cb40	0.0414536
51	0x3c607c1f	0.013701468
52	0x3e15d872	0.14633349
53	0x3b86f1a1	0.00411816
54	0xbd3370c4	-0.043808714
55	0x3d5d0888	0.053963214
56	0x3b48c585	0.003063531
57	0x3d8e2b49	0.0694185
58	0x3d8ea64e	0.06965314
59	0xbddfb77c	-0.10923669
60	0x3b17ec20	0.0023181513
61	0xbd08ce22	-0.03339971
62	0xbdcd6bbc	-0.10030314
63	0x3d21abf9	0.039470647
64	0x3ca98648	0.020693913
65	0x3dea1ed2	0.1143166
66	0x3d031ce6	0.03200998
67	0xbd1ca556	-0.038243614
68	0xbd906f5d	-0.07052491
69	0x3d51fbbd	0.051265467
70	0x3dc1e712	0.09467901
71	0xbddc36ef	-0.10752665
72	0xbc2658b3	-0.0101529835
73	0x3d6f8325	0.05847468
74	0x3d980e46	0.074245974
75	0x3c3d7d21	0.011565478
76	0x3db1bc0f	0.086784475
77	0x3da6ae5d	0.08138726
78	0x3dbdb483	0.092629455
79	0xbcb8b37c	-0.022546522
80	0x3d6b8c11	0.057506625
81	0xbd0b8f75	-0.03407236
82	0x3c1d44db	0.009598936
83	0xbce58c3a	-0.028020967
84	0x3d4d73b4	0.05015917
85	0x3ce1b5f6	0.027552586
86	0x3cd49b31	0.025952907
87	0x3ddf0ff7	0.10891717
88	0xbe05e3ae	-0.13075134
89	0xbd16ab50	-0.03678447
90	0xbe101ecd	-0.1407425
91	0x3d2e35ef	0.042531904
92	0x3deebd05	0.11657146
93	0x3d602402	0.05472184
94	0x3de26f09	0.110563345
95	0xbd50c01d	-0.050964464
96	0xbd700e8c	-0.058607623
97	0x3b222977	0.0024743953
98	0x3d1a2cd6	0.037640415
99	0x3e2833cd	0.1642601
100	0xbcb16bd4	-0.021657862
101	0x3d63b618	0.05559358
102	0x3dec57b9	0.11540169
103	0x3d54089e	0.05176603
104	0xbd119f90	-0.03555256
105	0x3c8f7ad5	0.017514626
106	0x3d8df6f5	0.06931869
107	0xbd12787a	-0.035759427
108	0x3e2ebf38	0.17065132
109	0x3d697d10	0.057004035
110	0xbd836435	-0.06415597
111	0x3df035c7	0.11729007
112	0xbbcb71bc	-0.0062086266
113	0xbcc953c6	-0.02457608
114	0x3dcc7db4	0.099849135
115	0x3d593d38	0.0530369
116	0xbdc36c03	-0.09542086
117	0xbd6ac580	-0.057317257
118	0x3e14d0c1	0.14532758
119	0xbcee88b8	-0.029117927
120	0xbaf2b8a9	-0.0018518168
121	0x3c0aab73	0.008463728
122	0x3c15a387	0.009133226
123	0x3d7d7904	0.061882988
124	0xbcb4f250	-0.0220882
125	0x3e032d17	0.12810169
126	0x3da3b2ec	0.07993111
127	0xbd280541	-0.041020636
128	0xbcefc356	-0.029267948
129	0x3db10217	0.08642977
130	0x3d0ca5bb	0.03433774
131	0x3ca5d195	0.020241538
132	0x3ca49aa6	0.020093273
133	0x39a357ef	0.00031155298
134	0xbd30f611	-0.043203417
135	0xbda8a1ec	-0.08234009
136	0x3d8fb448	0.07016808
137	0x3b81c172	0.003959828
138	0x3ddf2bc3	0.10897019
139	0xbd33932c	-0.043841526
140	0xbbcc032a	-0.006225963
141	0xbce94bff	-0.02847862
142	0x3d307333	0.043078613
143	0xbd660b45	-0.05616309
144	0x3ce7a09b	0.028274825
145	0xbd668a77	-0.056284394
146	0xbd89f9f2	-0.067371264
147	0x3d5c2d53	0.053754162
148	0xbd527aab	-0.051386517
149	0xbce070b7	-0.027397497
150	0x3e1731fa	0.14765158
151	0x3d7fbccf	0.06243592
152	0x3cee7998	0.029110715
153	0x3de4b30a	0.111669615
154	0x3e068aa3	0.13138823
155	0xbe00e91b	-0.12588923
156	0xbdbd8277	-0.092534
157	0xbcbfca64	-0.023411937
158	0xbd7db9e1	-0.061944846
159	0x3ca8faab	0.02062734
160	0x3df1169f	0.11771893
161	0xbd5445d3	-0.051824402
162	0x3d648853	0.05579407
163	0x3d816a01	0.06319047
164	0x3d81e84d	0.06343136
165	0xbcce6885	-0.025196323
166	0x3b9eb501	0.0048433547
167	0xbdd01ad7	-0.10161369
168	0xbb9fc3ea	-0.0048756497
169	0x3d7b9e32	0.061430164
170	0xbb87a617	-0.0041396725
171	0x3da7c902	0.08192636
172	0xbc97b580	-0.018519163
173	0x3d98c00b	0.07458504
174	0xba65cd7a	-0.0008766275
175	0xbc4fc563	-0.012681338
176	0xbbe3bf19	-0.006950271
177	0x3d9ca768	0.07649118
178	0xbc7f25e5	-0.015573
179	0xbcbd904d	-0.023140097
180	0xbd203b43	-0.039119016
181	0x3d36e054	0.04464753
182	0x3e158635	0.14601977
183	0x3dcdffad	0.10058532
184	0x3da7fd8c	0.08202657
185	0xbe04f074	-0.1298235
186	0x3b0ab248	0.0021163393
187	0x3d48045e	0.04883229
188	0x3dc00a98	0.093770206
189	0xbcf4fd93	-0.02990607
190	0xbd09f6e2	-0.03368271
191	0x3cd9890b	0.026554605
192	0x3de3317a	0.11093421
193	0xbda64001	-0.081176765
194	0x3c91483a	0.017734636
195	0xbac4af21	-0.0015005806
196	0x3d4e0204	0.05029489
197	0x3d88aa42	0.06673099
198	0x3d95d00f	0.07315075
199	0xbb0899ab	-0.0020843546
200	0xbc6699c1	-0.014074744
201	0x3ce32352	0.027726803
202	0xbdcd8f64	-0.10037115
203	0xbc7b7ac2	-0.015349092
204	0x3e9187ba	0.28423864
205	0xbd288073	-0.041138124
206	0xbe34f326	-0.17670879
207	0x3c22a2d5	0.0099265175
208	0x3dc36647	0.09540992
209	0x3daa14c0	0.08304739
210	0x3daa9cd3	0.08330693
211	0xbbccbbd4	-0.006247977
212	0x3c97bf72	0.018523905
213	0x3d09ffce	0.03369122
214	0xbc90ff64	-0.017699905
215	0x3beebbef	0.007285587
216	0x3e2f76e3	0.17135195
217	0x3d7fdb33	0.062464904
218	0x3cdd42be	0.027009364
219	0x3d7511be	0.059831373
220	0x3c92eca7	0.01793511
221	0x3bd10bc9	0.0063795787
222	0x3db445c1	0.08802367
223	0x3d0d35ce	0.03447514
224	0xbd99a7af	-0.07502686
225	0xbd766c69	-0.06016198
226	0xbde0b57e	-0.10972117
227	0xbcc5734f	-0.024102835
228	0x3dc482a9	0.09595234
229	0x3da31461	0.07962871
230	0xbd144105	-0.03619482
231	0x3aecf2ef	0.0018077771
232	0x3daded13	0.08492484
233	0x3cad0359	0.02111976
234	0x3df5725b	0.11984702
235	0x3ca2a8e6	0.019855928
236	0x3ca2ade8	0.019858316
237	0x3e15559f	0.14583443
238	0xbd851f87	-0.06500154
239	0x3b86b08d	0.004110402
240	0x3d2ad4ac	0.041706726
241	0xbd77ec78	-0.06052825
242	0x3e00542d	0.1253211
243	0xbcb486ea	-0.022036988
244	0xbd233371	-0.03984398
245	0xbda00803	-0.07814028
246	0x3c0e1b0d	0.008673442
247	0xbd2dc917	-0.042428102
248	0x3d9738f4	0.0738391
249	0x3b63f6da	0.0034784586
250	0x3d0d2a6f	0.034464296
251	0x3c977c04	0.018491752
252	0x3db81251	0.089878686
253	0xbd697c59	-0.057003353
254	0x3a1ad9cd	0.00059070886
255	0xbd5a15d2	-0.053243466

network_body._body_endoder.seq_layers.0.bias f4 [128]
0	0x3c4716f7	0.012151471
1	0x3d29a20d	0.04141431
2	0x3d584110	0.052796423
3	0x3c9e1ff2	0.019302342
4	0x3c9e718e	0.019341256
5	0xbc83495d	-0.016026193
6	0x3d57d4ce	0.05269318
7	0x3c82ed0d	0.015982175
8	0xbc42c5fc	-0.0118880235
9	0x3c2240ef	0.009903177
10	0x3d945b6c	0.07244
11	0x3c98e840	0.018665433
12	0x3c431f21	0.011909277
13	0x3cec348a	0.028833646
14	0x3b8bae6f	0.0042627375
15	0x3d3dc239	0.046327803
16	0x3d0396f3	0.03212638
17	0x3cb746cb	0.022372624
18	0x3bb175e3	0.0054156645
19	0x3bb9aeb6	0.005666579
20	0x3c89b7e0	0.016811311
21	0x3d554db1	0.052076045
22	0x3c7c388b	0.01539434
23	0x3cc4d09b	0.024025252
24	0x3d22ba16	0.039728247
25	0xb952ee96	-0.00020116041
26	0x3c5c8ec2	0.0134617705
27	0x3cbd9ea5	0.023146937
28	0x3d356566	0.044286154
29	0xbc7d897f	-0.015474676
30	0x3d626657	0.05527338
31	0x3cd6faaf	0.026242582
32	0x3cfedf80	0.031112432
33	0x3d5ad456	0.053425156
34	0x3c9a06bb	0.018802037
35	0x3d2aac58	0.041668266
36	0x3d273d8a	0.040830173
37	0x3d2657c6	0.04061105
38	0x3c9656b5	0.018351892
39	0xbbf60168	-0.007507492
40	0x3c809cae	0.01569971
41	0x3d1e6060	0.03866613
42	0x3cf3fb5b	0.029782942
43	0xbc8ff2c8	-0.017571822
44	0x3d294dad	0.041333843
45	0x3bfa3cb3	0.0076366304
46	0xbb434ea6	-0.0029801517
47	0xbd1c5eba	-0.038176276
48	0x3d22199f	0.039575215
49	0x3c2ab4e8	0.010419108
50	0x3cee0fe5	0.029060313
51	0xbcd7d3cd	-0.026346112
52	0x3ca373ab	0.019952616
53	0x3c7a0f3e	0.015262423
54	0x3c3211db	0.010868515
55	0xb9b8871c	-0.0003519588
56	0x3d3eeb16	0.046610914
57	0x3ce09469	0.027414517
58	0x3be8ab7f	0.007100522
59	0x3ca4aa50	0.020100743
60	0x3cbed314	0.02329401
61	0x3cd4b663	0.025965875
62	0x3d420172	0.04736466
63	0x3cb902dc	0.022584371
64	0x3c51712e	0.012783332
65	0x3d4eb93a	0.050469615
66	0x3d2d4e6b	0.042311113
67	0x3c78b7ec	0.015180569
68	0x3cff0f4d	0.031135226
69	0x3c6b728c	0.014370572
70	0x3ca8997c	0.020581
71	0x3d1037a6	0.03520932
72	0x3cebb898	0.028774545
73	0x3c2efc3f	0.010680257
74	0x3d3bd6b4	0.045859054
75	0x3d65b861	0.05608404
76	0x3d91c7c8	0.071181834
77	0x3c064a24	0.008196387
78	0x3cc442b7	0.023957593
79	0x3d1201d4	0.035646275
80	0x3cfcc832	0.03085718
81	0x3d39c2df	0.04535186
82	0x3d0cff5f	0.03442323
83	0x3c9f0dd5	0.019415775
84	0x3c6ffcbc	0.014647659
85	0x3cdb6955	0.026783625
86	0x3cacb673	0.021083092
87	0x3cf35e38	0.029708013
88	0x3c910c26	0.017705988
89	0x3d1f2de4	0.038862124
90	0xbce97360	-0.028497398
91	0xbc9ccb47	-0.019139899
92	0x3c5f98a5	0.013647233
93	0x3d02c7a8	0.03192869
94	0x3d70ae32	0.058759876
95	0x3bf1bd24	0.0073772836
96	0x3c70bb62	0.014693113
97	0x3a93a2fd	0.0011263784
98	0x3d44b773	0.048026513
99	0xbccbb39b	-0.024865916
100	0x3c2acfe6	0.010425543
101	0x3cf2b6ed	0.029628241
102	0x3c756d6a	0.0149797
103	0xbb75032a	-0.003738592
104	0x3cacbeb7	0.021087034
105	0xbc6f2ad0	-0.01459761
106	0x3d0a996a	0.033837713
107	0x3b967afa	0.0045922967
108	0x3b21299b	0.002459145
109	0x3d19b84f	0.037529286
110	0x3bbfc163	0.005851911
111	0x3b038bf5	0.0020072435
112	0x3d870002	0.06591798
113	0x3cf5e1d4	0.03001491
114	0x3cc1ad7c	0.023642294
115	0x3bfd5466	0.0077310083
116	0x3c47690f	0.012171044
117	0x3c2a8707	0.01040817
118	0x3c985c4a	0.018598694
119	0x3ca8cea5	0.020606348
120	0xbc0b3929	-0.008497515
121	0x3d1089ac	0.035287544
122	0x3bee2c0a	0.0072684335
123	0x3c77ecbb	0.015132125
124	0x3ce9caeb	0.028539142
125	0xbd29c1cf	-0.041444596
126	0x3c8e4cf6	0.017370682
127	0x3cc29e41	0.023757102

network_body._body_endoder.seq_layers.2.weight f4 [128, 128]
0	0xbd73d663	-0.059530627
1	0x3d886102	0.06659128
2	0xbd4e19a7	-0.050317433
3	0x3d160fe1	0.036636237
4	0x3da5b5fd	0.08091352
5	0x3e68a574	0.22719365
6	0xbdeac5c8	-0.11463505
7	0x3d4b955b	0.049702983
8	0x3e0a0ed6	0.13482222
9	0x3d3786b2	0.04480619
10	0xbd501a30	-0.050806224
11	0x3dd02117	0.101625614
12	0x3d2dd5d9	0.04244027
13	0x3d519c26	0.051174305
14	0x3d5d4c75	0.054027993
15	0xbd5236b4	-0.0513217
16	0x3e18063c	0.14846128
17	0x3d3ba651	0.04581291
18	0xbdfa437f	-0.12219905
19	0x3e024f4e	0.12725565
20	0x3d95500a	0.07290657
21	0xbe04967d	-0.12948032
22	0x3d54a409	0.05191425
23	0x3e0ea3e8	0.13929713
24	0xbe4f7525	-0.20259531
25	0xbc64aef8	-0.013957731
26	0xbe3d57fb	-0.18490593
27	0xbd969b5f	-0.073538534
28	0xbdf0af36	-0.11752169
29	0x3e17cc47	0.1482402
30	0xbda81c48	-0.08208519
31	0x3c30eadb	0.010798181
32	0xbd970301	-0.0737362
33	0x3d37bce8	0.04485789
34	0xbdab87e9	-0.08375532
35	0xbe83f91b	-0.2577599
36	0x3e4d225d	0.2003264
37	0xbd5667f1	-0.05234522
38	0xbd5243b2	-0.05133409
39	0x3c6542ca	0.013992975
40	0x3dc3cf85	0.095610656
41	0x3d995ee4	0.07488802
42	0x3cf23ab6	0.029569011
43	0xbdad2816	-0.084549114
44	0xbe136735	-0.14394839
45	0xbc9391c1	-0.018013837
46	0x3d3b2854	0.045692757
47	0xbd4df611	-0.050283495
48	0x3d17fb1a	0.037104703
49	0x3dd59e0d	0.104305364
50	0x3d28bd1b	0.04119597
51	0x3d711383	0.0588565
52	0x3c4f0c17	0.01263716
53	0x3dd82c5f	0.10555338
54	0xbe73f662	-0.23824456
55	0xbd894c08	-0.06703955
56	0xbd0a699e	-0.03379213
57	0x3ce9f1b2	0.028557632
58	0x3e60e376	0.2196177
59	0x3b58aee9	0.003306324
60	0x3e6fbf5f	0.23412846
61	0x3e043752	0.12911728
62	0xbdcbd5cb	-0.09952887
63	0xbd89653f	-0.06708764
64	0x3e06a2d6	0.13148054
65	0xbe41941d	-0.18904157
66	0x3d9db7c6	0.077010676
67	0xbdf0c80b	-0.11756905
68	0xbcd73134	-0.026268579
69	0xbd1e4021	-0.038635377
70	0xbd319ede	-0.0433644
71	0x3dd98dbe	0.10622738
72	0x3cce6ca0	0.02519828
73	0x3d417311	0.047228877
74	0xbe3c1950	-0.18369031
75	0x3d212a3e	0.039346926
76	0x3e37dc62	0.17955163
77	0x3e376a95	0.17911752
78	0xbdb6fd83	-0.08935072
79	0xbb9e9428	-0.004839439
80	0xbd842cf0	-0.06453884
81	0xbd5cb5ef	-0.053884443
82	0x3e38d9da	0.18051854
83	0xbdd744a7	-0.10511141
84	0x3dd96941	0.10615779
85	0x3d1dce10	0.038526595
86	0xbe2cbbbb	-0.16868488
87	0xbda65c9c	-0.081231326
88	0xbc173553	-0.009229022
89	0x3d1bcbf4	0.0380363
90	0xbca9da5f	-0.02073401
91	0xbd7c7e0c	-0.061643645
92	0x3ba3b4b8	0.0049959086
93	0x3dd4dafc	0.103933305
94	0x3e1185ef	0.14211248
95	0x3e3aee84	0.18255049
96	0x3da33bc5	0.079703845
97	0xbd814ca1	-0.06313444
98	0xbde7db68	-0.11321145
99	0x3de316d5	0.11088339
100	0x3e1529fe	0.145668
101	0xbccf1e90	-0.025283128
102	0x3db0b1c6	0.086276576
103	0xbe10bc1b	-0.14134257
104	0x3dc0fe7d	0.0942354
105	0x3da5c11e	0.08093475
106	0xbcf986eb	-0.030459842
107	0xbdf3ed15	-0.11910454
108	0xbe9552a6	-0.29164618
109	0x3dd21497	0.102578335
110	0x3de0f987	0.109850936
111	0xbb974662	-0.0046165446
112	0xbd170e99	-0.036879156
113	0x3d664c21	0.056224946
114	0x3e389b65	0.18028028
115	0xbd42dcae	-0.047573738
116	0xbb89036e	-0.004181317
117	0x3d150e89	0.036390815
118	0xbd868822	-0.06568934
119	0x3de80d95	0.113307156
120	0xbca9d26e	-0.020730224
121	0xbc9f8414	-0.01947216
122	0x3e4c1e8b	0.19933526
123	0x3d3abf8f	0.04559284
124	0xbcc1d2a7	-0.023660017
125	0xbd8bd180	-0.06827068
126	0x3d09cf84	0.033645168
127	0x3d9521bc	0.07281825
128	0x3d8d46e0	0.06898284
129	0xbd5c48cd	-0.053780366
130	0xbd67b0f9	-0.05656526
131	0xbcb51a26	-0.022107195
132	0x3e148e6e	0.14507458
133	0xbe0d2d14	-0.13786727
134	0x3c5926e1	0.013253898
135	0x3d83d2e9	0.06436712
136	0xbd58ade7	-0.05290022
137	0x3df8b07e	0.12143038
138	0x3d68e6a5	0.056860585
139	0xbda411dd	-0.0801122
140	0xbe346316	-0.17615923
141	0xbe07cfef	-0.13262914
142	0xbdb337fc	-0.087509125
143	0x3d8f87b6	0.07008307
144	0x3cbaea49	0.022816794
145	0xbd128164	-0.035767928
146	0x3d4f0384	0.050540462
147	0xbe1f7328	-0.15571272
148	0x3e000980	0.12503624
149	0xbab21e57	-0.0013589364
150	0x3bf749cc	0.007546639
151	0x3e422404	0.18959051
152	0x3df01412	0.11722578
153	0x3d9a44f8	0.07532686
154	0x3bd3041d	0.0064396993
155	0x3d9bc39a	0.076056674
156	0x3e29fb4f	0.16599773
157	0x3cfd48d5	0.030918518
158	0x3d921dc6	0.07134585
159	0x3d13b017	0.036056604
160	0x3e51ece1	0.20500518
161	0xbd9cefa9	-0.07662899
162	0x3d157aa0	0.036493897
163	0x3d31c967	0.043404963
164	0x3d778be1	0.060436133
165	0x3e617498	0.22017133
166	0x3d49601c	0.049163923
167	0xbd76bd29	-0.06023899
168	0xbe05f805	-0.13082893
169	0x3d464f06	0.048415206
170	0xbdae72b6	-0.08517973
171	0xbd905acb	-0.070485674
172	0x3e531731	0.20614316
173	0xbd6ecfb2	-0.058303542
174	0xbd334d37	-0.04377481
175	0xbe0dabe3	-0.13835101
176	0xbdbc9a95	-0.09209172
177	0x3dddc944	0.10829404
178	0x3dbc6bf5	0.09200279
179	0xbd5eeae3	-0.054423224
180	0xbdf97bc4	-0.121818095
181	0x3d9e3192	0.077242985
182	0xbe21a1c1	-0.1578436
183	0x3d74e62a	0.059789814
184	0xbe0b502d	-0.13604803
185	0xbe1703bf	-0.14747523
186	0xba670a25	-0.00088134623
187	0x3d573e25	0.0525495
188	0xbe22c27b	-0.15894501
189	0x3cb9e693	0.022692954
190	0x3d8cfc85	0.06884102
191	0x3d633623	0.05547155
192	0x3e5b5841	0.21420385
193	0xbd0dde32	-0.03463573
194	0xbc8cc7d6	-0.017185133
195	0xbdf4c4ae	-0.11951576
196	0x3e42f2d6	0.19037947
197	0xbe020781	-0.12698175
198	0xbd99ff1b	-0.07519361
199	0xbd15ccd3	-0.03657229
200	0x3d1e35b1	0.038625423
201	0x3b711033	0.0036783337
202	0x3d25892a	0.040414013
203	0xbcdd0076	-0.026977759
204	0x3da5f99c	0.0810425
205	0x3d5e0bdc	0.05421053
206	0xbd9af207	-0.07565694
207	0xbcc734d3	-0.02431718
208	0x3e39d889	0.18149008
209	0x3d72eb5d	0.05930649
210	0x3e0d1c23	0.13780265
211	0xbe2a2714	-0.1661647
212	0x3c9d5872	0.019207213
213	0xbbdebffd	-0.006797789
214	0x3c5c32e3	0.013439867
215	0x3e47b616	0.19503054
216	0xbd580ea9	-0.052748356
217	0x3da542a9	0.08069355
218	0x3e0265d1	0.12734152
219	0x3ce7e05f	0.02830523
220	0x3e14da84	0.14536482
221	0x3a4c38a3	0.0007790422
222	0x3e75321c	0.23944896
223	0xbe1b05bf	-0.1513891
224	0xbe1c283d	-0.15249725
225	0x3da65d86	0.08123307
226	0x3cb3b510	0.021936923
227	0xbd54ccb0	-0.051953018
228	0x3d561359	0.052264545
229	0xbdd46c79	-0.10372252
230	0xbe2dbae1	-0.1696582
231	0x3e69e9f0	0.22843146
232	0xbd0800e0	-0.03320396
233	0x3d1775ef	0.036977705
234	0x3d4773ed	0.04869454
235	0xbde2bf18	-0.110716045
236	0x3c5a4619	0.013322377
237	0xbd0a8ab2	-0.033823676
238	0x3e15f648	0.1464473
239	0x3dfe2470	0.12409294
240	0x3eb433c6	0.3519575
241	0x3e3614f6	0.17781433
242	0xbda028f0	-0.07820308
243	0x3d6602a3	0.05615486
244	0xbd70ea8d	-0.058817435
245	0xbe95aa62	-0.29231554
246	0x3cf5e5ae	0.030016746
247	0xbdcd1b02	-0.10014917
248	0xbbb2f19c	-0.005460931
249	0xbc393298	-0.011303566
250	0x3ce3765f	0.027766405
251	0xb99b4bb1	-0.00029620298
252	0xbe27797c	-0.16354936
253	0x3e192bdf	0.14958142
254	0x3dd307cd	0.10304222
255	0x3d6eb8f3	0.05828185

network_body._body_endoder.seq_layers.2.bias f4 [128]
0	0x3b2b6d92	0.0026157838
1	0x3ce1f79f	0.027583895
2	0x3d4867e5	0.048927207
3	0x3c6cdc0c	0.01445676
4	0x3b2821c9	0.0025654903
5	0x3c12ceb2	0.008960413
6	0x3b00cadb	0.0019652161
7	0x3c8ea563	0.017412847
8	0x3d01dfe2	0.031707652
9	0x3ca44540	0.020052552
10	0xbc8b019c	-0.01696854
11	0xbcc3083f	-0.023807643
12	0x3d827556	0.06370036
13	0xba548f18	-0.0008108481
14	0x3c6c19ac	0.0144104175
15	0x3c8974d4	0.01677934
16	0x3cb125b6	0.021624427
17	0xbd198f03	-0.037489902
18	0x3b6eaf76	0.00364205
19	0xbb9ebcd0	-0.0048442855
20	0x3d194737	0.03742143
21	0x3d02ed38	0.03196451
22	0x3c102ff5	0.008800496
23	0xbd13ed11	-0.036114756
24	0x3bd1c087	0.006401125
25	0x3d85fd9b	0.06542512
26	0x3d8e2319	0.06940288
27	0x3bad72f6	0.0052932454
28	0xbbf755cb	-0.007548069
29	0xbae6c975	-0.0017607646
30	0x3d4cc9a4	0.049996987
31	0x3cbf06e5	0.023318717
32	0x3c2675d4	0.010159928
33	0x3c8132e0	0.01577133
34	0x3cb63af9	0.022244917
35	0xb8f283aa	-0.000115639836
36	0x3d7f79dd	0.062372077
37	0x3c29f6df	0.0103738
38	0x3b8882f0	0.0041659996
39	0x3d1eb580	0.03874731
40	0x3d887b33	0.066641234
41	0x3c5d04c3	0.013489905
42	0x3d33d13c	0.043900713
43	0x3cc5f768	0.024165824
44	0xbc2f454e	-0.010697676
45	0x3c89df2d	0.016830051
46	0xbbba8416	-0.0056920154
47	0x3c8d8c5c	0.017278843
48	0xbc093cfc	-0.008376356
49	0x3d8f2d86	0.06991105
50	0x3d9aec36	0.07564585
51	0xbc621664	-0.013799284
52	0x3d5222f4	0.051302865
53	0x3b67c2f1	0.0035363997
54	0x3cce7a69	0.025204854
55	0x3bc2110d	0.005922443
56	0x3c116603	0.008874419
57	0xbcf3685e	-0.029712852
58	0x3d3b55fa	0.04573629
59	0x3c86dce4	0.01646275
60	0xbb39974b	-0.0028318937
61	0x3d12a2e8	0.03579989
62	0x3ca04c52	0.019567642
63	0x3c8c7566	0.017145824
64	0x3a82677f	0.0009949057
65	0x3cb48d75	0.022040108
66	0x3d9495e0	0.07255149
67	0x3a707077	0.0009172032
68	0x3c0b75df	0.008511989
69	0xbccc0f32	-0.02490959
70	0x3cb7699a	0.022389222
71	0x3c6a2406	0.014290815
72	0x3ce7c9e4	0.028294511
73	0x3d01edac	0.031720802
74	0x3cfab961	0.030605974
75	0x3bf18236	0.0073702587
76	0x3d49f636	0.04930707
77	0x3b140d64	0.002259099
78	0x3c3b129d	0.011418012
79	0xbc22f7c9	-0.009946772
80	0x3cc2de52	0.023787651
81	0x3d69a616	0.057043158
82	0x3d49509e	0.04914915
83	0x3d99e5f2	0.07514562
84	0x3d2f83d1	0.04285032
85	0x3c29b81a	0.010358835
86	0x3d34d219	0.044145677
87	0x3c7bae5f	0.0153613975
88	0x3d0c947f	0.034321304
89	0x3c4b63e6	0.012413954
90	0x3d0471ee	0.032335214
91	0x3abb2ed6	0.0014280926
92	0x3d673076	0.0564427
93	0xbbd35aa5	-0.0064500147
94	0x3d217500	0.03941822
95	0x3cf6ac47	0.030111445
96	0x3d35519a	0.044267274
97	0x3c98c8cf	0.01865044
98	0x3d883e24	0.066524774
99	0x3d34a229	0.04409996
100	0x3d2e6011	0.042572085
101	0x3c1e1d4c	0.00965054
102	0x3cb3819f	0.021912394
103	0x3d8b3567	0.06797295
104	0x3cb93f34	0.022613145
105	0x3daacb2e	0.08339535
106	0x3c53b3fc	0.01292133
107	0x3ce4a1a3	0.027909106
108	0xbc9514a6	-0.018198323
109	0x3bc9bcfd	0.0061565624
110	0x3d446b01	0.04795361
111	0x3d6e2002	0.058135994
112	0x3c827ee2	0.015929643
113	0xbca270af	-0.019829122
114	0x3b418f31	0.0029534812
115	0x3d44ecb9	0.04807732
116	0x3c29b4b8	0.010358028
117	0x3bf18624	0.007370727
118	0x3d817532	0.06321181
119	0x3d8c864e	0.06861554
120	0xbc89e227	-0.01683147
121	0xbc919c63	-0.017774766
122	0x3cf7a717	0.030231042
123	0x3b73487d	0.0037122064
124	0x3d14aa0f	0.036294993
125	0x3c97d245	0.018532882
126	0x3d20d7c3	0.039268266
127	0x3ca1201f	0.019668637

action_model._discrete_distribution.branches.0.weight f4 [6, 128]
0	0x3b60be07	0.0034292953
1	0x3b5bce18	0.003353959
2	0xbd581fdb	-0.052764755
3	0xbb253bdc	-0.002521268
4	0xbd311574	-0.04323335
5	0xbcf5e1db	-0.030014923
6	0x3c9879fe	0.018612858
7	0xbcb3dabc	-0.021954887
8	0xbd79d4cc	-0.060993955
9	0xbd72bc9e	-0.05926191
10	0x39d8a255	0.00041319677
11	0x3d50d2bc	0.050982222
12	0xbd38958e	-0.0450645
13	0xbc95e739	-0.018298732
14	0x3c03ad46	0.008036917
15	0xbcbdbc47	-0.023161067
16	0xbca1ff92	-0.019775186
17	0x3d1325f3	0.035924863
18	0xbd3154b7	-0.04329368
19	0xbdad8742	-0.08473064
20	0xbc4f40b0	-0.0126497
21	0xbd251c88	-0.040310413
22	0xbcfa1b51	-0.030530604
23	0x3c9d5be0	0.019208848
24	0xbd6bcd71	-0.05756897
25	0x3ba66f03	0.0050791516
26	0xbd45833b	-0.048220854
27	0xbc8f6e67	-0.017508699
28	0x3d3b7931	0.045769874
29	0xbbe7f5f6	-0.0070788814
30	0xbd83a54c	-0.06428012
31	0xba71c9ca	-0.00092234893
32	0xbd3693e5	-0.044574637
33	0xbd77102e	-0.060318165
34	0xbd1ab599	-0.03777084
35	0xbd3cef57	-0.04612669
36	0xbc0819a1	-0.008306892
37	0xbc45b319	-0.012066626
38	0xbd18b114	-0.03727825
39	0x3c5dc9d2	0.013536887
40	0xbd18e12e	-0.037324123
41	0xbc2f3395	-0.01069345
42	0xbc94f701	-0.018184187
43	0xbd81a6ba	-0.06330629
44	0xbcdb5fe1	-0.026779117
45	0xbd28b9b1	-0.041192714
46	0x3cca43a6	0.02469046
47	0x3cd4b310	0.02596429
48	0xbce91881	-0.028454067
49	0xbd531de1	-0.051542167
50	0xbd1d4dad	-0.038404156
51	0x3d6eedbb	0.058332186
52	0xbd0f8805	-0.035041828
53	0x3c3cbc50	0.011519507
54	0x3ab1d03b	0.0013566086
55	0xbd35d7f6	-0.04439541
56	0xbd078380	-0.033084393
57	0x3c630e03	0.013858321
58	0xbd23c06e	-0.039978437
59	0xbd554dd7	-0.052076187
60	0xbceab6ce	-0.028651621
61	0xbd11c890	-0.035591662
62	0xbcae51a6	-0.021279167
63	0xba6445f0	-0.0008707931
64	0xbd3e09cd	-0.046396066
65	0xbc15b57e	-0.009137509
66	0xbd371b27	-0.04470363
67	0xbc799f0b	-0.015235673
68	0x3c3a4ab9	0.011370354
69	0x3cfe401b	0.031036427
70	0x3c407dcc	0.011748742
71	0xbc86d3c9	-0.016458409
72	0xbda72e50	-0.0816313
73	0xbbf5dfea	-0.0075034993
74	0x3c936d4e	0.017996456
75	0xbd6015fb	-0.054708462
76	0xbd7fba30	-0.06243342
77	0x3cd04bb3	0.025426721
78	0xbc8795f4	-0.016550995
79	0xbb7e810c	-0.0038834242
80	0xbd638d36	-0.05555459
81	0xbcd2919a	-0.025704194
82	0xbd86fb3d	-0.06590889
83	0xbd3c0925	-0.04590716
84	0xbd0fc9c2	-0.03510452
85	0xbce6929b	-0.028146079
86	0xbca9b728	-0.020717219
87	0xbcf6e563	-0.030138677
88	0xbd814b58	-0.06313199
89	0xbd5d1a33	-0.053980064
90	0xbccdb8dd	-0.025112564
91	0xbc97b96f	-0.018521039
92	0xbbd71391	-0.006563612
93	0xbd05cf2a	-0.03266827
94	0xbc65baf7	-0.014021627
95	0xbd1a3f36	-0.03765794
96	0xbbe9270f	-0.007115252
97	0x3c792299	0.015206003
98	0xbd087dcf	-0.033323105
99	0xbcbec6e0	-0.02328819
100	0xbd09d1f0	-0.033647478
101	0xbc3d892c	-0.011568349
102	0xbd5f8952	-0.05457432
103	0xbd874c42	-0.06606342
104	0xbd5cf00d	-0.053939868
105	0xbd38dffc	-0.045135483
106	0xbc1b5c4c	-0.0094824545
107	0xbd9e2829	-0.07722504
108	0x3be38187	0.006942931
109	0xbcb06dd6	-0.021536749
110	0xbcd259f8	-0.025677666
111	0xbd3b277b	-0.04569195
112	0xbd5aadfd	-0.053388584
113	0x3c048402	0.008088114
114	0xbc53f9eb	-0.012938003
115	0xbd43ad20	-0.047772527
116	0xbcfb9681	-0.030711414
117	0xbcac0ab1	-0.021001192
118	0xbc9ff875	-0.019527653
119	0xbcf7cb29	-0.030248241
120	0xbd0e067d	-0.034674156
121	0x3c1ab460	0.009442419
122	0xbc9e5439	-0.01932727
123	0xbd38a0b4	-0.045075133
124	0xbd3992dd	-0.045306075
125	0xbd8298a4	-0.0637677
126	0xbcd9d184	-0.026589163
127	0xbd122c90	-0.03568703
128	0x3dc07486	0.09397225
129	0xbd86d1a3	-0.06582954
130	0x3cc9e5da	0.024645735
131	0x3e17db90	0.1482985
132	0x3dbcd949	0.09221131
133	0x3cf4127b	0.029793968
134	0xbda012f5	-0.07816116
135	0x3dd2c1f8	0.10290903
136	0x3ce571a2	0.028008286
137	0x3ca6d65d	0.020365888
138	0x3de67d29	0.11254341
139	0xbc8dcaa9	-0.01730855
140	0xbdb6f119	-0.089327045
141	0x3d75657d	0.05991124
142	0x3daa6817	0.08320635
143	0x3d78639d	0.060641874
144	0x3cb103e4	0.0216083
145	0xbb8123bd	-0.003941028
146	0x3daba965	0.08381919
147	0x3cb143a2	0.021638695
148	0xbc9d862a	-0.019229013
149	0x3d3f5584	0.046712413
150	0x3d9bc75f	0.076063864
151	0xbc82b8ef	-0.015957324
152	0x3d89ac5c	0.06722328
153	0xbdb36dd7	-0.08761185
154	0xbe1b806c	-0.15185708
155	0x3d7b36df	0.061331626
156	0xbb0957ce	-0.0020956877
157	0x3dd88bc7	0.105735354
158	0xbd700def	-0.058607038
159	0x3c5a89a8	0.013338484
160	0x3d33c461	0.043888453
161	0x3dfe9c01	0.12432099
162	0xbc9c088f	-0.01904705
163	0x3d306306	0.043063186
164	0xbdbde8b6	-0.09272902
165	0xbc70c8e3	-0.014696333
166	0x3d8c57d3	0.06852689
167	0xbc84c6e1	-0.016208114
168	0xbe1dd485	-0.15413101
169	0x3d10547c	0.03523682
170	0xbc1d6596	-0.0096067395
171	0x3d85719b	0.06515809
172	0x3d60a5ae	0.054845504
173	0x3cbfcb39	0.023412334
174	0x3c62a7c3	0.013833943
175	0xbced7d0b	-0.02899029
176	0x3c8e59f5	0.01737688
177	0xbd7ac597	-0.061223593
178	0xbde698f8	-0.11259645
179	0xbd9043b4	-0.07044163
180	0xbdb217cc	-0.08695945
181	0x3d02f7f4	0.031974748
182	0x3d835136	0.06411974
183	0x3d89dce4	0.06731585
184	0x3d952b92	0.07283701
185	0x381946fa	3.6544145e-05
186	0xbda72584	-0.081614524
187	0x3c9574e2	0.01824421
188	0x3d0c24a2	0.034214623
189	0xbdba1cab	-0.09087499
190	0x3d66bc37	0.05633184
191	0x3cf61d31	0.030043216
192	0x3cbaf306	0.02282096
193	0x3cd2d9cf	0.025738625
194	0xbe2f4a2e	-0.17118141
195	0x3da435b1	0.08018053
196	0x3d8b996c	0.06816372
197	0xb9ad9980	-0.00033111498
198	0xbcde8613	-0.027163541
199	0x3d961cdf	0.073297255
200	0x3caef04f	0.021354822
201	0x3c957565	0.018244455
202	0x3d001eff	0.03127956
203	0x3d8d008e	0.068848714
204	0xbdc8e022	-0.09808375
205	0xbd8b2386	-0.06793885
206	0x3db93ca3	0.09044769
207	0xbce2afdc	-0.027671747
208	0xbb3de517	-0.002897566
209	0xbdcbefcc	-0.09957847
210	0xbdb87629	-0.09006912
211	0xbe44cabf	-0.19217966
212	0x3cdc7c55	0.026914755
213	0x3d96dd03	0.073663734
214	0xbd8df796	-0.06931989
215	0x3da3c56f	0.07996642
216	0xbc655c59	-0.013999068
217	0xbcd96474	-0.026537158
218	0xbd4da821	-0.05020917
219	0x3da0384c	0.07823238
220	0xbda9b4ee	-0.08286463
221	0x3d997111	0.07492269
222	0x3c00c9ac	0.007860582
223	0xbdb313d7	-0.087440185
224	0xbd401934	-0.046899036
225	0x3ca03a16	0.019558948
226	0xbdffc104	-0.12487987
227	0xbdb16cce	-0.08663331
228	0xbe12c7cb	-0.14334027
229	0x3d62e9a2	0.05539859
230	0x3d01db0e	0.031703047
231	0xbd3e41cf	-0.04644948
232	0xbdedabb6	-0.11605017
233	0xbe0f2b66	-0.13981399
234	0x3b9b4866	0.004738855
235	0xbc294676	-0.010331741
236	0x3dd918bc	0.10600421
237	0x3de3e9cb	0.11128577
238	0xbe1a5570	-0.15071654
239	0xbdcbe9ff	-0.099567406
240	0x3d23c4ca	0.039982595
241	0xbb1a1802	-0.0023512845
242	0x3db7c88c	0.08973798
243	0xbb59bfc7	-0.003322588
244	0x3c8c7d80	0.017149687
245	0x3d0a7497	0.033802595
246	0xbdeb6867	-0.114945225
247	0xbda7fa46	-0.08202033
248	0x3c978ca5	0.018499682
249	0x3c3741ce	0.011185123
250	0x3cf7b9e6	0.03024001
251	0x3d25223c	0.04031585
252	0xbd3e332f	-0.04643553
253	0x3d1be6b0	0.038061798
254	0x3cfcc14d	0.030853892
255	0x3ac5e0a8	0.001509686

action_model._discrete_distribution.branches.0.bias f4 [6]
0	0xbce215d4	-0.0275983
1	0xb987ab18	-0.0002587668
2	0x3d6dda74	0.05806966
3	0xbbf0a063	-0.0073433383
4	0xbd39949e	-0.045307748
5	0xbb3616db	-0.002778462
