Assets/Hide and Seek/Brain/SeekerBehavior_char.onnx (onnx, 215212 bytes, 6 tensors)

network_body._body_endoder.seq_layers.0.weight f4 [128, 280]
00000000: 2e93 4bbc 57c8 6e3b 0f90 12bb 738e 1c3d
00000010: a59d 5b3c 6969 0abd ccdf 123d eef7 2c3d
00000020: b79d ff3a 0f21 383d 0487 9f3c dec8 883c
00000030: f942 9ebd 5cd0 c6bb 6b3a 83bc f87a 0b3d
00000040: 3f2c 01bd 21b4 89bd b578 11be 8d11 b2bb
00000050: 36d6 bc3c 0b12 82bd 468c 0d39 919a 353c
00000060: 0dbe af3d a63e 70bd 70f6 c83d 00c9 e3bd
00000070: 7c08 d6bb f5c5 b63d 0e60 53bd b746 aa3d
00000080: 647b c93d f8c9 a6bc bd73 d43c a01c 043c
00000090: ca09 d73d 56e2 57bd 7b32 b13c 93c8 103b
000000a0: b4b8 a03d 4874 c2bc fdb6 0abc fc51 cbbc
000000b0: 4e18 43bd f978 6f3d 1637 e3bd ac30 093d
000000c0: 1028 b1bc a430 90bc 4d26 803d ccca 79bc
000000d0: a7b4 a63d 6e8a e4bc 9313 f6bd a3b3 2f3d
000000e0: 97eb 583d 890c 6fbd 741e 21bd 6c2d 6bbc
000000f0: dc87 563d 4539 2ebd c294 943c 24fe 67bd
00000100: 2be5 d53b 3648 283b 2072 32be fac7 85bd
00000110: 329b 3b3d 598f 0dbd e97e 4739 2a90 ba3d
00000120: 7c1e c2bc a81a 7d3c 9ee4 65bd 3313 84bc
00000130: 9d2d 3b3d 9248 adbd 871e 5ebc 548a 4d3d
00000140: 3dfb 853d 835b 9c3c 60d2 2b3d 6a60 8b3a
00000150: 6285 b5ba 4383 01bd 3a3c 61bd f84d 1a3c
00000160: b591 0b3e 33a7 d6bd 0545 143d 9b8c 113b
00000170: e318 a5bd 1080 c8bb b09f 103e 0f04 00bd
00000180: 76e8 013e cd59 8dbd 4096 93bd 448a 9fbd
00000190: 23a0 38bd 2d7b a83d 0474 a8bd d0ea aebd
000001a0: 3373 403b 167a a63d 0284 c43d 39ad 123d
000001b0: 47e0 91bd b38d ce3d 949b ca3d c366 70bc
000001c0: 7f87 ed3c f3c4 3ebd aad0 0abd 0474 8dbc
000001d0: 3c03 af3b a1c8 c8bc 7f36 8bbd b674 c9bb
000001e0: 5f26 efbd 2107 693d 1559 db3d 233c 8b3d
000001f0: 8ae4 ecbc e1d2 c7bd 6446 d13b 94bd 893d
00000200: 68bc ca3c 1243 8c3d 5b79 91bd 827a 8ebd
00000210: 4bfd 0bbe 15e9 a33c 3dcc 44bd 057d bdbb
00000220: b64f 4f3c 7e67 8cbc 0f50 9a3d 5c69 8cbd
00000230: 98b8 673d ef1c 523d 2867 213c 0a02 4dbd
00000240: 48c5 83bd 605c 02bc 27a2 1abd bf45 27bb
00000250: 4c7d 493d 976d 213d 9ac2 d83b dfa1 723d
00000260: 6a3c 5abd a22e 0f3c 9367 8cbd b084 3bbd
00000270: f7ce 89bd 3cfb 813c 78ac 4b3d 332c 5d3d
00000280: c5cd 69bc 4a4d 1f3e 46dc c23d 9390 5c3d
00000290: 8b8b d43d 8561 9a3d 751e 603c 9b53 3dbd
000002a0: 3909 05bd 8f48 da3c ae50 253a 045d 123d
000002b0: fb5f 65bd 74dd 343e 1155 e53c a55d 153e
000002c0: 2c31 a43c 54fe 453d d492 9c3c 82d1 923c
000002d0: 0a49 f0bc b25c 9b3d fae5 b03d 0f69 bd3c
000002e0: 3bad 13bc 6d04 21bd 777e ef3d 78b2 f63c
000002f0: 490a 91bd 6400 933c d36e cb3d 2781 bcbc
00000300: 8a05 bcbd b796 303e fad3 32bc b994 323c
00000310: 3797 c33d b17d ee3c 4279 bebc 12ee e23d
00000320: 9ade 13bd 2ecb 1fbc 71cb d7bb 37e5 1ebe
00000330: f345 61bd 6d7d 663c 2d63 4e3d 7657 8eba
00000340: b2fe 9f3d fc04 843d 635e d3bd de42 9e3c
00000350: 8bea 51bd da34 fcbb 7c41 0f3d fa6a e83c
00000360: 82e4 33bd 71ab 32bd 0165 053c 8adf 32bd
00000370: dc34 ca3c debb 59bd 5dc8 61bd 2f26 f83d
00000380: bb8c a6bd 3d0a 11bd 2f0c 033e 294c 5fbd
00000390: 0ce7 7bba 1173 7e3d 1400 b5bc 01d9 cb3c
000003a0: 0dc2 1c3e dd66 5c3d 139c e1bd e160 463e
000003b0: 4851 bebb a89c 84bd 7c0b 543d d3bf 153d
000003c0: 5326 9f3d 02d9 943b 494c a7bb e695 be3c
000003d0: 45ea 343c 8cbf 0f3d 4685 7abd d92b ac3d
000003e0: ab44 dd3d 2434 8abb a4b2 d0bc 806c 0c3d
000003f0: 5d71 e43d b325 173d fdd4 d9bc f83c 38bd
-0.012425227 0.003643533 -0.0022363698 0.038221788 0.013404285 -0.033791933 0.03585796 0.04222863
0.0019501959 0.044953402 0.01947356 0.016697343 -0.07727618 -0.006067319 -0.016019067 0.03405282
-0.031536337 -0.0672381 -0.14206202 -0.005434221 0.023051362 -0.06351098 0.00013499064 0.011084215
0.08581171 -0.058653496 0.09812629 -0.11122322 -0.006531773 0.08924476 -0.051605277 0.08314269
0.09837988 -0.020359978 0.025934095 0.008063465 0.10499914 -0.052706085 0.021630516 0.0022092208
0.07847729 -0.023737088 -0.008466479 -0.024819367 -0.0476306 0.058464978 -0.11094491 0.033493683
-0.021625549 -0.017601319 0.06257305 -0.015246104 0.081399255 -0.02789804 -0.12015452 0.042895924
0.05295905 -0.058361564 -0.039335683 -0.014354091 0.05237566 -0.042535085 0.01813734 -0.05663885
0.006527563 0.0025677807 -0.17426348 -0.06532283 0.045802303 -0.034560535 0.00019025397 0.09109528
-0.023696177 0.01544825 -0.05612623 -0.016122436 0.045697797 -0.08461107 -0.013557083 0.050180748
0.065420605 0.019086605 0.041948676 0.0010633592 -0.0013848955 -0.03161932 -0.054989077 0.009418003
0.13629802 -0.104811095 0.036198635 0.0022209052 -0.080613874 -0.006118782 0.14123416 -0.03125387
0.12686333 -0.06901894 -0.07206392 -0.07790044 -0.045074593 0.08226619 -0.08225253 -0.08540881
0.002936554 0.08128755 0.09595491 0.03580973 -0.07122856 0.10085621 0.098929554 -0.014672938
0.028995274 -0.046574544 -0.033890404 -0.017267235 0.0053409617 -0.02450973 -0.06797504 -0.006147946
-0.116772406 0.056891564 0.107103504 0.067985795 -0.02891757 -0.09757019 0.006386565 0.06725612
0.024748042 0.0684873 -0.07103225 -0.0695696 -0.13670842 0.020008603 -0.04804634 -0.0057827258
0.012653282 -0.017139193 0.07534801 -0.06856033 0.056572527 0.051297124 0.0098512545 -0.050050773
-0.06434113 -0.007956594 -0.037752297 -0.002552375 0.049191758 0.039411154 0.006614995 0.059236404
-0.05328027 0.0087391455 -0.06855693 -0.045780838 -0.067289285 0.015866868 0.049725026 0.05399723
-0.014270251 0.15556827 0.0951467 0.053848814 0.10378178 0.075381316 0.0136791365 -0.04622231
-0.0324795 0.026645927 0.00063062727 0.035733238 -0.055999737 0.17662603 0.027994664 0.14586504
0.020042978 0.04833825 0.019112982 0.017922167 -0.029331703 0.075860396 0.086376145 0.023121385
-0.009013469 -0.03931086 0.11694043 0.030114397 -0.0708204 0.017944522 0.099332474 -0.023010803
-0.09180744 0.17244993 -0.010914797 0.010899716 0.09550326 0.029112669 -0.02325118 0.110805646
-0.03610096 -0.009753032 -0.0065855314 -0.15517126 -0.05499835 0.01406799 0.05038755 -0.0010859806
0.07812251 0.06446263 -0.10320737 0.019318994 -0.05124907 -0.00769673 0.03497456 0.028371323
-0.043919094 -0.04362053 0.008141757 -0.043670215 0.024683408 -0.05315768 -0.055122722 0.12116658
-0.08132311 -0.035410155 0.12797616 -0.05451599 -0.0009609319 0.062121455 -0.022094764 0.024883749
0.153084 0.053809036 -0.11016097 0.19372894 -0.0058080293 -0.06475192 0.051768765 0.03655989
0.07770982 0.004542471 -0.0051055294 0.023264837 0.011042182 0.035094783 -0.061162256 0.08406801
0.10804113 -0.0042176414 -0.025475807 0.03428316 0.11154435 0.036901187 -0.026590819 -0.04498002

network_body._body_endoder.seq_layers.0.bias f4 [128]
00000000: 34a0 c23c 3913 923c 371a 1b3c ce8a 8e3c
00000010: c20f 043c 8ead 9c3c 156f debc f88e ae3c
00000020: d374 1d3b 9faf 243c 6843 593c ac96 093d
00000030: 2726 e93c 0c1b 2b3d 3899 8c3c e976 fd3c
00000040: 3964 54bc 5642 1f3d f71b ac3c 3917 b93c
00000050: 4a3d 083d e6f5 633c 16c9 c03c 31b2 593c
00000060: ed50 75bc 5234 253d 157d c53c 7390 40bc
00000070: bd85 e13c c42a e73c ba8b de3c 5de8 0e3d
00000080: e094 b93c 2466 803c b45c 7f3c 6919 993c
00000090: 8ecc bf3c b82f c2bb fd54 a03c 3554 863a
000000a0: 94d8 f53c d19e 483b b3db 8f3c 7b8f 283d
000000b0: d822 1e3d 8b99 3dbc 1d9e 7e3b 28e4 a73c
000000c0: 194e c83c a63b 683c 3eb9 c33c 8456 873b
000000d0: 3451 113d fb32 6f3c 3ded 1f3c e948 e33c
000000e0: a2bf ee3c c61b c63c 7b37 483d 2cd1 013d
000000f0: 43bc 213d b978 16bd bf95 d13c 7814 8c3c
00000100: 780f e73c 2e0a b93b 73c9 d93c 36fd e4bc
00000110: 70e7 503c c11c 363d b680 f83c 3813 b53c
00000120: 40b4 343d f0e2 b73c fbb3 223d f9cf ae3c
00000130: 6f05 243d 5266 423d 5cb3 bf3c 9a55 f73c
00000140: b3c6 183c 0d7e 9d3c ad3f 793c acd6 a43c
00000150: 0324 983c 22b5 fc3c 3e67 c93c 7818 413c
00000160: 77a7 be3a 20d2 afbb 393d 94bc 3c5b 093d
00000170: f164 b03c 47a8 233c 898a cd3c 3d5c ba3c
00000180: e0f1 d53c d610 fa3c 13a4 d23a 5596 083d
00000190: 017d a93c 3dfa ed3b 1cc7 663b f3f5 493d
000001a0: 8550 3e3d 8bf0 413c 8e64 873a 32fc 793b
000001b0: c722 5c3b 09f8 003c 587e 253d 9fae da3c
000001c0: 9b07 003d 3f59 7f3c ea1c bc3c 47e8 f43c
000001d0: 59b0 41bb f8ee df3c ad1a 23bc 7fe2 5b3c
000001e0: 3b19 713c a472 a13a a3f7 bc3c 0b99 423d
000001f0: c13d f33c ede0 943c 7708 2a3b 67f5 053d
0.023758031 0.017831432 0.009466699 0.017400172 0.008060398 0.019125726 -0.027152577 0.021308407
0.0024025931 0.010051637 0.0132607 0.033590958 0.028460575 0.04177384 0.017162904 0.03094049
-0.012963348 0.038881622 0.021009428 0.022594081 0.033261575 0.013913607 0.023533385 0.013287113
-0.0149729075 0.0403331 0.024107495 -0.011753189 0.027529592 0.028218634 0.027166236 0.034889568
0.022653997 0.015673704 0.015586067 0.018688874 0.023412969 -0.0059260987 0.019571776 0.0010248484
0.030010499 0.003061224 0.017560815 0.04115246 0.03860745 -0.011572252 0.0038851567 0.020494536
0.024451302 0.014174378 0.023892041 0.0041301865 0.035477832 0.014599557 0.009761152 0.027744727
0.029144112 0.024183165 0.048881035 0.031693622 0.03948618 -0.036736224 0.0255841 0.017099604
0.028205618 0.0056469655 0.026585316 -0.027952772 0.0127504915 0.044461016 0.030334812 0.02210389
0.044117212 0.02244708 0.039722424 0.021339403 0.040044244 0.04746086 0.023400955 0.030192185
0.009324717 0.019225145 0.015212935 0.020121895 0.01857186 0.03084809 0.024585363 0.011785619
0.0014545758 -0.005365625 -0.0180956 0.033534274 0.021532508 0.009988851 0.025090473 0.02274906
0.026116312 0.030525606 0.0016070626 0.033346493 0.02068949 0.0072624967 0.0035213893 0.04930682
0.04646351 0.011837135 0.001032965 0.0038144705 0.0033590065 0.007871636 0.040403694 0.026694594
0.031257253 0.015585243 0.022963006 0.029895915 -0.0029554574 0.027335629 -0.0099550905 0.0134207
0.014715488 0.0012317491 0.023067301 0.047509234 0.029692532 0.01817366 0.0025944987 0.032704737

network_body._body_endoder.seq_layers.2.weight f4 [128, 128]
00000000: 1dc6 21bb 1a61 a93d 8462 3dbd 2e26 973d
00000010: 1d66 8c3d e1be b9bd fd04 593c 7b74 b83d
00000020: e741 f1bd 3c9c 17be 78da 593e aa77 113d
00000030: 1f36 10bb f011 cb3d df51 5d3d 5348 a4bb
00000040: a702 01bc 7307 5f3c 5539 9cbd 55c4 25bd
00000050: e04a f0bc 5aa7 25be a8cf e33d 46ce ff3c
00000060: f550 96bd a042 4c3c dee1 59bd 2a4f 91bc
00000070: 96be 363c 00c2 0cbd 9b92 c93d 5520 7fbb
00000080: 1d13 bf3a e116 dbbd 60d4 a83c 665c 02bb
00000090: 70e4 b0bd 5d0c 623b 78d6 85bd 70ab 33be
000000a0: ad84 943d ef3b b5bc b8fe d0bc 3136 7e3d
000000b0: 4145 9e3c 70d2 813d 0363 b5bd 7230 74bd
000000c0: 33d0 41bd 6a4d f1bd af6c 673d 0fd1 b9bd
000000d0: dd9c 11be 7df9 813c f7d6 e9bd 16a2 42be
000000e0: 7ea2 023e 0ebd 17bd 66ee 033d 336d 85bd
000000f0: 677e 67bd a4d9 bfbd 1f7a d1ba adfa 83bd
00000100: a23c 68bd c80b 98bd 8a0c 8a3c b78f 0c3e
00000110: ff53 1abd 3286 403e 7563 e83b 6ee4 c4bd
00000120: f960 d03d ec20 e53d 3147 5d3d a848 f23c
00000130: 242d d9bd a46a 8abd 28cf ffba a3cc febd
00000140: 27d6 853a 847e 9f3d 691e 59bd 1a52 58bb
00000150: a1bc d0bd 48d1 0a3e d693 31bd eed4 013e
00000160: 464f 94bd c22f 583c f5dc 1d3d e47d c53c
00000170: c36f 0dbd 9cde 4abd a628 87bc a445 f8bd
00000180: 6518 8cbd 9a7f 4a3e 8d73 643c 7c08 523d
00000190: da6f 703d da3d 1fbd 6ffb fabb d2dc 1d3d
000001a0: 2e32 85bd bbb3 963c 74b2 573d 72a5 8c3c
000001b0: c350 12bd 295d dd3d 92e6 0ebe b33b 03bc
000001c0: 3454 5e3d 2da1 03be 7e97 debc 6e05 1ebd
000001d0: e332 803c 2983 26ba 5dde febd 2f94 1a3e
000001e0: b108 b53d 1c26 06be 5632 62bb 7a2e c73d
000001f0: 7206 f6bd 34b3 fbbb 70ef 623c 39e0 b2bc
00000200: 5798 f5bd 6b5e 0d3e 0d6f 733b 4160 1e3e
00000210: cd55 1e3d 6a3c fbbd 0e95 cfbd 358c 0e3d
00000220: 7a4a 1c3e a5cb 493c da10 1b3e d69e 65bd
00000230: bce1 e5bd d868 0b3d b896 5c3c cdd2 c43c
00000240: b030 c03d a281 933d e204 bbbd e888 01be
00000250: f2a7 1cbd 72a0 793c 4c58 063e a570 773c
00000260: 0528 18be 7391 81bd bc20 023d dc26 903d
00000270: 3507 f1bb 09da e23d cf96 913d 1329 efbd
00000280: 878a 203e a7cc b73d 3e08 eebc d548 b63d
00000290: 0857 8bbd 34f0 75bd 0d90 043d b79d 913c
000002a0: d3f9 233e c1d2 f5bd a576 583e f85d babc
000002b0: f0a4 94bd 7055 223d 6982 88bd c37e d13c
000002c0: d9ae eb3d 781b 94bd 844d 15be c586 6c3d
000002d0: 22b8 a0bd e70e f73d 0ce7 50bd 4d4f 40bc
000002e0: e7ec c53d b986 fc3d 939c d43d 8bb6 7abd
000002f0: 38a7 81bc daf6 b1bd 4758 c33d 0df8 5d3b
00000300: 0850 e8bc 5529 cebc 87e7 053e 24c8 343d
00000310: 0d6b 2dbc c7ac 033e afd0 e03d facb b3bb
00000320: e9fc 403c dde1 bd3c 957a 3fbd c563 d33b
00000330: cc2d 18bc 3325 0ebe df34 1bbe f53a 42bd
00000340: caf8 863d 13b7 623d 707c a3bd 8c0d 2fbe
00000350: c551 bdbc dd4e ccbd a790 0b3e a719 283e
00000360: 533f 31be 8b91 5f3b f45e 2bbd bf4f 3bbc
00000370: 7d96 ccbc 19aa 013e 1000 1d3d 3243 2e3d
00000380: 6d32 213e 18b4 0a3d 90ed 92bd d779 ca3c
00000390: 421e 7e3c 8edc 03be e983 dcbc 8b29 2e3e
000003a0: 66d7 f33c f225 abbd ead3 103e 36de b13c
000003b0: 076c 5ebc 3079 64bd eaf1 263d 4e8d e3bd
000003c0: 0886 453d ec98 e03d 8325 333d d9f5 c73d
000003d0: a858 7dbe afde fb3d a2a6 e43c 5caf 833d
000003e0: 9b50 86bd deb9 fe3d 79f3 c93c af1b c13d
000003f0: 088a 43bc 75b9 383d 774e 60bd eeba 313e
-0.0024684735 0.08270474 -0.04623653 0.07380329 0.06855414 -0.090696104 0.013245818 0.09006592
-0.11780148 -0.14805692 0.21274745 0.03551451 -0.0022004915 0.09915531 0.054033156 -0.0050135045
-0.0078741675 0.013612616 -0.07628123 -0.04047044 -0.029332578 -0.16177121 0.11123592 0.031226289
-0.0733966 0.0124670565 -0.05319392 -0.017737944 0.011153838 -0.0343647 0.09842416 -0.0038929184
0.001457784 -0.10697723 0.02060908 -0.00198915 -0.08637321 0.0034492232 -0.06535047 -0.17545867
0.072518684 -0.022123305 -0.025512084 0.0620634 0.019320132 0.06338966 -0.088567756 -0.059616514
-0.047317695 -0.11782344 0.056500133 -0.09073078 -0.14219995 0.015866036 -0.114179544 -0.19007143
0.12757298 -0.03704553 0.032209776 -0.06514969 -0.05651703 -0.093676835 -0.001598183 -0.06444297
-0.05669845 -0.07424122 0.016851682 0.13726698 -0.03767776 0.18801191 0.0070919343 -0.09613882
0.10174746 0.1118792 0.05402297 0.02957566 -0.10604313 -0.06758621 -0.0019516693 -0.12441375
0.0010210917 0.07787803 -0.053007517 -0.003300792 -0.10192228 0.13556397 -0.043353878 0.12678882
-0.07241683 0.01319498 0.0385408 0.02410788 -0.034530412 -0.049528703 -0.016498875 -0.12122658
-0.068405904 0.19775239 0.013943565 0.051277623 0.05870042 -0.038877346 -0.0076593678 0.03854067
-0.06503712 0.018396249 0.05266042 0.017168734 -0.03572155 0.108087845 -0.13955143 -0.008009839
0.05427952 -0.12854452 -0.027171846 -0.038579397 0.015649265 -0.0006351942 -0.12444756 0.1509559
0.088395484 -0.13100475 -0.0034514866 0.097256616 -0.12012948 -0.007681275 0.013851032 -0.021835433
-0.11991947 0.13805549 0.003714505 0.15466405 0.038656045 -0.122673824 -0.10135852 0.03480168
0.15262786 0.012316619 0.15143147 -0.05605968 -0.11224696 0.034035534 0.0134636685 0.024026299
0.093842864 0.0720246 -0.09131791 -0.12649882 -0.038246103 0.015236007 0.1311962 0.01510254
-0.14859016 -0.0632657 0.0317695 0.07038662 -0.0073555955 0.11076743 0.071088426 -0.11677756
0.15677844 0.08974581 -0.029056665 0.0890061 -0.06803709 -0.06004353 0.03236394 0.0177754
0.16013269 -0.12003089 0.2113901 -0.022749886 -0.07258022 0.03963226 -0.06665499 0.02557314
0.11507959 -0.07231802 -0.14580351 0.057745714 -0.078476205 0.12063389 -0.051001593 -0.011737657
0.09664326 0.12330384 0.10381427 -0.061209243 -0.015826806 -0.08689661 0.09538322 0.0033869774
-0.028358474 -0.025166193 0.13076602 0.04413618 -0.010584605 0.12858878 0.10977303 -0.0054869624
0.0117790485 0.023178989 -0.046747763 0.0064511024 -0.009288263 -0.13881378 -0.15156887 -0.047419507
0.065904215 0.055350374 -0.07982719 -0.17095011 -0.02311028 -0.099759795 0.13629399 0.16416036
-0.17309313 0.003411385 -0.0418386 -0.011432587 -0.024974102 0.12662543 0.038330138 0.04254455
0.15741892 0.033863157 -0.07174218 0.0247163 0.015510144 -0.12877104 -0.026918368 0.17008035
0.029765796 -0.08356847 0.14143339 0.021712404 -0.01357556 -0.055779636 0.04075805 -0.11110936
0.048223525 0.109666675 0.043736946 0.097636886 -0.24740851 0.12298333 0.027911488 0.064299315
-0.06558343 0.12437795 0.02465223 0.09429108 -0.011934765 0.04509874 -0.05476233 0.17356464

network_body._body_endoder.seq_layers.2.bias f4 [128]
00000000: 4bad 473c 89a1 653c 85f6 193d 42b5 5b3c
00000010: 91d5 8e3a 5519 963c 59b3 963c 259b 343c
00000020: 958e da3b 38be c53b f0e3 643c 436a 053d
00000030: 4b9b 003d 6d17 c53c 8696 cd3c cdd1 f03b
00000040: 26fa 9a3b 88cf 6f3c 07d3 913c 07c6 173c
00000050: fe51 f93c f092 d03c 867c a43c d0bb 763c
00000060: 51eb 7a3c f974 0b3d 627b 073d 7b52 8b3b
00000070: 3606 823c b31f b53c ff34 9f3c 47ec 3a3d
00000080: 2205 3a3d 6018 463c a205 333c 49d9 e43c
00000090: ec91 b03c e7d9 343c c438 d73c 0421 0c3c
000000a0: 43f5 6c3c 5b3d d23c 435c 333c 478f e2b9
000000b0: 4e0f f23c 6d30 ce3c 7570 873b 9fde 013c
000000c0: c15b 943c 3c96 81bc 3076 8e3c f97b a23c
000000d0: 2ada 083d 88f8 f43c a22b f33c 664a 203d
000000e0: 892e 06bb abdf b83c 89b4 0f3d c7fb b73c
000000f0: 7815 043d 13c9 f03c 2470 053d 44c7 eabb
00000100: 8528 d33c 3e40 d63c aaec 453c 878e 923b
00000110: e345 3e3c af07 cc3b 08fa 863c 1b01 293d
00000120: dd13 08bc 59e0 573c c3ae b83c 3210 193d
00000130: e911 8d3c f208 3b3c fe39 c93c f3c7 813c
00000140: ffca a23c 87af de39 8456 dc3c c73c 8c3c
00000150: 203b f73c c817 f83c 6306 d73c be11 c83c
00000160: dc37 0b3d 85b1 ac3c 8915 cb3c 6738 253c
00000170: 17e5 9d3c 2433 5e3c 8380 6b3c 3fd4 cb3a
00000180: 2f78 273c 2a1c 7b3c 38fd 93bc a8c1 773c
00000190: eb2b 093d b8e5 003d 7cc9 f43c 5f60 ba3a
000001a0: 3bda 173c 690f cb3c 3cd4 4f3c 9a35 0c3d
000001b0: 1188 163d 2ff2 a23c 2f4d 8e3c 49d0 7a3c
000001c0: a84b 813c 06a0 f33c 127c c03c 61e3 283c
000001d0: 445c 7fba d210 853b 543d 993c c05d 803c
000001e0: 7d94 933c 6d95 67bb e23f ec3a cccc 8c3c
000001f0: e6b3 9a3c 6b44 863b 92d7 213c 936a 073d
0.012187312 0.014015564 0.037588615 0.013409914 0.0010897388 0.018322626 0.018396067 0.011023317
0.006669829 0.0060346387 0.01397036 0.032572042 0.0313981 0.024059022 0.02509619 0.007349229
0.004729527 0.014636882 0.017800821 0.009263522 0.030434605 0.02546069 0.020078909 0.015059426
0.015314893 0.0340471 0.03307665 0.004251776 0.015872102 0.022109842 0.01943445 0.045635488
0.04541505 0.012090772 0.010926636 0.02793564 0.021553956 0.01103828 0.026272185 0.008552793
0.014462772 0.025664022 0.01094729 -0.0004321283 0.029548313 0.025169576 0.004133279 0.007926612
0.018110158 -0.015818708 0.01739034 0.019834505 0.033411182 0.029903665 0.029683892 0.039133452
-0.0020474514 0.02256759 0.03508428 0.022458924 0.032247037 0.029392755 0.03257765 -0.0071648676
0.025776157 0.02615368 0.012080351 0.004472557 0.011613342 0.006226502 0.016476646 0.04126082
-0.008305517 0.013176047 0.02254427 0.03736896 0.017220454 0.011415707 0.024563786 0.015842414
0.019872187 0.00042473918 0.026896723 0.017118825 0.03017956 0.030284777 0.026248163 0.024422523
0.03398882 0.021080742 0.024790542 0.010084248 0.019274278 0.013561998 0.014373901 0.0015550925
0.010221525 0.015326539 -0.01806508 0.015121855 0.03348915 0.031469077 0.029881231 0.0014219395
0.009268339 0.024787622 0.012684878 0.034230806 0.036750857 0.019890873 0.017370788 0.015308448
0.015783146 0.029739391 0.023496661 0.010308118 -0.00097412267 0.004060843 0.018706001 0.015669703
0.01801514 -0.0035336867 0.001802441 0.017187499 0.01888461 0.0040975115 0.009878056 0.03306062

action_model._discrete_distribution.branches.0.weight f4 [6, 128]
00000000: ccb0 383b 26c3 89bc 6476 0ebd a82c 12bc
00000010: 1f15 5ebb 2f34 55bd 7347 debc f7ea f7bb
00000020: 5a48 e93c 8f72 dabb 4020 31bb e6d7 d9bc
00000030: aaa0 a2bc 33f7 a7bc eb5b b8bc b473 3b3c
00000040: 44bf 9fbb c839 5b3b e179 39bc 53aa 2ebb
00000050: 251d cabc 2073 faba 9e3c 4abc 84e0 ae3b
00000060: dbe8 663b 9235 6cb9 9cfa 2cbd 7ae7 d0b9
00000070: 022f 7dbc 37af afbc 4fb9 a0bb b579 1ebd
00000080: d9fc f0bc 2238 973b 2bb5 f1bc e89c e7bc
00000090: 0614 d8bc 4c48 b0bb 6dd1 4cbb db48 13bd
000000a0: 9b3f 89bc 1e90 a8bc fa8c 16bc f82e 123c
000000b0: d4a5 c9bc 8ac3 11bd 08d4 afbc a077 f83b
000000c0: 90e5 5dbc 0d26 1c3c b799 cdbb 0dce 913c
000000d0: ce82 f6bc 5faf d9bc 5b10 b2bc fb5d d2bc
000000e0: d1e2 e03c 9851 4a3c 679e 44bd e0a3 c6bc
000000f0: 3e96 f3bc 49d8 b3bc a17c 03bc 8973 c53c
00000100: 3e1b ccbc 12f2 43bd 368e 95bc 4d33 9e3c
00000110: 8f66 453a 4c72 653c 8e37 89bc 4934 7fbb
00000120: 81a9 583c ad45 3c3c 3a04 63bc 8c7f 5fbc
00000130: 0c34 203b fc1f c9bb c3ec 37bc cab2 b0bc
00000140: 5907 b53b 3f2b 143c 2ff1 aabc 60e2 68bb
00000150: abab 99bb 0865 21bc 8eee 5fbc e17e 5f3c
00000160: db32 2bbc 4e49 b2bc a376 e2bc fa50 d4bc
00000170: 5201 b2bc e02a 38bc ae5d 5bbc 07cb 1bbc
00000180: 26c8 82bb 9f4f c6bb 3668 f33c ffc7 36bc
00000190: 884a b8bc acfb 88bc 47fb 13bd 11ad 563b
000001a0: 39f1 d4bc 5386 f8bb 070a 41bc d455 0abd
000001b0: c0aa 2cbd 547f 5abc 5cc7 ce3b 1c2e b73c
000001c0: ce17 d8bc f945 ffbc 7465 353c f6e8 1ebd
000001d0: 92cf f03c c0a5 903c f53b 8e3b 07ba 40bb
000001e0: ef8f 09bd faa4 c3bb 499c 243c 0f92 b639
000001f0: 28c1 e1bc 42e8 94bc e52a 1fbc 283f ddbb
00000200: af26 403d c39e 423d 0d16 a9bd 02bb 1cbd
00000210: ed91 cbbc b43c 3cbb 780b 593d 0ec2 a13c
00000220: 5823 313b 91f9 2c3c 1809 4bbd ceff cdbc
00000230: b1b0 92bd a0e3 f9bb f285 fc3c 6484 6abc
00000240: 38eb cdbc 0a7a 743d 3c30 3f3d afec f4bc
00000250: e148 d5bc af70 07bd 155f 5a3d 2b59 a33c
00000260: 2c6f 0ebd b0cb 68bd 38f7 82bd 0ef1 4a3c
00000270: 8be0 443d 6b27 1e3d a3c8 4ebb 2930 52bd
00000280: ef5b 6abd 1141 cf3c 2d27 2f3c 5919 19bd
00000290: 698f 48bd a0c5 603c 4247 303d 942a 0d3b
000002a0: 619d 1e3d c4da 82bd 74da 4d3d 914c 1b3d
000002b0: 57a8 62bd b510 01bd d184 e43c 78f1 983c
000002c0: 713f 443d b86d 93bb a471 30bc 1a5b 833d
000002d0: f94a 85bd 4a00 5cbd 244e 89bd bb32 16bd
000002e0: 41fc d2bb ff16 3cbd db0a 79bd c46d 133d
000002f0: cd52 81bd 00eb 36bd bdaa 4dbd a077 bb3b
00000300: b921 a63b 4cc2 29bd 068f 2f3d a570 babb
00000310: 8f8e 92bb 3103 403d 9817 3d3c 4e57 803c
00000320: dccd 02bb 759e e3bc f188 5cbb 7127 70bd
00000330: 3729 d23c f659 9dbd 7e9e 94bd 0a4e 3b3d
00000340: c5ac 57bd 6304 473d a190 0bbd 52b6 3b3d
00000350: 9a72 9bbd 5230 d5bc aa1e 0c3d 48f5 833d
00000360: c96c 93bd f4c6 1fbd 5195 2fbc 8d04 2abd
00000370: ebda dbba 10f8 5e3d 8305 f3bb c63e 043d
00000380: f90d 173d c2c8 e63c e6b3 523c e33c 3a3d
00000390: bd9c c5bd f8fa b73b 8e5f 5cbc 2a42 b53b
000003a0: a7b9 813c 7d89 773d 53b8 69bc 23f1 14bd
000003b0: 1bc5 88bd 4bef fcbc 8e5e 003d 7dc5 94bb
000003c0: d806 37bc 1611 8fbb 7648 7f3c 3a3b cc3c
000003d0: 77ad f2bc 81a2 0a3c 265f 023d 011f eabc
000003e0: cf57 753c e03d e93c b07f 00bc 060a d23c
000003f0: 97d9 0a3d aa33 1a3d 0df2 92bc 3bb9 11bc
0.002818155 -0.016816687 -0.034780875 -0.00892178 -0.00338871 -0.05205172 -0.027133679 -0.007565852
0.028476883 -0.0066664885 -0.002702728 -0.026592206 -0.019852001 -0.020503616 -0.022504767 0.01144116
-0.0048750956 0.0033451188 -0.011320562 -0.0026651814 -0.0246721 -0.0019107796 -0.012343554 0.005336823
0.0035234008 -0.0002252667 -0.042231187 -0.00039845315 -0.015453102 -0.021445854 -0.004904903 -0.038690288
-0.029417442 0.004614846 -0.029505333 -0.02827306 -0.026376735 -0.005379712 -0.0031252757 -0.035958152
-0.016753962 -0.020576533 -0.009188885 0.008922331 -0.024615206 -0.03558687 -0.021463409 0.00758262
-0.0135435015 0.009530556 -0.0062744278 0.017798448 -0.03009167 -0.026572881 -0.021736315 -0.025679579
0.027451904 0.012348555 -0.048002627 -0.024248064 -0.029734727 -0.021953719 -0.008025319 0.024102943
-0.024915334 -0.047838278 -0.018256288 0.019311571 0.0007530236 0.014004301 -0.016750123 -0.0038941076
0.013224007 0.011491221 -0.013855988 -0.013641249 0.0024445085 -0.006137846 -0.011225882 -0.021569628
0.0055245575 0.009043514 -0.020866958 -0.003553532 -0.004689654 -0.009850748 -0.013667716 0.01364109
-0.010449137 -0.02176347 -0.027644461 -0.025917519 -0.021729145 -0.011240691 -0.013389034 -0.009508855
-0.0039911447 -0.006051972 0.029712778 -0.011156081 -0.022496477 -0.016721569 -0.03612831 0.0032756964
-0.02599393 -0.007584372 -0.011782176 -0.03377326 -0.042155027 -0.013336021 0.0063103866 0.022360854
-0.026378538 -0.031161295 0.011071552 -0.038796388 0.029395852 0.01765716 0.0043406435 -0.0029407756
-0.03358453 -0.0059705945 0.010047027 0.00034822567 -0.027557924 -0.018177155 -0.009714817 -0.0067519136
0.04691189 0.04751469 -0.08256159 -0.038264282 -0.024849856 -0.0028722705 0.052989453 0.019745853
0.0027029123 0.010557548 -0.04956922 -0.025146391 -0.071626075 -0.007626012 0.030825589 -0.014313791
-0.025136575 0.059686698 0.04667686 -0.029898016 -0.026035728 -0.033066448 0.053313334 0.01993998
-0.03477399 -0.056834877 -0.063948095 0.0123865735 0.048065703 0.03861181 -0.0031552694 -0.05131546
-0.05721658 0.02529958 0.010690493 -0.03737769 -0.04896489 0.0137189925 0.043036707 0.002154027
0.038724307 -0.063893825 0.05025716 0.037914816 -0.055336323 -0.031510074 0.027895363 0.018669829
0.047912065 -0.0044991635 -0.010769282 0.064138606 -0.065084405 -0.053711213 -0.06704357 -0.036669474
-0.0064387624 -0.04592037 -0.06080137 0.035993353 -0.06314621 -0.044657707 -0.050211657 0.0057210475
0.005069938 -0.04144506 0.042861007 -0.005689698 -0.0044725607 0.046878044 0.01154127 0.01566663
-0.0019959128 -0.02778552 -0.003365096 -0.058631364 0.025654418 -0.07683174 -0.072567925 0.04572872
-0.052655 0.048588168 -0.034073476 0.04582817 -0.07590218 -0.026024017 0.03420893 0.06443268
-0.071984835 -0.039008096 -0.010716752 -0.041508246 -0.0016773617 0.05443579 -0.0074164285 0.032286428
0.03687856 0.0281719 0.012860274 0.045468222 -0.09649036 0.0056146346 -0.013450516 0.005531569
0.015835596 0.060433853 -0.014265138 -0.03636278 -0.0667822 -0.030875823 0.031340174 -0.004540144
-0.011171065 -0.0043660505 0.015581241 0.024930585 -0.02962373 0.0084615955 0.031829022 -0.028579237
0.0149745485 0.028471887 -0.007842943 0.025639545 0.033898916 0.037646927 -0.017937684 -0.00889426

action_model._discrete_distribution.branches.0.bias f4 [6]
00000000: 0714 71bc 117c 653b 9fe0 4e3c d6be 243b
00000010: fc62 5fbc d2a3 473b
-0.014714248 0.0035016576 0.012626796 0.002513816 -0.01363444 0.0030462635
