Assets/Hide and Seek/Brain/SeekerBehavior.onnx (onnx, 192172 bytes, 6 tensors)

network_body._body_endoder.seq_layers.0.weight f4 [128, 235]
0	0x3dee58d8	0.11638039
1	0xbd22d15f	-0.039750453
2	0x3d6f858c	0.05847697
3	0x3d319c5e	0.043362014
4	0xbbbe7c0d	-0.005813128
5	0x3d7294d7	0.059223976
6	0xbc310cd1	-0.010806278
7	0x3afdd184	0.0019364809
8	0xbc791c7c	-0.015204545
9	0x3c69a9ea	0.014261702
10	0x3d09e88c	0.03366904
11	0x3dc35f51	0.095396645
12	0x3dfb2c2e	0.12264286
13	0xbc2f3aa2	-0.0106951315
14	0x3de9f209	0.11423118
15	0x3e0f9ed8	0.14025438
16	0x3d9e2dce	0.0772358
17	0x3d2d44a8	0.042301804
18	0x3d6acf00	0.057326317
19	0xbdbb1fab	-0.091368996
20	0xbdb0bf42	-0.086302295
21	0xbdf3c8fb	-0.11903568
22	0x3d8f74bc	0.07004687
23	0xbcceceb4	-0.025245048
24	0x39238079	0.00015592751
25	0x3d439b77	0.047755685
26	0x3dc3697e	0.095416054
27	0x3cd5f83a	0.02611934
28	0xbd843963	-0.06456258
29	0x3cf49fc7	0.029861344
30	0xbd221fbe	-0.039581053
31	0xbd03def1	-0.032195035
32	0x3df046a3	0.11732223
33	0x3c98d9af	0.018658487
34	0xbc018aee	-0.007906659
35	0xbd076d53	-0.033063244
36	0xbbc84d23	-0.006112711
37	0xbd4fe9fe	-0.05076026
38	0xbd93d096	-0.07217519
39	0xb8181ff5	-3.6269386e-05
40	0x3cb16e9e	0.021659192
41	0xbc79dcce	-0.015250398
42	0x3e7ccddf	0.24687909
43	0x3d900e8c	0.070340246
44	0x3c0c2201	0.008553029
45	0xba980451	-0.0011597966
46	0xbca8acb7	-0.02059017
47	0x3d8ed5cd	0.06974373
48	0x3b2cc557	0.002636274
49	0xbd176d57	-0.03696951
50	0x3e37e587	0.17958651
51	0xbd43a743	-0.047766935
52	0x3e437cf6	0.19090638
53	0xbd9451f5	-0.072421946
54	0x3e1ed6c9	0.15511622
55	0xbb4abd23	-0.0030935488
56	0xbc8cf487	-0.017206443
57	0xbcaf9ab3	-0.021436071
58	0x3c70d7aa	0.014699856
59	0x3d3097e2	0.043113597
60	0x3d75b421	0.059986237
61	0x3d5e8b50	0.054332078
62	0x3cabf1bb	0.02098929
63	0xbe08c47e	-0.13356206
64	0xbe0813e5	-0.13288839
65	0xbd88359c	-0.0665085
66	0x3d7f180a	0.062278785
67	0xbd317ef8	-0.043333977
68	0xbd1bdb31	-0.038050834
69	0x3df6de39	0.12054104
70	0x3cd8e334	0.026475526
71	0x3de4eb42	0.11177684
72	0x3e0c2af6	0.13688263
73	0x3d411a5f	0.04714429
74	0x3d8ac9db	0.06776782
75	0x3d7c2df2	0.061567254
76	0x3d1e2311	0.03860766
77	0x3d77cf02	0.060500152
78	0x3ce80060	0.028320491
79	0x3bacd88e	0.005274839
80	0xbcaeb95e	-0.021328624
81	0xbd31ea24	-0.043436185
82	0x3e08d720	0.13363314
83	0xbd5c5c0d	-0.053798724
84	0x3d2cedc1	0.042218927
85	0x3da1bc33	0.07897224
86	0xbdce1dd6	-0.100642845
87	0x3e6199a7	0.2203127
88	0xbde55638	-0.111980855
89	0x3df041be	0.11731289
90	0x3d5fb371	0.054614488
91	0x3e09a4f9	0.13441838
92	0xbc550467	-0.013001538
93	0xbd7f5d20	-0.06234467
94	0x3d8aef65	0.06783942
95	0x3dc2c553	0.09510293
96	0xbd14bf1d	-0.036315072
97	0x3e3733c5	0.17890842
98	0x3cf37691	0.029719623
99	0x3d32a518	0.043614477
100	0x3caab5ad	0.020838583
101	0x3d8f871e	0.070081934
102	0xbc91c2ba	-0.017793048
103	0xbba42fd4	-0.0050105844
104	0xbd59f073	-0.053207826
105	0xbd6b44ad	-0.05743854
106	0xbcd34c73	-0.02579329
107	0x3d0d8495	0.03455027
108	0xbacc31da	-0.0015578822
109	0xbd2220e6	-0.039582156
110	0xbd0fe431	-0.03512973
111	0xbcd2210e	-0.025650527
112	0xbd67e012	-0.056610174
113	0x3d67c721	0.05658639
114	0x3cc48e15	0.023993531
115	0xbcb3f513	-0.021967446
116	0xba29d21d	-0.00064781477
117	0x3dd4fe0f	0.1040002
118	0xbc18e3e6	-0.009331679
119	0x3cbb0566	0.022829723
120	0x3da3373d	0.0796952
121	0x3e1d699e	0.15372321
122	0xbda67eba	-0.0812964
123	0x3d873eb3	0.06603756
124	0xbcb44f09	-0.022010343
125	0x3d859b74	0.06523791
126	0xbd235510	-0.039876044
127	0x3e3cdf60	0.18444586
128	0x3d80c96f	0.062884204
129	0x3c908d50	0.017645508
130	0xbc85b655	-0.016322294
131	0xbd227533	-0.03966255
132	0xbe675c20	-0.22593737
133	0xbc493da7	-0.0122827655
134	0xbc3310dd	-0.0109293135
135	0x3d31fbe8	0.043453127
136	0xbc14b349	-0.009075948
137	0x3da6cce4	0.081445485
138	0x3e1a44f8	0.15065372
139	0x3d954c05	0.0728989
140	0xbc8897aa	-0.016673882
141	0x3acf7f54	0.0015830793
142	0xbdc8d710	-0.09806645
143	0x3be3b55a	0.006949109
144	0x3d9a7beb	0.07543167
145	0x3dce636a	0.100775555
146	0xbdc7b3ca	-0.09751089
147	0x3def0771	0.11671341
148	0x3e0029a6	0.12515888
149	0x3d017610	0.031606734
150	0xbd36ece2	-0.044659503
151	0x3d11fa69	0.0356392
152	0xbcc948f6	-0.024570923
153	0x3e305f2b	0.17223804
154	0xbe34e40a	-0.17665115
155	0xbc562cde	-0.013072221
156	0x3d1fd7ef	0.03902429
157	0x3e31d9a0	0.17368174
158	0xbcd155ac	-0.025553547
159	0xbb82decb	-0.003993844
160	0xbe0494cc	-0.12947387
161	0xbb6a2695	-0.0035728563
162	0x3dcebca8	0.10094577
163	0xbc940546	-0.01806892
164	0x3d0ce277	0.03439566
165	0x3de25585	0.11051468
166	0x3c58cf11	0.013232962
167	0xbe185200	-0.1487503
168	0x3cf86a1e	0.030324038
169	0xbda0fb72	-0.078604594
170	0x3d067435	0.032825667
171	0x3d8367ec	0.06416306
172	0x3e0fc001	0.14038087
173	0xbdb2fc66	-0.087395474
174	0xbd5dd7c7	-0.05416086
175	0xbdb1744e	-0.086647615
176	0xbbcb6b02	-0.0062078247
177	0xbdd929ec	-0.10603699
178	0xbdcb4ede	-0.09927152
179	0x3ca2e1ec	0.019883119
180	0x3d3448c9	0.044014726
181	0xbd646485	-0.055759925
182	0x3db65b45	0.08904127
183	0x3c008298	0.007843636
184	0x3dff011a	0.12451382
185	0x3bd3cb7f	0.0064634676
186	0x3d10cce7	0.03535166
187	0xbc1ea84d	-0.009683681
188	0xbd8451b1	-0.06460894
189	0xbc831e8a	-0.016005773
190	0x3ce6e432	0.028184984
191	0x3d3f6acf	0.04673272
192	0x3e4f6ecc	0.2025711
193	0x3db6437d	0.08899591
194	0x3dec16f1	0.11527813
195	0xbd3a2b0b	-0.045451205
196	0x3c782e17	0.015147707
197	0x3cf1512a	0.029457647
198	0xbcdcac9d	-0.026937777
199	0x3d03a6c4	0.032141462
200	0xbd2692a4	-0.04066719
201	0xbc01ec0b	-0.007929812
202	0x3e32bdb4	0.17455178
203	0x3cde93aa	0.027170021
204	0x3d359561	0.044331912
205	0x3b385073	0.0028124123
206	0x3d46d1d2	0.048539944
207	0xbd92a6eb	-0.07160743
208	0x3da78833	0.08180275
209	0x3d1627eb	0.036659162
210	0xbcb03667	-0.021510316
211	0x3d72f301	0.059313778
212	0x3e7d5439	0.2473916
213	0xbd5ca22d	-0.0538656
214	0xbdb16720	-0.08662248
215	0xbcc52c1a	-0.02406888
216	0xbe368a4d	-0.17826195
217	0xbd87b410	-0.06626141
218	0xbd521ad6	-0.051295124
219	0xbd31b580	-0.043385983
220	0xbdd2f583	-0.10300734
221	0x3d1ecef7	0.038771596
222	0x3e1ebe6b	0.15502326
223	0x3c56ab62	0.013102384
224	0xbb8be04a	-0.0042686807
225	0xbd1987ee	-0.03748315
226	0xbd974a29	-0.07387192
227	0xbcadd173	-0.021218037
228	0xbd6d2a64	-0.057901755
229	0xbda5e80f	-0.08100902
230	0x3d3be2c6	0.045870565
231	0x3d157b25	0.036494393
232	0x3e3c4319	0.1838497
233	0x3d0e69c4	0.034768835
234	0xbc08212f	-0.008308693
235	0xbc2cb403	-0.010540965
236	0x3cf414d4	0.029795088
237	0xbd25606a	-0.04037515
238	0x3dbfd44c	0.09366664
239	0x3e06ec7a	0.13176146
240	0x3d1a0619	0.03760347
241	0xbc83aae1	-0.016072692
242	0xbbf5d77a	-0.0075024934
243	0xbdc47daa	-0.09594281
244	0xbc829efc	-0.01594495
245	0x3d25f0a5	0.0405127
246	0x3dacf2f1	0.08444775
247	0x3dbb0a38	0.091328084
248	0x3d2df376	0.04246851
249	0x3d672d68	0.056439787
250	0x3cc06b85	0.02348877
251	0x3b8209d0	0.003968455
252	0xbe07d652	-0.1326535
253	0x3d4ffb6c	0.050776884
254	0xbd5c83a9	-0.0538365
255	0xbd737b7e	-0.059443943

network_body._body_endoder.seq_layers.0.bias f4 [128]
0	0x3c3a1aac	0.011358898
1	0xbbb32053	-0.0054665
2	0xba93c7f0	-0.0011274796
3	0x3caeb5f4	0.021326996
4	0x3cbb03c9	0.022828953
5	0x3d3a39c4	0.045465246
6	0x3cd22d42	0.025656346
7	0x3d8aac1c	0.067711085
8	0xbcfd47fa	-0.03091811
9	0x3baaa8a4	0.005208092
10	0x3d1379f4	0.036004975
11	0xbcbb69ed	-0.022877658
12	0x3c066703	0.008203271
13	0x3d76e09a	0.06027279
14	0xbc62a207	-0.013832576
15	0x3cc75881	0.024334194
16	0xbc265b58	-0.010153614
17	0x3d3cd567	0.046101954
18	0x3d52a9af	0.051431354
19	0x3ce7a761	0.028278055
20	0x3c1b2a72	0.009470569
21	0x3c8cf93e	0.017208692
22	0xbceb8b96	-0.028753083
23	0xbbf2691d	-0.0073977844
24	0x3c79c26f	0.0152441105
25	0x3c786dda	0.015162909
26	0x3d0bb15b	0.034104686
27	0x3cf94884	0.030430086
28	0x3c92772c	0.017879091
29	0xbc1321e0	-0.008980244
30	0x3d153d94	0.03643568
31	0x3ca96a17	0.02068047
32	0x3c8eef89	0.017448204
33	0x3c5dfc52	0.013548927
34	0x3dab9ba4	0.083792955
35	0x3d82b01f	0.06381249
36	0xbcb55d0e	-0.022139098
37	0xbd03a305	-0.03213789
38	0x3c651715	0.013982554
39	0x3d3f8704	0.04675962
40	0x3cf65874	0.030071475
41	0x3cd0f6a4	0.025508232
42	0x3cb4041b	0.021974614
43	0x3cf7a667	0.030230714
44	0x3cdcb09b	0.02693968
45	0x3ce3405f	0.027740655
46	0x3cdb28a9	0.026752787
47	0x3ce99195	0.028511802
48	0x3cc846d9	0.024447845
49	0x3c553599	0.013013267
50	0x3d445f11	0.047942225
51	0x3d248811	0.040168826
52	0xbd2bb03e	-0.041916125
53	0x3da3510d	0.079744436
54	0x3c803914	0.015652217
55	0x3cf7ffc8	0.030273333
56	0x3cd6c5f4	0.026217438
57	0x3d536c30	0.051616848
58	0x3d46a079	0.048492882
59	0x3da95081	0.08267308
60	0xbb1559e0	-0.0022789165
61	0x3ccbc0bf	0.024872182
62	0x3c97b417	0.01851849
63	0x3d2761ca	0.040864743
64	0xbc04e19f	-0.008110433
65	0x3d2ffc30	0.042965114
66	0x3c9d093d	0.019169444
67	0xbc9837f6	-0.018581372
68	0x3b3895a2	0.002816536
69	0x3d1a58a0	0.037682176
70	0x3d505c27	0.050869133
71	0x3c9ea3f4	0.019365288
72	0x3c3fc92e	0.01170568
73	0x3d391fb4	0.04519625
74	0x3d07425b	0.033022266
75	0x3cff2c64	0.031149097
76	0x3d2f5dfb	0.042814236
77	0xbcb19f67	-0.021682454
78	0x3cf6e3ca	0.030137915
79	0x3d688a50	0.05677253
80	0x3c49c244	0.012314383
81	0xbd1109ac	-0.035409614
82	0x3d1f5cd0	0.038906872
83	0x3be52030	0.0069923624
84	0x3d636dd8	0.055524677
85	0x3cd4f801	0.025997164
86	0x3cb94b2e	0.022618856
87	0x3c7495a1	0.014928252
88	0xbc399e6f	-0.011329277
89	0x3c4ec3d9	0.012619936
90	0xbc7426b9	-0.01490181
91	0xbc9a92f8	-0.018868908
92	0x3bcebc21	0.006309048
93	0x3d1fc1d3	0.039003205
94	0x3d043040	0.032272577
95	0x3b3b973f	0.0028624085
96	0x3d4c1686	0.049826168
97	0x3d1f4849	0.038887296
98	0x3ca6dd56	0.020369213
99	0x3d16dd7a	0.03683231
100	0x3cf84298	0.030305192
101	0x3cc5d0d9	0.024147438
102	0x3d302727	0.04300609
103	0x3cb232b6	0.021752696
104	0x3d63fe4f	0.05566245
105	0x3d96ed79	0.07369513
106	0x3ba59a47	0.0050537917
107	0xbc0fe212	-0.008781927
108	0x3cac4372	0.021028254
109	0x3c76b67c	0.015058156
110	0xbb0aa45e	-0.00211551
111	0x3d53f23d	0.05174469
112	0x3b45f23e	0.0030204202
113	0xbc2bd286	-0.010487204
114	0x3c6d7566	0.014493322
115	0x3d7b5ea7	0.061369564
116	0x3c7c791c	0.015409734
117	0x3c06e2ca	0.008232782
118	0x3d03341f	0.03203213
119	0x3c1022f8	0.0087974
120	0x3b8b04c1	0.00424251
121	0x3cca55f4	0.024699189
122	0x3caafc4b	0.020872256
123	0x3c8eec22	0.017446581
124	0x3d228856	0.0396808
125	0x3ba36df6	0.0049874736
126	0x3c538eb3	0.01291244
127	0x3cadda70	0.021222323

network_body._body_endoder.seq_layers.2.weight f4 [128, 128]
0	0xbd9215ea	-0.07133086
1	0x3e507265	0.20356138
2	0xbdc3b66b	-0.09556278
3	0x3d7a14a8	0.061054856
4	0x3e1c06ed	0.15237017
5	0xbc21d335	-0.009877016
6	0x3cc4f130	0.024040788
7	0x3d335450	0.04378158
8	0xbcd142fd	-0.025544638
9	0xbdae2697	-0.08503454
10	0xbd75de10	-0.06002623
11	0x3c060ae7	0.00818131
12	0x3e8bfb61	0.27340224
13	0x3c2fe0a3	0.01073471
14	0xbe2c3877	-0.16818415
15	0x3dbd6491	0.09247697
16	0xbdba7e14	-0.09106079
17	0x3e10608b	0.14099328
18	0xbdcd66aa	-0.10029347
19	0x3e1810f9	0.14850225
20	0xb8aa8561	-8.1310754e-05
21	0xbd6a1f96	-0.05715903
22	0xbde8c2f8	-0.11365312
23	0x3caf3602	0.021388058
24	0x3d8e5d86	0.06951432
25	0x3d6df6f8	0.058096856
26	0xbd5caf1d	-0.05387794
27	0x3d8f472e	0.06995998
28	0xbe047822	-0.12936452
29	0xbbcd3c66	-0.0062633036
30	0x3d4ebebc	0.050474867
31	0x3cbcd84c	0.023052357
32	0x3d271050	0.04078704
33	0xbd362660	-0.04447019
34	0x3ca1917b	0.01972269
35	0x3e03fe32	0.12889937
36	0xbdcab58b	-0.09897908
37	0xbd48065d	-0.048834193
38	0xbdd42995	-0.10359494
39	0x3d9082fc	0.07056233
40	0x3d4d7fb8	0.05017063
41	0xbd5f2155	-0.054475147
42	0x3d3f2382	0.046664722
43	0x3d1cf158	0.0383161
44	0xbcec6633	-0.028857326
45	0x3e1b3af4	0.15159208
46	0x3dc63154	0.09677377
47	0xbdd53f12	-0.1041242
48	0xbbb0d539	-0.005396512
49	0x3c453ac7	0.012037939
50	0x3bd35c1f	0.0064501907
51	0x3d044f91	0.032302443
52	0xbd912c78	-0.0708856
53	0x3cc7e9c2	0.024403457
54	0xbd9e6c4a	-0.07735498
55	0xbd75b52b	-0.05998723
56	0x3d429de7	0.04751387
57	0xbe4e31fb	-0.20136254
58	0xbe1ea070	-0.1549089
59	0xbcf18f66	-0.029487323
60	0xbd0a0b2a	-0.033702053
61	0x3df0f40d	0.11765299
62	0xbd8e6f9d	-0.06954882
63	0x3dd4a81b	0.10383626
64	0x3ddd3b6c	0.108023494
65	0x3de4fc42	0.11180927
66	0x3d4a1425	0.049335618
67	0xbd0bce8c	-0.034132525
68	0x3da7684f	0.08174192
69	0x3d11c665	0.035589594
70	0xbccc6cea	-0.024954278
71	0xbe99511c	-0.29944694
72	0xbdd71f2b	-0.10503992
73	0xbde7f851	-0.113266595
74	0x3dfe5dea	0.124202564
75	0xbd31385f	-0.04326665
76	0xbd935648	-0.07194191
77	0x3cae7b84	0.021299131
78	0x3e19a078	0.1500262
79	0xbd00e943	-0.031472456
80	0x3d24f17c	0.04026936
81	0xbd85122e	-0.06497608
82	0x3b890191	0.004181095
83	0x3e0c6059	0.13708629
84	0x3dabfb09	0.083974905
85	0xbc6e51e5	-0.014545892
86	0xbdccc0ff	-0.099977486
87	0xbce32877	-0.027729256
88	0xbcd6ef5b	-0.02623718
89	0xbddd9ee3	-0.10821321
90	0x3a87fe7f	0.0010375528
91	0xbd639f39	-0.05557177
92	0x3e1231d7	0.14276825
93	0x3df0b069	0.117523976
94	0xbd29ce62	-0.041456588
95	0x3bd3a7fb	0.006459234
96	0xbd0660fa	-0.032807328
97	0x3e479c56	0.19493231
98	0xbe09cc3b	-0.13456814
99	0x3e6859cd	0.22690506
100	0xbddbe73d	-0.107374646
101	0x3e095751	0.13412215
102	0x3e0b3908	0.13595974
103	0xbd96324d	-0.07333813
104	0x3d28a8d7	0.041176643
105	0xbd13ae8a	-0.036055125
106	0x3e3511fb	0.1768264
107	0xbc8927f4	-0.016742684
108	0x3e11865c	0.1421141
109	0xbd10a7d5	-0.035316307
110	0xbe07cc69	-0.1326157
111	0x3d1b368b	0.037893813
112	0xbd20435a	-0.03912673
113	0xbd81db61	-0.06340671
114	0x3d8c88df	0.068620436
115	0x3cc6ecac	0.024282776
116	0xbdb69f24	-0.089170724
117	0xbc0d2ce6	-0.008616662
118	0x3932b879	0.00017044124
119	0xbd75c6e5	-0.060004134
120	0x3de2ffe2	0.11083962
121	0x3e4ac325	0.19801004
122	0xbdc0bd09	-0.094110556
123	0x3decc106	0.11560254
124	0xba3f7b22	-0.000730442
125	0x3c32ac41	0.010905326
126	0x3ce1129c	0.027474694
127	0xbd7c1af1	-0.06154913
128	0xbdd6c679	-0.104870744
129	0xbd2d2ba8	-0.042277962
130	0xbda09c90	-0.07842362
131	0x3d1e134c	0.03859262
132	0x3b88b0a3	0.0041714474
133	0xbd07821e	-0.033083074
134	0x3ca2184c	0.019786976
135	0x3d97589e	0.07389949
136	0xbda60199	-0.081057735
137	0x3d888e7d	0.066678025
138	0xbddea376	-0.108710214
139	0x3c38e1ad	0.011284274
140	0xbd0b946d	-0.034077097
141	0x3dcc5255	0.09976641
142	0xbdca1ae4	-0.0986841
143	0xbdc5bb2a	-0.09654839
144	0xbd7a2bd0	-0.06107694
145	0x3dd10af4	0.10207167
146	0xbbc60b5e	-0.0060438355
147	0x3e1fa203	0.15589146
148	0xbd8043bf	-0.062629215
149	0xbe6ad1b3	-0.22931556
150	0xbd97b556	-0.07407634
151	0xbda37039	-0.07980389
152	0x3d50c315	0.050967295
153	0xbc3b9c1c	-0.011450794
154	0x3ce90cbc	0.028448455
155	0xbcd1c3bf	-0.025606034
156	0xbd65417c	-0.055970654
157	0xbda8c36f	-0.08240401
158	0xbb7eb01b	-0.0038862291
159	0xbded4209	-0.11584861
160	0xbb826f0d	-0.0039805234
161	0xbd220d34	-0.039563373
162	0x3df2d7c8	0.11857563
163	0x3e22d5ca	0.15901867
164	0xbdac1cb3	-0.084039114
165	0xbcc5f538	-0.024164781
166	0xbd82a910	-0.06379902
167	0x3dab8788	0.0837546
168	0xbde7e7ae	-0.11323486
169	0x3d806578	0.06269354
170	0x3e5a9a18	0.21347845
171	0xbdc042a5	-0.093877114
172	0x3e2798c7	0.16366874
173	0x3d683257	0.056688633
174	0x3e4c6677	0.19960962
175	0xbe399b66	-0.18125686
176	0x3bbee64f	0.005825795
177	0x3bdb6aac	0.006696066
178	0x3da02465	0.07819442
179	0xbcff390c	-0.031155132
180	0xbe51914b	-0.20465581
181	0x3d85c0cd	0.065309145
182	0xbc83a9e2	-0.016072217
183	0xbcf8f19f	-0.030388651
184	0x3e079cf6	0.1324347
185	0xbd97dac5	-0.07414774
186	0xbd312301	-0.043246273
187	0xbcf4a01a	-0.029861499
188	0xbde831d8	-0.11337632
189	0x3e69f66f	0.22847913
190	0xbd7ab70a	-0.061209716
191	0xbd807b4e	-0.062735185
192	0x3cf21483	0.029550796
193	0x3dbf757f	0.093485825
194	0x3ca6c329	0.020356731
195	0x3d1324ed	0.035923887
196	0x3ae1d4ec	0.0017229593
197	0xbe14ccfd	-0.14531322
198	0xbb40b36b	-0.0029403816
199	0xbd0f604d	-0.03500395
200	0xbd285b6d	-0.041102815
201	0xbda6c8d8	-0.08143777
202	0x3e5dceda	0.21660939
203	0x3cd5b792	0.02608851
204	0x3b7ead42	0.0038860594
205	0xbdab38e0	-0.083604574
206	0x3e6124d5	0.21986707
207	0xbda9bb43	-0.082876705
208	0x3dab793a	0.083727315
209	0x3e30d522	0.17268804
210	0x3de06bca	0.10958059
211	0xbd89f0f2	-0.0673541
212	0xbca39931	-0.019970508
213	0xbd03f2d7	-0.032214012
214	0x3e7075af	0.23482393
215	0x3d4f0694	0.050543383
216	0xbd772630	-0.060339153
217	0x3ce58737	0.028018577
218	0xbdfc2237	-0.123112135
219	0xbda2dc9d	-0.07952235
220	0x3d1eb9a0	0.038751245
221	0x3dc4865a	0.09595938
222	0x3ab3a137	0.0013704662
223	0xbd31fea4	-0.043455735
224	0x3db43b2e	0.0880035
225	0x3db308e0	0.08741927
226	0x3d932c02	0.07186128
227	0xbd9a756f	-0.0754193
228	0xbe8cfefa	-0.27538282
229	0xbe15e7fa	-0.14639273
230	0x3d9236b8	0.07139343
231	0x3c87d1ea	0.016579587
232	0x3e05bb23	0.13059668
233	0x3de1e46f	0.110298984
234	0xbd759515	-0.05995663
235	0xbd006d87	-0.031354453
236	0xbd5c524e	-0.05378943
237	0xbc02d1be	-0.007984577
238	0x3dd842c3	0.10559609
239	0x3d1f48d8	0.03888783
240	0xbd855923	-0.06511142
241	0xbe144801	-0.14480592
242	0x3de6db45	0.11272291
243	0x3d37c750	0.044867814
244	0xbd7308f3	-0.059334707
245	0xbd920284	-0.07129386
246	0x3d6a37bd	0.057182062
247	0x3dce0ac2	0.10060646
248	0x3e045286	0.12922105
249	0x3b98c6c9	0.004662369
250	0xbdbc7bcb	-0.09203299
251	0x3d8bf603	0.068340324
252	0x3d7c8b75	0.061656434
253	0xbd475fba	-0.048675276
254	0xbdd6231c	-0.10455915
255	0x3d48ec85	0.049053688

network_body._body_endoder.seq_layers.2.bias f4 [128]
0	0x3d16e6cf	0.03684121
1	0x3d4a76b9	0.04942963
2	0x3cd9c669	0.026583867
3	0x3c4ca09d	0.012489465
4	0x3d333fd0	0.04376203
5	0xbaa72c63	-0.0012754317
6	0x3d0416ab	0.03224818
7	0x3d485906	0.048913024
8	0x3c12ba1a	0.008955503
9	0xbaee5be6	-0.0018185347
10	0x3d3dcc18	0.046337217
11	0x3cf0cd3e	0.029394742
12	0x3ccf68f8	0.025318608
13	0x3c131d0c	0.008979093
14	0xbafa1755	-0.001908044
15	0x3b927076	0.004468973
16	0x3ccef98d	0.02526548
17	0x3ce50699	0.027957248
18	0xbc3f34dd	-0.011670318
19	0x3ce27799	0.02764492
20	0x3cad8833	0.021183109
21	0x3d2c753a	0.042103983
22	0x3c71ffd6	0.014770469
23	0x3d24dd32	0.04025001
24	0x3d3ade4f	0.045622166
25	0xba988749	-0.0011636998
26	0x3d0ae340	0.03390813
27	0x3ca93c1b	0.020658543
28	0x3cd91f92	0.026504312
29	0x3ccfa68f	0.025347976
30	0x3bd8539d	0.0066017644
31	0xbc27193d	-0.010198888
32	0x3d1501ea	0.03637878
33	0x3c7a7ec2	0.0152890105
34	0x3c47fe41	0.012206615
35	0x3c58e7e8	0.0132388845
36	0x3a03c1a2	0.0005026107
37	0x3ce34447	0.027742518
38	0x3ca7333f	0.020410178
39	0x3d4ad605	0.04952051
40	0x3d4918ab	0.04909579
41	0x3be5efa0	0.007017091
42	0x3c6f1cae	0.01459424
43	0x3c87c79f	0.016574679
44	0x3c97f37a	0.018548716
45	0x3d185739	0.037192557
46	0x3b1839f1	0.0023227895
47	0xbb9a6b96	-0.0047125323
48	0xbc3af57b	-0.011411066
49	0x3cfc2ce4	0.030783124
50	0x3d252d96	0.040326677
51	0x3cfe5e64	0.031050868
52	0x3c027638	0.007962756
53	0xbaed69bc	-0.0018113176
54	0x3d069f63	0.032866847
55	0x3ceb5401	0.02872658
56	0x3c88b5e0	0.016688287
57	0x3cfeb92d	0.031094158
58	0x3d415e1c	0.04720889
59	0x3c88c875	0.016697148
60	0x3c560c11	0.0130644
61	0xbba9719a	-0.005171013
62	0x3bcc448d	0.006233758
63	0x3b17fb2f	0.0023190489
64	0x3cdec43f	0.027193187
65	0x3cf75ce1	0.030195655
66	0xbb04bc51	-0.0020253847
67	0x3c5854c4	0.013203803
68	0x3d09131f	0.0334655
69	0x3bdb9900	0.0067015886
70	0x3c6633d2	0.014050441
71	0x3c286980	0.010279059
72	0xbc8f5352	-0.017495785
73	0x3d41ab78	0.047282666
74	0x3d0ba5ba	0.034093596
75	0x3cc8834e	0.024476673
76	0x3d3334f4	0.043751672
77	0x3d3a3a67	0.045465853
78	0x3d537864	0.051628485
79	0x3be8b9e7	0.0071022394
80	0x3d0539e7	0.032525923
81	0x3cc5c39c	0.024141125
82	0x3c81d5c7	0.015849007
83	0x3aace657	0.0013191205
84	0x3d24c835	0.040229995
85	0xbb086874	-0.0020814212
86	0x3b434a0d	0.0029798776
87	0x3c977c00	0.018491745
88	0x3c88e575	0.016710976
89	0x3cb73375	0.022363404
90	0x3ca91bfb	0.020643225
91	0x3d1b0bbc	0.037852988
92	0x3c6c4f6d	0.014423233
93	0x3ca38745	0.019961962
94	0xbc2462db	-0.010033335
95	0x3d3f3a63	0.04668654
96	0x3c96d3c2	0.01841152
97	0x3ca3569c	0.01993876
98	0x3d3bd782	0.04585982
99	0x3c414d01	0.011798144
100	0x3d066a72	0.032816358
101	0x3d1d0568	0.038335234
102	0x3c97e19c	0.018540196
103	0x3c43615f	0.011925071
104	0x3cda61c4	0.026657946
105	0x3d0e1f28	0.03469768
106	0x3d2e96f6	0.042624436
107	0x3d8ffb95	0.07030407
108	0x3d17b5f5	0.037038762
109	0xbcf7f14e	-0.03026643
110	0x3cc99503	0.024607187
111	0x3d22b2eb	0.03972141
112	0x3d3752cf	0.044756707
113	0x3cf9530b	0.030435106
114	0xbcf718e7	-0.030163242
115	0xbb0805c9	-0.0020755401
116	0xbc28e37f	-0.010308146
117	0xbbfdd342	-0.007746131
118	0x3c0ae1d5	0.008476694
119	0xbcb6e59e	-0.022326287
120	0x3ae6fd9a	0.0017623187
121	0x3c7adce9	0.015311458
122	0x3d03815f	0.0321058
123	0x3c3c9bc3	0.011511746
124	0x3cbb4c81	0.022863628
125	0x3c6d38ab	0.014478843
126	0xbba72dc3	-0.005101891
127	0xbc8a9218	-0.016915366

action_model._discrete_distribution.branches.0.weight f4 [6, 128]
0	0x3bd4ffeb	0.0065002344
1	0x3b297185	0.0025855016
2	0x3c885903	0.016644007
3	0x3c163419	0.0091676945
4	0xbb1bc773	-0.0023770004
5	0x3ba0dc77	0.004909094
6	0x3c5e6cab	0.013575713
7	0xbc1af175	-0.009456982
8	0xbc9c76c7	-0.019099606
9	0xbc9b37ff	-0.0189476
10	0xbb775c53	-0.0037744239
11	0xbcc7e8ee	-0.024403062
12	0xbc3f824e	-0.011688782
13	0xbc831bc9	-0.01600446
14	0xbc0dbfef	-0.008651718
15	0x3bd3d133	0.0064641475
16	0xbcb92f5c	-0.02260559
17	0xbb62476f	-0.003452744
18	0x3c9367d2	0.017993841
19	0xbb930639	-0.004486826
20	0xbcaddd71	-0.021223756
21	0x3b003432	0.001956236
22	0x3b3e289c	0.0029015904
23	0xbb947be2	-0.0045313695
24	0xbc031251	-0.007999972
25	0xbb91c803	-0.004448892
26	0xbbdb4a6f	-0.006692223
27	0xbb9205cc	-0.0044562574
28	0x3b951f99	0.004550886
29	0x3b92dd74	0.0044819657
30	0xb99fce13	-0.0003048038
31	0x3c8588eb	0.01630064
32	0x3bfd2364	0.007725166
33	0xbc8cf891	-0.01720837
34	0xbb83b3e3	-0.004019247
35	0xbc33a2e9	-0.010964134
36	0x3b5528f1	0.0032525624
37	0x39b0e761	0.00033741727
38	0xbd11f742	-0.035636194
39	0xbbc5ddda	-0.0060384097
40	0xbc04822a	-0.008087674
41	0xbc6aa7c1	-0.014322222
42	0x3a3acea1	0.0007126127
43	0x3b9520ef	0.004551045
44	0xbcc4b3ae	-0.02401146
45	0xbbfea95b	-0.0077716536
46	0x3bae28b7	0.005314912
47	0xbc3e3125	-0.011608397
48	0x3cd9ac34	0.02657137
49	0xbc332dfa	-0.010936255
50	0xbc128e8a	-0.008945117
51	0xbc5550af	-0.013019725
52	0x3ae0c2c6	0.0017147891
53	0xba3c6344	-0.00071864226
54	0x3c70d5cf	0.014699413
55	0xbc565c8e	-0.01308359
56	0x3c35bca4	0.011092339
57	0xbc0037eb	-0.007825832
58	0xbc9a7a3d	-0.018857116
59	0xbc88bf6d	-0.016692841
60	0xbc45ae7d	-0.012065527
61	0xbc18e083	-0.0093308715
62	0xbc0ecef9	-0.008716338
63	0xbb90d691	-0.0044201096
64	0xbc196f88	-0.00936497
65	0x3c9cc47a	0.019136656
66	0x3ad2f3e6	0.0016094416
67	0xbc7269a7	-0.014795697
68	0xbbb7838b	-0.005600398
69	0x3c6ee044	0.014579836
70	0xbc9ece25	-0.019385407
71	0x3c366241	0.011131824
72	0xbc50f98a	-0.012754807
73	0xbcda52e3	-0.026650852
74	0xbbde2080	-0.0067787766
75	0xbc9283a0	-0.01788503
76	0xbc1d339d	-0.009594825
77	0x3b1c9452	0.0023892117
78	0x3aa256d9	0.0012385502
79	0x3bde43d2	0.006782987
80	0xbbd41eda	-0.0064734044
81	0x3c96318d	0.018334175
82	0x3c4e70b9	0.012600117
83	0xbc647d1e	-0.013945846
84	0x3bd20d72	0.006410294
85	0xbca6a3ff	-0.020341871
86	0x3c02e37f	0.00798881
87	0xbbffb460	-0.007803485
88	0xbb6b0d91	-0.003586624
89	0x3b3dcc96	0.0028961054
90	0x3bfa3027	0.0076351347
91	0xb9dbe401	-0.0004194081
92	0x3c4bbb83	0.012434843
93	0x3b46ca5a	0.0030333013
94	0xbb32a28d	-0.0027257532
95	0xbba6111c	-0.0050679576
96	0x3c757f9e	0.01498404
97	0xbc16f6fc	-0.009214159
98	0xbc4a46e3	-0.012346002
99	0xbc0d101a	-0.008609796
100	0xbcec48b6	-0.028843265
101	0x3b034512	0.0020030183
102	0xbc102e70	-0.008800134
103	0xbcb0c89b	-0.021580031
104	0xbb825dff	-0.0039784904
105	0x3b5d7095	0.0033789028
106	0xbcb58bc0	-0.022161365
107	0xbc3f8bf4	-0.011691082
108	0x3bc75d90	0.0060841516
109	0x3c1127fb	0.00885963
110	0xbba7f3bc	-0.005125491
111	0xbc8e5ae9	-0.017377334
112	0xbc3fcf6d	-0.011707169
113	0xbcad8b28	-0.021184519
114	0x3d170c42	0.036876924
115	0x3c210258	0.009827219
116	0xba31f095	-0.00067878637
117	0x3bd4ea96	0.0064976914
118	0xbc5907e8	-0.013246514
119	0x3caacf72	0.02085087
120	0x3c07f121	0.008297236
121	0xbcfa9e57	-0.03059308
122	0x3c01c0f4	0.007919539
123	0xbc0aac1e	-0.0084638875
124	0xbb5c0653	-0.0033573105
125	0xbca04506	-0.019564163
126	0xba2ba8d6	-0.0006548291
127	0x3c27e7b0	0.01024811
128	0xbd6df1f7	-0.058092084
129	0xbdd9668b	-0.10615262
130	0xbdaf8bd1	-0.0857159
131	0x3ce858b9	0.028362619
132	0x3d024c8f	0.031811293
133	0xbc8ad83a	-0.016948808
134	0xbd892eb7	-0.06698363
135	0xbd918c57	-0.07106846
136	0x3d69d368	0.05708638
137	0x3c7d1ec1	0.015449227
138	0xbb062139	-0.002046658
139	0xbb976c7d	-0.004621087
140	0x3d6e65a7	0.058202412
141	0x3cde8b97	0.027166171
142	0x3c8499f2	0.016186688
143	0xbd335896	-0.043785654
144	0x3d633df4	0.055479005
145	0xbd82c5e9	-0.063854046
146	0xbcb32390	-0.021867543
147	0x3da51e8d	0.08062468
148	0x3cd17e80	0.025573015
149	0xbd2062b8	-0.039156646
150	0xbcd1779b	-0.025569728
151	0x3cc9ece5	0.024649093
152	0xbd6570ce	-0.056015782
153	0x3d2a8696	0.041632257
154	0xbd92e1c5	-0.07171968
155	0xbc34e3d5	-0.0110406475
156	0xbc8e2efc	-0.017356388
157	0x3d717dc3	0.058957826
158	0x3d8f3713	0.069929264
159	0xbc9c30a1	-0.019066157
160	0xbd28dbff	-0.04122543
161	0x3d0b2687	0.03397229
162	0x3d3bab6e	0.045817785
163	0x3b9085e2	0.0044104913
164	0x3ca160d5	0.019699493
165	0xbda6830b	-0.08130463
166	0x3c337f54	0.01095565
167	0x3bf973ee	0.007612697
168	0x3c40648c	0.011742722
169	0x3d8cd547	0.06876617
170	0xbd612a71	-0.054972116
171	0xbd880a75	-0.066426195
172	0xbccacf37	-0.02475701
173	0xbd2cc8fb	-0.042183857
174	0xbc2b22f5	-0.010445346
175	0x3c670e6b	0.014102559
176	0xbcceb139	-0.02523099
177	0xbd3cd4a4	-0.046101227
178	0x3bb012ca	0.0053733336
179	0x3c37c01c	0.011215236
180	0xbd2381d0	-0.03991872
181	0x3d1cceae	0.038283043
182	0xbd9d46cf	-0.07679521
183	0x3b753fc1	0.0037422033
184	0xbca73508	-0.02041103
185	0xbd1c013e	-0.038087122
186	0xbd2fb3c1	-0.042896036
187	0x3ca26e8c	0.019828103
188	0xbc19054d	-0.009339643
189	0x3d154e87	0.036451843
190	0x3c945431	0.018106552
191	0xbc5306e2	-0.012880059
192	0x3d753f9f	0.059875127
193	0xbc5153e9	-0.012776353
194	0xbc835db6	-0.016035896
195	0x3d53dd51	0.051724736
196	0xbd975f17	-0.07391184
197	0xbd03dead	-0.032194782
198	0x3d1bf2e3	0.03807343
199	0x3d87892b	0.066179596
200	0x3d25fc5a	0.040523864
201	0x3c6ab4d3	0.014325338
202	0x3ce4c87b	0.027927628
203	0x3d4e2c52	0.050335236
204	0x3cc19bd5	0.023633877
205	0xbd1bef6f	-0.03807014
206	0x3d0e3e0f	0.034727152
207	0xbc373829	-0.011182823
208	0xbc160a6b	-0.009157757
209	0xbd571b0e	-0.052516036
210	0xbd29cba4	-0.041453972
211	0x3d1aab96	0.037761293
212	0xbdbec8fc	-0.093156785
213	0x3d4803f8	0.04883191
214	0x3c0219bb	0.007940705
215	0xbc34749d	-0.011014131
216	0x3d8a5a34	0.06755486
217	0xbc85b76e	-0.016322818
218	0xbd5a27b0	-0.053260505
219	0xbd4cf02f	-0.050033744
220	0x3dcec84c	0.10096797
221	0x3d09b870	0.03362316
222	0x3cefd7d4	0.02927772
223	0xbba5295e	-0.0050403317
224	0xbd39dd28	-0.045376927
225	0x3d50c234	0.050966457
226	0xbd7b416b	-0.061341684
227	0xbcb9504d	-0.022621298
228	0xbc653f67	-0.013992167
229	0xbc8ef2b9	-0.017449724
230	0x3d8590c0	0.065217495
231	0x3d4aa40e	0.04947286
232	0x3d30cdb2	0.043164916
233	0xbda8df20	-0.08245683
234	0xbd33b592	-0.04387433
235	0xbd6b68d5	-0.057473022
236	0xbd670268	-0.05639878
237	0x3cc23d90	0.023710996
238	0xbda30685	-0.07960228
239	0xbd3d23f8	-0.04617688
240	0x3d2ffe00	0.042966843
241	0xbc7ea738	-0.015542798
242	0x3cfc4057	0.030792398
243	0x3d23dc25	0.040004868
244	0x3d8d262a	0.06892045
245	0x3c2e4a33	0.010637808
246	0xbce997f2	-0.028514836
247	0x3d06a65e	0.032873504
248	0xbcbd2b77	-0.023092015
249	0xbd153aaf	-0.03643292
250	0xbda810dc	-0.08206341
251	0x3c81052c	0.015749536
252	0xbba67604	-0.0050799865
253	0x3db1234f	0.08649313
254	0x3d197a33	0.037470054
255	0x3d09b5b6	0.03362056

action_model._discrete_distribution.branches.0.bias f4 [6]
0	0xbc8dd74b	-0.017314574
1	0xbbccc1e3	-0.006248699
2	0x3c5871d0	0.013210729
3	0x3cf9d923	0.030499047
4	0xbc4de2aa	-0.012566248
5	0xbc25437f	-0.010086893
