Assets/Hide and Seek/Brain/SeekerBehavior_obs.onnx (onnx, 215212 bytes, 6 tensors)

network_body._body_endoder.seq_layers.0.weight f4 [128, 280]
00000000: f6ab 43be 4e66 dbbd 9e6d 41bb d827 143d
00000010: ff78 043c a0a6 443d 47ac 173d e460 1ebd
00000020: 89ac 54bd b81f fb3b b053 203c 1cb6 aebd
00000030: 1327 3abd 5579 37bc 1425 a1bd d203 2c3c
00000040: 7275 253d 846c 59bd 4f5e aabd ee5f ebbc
00000050: 702a 2a3c 12cd 483d f64e b93c 6a92 9c3d
00000060: 6cf3 54bd 7113 693d 4836 443d 3a52 d03d
00000070: 1976 743d f2f8 03bd 7f92 a8bd be6c 803d
00000080: 6296 29bd d6a5 6c3c abf8 14bd 3bd4 883c
00000090: b679 b0bd aa5d fe3c 8051 af3d cf76 843d
000000a0: 3c3f 0f3e 2e75 89bd 9d35 febc 523c 31bd
000000b0: cff5 a1bd d125 143b 8484 16bd c048 403b
000000c0: dc32 b43d e091 383d 12e4 b43c 3614 de3c
000000d0: c1ad 31bd def7 d83d 9c84 1ebd f904 623d
000000e0: a934 483d 8cf2 3dbd 7a87 80bd e1d4 a33c
000000f0: a3ae 253d 9f86 503d 1594 02be 7266 a53d
00000100: 96fd 04bd c1f9 f6bd eb35 9dbd 8459 a6bd
00000110: c3bc e83d cf42 cb3d b037 cb3d 2a1a e63b
00000120: a2fd b9bd f10d 8fbb a3f6 38bd 0f18 50bd
00000130: 015f 023b 7d98 7e3d 46a1 ef3c 9a6a 0dbc
00000140: 7976 bdbc 5738 47bd 9689 f13b d142 59bd
00000150: 8246 8cbd c684 003d e9b9 22be 8fff b1bd
00000160: bb7a 0dbd 4546 fdbc e5c8 71bd 15fd 5ebd
00000170: 2506 fa3d dfe1 6ebd 8042 3fbd 58ed 1abd
00000180: a9d1 d63c e3e0 1d3c 7d62 d83c 82a0 c23d
00000190: 55c7 0e3e 3181 a2bd b957 c33c 6a60 8d3d
000001a0: fb3c 9b3c 28fc 243e 13c5 123c 8b93 eb3c
000001b0: 4b12 83bd 7160 2bbd cfc1 76bd 7f5b 083c
000001c0: 54f2 073e 1886 cd3b 0dea b0bd 9a79 023d
000001d0: 92fd 7cbd a0c4 763c 7f23 9c3d b1ea 09bd
000001e0: e566 e7bd 4326 26bc 2c4a 3dbc c744 e8bd
000001f0: 7ccc 863d 5d79 aebd bfe4 e7bc e791 9fbd
00000200: a61a 9a3c fd70 073d 62da d7bc ca82 323c
00000210: 5558 bb3d e27b efbd d094 62bd 2922 4abd
00000220: ad7a 963d 5722 f0bd 5ad6 353b 51b7 e73b
00000230: 49a3 10be 303f e03d 2398 bcbd e5c5 a8bd
00000240: 7479 363d 333d ee3c b209 92bd b703 62bd
00000250: 77d1 a4bd 1519 8bbd 21fb ed3d 7ef6 4dbd
00000260: 6103 a8bd 18ba bc3d 4d35 e13d b7cc 383c
00000270: 626f cbbd d772 a43d e71d df3c e15b b83d
00000280: 4dfb 8c3d 4874 dd3b 1d08 83bd 3a15 313c
00000290: 034c f8bd 7954 93bd f5b1 933d 60e8 5f3d
000002a0: 192b aa3d 21cd 3c3d 98c8 d83c 2b22 6d3d
000002b0: 4f4a 78bc c53c 9a3d 3831 11bd 21c8 383e
000002c0: d613 69bd 1707 a93d 1a84 783c 5288 43bc
000002d0: e735 0bbe 0aa6 f13d f6f0 dd3d 0524 de3c
000002e0: 0bd9 b4bc 3a68 9cbd 7f58 bd3d 6cfd ae3c
000002f0: 00a2 f83d 9b91 873d 93a7 233c 75cd 56bd
00000300: 7335 40bc e8b4 60bd 11c5 723d 47d4 bd3d
00000310: d12d 05bc 348a 19be d064 9a3d 3a3e a1bd
00000320: 16e6 c8bd d946 c63d c7a5 02bd 34ab 453c
00000330: ae61 923d c189 653b 96cb b0bd 4b2b 983d
00000340: 8607 86bb 7083 29bd 290a 23be 2e59 3e3d
00000350: e8a1 edbc 9b12 363d 96ff c4bc f990 f13a
00000360: edc0 ee3d 34b3 2abc f34b 033d 0dd7 1d3d
00000370: 744b 0d3d 76c0 203d 8e6b 7abd 73e7 8b3d
00000380: 154b 4b3d 1b7c c43d d9b6 b03d db41 47bd
00000390: d08d b63c b176 253d 8f65 e3bd 2d20 f6b9
000003a0: a676 143d 4f6a debd 3bac dcbd 2b7c d6bc
000003b0: 69c9 97bd 7a88 0fbd 15b0 f53d aa2a c53c
000003c0: dd80 dc3d ced9 ba3d 21ff 42bc 2285 c43d
000003d0: 88d0 c73d 4082 d53c ef39 c7bc e5ca 82bc
000003e0: 6ecb 1c3d a93a 0dbd 29c2 813d 6179 60bd
000003f0: 86ad 8bbc ef6e 4b3d 8cbf dcbd 8f80 933d
-0.19108567 -0.107128724 -0.00295148 0.03617081 0.008085488 0.04801047 0.03702953 -0.03866662
-0.051922355 0.0076636933 0.009785578 -0.08530828 -0.04544742 -0.011198361 -0.078684 0.010498958
0.040395208 -0.053082004 -0.08318769 -0.028732266 0.010386094 0.049023695 0.02262066 0.07645114
-0.051989958 0.056903306 0.04790333 0.101719335 0.05968294 -0.032219835 -0.08231067 0.06270741
-0.04140318 0.014443835 -0.03636996 0.016702762 -0.086169645 0.031050522 0.08560467 0.064679734
0.13988966 -0.067118034 -0.031031424 -0.043270417 -0.079082124 0.0022605548 -0.03674747 0.0029340237
0.08798763 0.045060992 0.022081409 0.027109247 -0.043378595 0.10594152 -0.038700685 0.055180524
0.048878346 -0.04637389 -0.0627584 0.01999897 0.04044975 0.050909635 -0.12751801 0.080761805
-0.0324684 -0.120593555 -0.076763 -0.081225425 0.113641284 0.09924852 0.09922731 0.007022162
-0.0908158 -0.0043656756 -0.045157086 -0.050804194 0.0019893053 0.062157143 0.029251706 -0.008631373
-0.023127781 -0.048637714 0.007371138 -0.053042237 -0.06849386 0.031376623 -0.15891232 -0.08691322
-0.034540873 -0.030917296 -0.05902948 -0.054440577 0.12208203 -0.058320876 -0.04669428 -0.037824005
0.02622302 0.009636137 0.02641415 0.09503271 0.13943227 -0.079347976 0.02384554 0.06903155
0.018949976 0.16111815 0.008958119 0.028756877 -0.063999735 -0.04184002 -0.060243424 0.008322596
0.13276035 0.0062720887 -0.08638392 0.03185425 -0.06176526 0.0150615275 0.07623958 -0.033671085
-0.112989224 -0.010140958 -0.0115533285 -0.11341243 0.06581971 -0.08519242 -0.028307317 -0.077915005
0.018811535 0.03306674 -0.02634925 0.01089544 0.091477074 -0.11693551 -0.0553177 -0.049348984
0.07347617 -0.117253 0.0027746172 0.0070714136 -0.14124788 0.10949552 -0.09208705 -0.082408704
0.04454942 0.029081916 -0.071307555 -0.055179324 -0.08047765 -0.067918934 0.11620165 -0.0502839
-0.082037695 0.09215182 0.109964944 0.011279277 -0.09933354 0.080297165 0.027235938 0.090018995
0.06883869 0.0067582466 -0.06398032 0.010808283 -0.12123873 -0.07193846 0.07211677 0.05466497
0.083090015 0.046094064 0.026462838 0.057893913 -0.015154435 0.07531122 -0.03544733 0.18045093
-0.056903683 0.082533054 0.015168214 -0.011934357 -0.13594781 0.117992476 0.10836975 0.027116785
-0.02207615 -0.07637067 0.09245395 0.021361075 0.12140274 0.06619569 0.009988683 -0.052442033
-0.011731493 -0.054860026 0.05926997 0.09269004 -0.008128599 -0.14994127 0.0753876 -0.07873197
-0.098095104 0.09681482 -0.03189638 0.012064744 0.07147537 0.0035024735 -0.08632581 0.074301325
-0.0040902523 -0.041385114 -0.15921845 0.046471767 -0.029007867 0.044451337 -0.024047654 0.0018430046
0.116578914 -0.010418702 0.032054853 0.038535167 0.034495786 0.039246045 -0.06113773 0.06831255
0.04963215 0.09593984 0.086286254 -0.04864679 0.022284418 0.040396396 -0.11103355 -0.0004694475
0.036245964 -0.108601205 -0.10775038 -0.026182255 -0.07411463 -0.035042264 0.119964756 0.024068195
0.10766766 0.09123574 -0.011901648 0.095957056 0.09756571 0.026063085 -0.024319617 -0.015965888
0.038279943 -0.03447977 0.06335861 -0.054803256 -0.017050516 0.04966634 -0.10778722 0.07202255

network_body._body_endoder.seq_layers.0.bias f4 [128]
00000000: d4fe 333c ed8b b13c d229 2c3c 6b2a b53c
00000010: f4a7 cb3c 321c 033d 85a6 143d 9a0d 4b3c
00000020: de80 953c 7099 b13b 3728 57ba 863c 5f3c
00000030: 4451 343c 7b6f bc3c 4537 313d d224 af3c
00000040: eaec c43c 7532 0a3c 76c3 1ebb a8b7 923c
00000050: 5df9 893c 6519 8d3c bc95 2c3d 0953 533d
00000060: 5724 ca3c a6d5 be3c b23c 413d 911b 1d3d
00000070: 96fd 8e3c 93da 473d c3d1 853b d50f d03b
00000080: 8af6 183d f21e 23bc 6e14 cf3c 8775 0a3c
00000090: 0c9c ba3c 0242 c33c a25e 423c 0cf3 18bd
000000a0: 1fa3 b03c b502 c73c d4db ca3c cb8f e03c
000000b0: cfbe 343d cae1 b23c 5e12 703c 5acb 433d
000000c0: 4b00 9b3c 7792 983c 0ab3 073d 7869 fc3c
000000d0: a8cd b03c 9bd8 6b3d 6a24 f73c 7655 043c
000000e0: 58fa 783c 6d42 133d 6f6c 463c fb06 b53c
000000f0: a1dc de3c 09dc 323d 4975 95ba d25a 8dbb
00000100: 1170 d93b c567 fb3c 0eea d03c 225d c63c
00000110: ac87 053d 6e5f ea3c 31c6 8fbb 8171 0d3d
00000120: 922f c1ba 81f3 f4bc d268 573c 6a2f 6c3b
00000130: 58f6 993c 1297 d13c de1f 0d3d 9238 1f3c
00000140: 7e45 0b3d c8f3 243d 268b 093d 43b9 85bb
00000150: 3c46 12bc fb28 e53c 9f11 313d d5b4 003d
00000160: 096f 2c3d 9dbb 0f3d 8b86 053d e493 fb3c
00000170: 2f52 0d3d d280 3b3d de3d d73c 4a4d e03c
00000180: dd19 0a3c 8a24 013c bb4c 793b 748e 8d3c
00000190: 9869 ed3c 7386 f03c b2b8 8e3c 1d86 ce3c
000001a0: e6f4 913c d484 c83c 1687 d83c a49c dc3c
000001b0: 3d5e 273c 93e8 123d bfa1 47bc f28e cc3c
000001c0: 1d54 1a3d d333 963c 0f6b 2d3d 9fba f23a
000001d0: 0e79 e23c a061 983c 64f9 1f3d 491b 173d
000001e0: e1cd bc3c a841 9e3c 8eaa 703b ce21 0c3d
000001f0: edcb 4d3d 78bd 0e3d 6ddf f13c f50f 3d3c
0.010986049 0.021673167 0.010508018 0.022114953 0.02486036 0.03200931 0.036291618 0.01239338
0.018249925 0.0054199025 -0.00082075916 0.01362527 0.011005703 0.023002377 0.0432656 0.021379862
0.02403875 0.008434881 -0.002422539 0.01790984 0.016842538 0.017224023 0.042134985 0.05159286
0.024675531 0.023295235 0.047177024 0.038356367 0.017454904 0.048792433 0.0040838434 0.0063495436
0.037344493 -0.009956108 0.025278296 0.008450872 0.022779487 0.023835186 0.0118633825 -0.037341163
0.021562157 0.024293283 0.024763025 0.027412316 0.04412728 0.02183618 0.014652817 0.047801353
0.018921038 0.018624527 0.03312973 0.03081201 0.02158244 0.057579618 0.03016873 0.008077016
0.015196405 0.03595202 0.0121108135 0.022098055 0.027204813 0.043666873 -0.0011402752 -0.004313805
0.006635674 0.03068913 0.025502231 0.024214331 0.03260009 0.028609958 -0.00438764 0.034532074
-0.0014738909 -0.029901268 0.01314755 0.0036039003 0.018794224 0.025584731 0.03445422 0.009718077
0.03400182 0.04027155 0.033579968 -0.004080923 -0.008927878 0.027973643 0.043229695 0.031422455
0.04209808 0.03509103 0.032599013 0.030710168 0.034502205 0.04577715 0.026274618 0.027380604
0.008429018 0.007882247 0.003804012 0.017279841 0.028981015 0.029360985 0.017422054 0.025210435
0.017816972 0.0244774 0.026431601 0.02693016 0.010215339 0.03586633 -0.012184559 0.024970505
0.037677873 0.018335259 0.042338427 0.0018518752 0.027645614 0.018601239 0.039056197 0.036891256
0.02304739 0.019318417 0.0036722752 0.034211926 0.050243307 0.03484866 0.029525483 0.011539449

network_body._body_endoder.seq_layers.2.weight f4 [128, 128]
00000000: b54b a63c 44fa 3fbb eb87 683d 2b8e 7c3d
00000010: 6b59 993c 16e8 5ebc ef98 e93d c3af 463e
00000020: c239 d73d e50d 263e a854 debd 416c 25bd
00000030: 34cb 63be f936 0e3d 4b62 66bd ec3f 253d
00000040: e7c8 02be 3e27 b33d b106 903d c1e2 ec3d
00000050: c891 fbbd f209 443c e9ee 9abd 43a8 97bd
00000060: d918 aabd b3d5 d5bd 69aa ef3d 3841 02be
00000070: fe9e 51bc 1784 d23b e0d7 983d 01b8 933d
00000080: 2c6d 4d3d cd4f f13d ac7c 8abd fd52 03bd
00000090: 5da9 1c3d 812a fc3d 3353 0abd bb18 193e
000000a0: b6a3 99bd 3c02 ee3d d7ce 113d 6cb8 fcbc
000000b0: de56 31bd f2db a8bc 6192 833d be58 aa3d
000000c0: 4b62 8c3d 2888 723d 3edf 07be 0452 9dbd
000000d0: 20a0 303e c885 0e3e d3a2 d33b b893 44be
000000e0: fa4e 0c3d 2a55 11bd 4515 bf3c 9687 e0bd
000000f0: 770a 363d 7932 c3bd 2eb7 5bbe c2b5 563e
00000100: fa81 b0bd b18d 463d aede 1d3e 3e13 04bd
00000110: 37ca f13d b82a 27be 8ac6 40bd 94ee 1a3e
00000120: 260e 903e 3f50 dc3d b287 c6bd 4edf b73c
00000130: f954 fb3d 2627 8b3d 3a30 8f3d 3ec5 1b3e
00000140: 9abc 0abd 205c 57be 320b 163e f9a6 45bd
00000150: d17e 363d 23e8 11be 283b 72bd 7efb 1abe
00000160: 9ebf 04be a1ca 233d 485e aabc 3cce 463e
00000170: 7d55 90bd 6530 933d a644 c03d b7a5 cebd
00000180: 9af7 1a3e d704 fb3d d608 0d3e 49e9 643c
00000190: 3ba9 ca3d 7cbf 26be 4d0b 36bb ec47 333d
000001a0: 52ea 10bc 0207 40ba 5746 1f3c 7448 713d
000001b0: 645a 9bbc 2730 a23c e512 2b3e e974 823d
000001c0: 9fa9 18bc 31a8 8abd a5aa 74bc 8d59 aebd
000001d0: b15d 993d 08f0 993d 5e8d bebd e56f ddbc
000001e0: 2de1 a7bd 8394 87bd 2449 ca3d 3e37 463c
000001f0: 872c 5cbd 2dac a2bc 0de7 29bd e69a 523c
00000200: cf6e 353d 2ac1 1ebd dca8 373d ebc1 313e
00000210: 15d3 e43d 1f07 543d c489 663e 981e 6fbd
00000220: e89d f93c a9c3 a03d e90e f4bd b4f9 163d
00000230: 83c6 91bd 32c8 b2bc 1059 ab3d 1525 14be
00000240: 0e37 8ebc 57de d53d 857f 203d ab18 093c
00000250: 0bb6 01bd e434 383e bb26 6d3e f00d bfbd
00000260: 59e0 35be 4248 12be efa2 363e 820a 96bd
00000270: 4ae6 33be caf9 24be 45a2 acbc 279d ecbd
00000280: 4ee2 593d 72a9 e63c d63f b43a c2c2 fa3b
00000290: 79af bbbd 994d 2e3d 537d c1bd d46a f03c
000002a0: fb55 f3ba b573 0b3e 53eb 083e a8e8 a4bd
000002b0: 31cb e9bc 0b2f c6bc 4dd5 663d 0ef8 c53d
000002c0: 438c 5f3d 1de5 3b3d fa28 ba3d 3edc 14bd
000002d0: ef20 0dbe 4312 61bd ef39 4b3d dcf4 67bd
000002e0: b852 b93c 1ce6 0c3d 8648 f73c 22eb a73c
000002f0: bbef b8be 54db 3cbd 6ca1 853d 70be d4bd
00000300: deed 4d3d c564 ffbd 0425 ab3c 3559 efbd
00000310: 2d43 0abd 63a9 1a3d 0b1f e93d af10 3bbe
00000320: b32f 853d 5072 ddbd fef0 08be 54b3 b4bd
00000330: 475c 703d 9276 153e 44e1 9c3e 909e 71bd
00000340: e8b0 a3bd e6af 833b f9ce 8d3c 51a1 043d
00000350: 7390 93bd 5f46 8abc 1ffa d03d 2d43 073e
00000360: 299c cb3d 6c37 80bd d9d1 d2bd 651f b53a
00000370: 8461 cd3d d61b d83d add3 213d 0eb4 0fbc
00000380: a437 073e 4d24 eb3b cfd2 0e3e dd29 e93d
00000390: dfc1 1f3d 6121 083d 9153 3f3e 77d8 4ebd
000003a0: 3c4f 973d 54ae 853e 602f b13c 79a8 163d
000003b0: e807 3dbe 43f9 6abd 8dc5 03bd 9f91 0b3e
000003c0: a39b 82bc e366 1fbb d96d 91bd f360 39be
000003d0: 9b1f 32bd 5619 ca3d ccc2 813c d6de 06be
000003e0: 23a4 8dbd 6984 11ba 9560 b5bc ae05 da3d
000003f0: fe4c 1dbc 2d59 4c3e 5512 a93d 9e82 c2bc
0.020299772 -0.0029293457 0.056770246 0.06165902 0.018719396 -0.013605138 0.11406123 0.19402985
0.10509063 0.16216238 -0.10855991 -0.040386442 -0.22245485 0.034720395 -0.056246083 0.040344164
-0.1277195 0.08747719 0.07032526 0.115666874 -0.12283665 0.011965262 -0.075651 -0.0740514
-0.083055206 -0.104411505 0.11702425 -0.12720191 -0.012794254 0.0064244377 0.0746305 0.0721283
0.050152943 0.11782799 -0.067620605 -0.032061566 0.038247455 0.123127945 -0.03377075 0.1495084
-0.075019285 0.1162152 0.03559765 -0.030849658 -0.043295734 -0.02061269 0.06424404 0.083177075
0.068546854 0.05921188 -0.13268754 -0.07681659 0.17248583 0.13918221 0.006458619 -0.19196975
0.034255005 -0.03548161 0.023325572 -0.10963361 0.044443574 -0.09531111 -0.21456596 0.20967773
-0.08618541 0.04847497 0.15416977 -0.032244913 0.118061475 -0.1632489 -0.04706434 0.15130073
0.28135794 0.10757493 -0.096938506 0.022445347 0.122720666 0.06794576 0.0699162 0.1521196
-0.03387127 -0.21031237 0.14652708 -0.04825494 0.044554535 -0.1424871 -0.059138447 -0.15134999
-0.12963721 0.039988164 -0.02079691 0.1941461 -0.070475556 0.07186965 0.09388094 -0.10090201
0.15133515 0.122567825 0.13772902 0.013971635 0.098955594 -0.16283983 -0.0027777732 0.043769762
-0.008844929 -0.0007325263 0.00972136 0.058906987 -0.018964 0.019798351 0.16706426 0.06369955
-0.009317785 -0.06770361 -0.014933263 -0.08513174 0.07488573 0.075164855 -0.093043074 -0.027030895
-0.08197246 -0.06620123 0.09877232 0.012098132 -0.053753402 -0.01985749 -0.041480113 0.0128543135
0.04429513 -0.038758434 0.04483877 0.1735913 0.11173073 0.051764604 0.22513491 -0.058378786
0.030470803 0.07849819 -0.119169064 0.03685923 -0.07117941 -0.021823976 0.08366597 -0.1446727
-0.017360236 0.104427986 0.039184112 0.008367698 -0.03166775 0.17988926 0.23159306 -0.0932883
-0.17761363 -0.14285377 0.17835592 -0.07326223 -0.17568317 -0.16110912 -0.02107347 -0.11553412
0.053194337 0.02815697 0.0013751935 0.0076526115 -0.09164328 0.04255447 -0.09447732 0.029347815
-0.0018565053 0.13618357 0.13371019 -0.08052188 -0.028539272 -0.024192354 0.056355763 0.09666453
0.054577123 0.045872796 0.09089847 -0.03634285 -0.13782094 -0.054949056 0.049615797 -0.05663
0.022622451 0.034399137 0.030185949 0.020497862 -0.361204 -0.046107605 0.065249294 -0.103878856
0.050275676 -0.12470392 0.020891674 -0.11686937 -0.03375547 0.037759196 0.11382874 -0.18268083
0.065032385 -0.10812819 -0.13373181 -0.088232666 0.058681753 0.14596012 0.30640614 -0.058989108
-0.079927266 0.0040187715 0.017310606 0.032380406 -0.07205286 -0.016879259 0.10203957 0.1320922
0.099418946 -0.06260571 -0.102939315 0.001381856 0.10028365 0.10552184 0.03950851 -0.008770956
0.13204819 0.0071759582 0.13947605 0.11384938 0.03900325 0.033234958 0.18684222 -0.050499406
0.0738816 0.26109564 0.021629035 0.03678176 -0.18460047 -0.05736662 -0.03217082 0.13629769
-0.015943354 -0.00243228 -0.0710103 -0.1810339 -0.043487173 0.09868114 0.015839957 -0.13170943
-0.06916072 -0.00055510417 -0.02214078 0.106456146 -0.009600876 0.19955893 0.0825545 -0.023743924

network_body._body_endoder.seq_layers.2.bias f4 [128]
00000000: 6769 85bc f868 d63c ee49 243d 9ba1 f73c
00000010: 4eb6 963c aeb2 b23c 218a 2e3d 97da 5cbc
00000020: 0ea6 a73c db87 023b 78cf fe3c b478 5a3c
00000030: a09f cf3c ff4e ce3c 6290 cc3c d1a5 703c
00000040: 9ae5 fe3b f3e1 143d 0731 143d 49a8 a4bc
00000050: ab1f 3a3d 103c 9ebc 01d2 2e3d 9dfb c03c
00000060: b65e 0a3d 1ec6 3b3d 19d8 b83b 144b 4f3c
00000070: 79da ed3b 2087 b63c 8d42 14bb bbe8 993c
00000080: 8f42 d83c fb3a 1c3d 76b3 1c3c 26e4 a23c
00000090: 7a2b 1e3d 18e4 bc3c 8f73 583c c2db 123d
000000a0: a5d4 2a3d 3e7a e73c 5e4b 963c 017d 8cbc
000000b0: fa93 1d3d 47d1 d63c 7e54 183d 23c4 863c
000000c0: 1c42 ee3c a918 9f3c bf2f 5a3c 870f 353d
000000d0: f2f7 3cbb bfbe 583c 7bd9 153d f8c7 5f3c
000000e0: 626f bb3c 761a c53c d60e fd3c df51 853c
000000f0: d5cb bb3c 0a74 253d 678e 593c 613d 083b
00000100: 5bbd 153c 90fb 8b3c 074e 633c 61f1 58ba
00000110: a868 a23c 9040 a1bc 684c ae3c 0593 933c
00000120: 3d38 473b 90db fc3c 6eb9 163d 7118 2b3d
00000130: e482 9a3c 6531 063d 856f 0b3d 85c1 2c3d
00000140: 809a 37bc 4f29 123d ec59 ba3c 2fcc 693c
00000150: 8d2f ec3b 3796 413c ddde 983c 3ca3 a93c
00000160: 6cae debc ade1 253d bd51 053d dc41 b03c
00000170: d9da 2f3d ddb6 973c bcdf c43c ad6c 733c
00000180: 047d 443c 8add 8f3c 1a44 da3c e186 993c
00000190: 1074 4cba 6c1e fc3c 08bb 453c 4bae 0d3d
000001a0: e5c0 e03b 94d6 163d a1e9 f33c 827d fa3c
000001b0: 3eac 1a3d c2a0 643c 51be f03c 7768 923c
000001c0: 9387 a1bb 8ea1 1e3d eb2f c63c eac8 4cbb
000001d0: 6c29 6bbc 0699 dd39 7d57 393d 7703 cc3c
000001e0: 65ed 7a3c 09a3 183d 1cc8 003d 9f44 003c
000001f0: 6ad3 21bb fef0 063c ea6e ea3b 66f7 e13c
-0.016285611 0.0261731 0.040109567 0.030228427 0.018397477 0.021813717 0.0426122 -0.01347985
0.020464923 0.0019917402 0.031104788 0.013334442 0.02534467 0.025184153 0.02497119 0.014687971
0.0077788355 0.036348294 0.03617957 -0.020099776 0.045440357 -0.01931575 0.042680744 0.023557479
0.03378173 0.045843236 0.005640995 0.012652177 0.00725871 0.02228123 -0.0022622675 0.018787732
0.026398925 0.038142186 0.009564271 0.01988418 0.03861568 0.023057982 0.013211145 0.03585411
0.0417067 0.028256532 0.018346485 -0.01714945 0.0384712 0.026222838 0.037189953 0.016450947
0.029084258 0.019420939 0.013317048 0.04420426 -0.002883431 0.013229071 0.03658436 0.013658516
0.02288026 0.02406047 0.030890863 0.01627439 0.022924343 0.040393867 0.01327858 0.0020788538
0.009139384 0.017087728 0.013873584 -0.00082757144 0.019825295 -0.019684106 0.021276668 0.01801444
0.003039851 0.030866414 0.036797933 0.041771356 0.018861242 0.03276195 0.0340419 0.042176742
-0.011206269 0.035683926 0.022747956 0.014269873 0.007207817 0.011815599 0.018660957 0.020707719
-0.02718278 0.040498424 0.032548655 0.02151578 0.04293332 0.018519813 0.024032466 0.014857453
0.011992697 0.017561693 0.026643801 0.018741073 -0.0007799277 0.030776225 0.0120685175 0.034590047
0.0068589323 0.03682573 0.029774489 0.030577425 0.03776192 0.013954343 0.029387625 0.017872078
-0.004929492 0.03872829 0.024192771 -0.0031247684 -0.014353137 0.00042266416 0.04524945 0.024903996
0.015315388 0.037264857 0.03144084 0.007828861 -0.0024692663 0.008236168 0.0071543353 0.02758379

action_model._discrete_distribution.branches.0.weight f4 [6, 128]
00000000: e088 033c 1c6d 2dbd 12ae 2dbd 739b 41bb
00000010: ae4e b0bc 78a9 68bc 98a1 f6bb 22d7 363d
00000020: 9f76 17bd 690f 24bc d44d 863c bcde 613b
00000030: 73a0 d7bc c7e5 0cbd c3c7 73bc fa87 fb3c
00000040: d1f2 15bd 84f0 24bd 6b1a 6dbc 4308 933c
00000050: 8687 e8bb 0154 433d 6651 76bd 2719 3bbd
00000060: 899d 103c c897 13bd fc8e ad3c b361 15bd
00000070: 3b6a d6bb 8007 3abd 10b6 b53c b843 6ebc
00000080: 50be 01bd 32c9 03bd 4331 12bd 5eb4 acbc
00000090: 33cd 0abd 5683 24bd 5ae4 56bd 37ed 01bd
000000a0: 8551 9abc 23ed 1ebd 082c 48bc c042 1bbc
000000b0: 9809 90ba 5b84 ba3c ad3c 9bbc 0f83 073d
000000c0: dcd8 d8ba 2511 02bd ca43 1dbd 1809 78bc
000000d0: 7b29 2d3d 75c4 3cbd cfdd 98bb 7779 86bb
000000e0: 2d20 31bd f202 ad3c 131c 05bd 68ac 89bc
000000f0: b0c0 40bc 8860 22bd 579f a6bc dc98 61bc
00000100: 9bc5 b93c 6e3b 1bbc bbb0 5a3c caa2 3c3d
00000110: 5134 39bd 39e9 603d 11d4 25bd 3c37 04bd
00000120: f341 ac3c 4ce6 93bc cad0 93bc c020 f0bc
00000130: 233c f13b 9482 f1bc 2abf 8abc d090 64bc
00000140: c6b5 e33c 270d 0bbc d491 11bd 75d5 93bb
00000150: 46ef d13c 0327 8dba e868 38bd e97d 69bd
00000160: 03ea ff3c 1f55 a4bc df12 683d e35b 81bd
00000170: e49d eabc 547f 1dbd bbbf 9ebc 3d73 bb3c
00000180: 4baf e3bc fe00 aebc 394e c4bc 1889 aabc
00000190: a004 363d fff9 2fbd d3b3 65bc 48fb 133c
000001a0: 1a2c 28bd 6db8 33bd b544 fcbc 871b 5ebc
000001b0: 5bd2 b63a d3a6 cbbc def0 853b 0d18 b3bc
000001c0: 4a5c 1f3b 5933 e4bc f692 a0bc 4814 b4bc
000001d0: 4718 453d fc7f 903c eef5 c6bc 2d08 fabc
000001e0: 3f1e 04bc 1869 35bd 015b e7bc cd5c 993b
000001f0: 9567 37bc 2d8c 24bc 5dd2 193c 06b0 b2bc
00000200: 9cbe a73d 7bb9 a53d 23b6 e6bd 7d40 f4bd
00000210: 2ce0 31bd 8b15 a8bd d893 dcbd d720 71bc
00000220: 0d50 543c f2a6 093c f25c 9f3c 59fc 96bc
00000230: 88aa 9b3d ecf0 7f3d 8607 303d dff7 2dbd
00000240: 5dec 90bc cf95 59bd b775 8f3b 2b8b 053c
00000250: a266 f3bd c947 1e3c 683d c0bc e13d 25bc
00000260: aaad dfbd 41f6 633c da4a a7bb c3ee b7bb
00000270: c35f f23a 3f32 8b3c 5694 fabc 9447 a03d
00000280: b419 a5bd 90e5 9abd c22e 283d c222 f9bc
00000290: 7128 ecbd ec19 6c3d 303d 813b ca75 81bd
000002a0: 40eb d5bd 4e75 d5bd 1115 9abd 30e2 f0bc
000002b0: eecd e5bd 6359 a4bd c101 ccbd 7553 a73c
000002c0: f9d4 543c 9b99 9e3d fe36 8c3c c5c6 9e3d
000002d0: e306 07bd 55fc 5a3d 2097 ddbd 064f bfbc
000002e0: 68dc 143d 52a4 9abd 83e4 e2bc f0fe 2e3d
000002f0: 3316 b4bc fbcb 613c 9fae 533c ee6b f03b
00000300: 18ff 613c 50ac 89bc ae44 983d 75b3 853c
00000310: f42e b23d 13b0 893c bd61 9d3d d8eb 623b
00000320: 733e 93bc 85b8 103d dc2a d2bd b5cb cdbd
00000330: f0f8 e23c 0e8a c1bd 4900 84bc 304d d0bd
00000340: e1b1 6c3d 5166 c8bc b0b9 463d 789c 683d
00000350: fb0f 98bb 244a 393d d314 883d 7466 933c
00000360: 1ab3 713b 663b 7fbd 82ee 0fbd 3f50 f53c
00000370: 8077 bc3b 420e 9abd 557e 903c 18ae 29bd
00000380: 435e c23c 706c 653c c399 ad3c c76b 2d3d
00000390: 22a4 d1bd 89eb a53d 9646 5f3d d71d d9bd
000003a0: 3344 353d ff75 923d 0e7d b0bd e7c2 81bd
000003b0: 3463 dbbd 43f1 f63c d421 e4bd c395 763d
000003c0: 7182 d93c 3f9b b5bd 2e3f 793d 71ab 2bbd
000003d0: 2d55 5b3c c695 68bd 53b8 98bc 79e8 6dbd
000003e0: b922 b43d ce18 ba3d 85f5 a2bc 7f7d 083a
000003f0: d95b 43bd cc97 683c 7c3d 09bc 9615 d43d
0.008028239 -0.042340383 -0.042402335 -0.0029542118 -0.021521892 -0.014200561 -0.0075265877 0.04463876
-0.03697836 -0.01001344 0.016394533 0.0034465035 -0.026321625 -0.03439882 -0.01487917 0.030704487
-0.03660852 -0.040268436 -0.014471631 0.017948275 -0.007096234 0.047687534 -0.06013622 -0.045678284
0.008826622 -0.03603342 0.021186344 -0.036470126 -0.0065434254 -0.04541731 0.02218154 -0.014542513
-0.031675637 -0.032174297 -0.03569151 -0.0210821 -0.0338871 -0.040164314 -0.052463867 -0.031720366
-0.0188377 -0.03880037 -0.012217529 -0.009476364 -0.0010989187 0.02276819 -0.01894983 0.03308397
-0.0016544121 -0.03175463 -0.038394727 -0.015138887 0.042275887 -0.046085794 -0.0046651135 -0.004103835
-0.043243576 0.021119568 -0.032497477 -0.016805843 -0.01176469 -0.03964284 -0.020339651 -0.013769355
0.022677233 -0.009474618 0.0133478 0.046053685 -0.04521591 0.05490992 -0.040485445 -0.032279238
0.02102754 -0.01805415 -0.018043894 -0.029312491 0.007361905 -0.02948121 -0.016936857 -0.013950542
0.027796637 -0.0084870225 -0.035539463 -0.00451153 0.02562679 -0.0010769073 -0.04502192 -0.057004843
0.031239515 -0.02006012 0.056658622 -0.06316354 -0.028639741 -0.038451508 -0.019378534 0.022882098
-0.027793547 -0.021240707 -0.02396308 -0.020817325 0.044438004 -0.042963024 -0.014019924 0.009032078
-0.041057684 -0.043877054 -0.03079448 -0.013556368 0.0013948189 -0.024859821 0.0040875515 -0.021862054
0.0024316483 -0.027856516 -0.019601326 -0.021982327 0.048118856 0.017639153 -0.02428719 -0.030521477
-0.008063852 -0.04428968 -0.028241636 0.004680252 -0.0111941295 -0.010043186 0.009388533 -0.02181245
0.08190653 0.08092018 -0.112652086 -0.11926363 -0.043426678 -0.08207234 -0.107703865 -0.014717302
0.012958539 0.008401619 0.0194535 -0.018430876 0.07600886 0.06248562 0.042975925 -0.042472716
-0.017690832 -0.053121384 0.0043780464 0.008150856 -0.1188481 0.00966067 -0.02346678 -0.010085554
-0.10921796 0.013913692 -0.0051053585 -0.0056131794 0.0018491674 0.016991733 -0.03058831 0.078261524
-0.08061543 -0.07563317 0.041060217 -0.030412082 -0.11531151 0.05764191 0.0039440617 -0.063212946
-0.10445261 -0.10422765 -0.07523549 -0.02940473 -0.112209186 -0.08024862 -0.09961272 0.020425538
0.01299023 0.07744142 0.017116066 0.07752756 -0.032965552 0.0534633 -0.108198404 -0.023353111
0.03634301 -0.07550873 -0.027696854 0.042723596 -0.021983242 0.013781543 0.012920051 0.007337085
0.013793729 -0.016805798 0.074349746 0.016320923 0.08700362 0.016807592 0.07684658 0.0034625437
-0.017974114 0.03533222 -0.10262081 -0.1004862 0.027706593 -0.0945016 -0.016113417 -0.10170972
0.057786826 -0.02446285 0.04851693 0.056789845 -0.004640577 0.04523672 0.06644597 0.01799319
0.0036880434 -0.062312506 -0.03513957 0.02994549 0.00575155 -0.07522251 0.017638365 -0.041425794
0.023726588 0.014002904 0.021191483 0.042339113 -0.10236384 0.081015654 0.054510675 -0.106013946
0.044254493 0.07151412 -0.08617602 -0.06336003 -0.10712281 0.03014434 -0.11139265 0.060201418
0.026551457 -0.088675015 0.06085127 -0.041911546 0.013387007 -0.05678346 -0.01864258 -0.05808303
0.08795685 0.09086762 -0.019892463 0.00052066887 -0.047695015 0.014196347 -0.008376475 0.1035568

action_model._discrete_distribution.branches.0.bias f4 [6]
00000000: 0635 14bd 95b9 3f3b 6b88 943c 757f cd39
00000010: 6a8d f3bb 26e4 ee3b
-0.03618338 0.0029254903 0.018131455 0.0003919561 -0.0074326294 0.007290381
