Assets/Hide and Seek/Brain/SeekerBehavior_blindfold2.onnx (onnx, 238252 bytes, 6 tensors)

network_body._body_endoder.seq_layers.0.weight f4 [128, 325]
0	0x3c008d0b	0.007846127
1	0x3dd61fde	0.10455297
2	0x3bf09e9a	0.0073431255
3	0xbc4c25b1	-0.012460158
4	0xbdac0446	-0.083992526
5	0x3de33b39	0.1109528
6	0x3da7962c	0.0818294
7	0x3a5ee247	0.0008502346
8	0xbcf1984c	-0.029491566
9	0xbb490719	-0.0030674397
10	0x3dcd1c33	0.10015144
11	0xbaaf64fe	-0.0013381538
12	0x3d638039	0.055542205
13	0x3b471486	0.0030377223
14	0x3cb5848a	0.022157926
15	0x3c938353	0.018006956
16	0x3cfd6e7f	0.030936478
17	0x3d6b0400	0.05737686
18	0xbdebe791	-0.11518777
19	0xbce742e4	-0.028230138
20	0xbcaf543e	-0.021402474
21	0x3da5a355	0.08087794
22	0xbd948ab6	-0.072530195
23	0xbd5d0d2c	-0.05396764
24	0x3d509b7f	0.050929543
25	0x3c61f913	0.013792294
26	0xbd36c854	-0.04462464
27	0x3dd841dd	0.105594374
28	0x3cf6bd60	0.030119598
29	0xbb1f5a2d	-0.0024315224
30	0x3c1bb04c	0.009502482
31	0x3c38fdb0	0.011290953
32	0xbdd7bc5b	-0.10533973
33	0xbca1d47e	-0.019754644
34	0xbc95af55	-0.018272081
35	0xbc6cc7a4	-0.014451895
36	0xbd1619d2	-0.036645718
37	0xbdb16d9b	-0.08663484
38	0x3d9640a8	0.07336551
39	0xbd382ce5	-0.04496469
40	0x3d8c6301	0.06854821
41	0x3cbd921b	0.023140958
42	0xbdba1689	-0.090863295
43	0x3cec01f6	0.028809529
44	0xbd89ea66	-0.06734161
45	0x3d88eed1	0.066861756
46	0xbd60ae63	-0.054853808
47	0xbd5f1929	-0.054467354
48	0x3d55b89e	0.052178018
49	0xbcbfcae2	-0.023412172
50	0x3bf6bd35	0.0075298795
51	0x3cbffced	0.023436034
52	0xbc38af82	-0.011272313
53	0x3c82bc51	0.015958937
54	0x3d36d52f	0.0446369
55	0xbdc83a9a	-0.09776802
56	0xbd898ef2	-0.06716718
57	0xbd943521	-0.07236696
58	0xbcdf780e	-0.027278926
59	0x3ca354b2	0.019937847
60	0x3c1d8ad0	0.009615615
61	0xbb98c9d1	-0.0046627303
62	0xbd939b56	-0.07207362
63	0xbd112770	-0.035438
64	0xbd9b88ec	-0.07594475
65	0x3d7822d6	0.060580097
66	0x3d624f4b	0.0552514
67	0xbd5457ea	-0.051841654
68	0x3c871766	0.01649065
69	0x3c12a3d3	0.008950192
70	0x3e14d7a0	0.1453538
71	0xbcf8093c	-0.03027784
72	0xbd0d045e	-0.034427993
73	0x3dbe65e2	0.09296776
74	0x3d93616d	0.07196317
75	0x3c9b5c67	0.01896496
76	0xbda91447	-0.08255821
77	0x3d1ea207	0.03872874
78	0xbda272b0	-0.07932031
79	0x3d576155	0.052583057
80	0x3cd79102	0.026314262
81	0x3d92706f	0.07150351
82	0x3c2a2294	0.010384221
83	0x3b7bacdf	0.00384026
84	0xbd538b82	-0.051646717
85	0xbdbad8d2	-0.091233864
86	0x3d138bb4	0.036021903
87	0x3d1759b9	0.0369508
88	0x3d6ec5cf	0.058294114
89	0xbe054241	-0.13013555
90	0xbb30e1c5	-0.0026990038
91	0x3dff5e18	0.12469119
92	0x3caa36c7	0.020778073
93	0x3c438d63	0.011935565
94	0xbd681486	-0.056660198
95	0xbc627763	-0.013822409
96	0x3cdc0e6d	0.026862347
97	0x3d489d8a	0.048978366
98	0xbd8ee226	-0.06976728
99	0xbd4b0787	-0.049567726
100	0xbd415942	-0.047204264
101	0x3dad3df1	0.0845908
102	0xbd8f5e6e	-0.07000433
103	0xbdb97f48	-0.0905748
104	0x3d43d97a	0.047814824
105	0x3d7a6a62	0.06113661
106	0xbdb981b1	-0.0905794
107	0x3d19e0a9	0.03756777
108	0xbc13d770	-0.009023532
109	0x3bd435b4	0.0064761285
110	0x3d347543	0.044057142
111	0xbda3f3e4	-0.08005503
112	0xbc5b52be	-0.0133864265
113	0xbbc1a22f	-0.0059092264
114	0x3c35ea85	0.011103277
115	0x3c3a1920	0.011358529
116	0xbc9e479a	-0.019321252
117	0x3de048b0	0.10951364
118	0xbdc955a8	-0.09830791
119	0x3d2a013d	0.041505087
120	0x3d60c656	0.054876648
121	0x3d638307	0.05554488
122	0xbdac0245	-0.083988704
123	0xbd3d92e8	-0.04628268
124	0x3cddba0e	0.027066257
125	0xbd43344b	-0.047657292
126	0x3da8a130	0.08233869
127	0xbc1ff851	-0.009763793
128	0x3da2125a	0.079136565
129	0x3c2c0f02	0.010501625
130	0xbcc6af5a	-0.024253536
131	0x3dc68c39	0.09694714
132	0xbd4c8bc4	-0.04993798
133	0xbb8ddf29	-0.0043295813
134	0x3d8136ac	0.06309256
135	0xbcfe9afc	-0.031079762
136	0x3c4cc35d	0.01249775
137	0x3cb30aef	0.0218558
138	0xbd55bda4	-0.05218281
139	0x3d7527fc	0.059852585
140	0xbda3eb58	-0.08003873
141	0x3dca1f2c	0.09869227
142	0x3d13e0b1	0.036102954
143	0xbd6440f1	-0.055725995
144	0xbb147af9	-0.0022656305
145	0x3c990a04	0.018681534
146	0xbcae54a7	-0.0212806
147	0x3cf10b39	0.029424297
148	0xbde54291	-0.11194337
149	0xbda8803d	-0.082275845
150	0x3dad8364	0.084723264
151	0xbdae8000	-0.08520508
152	0xbe11e89f	-0.14248894
153	0x3d2718af	0.040795024
154	0xbcf41823	-0.029796666
155	0x3d692e50	0.056928933
156	0xbcc25a02	-0.02372456
157	0x3c96db80	0.018415213
158	0xbd56ac05	-0.052410144
159	0x3b639812	0.0034728092
160	0x3cf1dcf5	0.029524306
161	0x3d30d55a	0.043172218
162	0xbc27c78f	-0.01024045
163	0xbd83bd61	-0.064326055
164	0x3dc86cea	0.09786399
165	0xbb4182e5	-0.0029527482
166	0x3c81e950	0.015858322
167	0x3ca65f47	0.020309104
168	0xbcdc84a7	-0.026918722
169	0x3c38e19c	0.011284258
170	0x3d120dbf	0.03565764
171	0xbd8fe726	-0.0702651
172	0x3de8d5b4	0.11368886
173	0x3cb68098	0.022278115
174	0x3d803309	0.06259734
175	0x3ce867e2	0.028369848
176	0x3cc7c9b9	0.024388181
177	0xbd8abc74	-0.06774226
178	0x3dae13b4	0.08499852
179	0xbcba0a8e	-0.022710111
180	0xbe3d05d1	-0.1845925
181	0x3db75434	0.08951607
182	0xbd9b8cd0	-0.07595217
183	0x3b818c23	0.003953473
184	0x3d168503	0.036747944
185	0xbd833378	-0.06406301
186	0x3d482fb3	0.048873615
187	0x3c35eddc	0.011104073
188	0x3bfe7218	0.007765066
189	0x3dd50d13	0.10402884
190	0x3d272ed1	0.040816132
191	0x3dc02b9d	0.093833186
192	0x3d43e7ad	0.047828365
193	0x3d41f6c5	0.04735448
194	0xbd2cab6c	-0.04215567
195	0x3d97833c	0.07398078
196	0xbd28ec48	-0.04124096
197	0xbcf24b29	-0.029576855
198	0x3dae573a	0.08512731
199	0xbcdbc219	-0.026825951
200	0x3d9df525	0.07712773
201	0x3beebaba	0.007285443
202	0x3c67bff0	0.014144883
203	0xbdd29e59	-0.10284109
204	0x3d4f022a	0.050539173
205	0x3d8be4ca	0.068307474
206	0xbd83c8ef	-0.064348094
207	0x3d1cffb2	0.038329788
208	0x3d006db7	0.031354632
209	0xbdb10499	-0.08643455
210	0x3dd9bbf5	0.10631553
211	0xbd241e44	-0.040067926
212	0xbdc1a407	-0.09455114
213	0xbd7e1696	-0.06203326
214	0xbd34b27b	-0.044115525
215	0xbd7493ba	-0.059711196
216	0x3c98bfaa	0.01864608
217	0xbd855375	-0.06510059
218	0x3c35f39f	0.011105447
219	0xbba555e3	-0.005045639
220	0xbdba29bf	-0.09089994
221	0xbd37cd65	-0.044873614
222	0x3e3807ad	0.17971678
223	0x3dc9c116	0.09851281
224	0xbd836cbe	-0.06417225
225	0xbc5fedfe	-0.013667582
226	0x3d32d4fa	0.04366014
227	0x3cdcb570	0.026941985
228	0xbdcd350d	-0.10019884
229	0x3d9eb60d	0.07749567
230	0xbd99ea9c	-0.07515451
231	0xbd8b5e55	-0.06805102
232	0xbc811a35	-0.015759567
233	0x3cf0d977	0.02940057
234	0x3c2c16b7	0.0105034625
235	0xbd90c098	-0.07067984
236	0x3e526404	0.20545965
237	0xbd0bccf7	-0.034131017
238	0x3d121116	0.035660826
239	0xbd70c004	-0.05877687
240	0xbcb3f5fc	-0.02196788
241	0x3e1bbd7f	0.15209006
242	0x3c5e98b4	0.013586212
243	0xbd589397	-0.052875128
244	0xbcca8159	-0.02471988
245	0x3c8a2651	0.016863974
246	0xbd0e1285	-0.03468563
247	0xbd1a7a0a	-0.03771404
248	0x3d28f916	0.04125317
249	0xbc22242c	-0.009896319
250	0x3db0aafe	0.08626364
251	0x3d20b30a	0.039233245
252	0xbccd63d2	-0.025072012
253	0xbc332e88	-0.010936387
254	0x3bfd2102	0.007724882
255	0xbb1dc1d7	-0.0024071836

network_body._body_endoder.seq_layers.0.bias f4 [128]
0	0xbb8bd65a	-0.004267496
1	0x3d4c473c	0.049872622
2	0x3ca079af	0.019589273
3	0x3c2fb3f0	0.010724053
4	0x3ca8ece3	0.020620769
5	0x3ac338b9	0.0014894224
6	0xbaaf344d	-0.0013367027
7	0x3d45873f	0.048224684
8	0x3c88235e	0.016618427
9	0x3cc728f7	0.024311526
10	0x3c8b308b	0.01699092
11	0x3ccdfe7e	0.025145765
12	0xbc0abbe8	-0.008467652
13	0x3d0eb266	0.034838103
14	0xbc32cabc	-0.010912593
15	0x3cc51303	0.024056917
16	0xbcd61e07	-0.026137365
17	0x3cbbe14b	0.022934576
18	0x3c6c1a0f	0.01441051
19	0x3d523344	0.051318422
20	0x3c53f730	0.012937352
21	0xbade618e	-0.001696633
22	0x3d2c9043	0.042129766
23	0x3c8f9e87	0.017531646
24	0x3d20c959	0.03925452
25	0x3c01efae	0.007930679
26	0x3ca696df	0.020335613
27	0xbc23be01	-0.009994031
28	0x3c815f6c	0.015792571
29	0x3d02ad16	0.03190335
30	0x3d3728a9	0.04471651
31	0xbca97714	-0.020686664
32	0x3cebd961	0.028790178
33	0x3ace84e2	0.0015756155
34	0x3d05e5d3	0.03268988
35	0xbd116aa2	-0.035502084
36	0x3d18e7ab	0.03733031
37	0x3cc06627	0.02348621
38	0xbc5b8377	-0.013398043
39	0x3be9cdbc	0.007135121
40	0xbc20bb2d	-0.009810251
41	0x3c8a66a6	0.01689465
42	0x3cc03918	0.023464724
43	0x3d0835d0	0.033254445
44	0x3cb38413	0.021913564
45	0x3b45b543	0.0030167855
46	0x3ce516b3	0.027964925
47	0x3c8aa658	0.016925022
48	0x3bffdfee	0.007808677
49	0xbbef4dd2	-0.007302978
50	0x3bb66924	0.005566733
51	0x3c45e94f	0.012079551
52	0x3cbb6859	0.022876905
53	0x3d0294e2	0.031880267
54	0x3d0d0c46	0.034435533
55	0x3ce1cf1e	0.027564581
56	0xbc0e3288	-0.00867904
57	0x3d4ab564	0.049489394
58	0x3c3d55b0	0.011556074
59	0x3c404bc5	0.011736815
60	0x3cd38749	0.025821345
61	0x3c038c1f	0.008029013
62	0x3ce3070e	0.027713325
63	0x3c08575a	0.0083216075
64	0xbae91dbc	-0.0017785351
65	0x3cb2a7aa	0.021808464
66	0x3c462ac5	0.012095158
67	0x3cd27282	0.025689367
68	0x3c2f0f98	0.01068487
69	0xba77d8bb	-0.00094545976
70	0x3cdbd86d	0.026836598
71	0x3bd3fe5c	0.006469531
72	0x3c09d40b	0.008412371
73	0x3d3995d9	0.04530892
74	0x3d1eff0f	0.03881746
75	0x3cb5e426	0.022203516
76	0x3c16a584	0.009194735
77	0xbb9915b7	-0.004671778
78	0x3d5441bb	0.051820498
79	0xbc7b8dc6	-0.015353626
80	0xbc70e832	-0.014703797
81	0x3d0f446b	0.034977358
82	0x3c504aad	0.012713117
83	0x3a26876d	0.00063525775
84	0x3cbcbb9f	0.023038683
85	0x3c53a2b2	0.012917208
86	0x3d44e8e9	0.048073683
87	0x3cee4272	0.029084418
88	0x3d17ec06	0.037090324
89	0x3c9785a3	0.01849634
90	0xbca88f85	-0.020576248
91	0xbccec5f9	-0.025240885
92	0x3cc17e27	0.023619724
93	0xbba6e7ec	-0.005093565
94	0xbc708ca4	-0.014681969
95	0x3c92b189	0.017906921
96	0x3d2d8394	0.04236181
97	0x3c67883d	0.014131603
98	0xbb64e4cd	-0.0034926415
99	0xbc730b9e	-0.014834313
100	0x3be63029	0.007024784
101	0xbb5846cd	-0.0033001185
102	0xbc99201f	-0.018692074
103	0x3cfb3b16	0.030667823
104	0x3ce50d16	0.027960341
105	0x3d59d9f3	0.05318637
106	0x3c12f805	0.008970265
107	0x3b0c0561	0.002136551
108	0xbc4621f6	-0.012093058
109	0x3cfcf524	0.03087861
110	0x3d238c1e	0.039928548
111	0x3d467f30	0.04846114
112	0x3ca68ead	0.020331705
113	0x3abfcbee	0.0014632919
114	0x3d4fe140	0.050751925
115	0x3d37a42e	0.04483431
116	0x3aca0a73	0.0015414491
117	0xbb4e0ac8	-0.0031439532
118	0xbad8c92e	-0.0016539448
119	0x3c080d43	0.008303943
120	0xbc2ce6d0	-0.010553077
121	0x3d1d665e	0.038427703
122	0x3c3614d9	0.011113369
123	0x3c71d211	0.014759556
124	0x3c160ddf	0.009158581
125	0xbaca9747	-0.0015456461
126	0x3b5f537d	0.0034076863
127	0x3cdb81f2	0.026795361

network_body._body_endoder.seq_layers.2.weight f4 [128, 128]
0	0xbe9876fb	-0.29778275
1	0x3db03a5b	0.086048804
2	0x3bb86e9b	0.0056284196
3	0x3ba58632	0.0050513977
4	0x3c994319	0.018708752
5	0xbe59186f	-0.21200727
6	0x3de95aa9	0.11394245
7	0x3cc574e7	0.024103595
8	0x3da74844	0.081680804
9	0x3dc9e20d	0.09857569
10	0xbc668150	-0.014068916
11	0xbd621c4c	-0.055202767
12	0xbe72495c	-0.23660797
13	0xbc4595da	-0.012059653
14	0xbc91304e	-0.017723229
15	0x3dbe92fc	0.09305379
16	0xbb537911	-0.0032268206
17	0x3d37e15f	0.044892665
18	0xbdffece6	-0.12496357
19	0xbe45134b	-0.19245641
20	0xbde3c221	-0.111210115
21	0xbdc1be5d	-0.09460137
22	0x3dbbd8aa	0.09172185
23	0xbc58bb49	-0.013228246
24	0x3c98a39e	0.018632706
25	0xbd9ad46e	-0.07560049
26	0xbbf263f9	-0.0073971716
27	0xbd9c596e	-0.07634245
28	0x3d0be97a	0.034158207
29	0x3db5d119	0.08877773
30	0xbd27d2a3	-0.040972363
31	0x3dfd3921	0.12364412
32	0xbddc9c45	-0.107719935
33	0xbda30eaa	-0.07961781
34	0x3e1cb1ee	0.1530225
35	0xbe2236ed	-0.15841265
36	0x3daf8cd8	0.08571786
37	0x3e1b8cbb	0.15190403
38	0x3d2f8de5	0.04285993
39	0xbe0e4e60	-0.13897085
40	0x3c5ff753	0.0136698065
41	0x3da87466	0.08225326
42	0x3d93e990	0.07222283
43	0xbe02c7f3	-0.12771587
44	0x3ceeb613	0.029139554
45	0xbd7968ce	-0.060890965
46	0x3e84d7ca	0.25945884
47	0xbbb2543f	-0.005442172
48	0x3dbcd341	0.09219981
49	0x3e179328	0.1480223
50	0xbd14caa0	-0.03632605
51	0x3e05e69c	0.13076252
52	0x3e0847f5	0.133087
53	0xbd53764b	-0.051626485
54	0xbd2961ba	-0.041352965
55	0x3dc0dade	0.094167456
56	0xbd0ad07e	-0.03389024
57	0xbd788774	-0.060676053
58	0xbc3aac46	-0.011393612
59	0x3cb745a6	0.022372078
60	0x3e06ade7	0.13152276
61	0xbc8dec56	-0.017324608
62	0x3dc3d9b5	0.09563009
63	0x3cf319a3	0.02967531
64	0x3de505ea	0.11182769
65	0x3dad14a9	0.08451206
66	0x3c61c680	0.013780236
67	0xbdb89343	-0.09012463
68	0xbdace946	-0.08442931
69	0xbca0f291	-0.019646915
70	0xbd1116cb	-0.035422128
71	0x3dbebdbf	0.09313535
72	0x3d967ecb	0.073484026
73	0x3d03d598	0.03218612
74	0x3db01b35	0.08598939
75	0xbdd781d6	-0.10522811
76	0xbe31b38a	-0.17353645
77	0x3db596f9	0.088666864
78	0xbe39af82	-0.18133357
79	0x3cb3cd27	0.02194841
80	0x3de9a203	0.114078544
81	0xbcdc9454	-0.026926197
82	0xbe5dfeeb	-0.21679275
83	0xbcae7b96	-0.021299165
84	0x3be57529	0.007002492
85	0xbda0cf7d	-0.07852075
86	0x3b5f2e8e	0.0034054848
87	0xbdcb33aa	-0.099219635
88	0xbe0299da	-0.12754002
89	0x3ce874c7	0.028375996
90	0x3d4b4122	0.049622662
91	0x3d9f4d83	0.07778456
92	0x3d48bad0	0.049006283
93	0x3cbb7783	0.022884136
94	0xbd0b9896	-0.034081064
95	0xbdfde1e1	-0.123965986
96	0xbda0666c	-0.078320354
97	0x3cc1aa20	0.023640692
98	0xbdf2ec39	-0.11861462
99	0xbcbc0e16	-0.022955935
100	0xbda30369	-0.07959635
101	0xbc8b9dfd	-0.017043108
102	0x3dfa0050	0.12207091
103	0xbdb13db8	-0.0865435
104	0x3df104bb	0.117684804
105	0xbd0aa189	-0.03384546
106	0x3e1a7ebb	0.15087406
107	0xbe4ab88e	-0.19796965
108	0xbd9061e2	-0.0704992
109	0x3d18a3be	0.03726553
110	0x3e2e03bf	0.16993617
111	0x3df342c7	0.11877971
112	0xbc036883	-0.008020523
113	0x3d53a216	0.05166825
114	0x3db76105	0.08954052
115	0x3c3ad90c	0.011404287
116	0x3e0dac94	0.13835365
117	0xbd71b38f	-0.05900913
118	0xbc08495b	-0.008318271
119	0x3d2c8a4a	0.04212407
120	0xbdfeb35a	-0.12436552
121	0xbe8748da	-0.2642277
122	0x3d48b6b5	0.049002368
123	0x3d5f5c0a	0.054531135
124	0xbd1b8bbb	-0.037975054
125	0x3bc12a95	0.0058949688
126	0x3cf1600d	0.029464746
127	0xbd26d2f9	-0.040728543
128	0xbd027163	-0.031846415
129	0xbd4e6847	-0.050392415
130	0xbd0bfab3	-0.034174632
131	0x3db37853	0.087631844
132	0xbd8a03f1	-0.06739033
133	0x3dc29f98	0.09503096
134	0x3d7b2d6e	0.061322622
135	0x3cc3ac8b	0.023885986
136	0x3d667d65	0.05627193
137	0xbc56222d	-0.013069672
138	0x3da0b880	0.078476906
139	0xbd3c4305	-0.045962352
140	0x3cb1b338	0.021691903
141	0x3c360431	0.011109398
142	0xbd626e1b	-0.055280786
143	0x3d3f56d3	0.04671366
144	0x3df0e2c5	0.11762003
145	0x3e13dbac	0.14439267
146	0x3db6255f	0.08893847
147	0x3d80fe8e	0.062985525
148	0x3d004523	0.031315934
149	0xbda99716	-0.082807705
150	0x3de07618	0.109600246
151	0x3d099825	0.033592362
152	0x3de8b968	0.113634884
153	0x3dcd7930	0.1003288
154	0x3be9f68e	0.0071399873
155	0xbce2d088	-0.027687326
156	0xbe1a3b82	-0.15061763
157	0xbe6a7349	-0.2289554
158	0xb917ba98	-0.00014469994
159	0x3d4e2445	0.050327558
160	0xbe0a248f	-0.13490508
161	0xbc9f03f0	-0.019411057
162	0x3e2f2596	0.17104182
163	0xbe24f9ed	-0.16110964
164	0xbd052701	-0.0325079
165	0x3c90f534	0.017695047
166	0x3daa5e35	0.0831875
167	0x3e02ec90	0.12785554
168	0xbd1cf5e5	-0.03832044
169	0xbc81981e	-0.015819605
170	0xbd90bbc2	-0.07067062
171	0xbbbe1f7d	-0.0058020935
172	0xbe0343f4	-0.12818891
173	0x3c3bca41	0.011461795
174	0x3e42c26a	0.19019476
175	0x3d5213d4	0.05128844
176	0x3d34e192	0.044160433
177	0x3e010a16	0.12601504
178	0xbe071569	-0.13191761
179	0xbc53193d	-0.012884435
180	0xbca74e22	-0.020422999
181	0x3deb22d1	0.1148125
182	0x3c63543b	0.013875063
183	0xbe20ccde	-0.1570315
184	0xbe08d28d	-0.13361569
185	0x3d3e83d2	0.046512432
186	0x3e0fedb2	0.14055517
187	0x3e3fb844	0.18722636
188	0x3d971eaf	0.07378899
189	0x3eb3ec70	0.35141325
190	0xbd67a221	-0.056551103
191	0x3ddb21cd	0.10699806
192	0x3da706a5	0.08155564
193	0x3e99c23e	0.30031008
194	0xbdc8ad5a	-0.09798689
195	0x3d3f98f5	0.04677673
196	0xbd223d41	-0.039609198
197	0xbd55a515	-0.052159388
198	0xbd9677f2	-0.073470965
199	0xbd50b523	-0.050953995
200	0xbd005c49	-0.03133801
201	0x3d8c3b72	0.06847276
202	0xbd9af24c	-0.07565746
203	0xbb619f94	-0.0034427391
204	0x3dae5d96	0.08513944
205	0x3e02dd62	0.12779763
206	0xbcc21afe	-0.023694512
207	0x3dd48ccd	0.10378418
208	0x3e257c2e	0.16160652
209	0xbd947c89	-0.07250316
210	0xbdfc0261	-0.12305141
211	0x3c4877fa	0.012235636
212	0x3d511fb3	0.05105562
213	0xbd6fed65	-0.058576006
214	0x3c0e8095	0.0086976485
215	0x3e60efd9	0.21966495
216	0x3de430b4	0.11142102
217	0xbe054efe	-0.13018414
218	0x3d17258b	0.03690104
219	0xbd621242	-0.055193193
220	0xbdc6851b	-0.096933566
221	0x3cdc08d2	0.026859675
222	0xbe21a64c	-0.15786093
223	0xbcb7fc23	-0.022459095
224	0xbc619f68	-0.013770916
225	0xbda02574	-0.078196436
226	0x3ca463b4	0.020067073
227	0x3e2302e8	0.15919077
228	0x3db1f093	0.08688464
229	0x3d75c3e2	0.06000126
230	0x3d150bbf	0.036388155
231	0x3d0b3354	0.033984497
232	0xbd8e9dde	-0.069637045
233	0xbc9ad107	-0.0188985
234	0x3e281bc4	0.16416842
235	0xbdb5cabc	-0.08876559
236	0x3dec95ef	0.11552035
237	0xbd4073cc	-0.046985433
238	0x3d79bedd	0.060973037
239	0xbd958834	-0.07301369
240	0xbe6426d7	-0.22280441
241	0x3c138aa1	0.00900522
242	0x3e035dfe	0.12828824
243	0x3cd709e0	0.026249826
244	0x3d1d628f	0.03842407
245	0xbe495d9a	-0.19664612
246	0x3c2dd389	0.010609516
247	0xbd8abf8b	-0.06774815
248	0x3cef4237	0.029206378
249	0xbe280464	-0.16407925
250	0x3de45f75	0.111510195
251	0xbcef5748	-0.029216424
252	0xbd0792b1	-0.03309888
253	0x3e1b8d99	0.15190734
254	0xbe2dac73	-0.16960315
255	0xbdc8a54d	-0.097971536

network_body._body_endoder.seq_layers.2.bias f4 [128]
0	0x3cc59c20	0.024122298
1	0x3a90d7de	0.0011050662
2	0xbc60d26b	-0.013722043
3	0x3c9c3a88	0.019070879
4	0x3d0db217	0.034593668
5	0xbbf747d9	-0.0075464067
6	0xbc51d1ff	-0.012806415
7	0xbbd8fcb1	-0.00662192
8	0x3cfdce73	0.030982232
9	0x3d1819ed	0.0371341
10	0x3c0baaa1	0.008524568
11	0x3cdd6167	0.027023984
12	0x3c62d698	0.013845108
13	0x3cf484fe	0.029848572
14	0x3d26064c	0.04053335
15	0x3c1c0cd6	0.009524545
16	0x3d610339	0.054934714
17	0x3c8b75fe	0.017024036
18	0xbc311fc0	-0.010810792
19	0x3cc74d08	0.024328724
20	0x3c073a9c	0.00825372
21	0x3d3ddd34	0.046353534
22	0x3c947ef8	0.01812695
23	0xbcd069b0	-0.02544102
24	0x3c663a2d	0.014051956
25	0xbb6a996e	-0.0035797018
26	0x3d3c7ee1	0.04601944
27	0x3c5082d5	0.012726505
28	0x3c294c30	0.010333106
29	0x3c80ebf0	0.015737504
30	0x3cccd347	0.025003089
31	0xbbeaedb8	-0.0071694516
32	0xbc0d4f09	-0.0086248005
33	0x3d18e6c5	0.037329454
34	0xbb6504d9	-0.0034945516
35	0xbc8c12ea	-0.017098863
36	0x3cdae94b	0.02672257
37	0x3c5cabed	0.013468725
38	0xbc20dbe3	-0.00981805
39	0x3a2b9655	0.00065455335
40	0xbcc30839	-0.023807632
41	0x3caebd90	0.021330625
42	0x3c70e3e8	0.014702775
43	0x3d1ea41a	0.03873072
44	0x3d44eb14	0.04807575
45	0x3cc6fcaa	0.024290401
46	0x3ade8557	0.0016976994
47	0x3d09e587	0.03366616
48	0xbc8c3874	-0.017116763
49	0x3d30fb0c	0.043208167
50	0x394fceae	0.00019818053
51	0x3d11f6a8	0.03563562
52	0x3cbd0fb1	0.023078771
53	0xbb09228b	-0.002092513
54	0x3c75d13c	0.015003499
55	0x3bbcafca	0.0057582604
56	0x3d1e9840	0.038719416
57	0x3ca6295c	0.020283394
58	0x3cc99929	0.024609165
59	0x3c45ef08	0.012080915
60	0xbb6b68d4	-0.0035920637
61	0x3bf20dd0	0.0073869005
62	0x3bc5581c	0.0060224663
63	0xbbd432cb	-0.0064757816
64	0xbca8118a	-0.020516176
65	0x3d28bb7c	0.041194424
66	0x3cc7d3e7	0.024393035
67	0x3b263c74	0.0025365623
68	0x3cfa0dfe	0.03052425
69	0x3bab7bfc	0.005233286
70	0x3d0e3f71	0.03472847
71	0xbb25899f	-0.002525903
72	0xbcadb550	-0.02120462
73	0x3ceb071b	0.028689912
74	0xbc5fcb6e	-0.013659341
75	0xbbf4377a	-0.0074529024
76	0x3c6af6e9	0.0143410945
77	0x3d1c1f63	0.03811587
78	0x3d1f8457	0.03894457
79	0x3be6f1c7	0.007047865
80	0x3caf95ba	0.0214337
81	0x3c49c958	0.0123160705
82	0x3b2d234c	0.0026418744
83	0x3c5da359	0.013527715
84	0x3b813879	0.0039434996
85	0xbcf5f637	-0.030024631
86	0x3d1b32da	0.037890293
87	0xbca5fafc	-0.02026128
88	0x3bd324b2	0.0064435834
89	0xbc44aae5	-0.012003635
90	0xbb09d439	-0.0021031036
91	0x3d0ec930	0.034859836
92	0x3cda300a	0.026634235
93	0xbc7d5d5d	-0.015464154
94	0x3c787841	0.0151653895
95	0x3c9e0428	0.019289091
96	0x3c414cb0	0.011798069
97	0x3ce3ab30	0.02779159
98	0x3cca9135	0.024727443
99	0x3bd9d07e	0.0066471687
100	0x3c914a33	0.017735576
101	0x3ce15498	0.027506158
102	0x3c9f9146	0.019478451
103	0x3bc6eaa6	0.0060704527
104	0x3cb748a6	0.022373509
105	0x3c85a0d8	0.016312048
106	0xbb9a0c30	-0.00470116
107	0x3cee74a8	0.02910836
108	0x3ce2674d	0.027637148
109	0x3bee7c89	0.0072780293
110	0x3b7e7c0e	0.0038831267
111	0x3d0e17cc	0.034690663
112	0x3ccb9122	0.024849478
113	0xbc50b9db	-0.012739624
114	0x3c2a9dc2	0.010413589
115	0x3d41f0e2	0.047348864
116	0x3d082e7d	0.03324746
117	0x3cff50f2	0.031166527
118	0xbbea5784	-0.007151546
119	0x3d55cc69	0.052196894
120	0x3b18af72	0.0023297933
121	0x3ce38521	0.027773442
122	0x3c10a71e	0.008828906
123	0xbc372bf3	-0.011179912
124	0x3c854fcb	0.0162734
125	0x3d0b2b7d	0.03397702
126	0x3ce27572	0.027643893
127	0x3cb3402c	0.021881185

action_model._discrete_distribution.branches.0.weight f4 [6, 128]
0	0x3b3df0e0	0.0028982684
1	0xbc40f9ab	-0.0117782755
2	0x3c8a0fe7	0.016853286
3	0xbc6115e3	-0.013738128
4	0xbceec0e6	-0.029144716
5	0xbced9836	-0.029003244
6	0x3bd016da	0.0063503804
7	0x3b22798d	0.0024791688
8	0xbcdc84fa	-0.026918877
9	0xbc166ab2	-0.009180712
10	0x3b32bcf9	0.002727328
11	0xb9c8325b	-0.0003818449
12	0xbb511c87	-0.0031907873
13	0xbd273ba6	-0.04082837
14	0xbd27ed21	-0.040997628
15	0x3d5d1fae	0.05398529
16	0xbc9bdf3e	-0.019027349
17	0xbcb78bd5	-0.022405544
18	0x3c34bd4a	0.011031458
19	0xbc81e8ce	-0.01585808
20	0xbd1b85a5	-0.03796925
21	0xbcc71d80	-0.024306059
22	0x3d00faa0	0.031489015
23	0xbc35904f	-0.011081769
24	0xbd1db82a	-0.03850571
25	0x3cce66c8	0.025195494
26	0xbb92d774	-0.0044812504
27	0x3c73143b	0.014836366
28	0x3b01e2af	0.0019818952
29	0xbb828433	-0.0039830445
30	0xbb382771	-0.002809968
31	0x3c8278e1	0.01592678
32	0xbce4944a	-0.027902741
33	0xbd471717	-0.048606005
34	0xbcb6d246	-0.022317063
35	0xbbfe1b78	-0.0077547394
36	0xbd32ce89	-0.043654
37	0xbd75ae3e	-0.059980623
38	0xbc447e75	-0.01199304
39	0x3c1a19ed	0.009405595
40	0x3c60237f	0.013680338
41	0xbc99746a	-0.018732268
42	0xbb5ebb9c	-0.0033986336
43	0xbca07968	-0.019589141
44	0x3cc16b84	0.023610838
45	0xbd06a8a5	-0.032875676
46	0x3d42f873	0.04760022
47	0xbc8c38c1	-0.017116906
48	0x3c235425	0.009968792
49	0x3c9a887e	0.018863913
50	0x3ca4fa99	0.020139026
51	0xbcb259fd	-0.021771425
52	0xbc993831	-0.018703552
53	0x3c7f3379	0.015576237
54	0xbd28e5e9	-0.041234884
55	0xbc526eed	-0.01284383
56	0xbcebc6a9	-0.028781252
57	0xbc2fe622	-0.01073602
58	0x3d0ef28b	0.034899276
59	0x3cb3a9e4	0.021931596
60	0xbcf48e1c	-0.02985292
61	0x3c86b6be	0.01644456
62	0xbd5517d1	-0.052024666
63	0x3d0079c3	0.03136612
64	0xbbbbbe25	-0.005729454
65	0xbd2ceb2b	-0.04221646
66	0xbba33d6c	-0.0049816873
67	0x3c456baf	0.0120496
68	0xbd4ffe8d	-0.050779868
69	0xbd4200c6	-0.04736402
70	0xbd031659	-0.032003734
71	0x3b378682	0.0028003757
72	0x3cc87e69	0.02447434
73	0xbce62f07	-0.028098596
74	0xbd0c100c	-0.03419499
75	0x3c1ffd32	0.009764956
76	0xbc0d8b2c	-0.008639138
77	0xbce26c57	-0.027639551
78	0x3c6941f9	0.0142369205
79	0xbb46b640	-0.0030321032
80	0x3cf739e5	0.030178973
81	0x3ccc6d6c	0.02495452
82	0xbc0e4342	-0.008683028
83	0xbd0e4428	-0.034732968
84	0x3a21edc4	0.00061770924
85	0x3caa1b51	0.020764979
86	0xbcfc29e1	-0.030781688
87	0x3c0dbff2	0.00865172
88	0xbc125fe2	-0.008933993
89	0x3cb97994	0.02264098
90	0xbccf1ce5	-0.025282333
91	0x3cc1e560	0.023668945
92	0xbd4da7d9	-0.0502089
93	0xbcbeac04	-0.023275383
94	0xbc71e724	-0.014764581
95	0xbd27a43d	-0.040928114
96	0xbb0269c5	-0.001989947
97	0x3bdda505	0.0067640566
98	0xbd227340	-0.039660692
99	0xbd28cc71	-0.041210596
100	0xbd188be0	-0.03724277
101	0xbcaaf7c2	-0.020870093
102	0xbd2ac386	-0.041690372
103	0xbd4ab7a6	-0.049491547
104	0xbd41cf5b	-0.04731689
105	0xbcc44aee	-0.02396151
106	0x3c36d88f	0.01116003
107	0x3c8a9559	0.016916918
108	0xbd3feb03	-0.046854984
109	0xbc8a1d37	-0.016859634
110	0x3c9dc5c3	0.01925934
111	0x3caa6745	0.020801196
112	0xbc761f9e	-0.015022187
113	0xbbb89b81	-0.005633772
114	0xbd2f90f8	-0.042862862
115	0xbd386b4b	-0.045024198
116	0xbc9ded1d	-0.019278103
117	0xbd1c399d	-0.03814088
118	0x3d12d567	0.035848048
119	0xbd0cab2b	-0.034342926
120	0x3ce3b5d3	0.027796661
121	0x3c001466	0.007817363
122	0xba7f6e68	-0.000974393
123	0x3cbe07a7	0.023197008
124	0xbcb6d765	-0.022319505
125	0xb9c2b0b5	-0.0003713422
126	0xbc52b0b6	-0.012859514
127	0xbcdf45db	-0.02725499
128	0xbd120126	-0.035645626
129	0xbd5bc583	-0.05365516
130	0x3cff5803	0.031169897
131	0x3cc4785a	0.02398317
132	0xbbb7e36c	-0.0056118276
133	0x3c0925c1	0.008370818
134	0x3d6c194b	0.05764131
135	0xbc1ba4a4	-0.009499703
136	0xbd76aec3	-0.06022526
137	0xbcbe2418	-0.02321057
138	0xbcf12f17	-0.0294414
139	0xbbfb3a9b	-0.0076668984
140	0x3d898a1f	0.06715798
141	0xbcae15e9	-0.021250682
142	0xbd0c2d16	-0.034222685
143	0x3d34889f	0.044075605
144	0x3d09d58a	0.033650912
145	0xbd00594a	-0.031335153
146	0xbc281a51	-0.010260181
147	0xbd5e4ca5	-0.054272313
148	0xbcc7d3e5	-0.024393031
149	0xbc03ad18	-0.008036874
150	0xbc7d8157	-0.015472732
151	0xbb906731	-0.0044068326
152	0xbd509ab0	-0.05092877
153	0x3d9c2b08	0.07625395
154	0x3d1cd690	0.03829056
155	0x3cf91d66	0.030409526
156	0x3cca33db	0.02468293
157	0xbcb9ca9c	-0.02267962
158	0x3d07d6e8	0.033163935
159	0x3b1d2fab	0.002398471
160	0x3bbdaa56	0.005788128
161	0xbcbb8bf0	-0.022893876
162	0xbcfe2125	-0.031021664
163	0xbba8e5a6	-0.0051543294
164	0xbbd5f617	-0.0065295803
165	0xbd54ae5e	-0.051924102
166	0xbd35e8d7	-0.044411507
167	0xbd8bc0ed	-0.06823907
168	0xbcb6b2cf	-0.02230206
169	0xbd859a87	-0.065236144
170	0x3d8e296c	0.06941494
171	0xbc193a98	-0.009352349
172	0x3caff8b1	0.02148089
173	0xbd7ee1ed	-0.06222718
174	0x3d15da67	0.036585238
175	0xbdae9d16	-0.085260555
176	0x3d12e462	0.035862334
177	0x3d179e0d	0.037015963
178	0xbca36588	-0.019945875
179	0x3ceb778a	0.028743524
180	0xbd1f6963	-0.038918864
181	0x39636a43	0.00021687993
182	0x3b1ea576	0.002420751
183	0xbc959801	-0.018260958
184	0xbd552639	-0.052038405
185	0xbd65c976	-0.05610033
186	0x3d6bb5d1	0.05754644
187	0x3da8090a	0.08204849
188	0xbd26f9c0	-0.040765524
189	0xbada3dcc	-0.0016650497
190	0xbcdd47bb	-0.027011743
191	0x3cc42c4d	0.023946906
192	0x3be02446	0.0068402616
193	0x3ca5cc10	0.020238906
194	0x3d7efb49	0.062251363
195	0x3d89f15c	0.06735489
196	0xbd764eaf	-0.060133632
197	0xbd42fe98	-0.04760608
198	0x3c68ce18	0.014209293
199	0x3c7f5b1d	0.015585688
200	0x3cf6231b	0.030046036
201	0x3d082e11	0.033247057
202	0xbc85ad4d	-0.016317988
203	0x3d5bb17d	0.053636063
204	0xbd91a8eb	-0.07112297
205	0xbd14f9ec	-0.036371157
206	0x3d43a453	0.047764134
207	0xbd387e6f	-0.04504245
208	0x3d9ede7d	0.0775728
209	0x3d9ae457	0.075630836
210	0xbd36b1b2	-0.044603057
211	0xbd537c53	-0.051632237
212	0xbd911a3d	-0.07085083
213	0xbbbe1116	-0.0058003766
214	0xbd09160f	-0.033468302
215	0xbc9b3f16	-0.01895098
216	0xbd471649	-0.048605237
217	0x3c167085	0.0091821
218	0xbd181395	-0.03712805
219	0x3cbda26a	0.023148734
220	0xbd010378	-0.03149745
221	0xbc778bf9	-0.015109056
222	0xbd6f0df5	-0.05836292
223	0xbd815fca	-0.063170984
224	0xbd18714d	-0.037217427
225	0x3d920c57	0.0713126
226	0xbd808a73	-0.06276407
227	0xbcbd44cc	-0.023104094
228	0xbd36929d	-0.044573415
229	0xbd845e24	-0.064632684
230	0xbcc040ae	-0.023468342
231	0x3b9297e5	0.0044736736
232	0xbd9cd7af	-0.07658326
233	0xbd58ae8a	-0.05290083
234	0x3db7524c	0.08951244
235	0x3cfbcc96	0.030737203
236	0xbd8ea7e6	-0.06965618
237	0xbd9761d4	-0.07391706
238	0x3a24d9a2	0.00062885333
239	0x3d173505	0.036915798
240	0x3d41b9ad	0.047296215
241	0xbc117d71	-0.008880005
242	0xbc2a5a03	-0.010397437
243	0xbd24efa6	-0.04026761
244	0xbcb48a86	-0.02203871
245	0xbd2901e2	-0.04126156
246	0xbd128e8d	-0.03578048
247	0xbd10cbb3	-0.035350513
248	0x3d67f6d6	0.056631885
249	0x3d8c7291	0.06857789
250	0xbda35d5e	-0.07976793
251	0xbbc04eae	-0.0058687543
252	0xbd15537b	-0.036456566
253	0x3d47f18c	0.04881434
254	0x3cadc821	0.021213593
255	0xbc683905	-0.014173751

action_model._discrete_distribution.branches.0.bias f4 [6]
0	0xbc49b061	-0.012310118
1	0xbbac1762	-0.005251811
2	0x3c2c77a9	0.010526576
3	0x3cfca13a	0.030838598
4	0xbcb52809	-0.022113817
5	0xbbc07b0d	-0.005874044
