Assets/Basic Example/Brain/MoveToGoal.onnx (onnx, 72461 bytes, 7 tensors)

action_model._continuous_distribution.log_sigma f4 [1, 2]
0	0xbd9cc70c	-0.07655153
1	0xbd8e2b54	-0.06941858

action_model._continuous_distribution.mu.bias f4 [2]
0	0x3cc90e45	0.024542937
1	0x3c0cd08c	0.008594643

action_model._continuous_distribution.mu.weight f4 [2, 128]
0	0xbc1e7e72	-0.009673702
1	0x3bc274d7	0.0059343386
2	0xbd679726	-0.05654063
3	0x3d160e57	0.03663477
4	0x3cc5eb66	0.024160098
5	0xbd63dd0b	-0.055630725
6	0xbc781fb8	-0.015144281
7	0xbb821bea	-0.003970613
8	0xbc7161b2	-0.014732765
9	0xbd40bbe5	-0.04705419
10	0x3d383de0	0.044980884
11	0xbc0dce9a	-0.008655215
12	0xbc27f19b	-0.010250474
13	0x3d5a55b8	0.053304404
14	0xbd3aa620	-0.045568585
15	0x3c0ff333	0.008786011
16	0x3ca88b6e	0.020574298
17	0xbc2a1151	-0.010380105
18	0xbd1abf04	-0.037779823
19	0xbc84b5d9	-0.016199993
20	0xbcc10612	-0.023562465
21	0xbcb3d9d8	-0.021954462
22	0xbd1ea229	-0.038728867
23	0xbcba84dc	-0.02276843
24	0x3cf35ae9	0.029706435
25	0x3c1370bb	0.008999045
26	0xbcde66da	-0.027148653
27	0xbca9e587	-0.02073933
28	0xbd3d3b8e	-0.046199374
29	0x3c5dc8a0	0.013536602
30	0xbdbb3591	-0.09141076
31	0xbc8d2015	-0.017227212
32	0x3c2a5e24	0.010398421
33	0x3bf0c8d5	0.00734816
34	0x3c65fa0f	0.014036669
35	0x3cc7246a	0.024309356
36	0xbacde837	-0.0015709464
37	0x3ca20398	0.019777104
38	0xbb359419	-0.0027706681
39	0x3d02f4c1	0.031971697
40	0xbc95bb78	-0.018277869
41	0x3c94028f	0.018067626
42	0xbd67a51d	-0.05655395
43	0x3b80b2f3	0.0039275824
44	0x3d1d064c	0.038336083
45	0x3d0e884b	0.034797948
46	0x3ceb2126	0.02870233
47	0xbca56594	-0.020190038
48	0xbce2c2ac	-0.027680717
49	0x3cbb55b9	0.022868024
50	0xbb250953	-0.002518256
51	0x3ca6e7e6	0.02037425
52	0x3d058260	0.03259504
53	0xbd0f8e32	-0.035047717
54	0x3aaff47c	0.0013424302
55	0x3b81054c	0.003937399
56	0x3c9f7e17	0.019469304
57	0xbc096644	-0.008386198
58	0xbd34b4ac	-0.044117615
59	0x3c1c0f2a	0.0095251
60	0xbb89f125	-0.004209655
61	0xbc6d2c8d	-0.014475954
62	0x3ba6ebf7	0.005094047
63	0xbd44f9d7	-0.04808983
64	0x3c628443	0.013825479
65	0x3b440ede	0.0029916088
66	0x3c433342	0.011914076
67	0x3bc4a491	0.006001063
68	0x3d19cba0	0.037547708
69	0xbceec35f	-0.029145895
70	0xbd02d1bc	-0.0319383
71	0x3d848105	0.06469921
72	0xbbc58b7a	-0.00602859
73	0xbd83d8ae	-0.06437813
74	0xbc057842	-0.0081463475
75	0x3c6161c4	0.013756219
76	0xba99d72f	-0.0011737103
77	0x3ce7902f	0.028266994
78	0x3cc9a494	0.02461461
79	0x3d197c5b	0.03747211
80	0xbc83cb43	-0.016088134
81	0xbc99b14e	-0.018761303
82	0xbc2b3dad	-0.010451716
83	0xbd145139	-0.036210272
84	0xbcc7c08e	-0.02438381
85	0x3dafc72c	0.08582911
86	0x3c11f507	0.008908517
87	0x3c083f7a	0.008315915
88	0x3c8d9c5d	0.017286474
89	0xbbe3f2fa	-0.0069564553
90	0x3b0c6f23	0.0021428547
91	0x3c51d1b8	0.0128063485
92	0x3c1a9516	0.009434959
93	0xbd17a43c	-0.03702186
94	0xbd057da9	-0.032590542
95	0x3d30d1ff	0.043169018
96	0xbd0da8bd	-0.03458475
97	0x3d58364f	0.052786168
98	0x3d4b6894	0.04966028
99	0xbccccc1d	-0.024999673
100	0xba3e7f81	-0.00072669244
101	0x3d099925	0.033593316
102	0x3bb9b34f	0.005667127
103	0x3d0d29f9	0.034463856
104	0x3c74bb40	0.014937222
105	0xbc67b10a	-0.0141413305
106	0x3b8d736f	0.0043167393
107	0x3c8798f4	0.016552426
108	0x3ce88e8a	0.02838828
109	0xbb68b5dc	-0.0035508787
110	0xbce343cb	-0.027742287
111	0x3c546ebe	0.012965856
112	0x3cc8fe4a	0.024535317
113	0xbd2f1102	-0.04274083
114	0x3ba844d4	0.005135158
115	0x3c9a4fe6	0.018836927
116	0x3d2eb7e6	0.042655848
117	0x3d1299ce	0.03579121
118	0x3cdd8208	0.027039543
119	0x3bf31165	0.007417845
120	0xbd524a5a	-0.05134044
121	0x3cff2ad6	0.031148355
122	0x3d1574ce	0.036488347
123	0x3af6acc9	0.0018819805
124	0xbd52d457	-0.051472034
125	0x3d90440c	0.07044229
126	0xbd962a98	-0.07332343
127	0x3cc92b4f	0.024556784
128	0xbd5d5316	-0.054034315
129	0x3cedb956	0.02901904
130	0xbd02d47b	-0.03194092
131	0xbb6e9933	-0.0036407232
132	0x3d4fd1f3	0.050737333
133	0x3d0e0364	0.034671202
134	0x3cf9c705	0.030490408
135	0x3d27c03a	0.040954806
136	0xbc7e04ab	-0.015504043
137	0xbd502281	-0.050814155
138	0x3b7bc83e	0.0038418914
139	0x3cf4c7e0	0.029880464
140	0x3cb89272	0.022530768
141	0xbc56394f	-0.013075187
142	0xbb8a430c	-0.0042194184
143	0x36d7375e	6.413945e-06
144	0xbd715d9d	-0.058927167
145	0xbcf87f03	-0.030334001
146	0xbc81cf68	-0.01584597
147	0xbc3b6294	-0.011437077
148	0xbcae8d01	-0.02130747
149	0x3d10a0e7	0.0353097
150	0xbd0d88ac	-0.03455417
151	0x3c8100a6	0.01574738
152	0x3c2af86e	0.010435207
153	0xbb905264	-0.004404353
154	0xbc54454f	-0.012955978
155	0x3c207e28	0.009795703
156	0x3ba6e68b	0.005093401
157	0x3d1531f8	0.036424607
158	0xbd02cc8c	-0.031933352
159	0xbd013803	-0.031547558
160	0x3d2fd2e3	0.042925727
161	0xbcc630ea	-0.024193246
162	0x3af3793f	0.0018575563
163	0x3a0e5e60	0.0005430933
164	0x3d69cdc0	0.057080984
165	0xbd06f658	-0.032949775
166	0xbd27cb0b	-0.04096512
167	0x3d0197f8	0.03163907
168	0x3a936237	0.001124448
169	0x3b906964	0.004407095
170	0xbd4746bc	-0.048651442
171	0x3ad7b286	0.0016456402
172	0xbd444db0	-0.04792565
173	0xbd42777c	-0.04747723
174	0xbc6293f7	-0.013829223
175	0xbd375b35	-0.044764716
176	0xb99e9513	-0.00030247177
177	0x3c2b0104	0.010437254
178	0x3bbe9076	0.005815561
179	0xbd6a44ef	-0.057194646
180	0x3b9f2890	0.0048571303
181	0xbc92652d	-0.01787051
182	0xbd1495a5	-0.036275525
183	0x3d73b359	0.05949721
184	0x3aa6c706	0.0012724109
185	0xbd90c388	-0.070685446
186	0xbc47f9d6	-0.012205562
187	0xbc5d539c	-0.013508704
188	0x3d553e5f	0.052061435
189	0x3c01b077	0.007915608
190	0x3cae3c29	0.021268921
191	0x3ccaa079	0.024734722
192	0x3d0c818c	0.034303233
193	0xbc2db591	-0.010602371
194	0xbce586fb	-0.028018465
195	0x3cc8ee38	0.024527654
196	0x3c89c696	0.016818326
197	0xbc8e753b	-0.017389884
198	0xbc95da70	-0.018292636
199	0x3b9a43cf	0.0047077904
200	0x3b0719f9	0.0020614846
201	0xbb818ca9	-0.0039535356
202	0x3bd14b97	0.006387185
203	0xbd518fe7	-0.051162627
204	0xbcc2ae2d	-0.023764694
205	0xbc5089ca	-0.012728164
206	0xbca912f6	-0.020638924
207	0x3d274caa	0.040844597
208	0xbb85b384	-0.004080238
209	0xbae6406f	-0.001756681
210	0xbd8c6ed0	-0.06857073
211	0xbc1f65dc	-0.009728875
212	0x3d00b611	0.031423632
213	0xbcb0a787	-0.021564258
214	0xba8a0cb8	-0.0010532355
215	0x3d38c0af	0.045105632
216	0x3d1817a1	0.03713191
217	0x3bfb3dc8	0.007667277
218	0x3c8b7344	0.017022736
219	0x3bebe396	0.007198761
220	0x3c0a7248	0.008450098
221	0xbbb0e653	-0.0053985505
222	0x3c225c5e	0.009909717
223	0x3bafcdd5	0.0053651133
224	0xbd3def55	-0.046370823
225	0xbb977d79	-0.004623112
226	0xbb41dfd2	-0.002958287
227	0xbd1ee350	-0.038791
228	0x3ce88084	0.028381594
229	0x3c17c385	0.009262924
230	0xbd13ebc5	-0.03611352
231	0x3b98cea7	0.0046633068
232	0x39b765c7	0.0003498031
233	0xbbf0d2b3	-0.007349336
234	0xbd448561	-0.047978763
235	0xbc87dfe4	-0.016586252
236	0x3cb7123e	0.022347566
237	0x3cfa197a	0.030529726
238	0x3b30e458	0.0026991572
239	0x3c228ca2	0.009921225
240	0x3cfd1835	0.030895332
241	0x3d8afb4f	0.067862146
242	0x3a3f6c66	0.00073022244
243	0xbc76882e	-0.015047116
244	0x3aa2b3a2	0.0012413154
245	0xbd06e486	-0.03293278
246	0xbc8593b1	-0.016305776
247	0x3b20245c	0.0024435734
248	0xbbb7dfd1	-0.005611398
249	0xbb08d8f8	-0.0020881277
250	0xbce94d65	-0.028479287
251	0x3c2284e5	0.00991938
252	0xbc3a78dd	-0.011381355
253	0xbc1e56aa	-0.009664217
254	0xbd1285b2	-0.035772033
255	0x3a9bb5a5	0.0011879696

network_body._body_endoder.seq_layers.0.bias f4 [128]
0	0x3ba230b3	0.004949653
1	0x3844e244	4.6940768e-05
2	0x3cf8f49b	0.030390074
3	0x3a924945	0.0011160752
4	0xbca77bd5	-0.02044479
5	0x3c1749f1	0.009233938
6	0xbbc45e45	-0.005992683
7	0xbb821142	-0.0039693424
8	0x3c143fea	0.009048441
9	0xbc4191ad	-0.011814517
10	0xbb811625	-0.0039394074
11	0x3ca483f0	0.020082444
12	0x3d0a0bf9	0.033702824
13	0xbcee0ac9	-0.029057877
14	0x3bb991c4	0.0056631286
15	0xbd08be9f	-0.033384915
16	0x3cb5c8c1	0.022190453
17	0xbca2869d	-0.01983958
18	0xbce6c978	-0.02817224
19	0x3b9e2c1b	0.004827035
20	0xbac6cd45	-0.0015167376
21	0xbb4357eb	-0.0029807042
22	0x3c6ffde7	0.014647937
23	0xbccd46b5	-0.02505813
24	0x3b950f3d	0.0045489357
25	0xbafbe71e	-0.0019218659
26	0x3c592fc7	0.01325602
27	0x3bd14c0f	0.0063872407
28	0x3c288691	0.010285989
29	0xbca396d1	-0.019969376
30	0x3c2fd6b3	0.010732341
31	0x3cb2da1b	0.021832516
32	0xbc102260	-0.008797258
33	0x3d4b4b9c	0.049632654
34	0x3c71de5c	0.014762487
35	0x3a9ee72b	0.0012123337
36	0xb9db9c49	-0.00041887377
37	0x3cd6cdfa	0.026221264
38	0xbbece085	-0.0072289133
39	0xbc60062f	-0.013673349
40	0xbc4aa534	-0.012368489
41	0x3c0d0ea6	0.0086094495
42	0x3d45b8ac	0.04827182
43	0x3c0e8f08	0.0087010935
44	0x3c2c6653	0.010522443
45	0xbcf3d8fb	-0.02976655
46	0xbc167573	-0.0091832755
47	0x3ba655e0	0.005076155
48	0x3daeee01	0.085414894
49	0x3d11a306	0.035555862
50	0xbd296422	-0.04135526
51	0x3cdb2da7	0.026755167
52	0x3d5f538d	0.05452304
53	0x3bdf9e37	0.0068242806
54	0xbc15e03d	-0.009147701
55	0x3cbe70ab	0.023247084
56	0x3cecae2f	0.028891651
57	0x3c58d8d7	0.013235292
58	0xbcbb4064	-0.022857852
59	0x3c99da13	0.018780744
60	0xbc2db9ec	-0.010603409
61	0x3bb1ab4e	0.0054220324
62	0x3cb17486	0.021662008
63	0xbcedb01c	-0.02901464
64	0xbc75cc26	-0.015002286
65	0xbc289c06	-0.010291105
66	0x3cc22214	0.02369789
67	0x3ca958ff	0.02067232
68	0xbc8374b8	-0.016046867
69	0xbc877aab	-0.016537985
70	0xbbf4d624	-0.0074718166
71	0x3b1e54dd	0.002415947
72	0xbc103d64	-0.008803699
73	0xbcf8d8d3	-0.030376827
74	0x3c5922b2	0.013252901
75	0xbba6453f	-0.0050741727
76	0x3b0d6292	0.0021573645
77	0xbbfac9ac	-0.0076534357
78	0x3ca3f3c9	0.020013707
79	0xbc7d63a0	-0.015465647
80	0xbc2f347c	-0.010693666
81	0xb988c8af	-0.00026089462
82	0x3c0fe595	0.008782764
83	0x3cecb140	0.028893113
84	0xbb090f85	-0.0020913791
85	0x3b0b5d33	0.0021265268
86	0x3c7d51bc	0.0154613815
87	0x3c910883	0.017704254
88	0x3c03ae94	0.008037228
89	0xbccf537b	-0.025308361
90	0x3b6756ca	0.0035299533
91	0xbc8e0f2f	-0.017341224
92	0x3c5d92bd	0.013523755
93	0x3cbdbdee	0.023161855
94	0x3c9ea386	0.019365083
95	0x3d0104e7	0.031498816
96	0x3d12a71b	0.035803895
97	0xbd0a94b1	-0.03383321
98	0x3d380b46	0.044932626
99	0xbc9bf62c	-0.019038282
100	0x3d2d2080	0.042267323
101	0xbc41eeb5	-0.011836697
102	0x3d87b233	0.06625786
103	0x3ca94cad	0.020666445
104	0xbcb5de02	-0.022200588
105	0xbc64e1e0	-0.013969868
106	0x3ce37cc1	0.027769448
107	0xbc4972ea	-0.012295464
108	0x3d5b81ce	0.05359059
109	0xbcf0b897	-0.029384894
110	0xbcd87076	-0.026420813
111	0x3ca4a46a	0.02009793
112	0x3d213bf1	0.039363805
113	0x3ca1744a	0.019708771
114	0x3c17a4fb	0.009255643
115	0x3c6736df	0.014112203
116	0x3cc33c20	0.02383238
117	0xbc829430	-0.015939802
118	0x3cbfbdae	0.023405876
119	0x3d22e2cf	0.039767083
120	0x3ce6fdb8	0.028197154
121	0x3d33e79e	0.04392206
122	0x3c2bd357	0.010487399
123	0xbca66ff1	-0.02031705
124	0xba245427	-0.0006268643
125	0x3cca0bab	0.024663767
126	0xba39a7ed	-0.0007082213
127	0xbca36257	-0.019944353

network_body._body_endoder.seq_layers.0.weight f4 [128, 6]
0	0xbd9ed837	-0.077560835
1	0xbc9c478a	-0.019077081
2	0xbe9af359	-0.30263785
3	0x3dce552b	0.10074838
4	0x3d4838e0	0.048882365
5	0xbe6f71e6	-0.23383293
6	0xbef020c1	-0.4689999
7	0xbf2c2896	-0.6724943
8	0x3f0a2783	0.5396654
9	0xbee2b556	-0.44278973
10	0xbf012afc	-0.50456214
11	0x3f10dad4	0.56583905
12	0xbe8bf3fb	-0.2733458
13	0x3f24ad44	0.6432688
14	0x3f02f7d1	0.5115939
15	0xbf6fa9fe	-0.9361876
16	0xbf09b33d	-0.5378912
17	0xbeb4300d	-0.3519291
18	0x3e88a352	0.26687104
19	0x3e21c169	0.15796436
20	0xbe816c4b	-0.25277933
21	0xbeadbc2a	-0.3393262
22	0x3eeb8861	0.46002486
23	0xbc459333	-0.012059021
24	0xbe911a3b	-0.28340325
25	0x3e5f805a	0.21826306
26	0xbeb81339	-0.35952166
27	0xbc86dcc1	-0.016462686
28	0x3f196f98	0.59935904
29	0x3f1627b6	0.58654344
30	0x3e97b1da	0.29627877
31	0xbe910bda	-0.28329355
32	0xbec23d1d	-0.3793725
33	0x3e98ce61	0.29844955
34	0x3bdc2c06	0.006719115
35	0x3def5c30	0.11687505
36	0x3d9a32bf	0.0752921
37	0x3e39bf97	0.18139492
38	0xbe7b8636	-0.24562916
39	0x3dbb9750	0.0915972
40	0x3f0bc0cd	0.54591066
41	0x3dc45abf	0.09587621
42	0x3edc078b	0.42974505
43	0xbe424421	-0.18971302
44	0x3d2f8e66	0.04286041
45	0x3f5fc525	0.87410194
46	0x3e5d0d1e	0.21587035
47	0x3f15212e	0.58253753
48	0x3f2d7769	0.6776033
49	0xbe851ca6	-0.2599842
50	0x3ab712a1	0.0013967344
51	0xbe8efc52	-0.2792688
52	0xbec413ab	-0.38296255
53	0x3f0b68bc	0.54456687
54	0x3c254f2f	0.01008968
55	0xbd6ca7ef	-0.05777734
56	0xbd9109df	-0.07081961
57	0xbca17ca3	-0.019712752
58	0x3f03506d	0.51294595
59	0x3e4be235	0.1991051
60	0xbee7b2c1	-0.45253566
61	0xbeb2eb3e	-0.349451
62	0xbf7b8be7	-0.9826035
63	0xbe32a0b0	-0.1744411
64	0xbef0b828	-0.470155
65	0x3e2e5d9b	0.17027895
66	0x3f301bb2	0.6879226
67	0xbf29a050	-0.6626024
68	0x3e00bb84	0.12571532
69	0x3f052453	0.5200855
70	0xbd17bcda	-0.037045337
71	0xbd7a58d0	-0.061119854
72	0x3ea7b70e	0.32756847
73	0x3e511e2b	0.20421664
74	0xbea41f9e	-0.32055372
75	0x3efec761	0.4976149
76	0xbf5eaabc	-0.8697927
77	0x3ea6f138	0.3260591
78	0xbe5c95a4	-0.21541458
79	0xbf14e58a	-0.5816275
80	0x3ebe4342	0.3716069
81	0xbda071aa	-0.0783418
82	0x3e5c3da3	0.21507888
83	0xbf44ff44	-0.76952004
84	0xbe824017	-0.25439522
85	0xbf12a399	-0.5728088
86	0xbe7a092d	-0.24417563
87	0x3ea17a01	0.31538394
88	0x3e78e2de	0.24305293
89	0xbf48e666	-0.7847656
90	0x3d3fe9a5	0.04685368
91	0x3dfeeb7d	0.124472596
92	0xbece78e8	-0.4032662
93	0xbe37a234	-0.1793297
94	0x3cb253f5	0.02176855
95	0xbd5cc092	-0.053894587
96	0x3e41b6d3	0.18917398
97	0xbf071d62	-0.5277921
98	0xbeab8481	-0.3349953
99	0xbea2ba73	-0.31782874
100	0xbf26a204	-0.65090966
101	0xbebcd1e8	-0.36878896
102	0x3f028708	0.5098729
103	0xbbc287e0	-0.0059366077
104	0x3e27d86d	0.16391154
105	0xbdd7d0d3	-0.10537877
106	0x3e5bac65	0.21452482
107	0xbdcb05db	-0.09913226
108	0x3e7ec10d	0.2487833
109	0xbe895590	-0.26823092
110	0xbec7d5bf	-0.39030263
111	0xbee7d321	-0.45278266
112	0xbf9d1971	-1.2273389
113	0x3d893f3c	0.06701514
114	0xbe86a931	-0.26300958
115	0x3ee791a8	0.45228314
116	0x3ee39622	0.4445048
117	0x3de99f07	0.11407285
118	0xbe9778ac	-0.29584253
119	0xbe6f5f3e	-0.23376176
120	0xbe72cb35	-0.2371033
121	0xbdedddfe	-0.11614607
122	0xbc6bd9d5	-0.014395197
123	0x3e022e35	0.12712939
124	0x3e25ccca	0.16191402
125	0x3f232f3b	0.6374394
126	0xbf0cfc3e	-0.5507239
127	0x3e728cd9	0.23686542
128	0xbe8985ad	-0.268598
129	0xbee259b1	-0.44209054
130	0xbe65cb0d	-0.22440739
131	0xbcc8ae8f	-0.024497299
132	0xbd3a547a	-0.04549072
133	0x3f5a747b	0.85333985
134	0x3cc756fc	0.02433347
135	0x3ea03d16	0.31296605
136	0xbcc2edd1	-0.02379504
137	0x3eca3339	0.39492205
138	0xbed0bdf3	-0.4076992
139	0x3f576da7	0.8415169
140	0x3e7df658	0.24801004
141	0xbea563dd	-0.32302752
142	0x3f6f691d	0.93519765
143	0x3e85201f	0.2600107
144	0xbe06a9f7	-0.13150774
145	0xbf254665	-0.6456054
146	0x3f893285	1.0718542
147	0xbe43bf55	-0.19115956
148	0x3f0b504c	0.544194
149	0xbddec58e	-0.10877524
150	0x3edb2041	0.42798045
151	0x3f4eb2cb	0.80741566
152	0xbf18e1e5	-0.5971969
153	0x3ea25c94	0.31711257
154	0xbf24f055	-0.6442922
155	0x3db2b7e9	0.08726484
156	0xbf00ed7d	-0.5036238
157	0x3d82cfe0	0.06387305
158	0xbbc6ee22	-0.006070868
159	0x3df02faf	0.11727845
160	0x3e6515c8	0.2237159
161	0x3dc7d242	0.097569
162	0x3e9fda11	0.3122106
163	0x3e4459a1	0.19174816
164	0xbf0cab13	-0.5494854
165	0xbeb1b41c	-0.34707725
166	0xbed0a36f	-0.4074969
167	0xbec458b4	-0.38348925
168	0xbf32ccbc	-0.6984365
169	0xbec75b48	-0.3893683
170	0xbf0dd9c1	-0.5541039
171	0x3d4bdf94	0.049773768
172	0xbe0a7664	-0.13521725
173	0xbf893761	-1.0720025
174	0x3e963ce2	0.29343325
175	0x3f11202d	0.5668972
176	0x3f2851d1	0.6574984
177	0x3e434722	0.19070104
178	0xbdaba19b	-0.08380433
179	0xbe440908	-0.1914407
180	0xbf27b7de	-0.65514934
181	0x3f292def	0.66085714
182	0xbec5cb31	-0.38631585
183	0xbf441f25	-0.7661002
184	0xbec5cfd9	-0.38635138
185	0x3ed04b1d	0.40682307
186	0x3edfe8c0	0.43732262
187	0x3e947dcd	0.29002228
188	0x3e5c68ee	0.21524402
189	0x3db6bbb5	0.08922521
190	0xbf1f7573	-0.6228859
191	0x3da7a0f1	0.08184994
192	0xbea4235f	-0.32058236
193	0xbe65c311	-0.22437693
194	0xbf47e62e	-0.780856
195	0xbf0b3f2f	-0.54393286
196	0xbf4e0704	-0.80479455
197	0xbe1e842e	-0.1548011
198	0x3eada93b	0.33918175
199	0xbe505096	-0.20343241
200	0x3d98d62c	0.07462725
201	0x3edaea2e	0.4275679
202	0x3cd09163	0.02545995
203	0xbf3ac354	-0.729543
204	0xbeb4e73a	-0.35332662
205	0xbdbeef68	-0.09323007
206	0x3e98e223	0.2986003
207	0x3e8aa200	0.2707672
208	0x3ec2a62f	0.38017413
209	0x3e07a0b2	0.13244894
210	0xbf0f760c	-0.560395
211	0xbea36560	-0.3191328
212	0xbe714dd0	-0.2356484
213	0xbcfd09f2	-0.030888531
214	0x3e621cdd	0.22081323
215	0x3dba3595	0.09092251
216	0xbd91a797	-0.07112043
217	0x3e9a38d8	0.30121493
218	0xbee91e15	-0.45530763
219	0x3e1afbf4	0.15135175
220	0x3f405ebb	0.7514455
221	0x3daf6af2	0.0856532
222	0x3f30a6ab	0.69004315
223	0xbf6214f0	-0.883132
224	0xbc88e567	-0.01671095
225	0x3d1bcc88	0.038036853
226	0xbda0f985	-0.07860092
227	0xbdffff55	-0.124998726
228	0x3f65afba	0.8972126
229	0x3e55f0db	0.2089266
230	0x3eeee589	0.46659496
231	0xbdd165c0	-0.102244854
232	0xbe632b9e	-0.22184607
233	0xbf009656	-0.50229394
234	0xbd6c93b8	-0.057758063
235	0xbf2479c4	-0.642483
236	0x3e205985	0.15659149
237	0xbae05d38	-0.0017117625
238	0x3d024cda	0.031811573
239	0xbee58210	-0.44825792
240	0x3d340439	0.04394934
241	0xbeeabc13	-0.45846614
242	0x3eba51f5	0.36390653
243	0x3f2e3af1	0.6805869
244	0x3eb1aea8	0.34703565
245	0xbf08a264	-0.5337279
246	0x3eb10e3e	0.34581178
247	0xbe8494bb	-0.25894722
248	0xbf15e2ef	-0.585494
249	0x3b8a8183	0.004226865
250	0x3ea1e143	0.31617174
251	0xbeb7e3c1	-0.3591595
252	0x3d9f4a91	0.07777894
253	0xbf681963	-0.9066374
254	0x3c9b3caf	0.018949835
255	0xbd89bb7c	-0.06725213

network_body._body_endoder.seq_layers.2.bias f4 [128]
0	0x389707e7	7.201713e-05
1	0x3bf5251a	0.0074812295
2	0xbc5b7634	-0.013394881
3	0x3c970f29	0.018439846
4	0x3c70b941	0.0146926055
5	0xbb01c1de	-0.0019799392
6	0x3a930e6c	0.0011219508
7	0x3c18bdea	0.009322623
8	0xbcc46ed8	-0.023978636
9	0xbc860ee5	-0.016364524
10	0x3cec6523	0.02885682
11	0x3bb80b1c	0.0056165587
12	0xbbf7ebcd	-0.0075659514
13	0x3d2fe686	0.042944454
14	0xbbeabf5a	-0.007163924
15	0x3c596aa8	0.013270058
16	0x3c91dd0a	0.017805595
17	0xbc3e9997	-0.011633298
18	0xbcc42c08	-0.023946777
19	0xbcb4f902	-0.022091392
20	0xbc5573bb	-0.013028081
21	0xba1e7b60	-0.0006045606
22	0xbcbc3cad	-0.022978151
23	0xbc188bb0	-0.009310648
24	0x3ca37743	0.01995433
25	0x3c01a46a	0.0079127345
26	0xbca691c1	-0.020333173
27	0xbc97b0c6	-0.01851691
28	0xbc86705b	-0.016410997
29	0x3d447dc2	0.047971494
30	0xbc204057	-0.009780965
31	0xbceec6f4	-0.029147603
32	0x3ce872b5	0.02837501
33	0x3b9f9f74	0.004871303
34	0x3bcf8b1e	0.0063337227
35	0x3c169085	0.00918973
36	0x3d2b8d9c	0.041883096
37	0x3c0e65cd	0.008691263
38	0x3c59112d	0.013248724
39	0x3d2eed4a	0.042706765
40	0xbc66f6df	-0.014096945
41	0x3c9b758a	0.018976945
42	0xbc800551	-0.015627535
43	0x3d07bf01	0.03314114
44	0x3d91735d	0.07102082
45	0x3cb6e1c4	0.02232445
46	0x3d0ba2f7	0.034090962
47	0xbc2f3129	-0.010692873
48	0xbc9f185b	-0.019420793
49	0x3cf56666	0.029956054
50	0x3a8658de	0.0010249873
51	0x3d6e6689	0.058203254
52	0x3caede0c	0.021346115
53	0xbcaa5946	-0.020794522
54	0xbc0fb2d8	-0.008770667
55	0x3c965e06	0.01835538
56	0x3ca88f26	0.020576071
57	0xba4c9c2d	-0.00078052544
58	0xbc3289c3	-0.010897103
59	0x3c15ce1c	0.009143379
60	0x3c064d10	0.008197084
61	0xbcac89d2	-0.021061812
62	0xb9f3504a	-0.00046408392
63	0xbc651fa3	-0.013984594
64	0x3c2b6aba	0.010462457
65	0xbc317aa8	-0.010832466
66	0x38db7336	0.000104641935
67	0x3c32d39b	0.0109147085
68	0x3d255c53	0.04037125
69	0xbcb2c540	-0.021822572
70	0xbcc0004b	-0.02343764
71	0x3d41a042	0.047271974
72	0xbc4a1ff2	-0.012336718
73	0xbcb55ada	-0.022138048
74	0xbd03680d	-0.032081652
75	0xbba9e93b	-0.005185274
76	0xbc1a6992	-0.009424584
77	0x3d200060	0.039062858
78	0x3c7b05b3	0.015321183
79	0x3d3d30b2	0.046189018
80	0xbc9968ab	-0.018726667
81	0xbcb3b549	-0.02193703
82	0x3c24fb4a	0.010069678
83	0xbcb99b8c	-0.022657178
84	0xbb84d83e	-0.0040540984
85	0x3d1ebc6c	0.03875391
86	0x3d3384de	0.043827884
87	0x3c1bb0fd	0.0095026465
88	0x3c70f99e	0.014707951
89	0xbb4d3b30	-0.0031315796
90	0x3bfd5b23	0.0077318116
91	0x3cd67e93	0.026183402
92	0x3c9b1524	0.01893098
93	0xbca2666d	-0.019824231
94	0xbc4c92af	-0.012486144
95	0x3cb93b88	0.022611395
96	0xbc3b2617	-0.011422656
97	0x3da3ee63	0.08004453
98	0x3d4b4b96	0.04963263
99	0x3bf8c4c8	0.0075918175
100	0x3bbada30	0.0057022795
101	0x3cf2bc3e	0.029630776
102	0xbb6c27f3	-0.0036034554
103	0x3d1de6bf	0.038550135
104	0x3cb47553	0.0220286
105	0xbcb9233b	-0.022599807
106	0x3c36ba13	0.011152762
107	0x3c35bd1b	0.01109245
108	0x3d28cd38	0.041211337
109	0x3c43bacf	0.011946394
110	0xbd027dcf	-0.03185826
111	0x3c45a8e6	0.012064194
112	0x3cd3348e	0.025781896
113	0x3ccfcd53	0.02536646
114	0x3d478d11	0.048718516
115	0x3c57a684	0.013162259
116	0x3c9306be	0.01794755
117	0x3d450bab	0.04810683
118	0x3c1d77fb	0.009611125
119	0x3c9dd839	0.019268142
120	0xbcf236bb	-0.029567113
121	0x3ca7dea3	0.020491904
122	0x3d188a77	0.037241425
123	0x3b2fd891	0.0026831964
124	0xbd08171b	-0.03322516
125	0x3d0d7050	0.034530938
126	0xbca53ed8	-0.020171568
127	0x3d1a321a	0.037645437

network_body._body_endoder.seq_layers.2.weight f4 [128, 128]
0	0x3cb72d53	0.02236048
1	0x3c94e0dd	0.01817363
2	0xbcd9d63f	-0.026591418
3	0xbcc18e33	-0.023627376
4	0x3d7c66b9	0.0616214
5	0xbd13b805	-0.036064167
6	0xbe1a756c	-0.15083855
7	0xbd3ff0a2	-0.046860345
8	0xbd58b3f0	-0.052905977
9	0xbe17ea80	-0.14835548
10	0xbdfe4dac	-0.124171585
11	0xbd8f848f	-0.070077054
12	0x3ba41008	0.005006794
13	0x3d3af817	0.045646753
14	0xbce65394	-0.028116025
15	0xbdbdaaa6	-0.09261064
16	0x3cbf5c7c	0.02335953
17	0x3ccf6cc2	0.025320414
18	0xbe157dc2	-0.14598754
19	0xbd73d832	-0.05953235
20	0xbde48167	-0.11157494
21	0x3e20c0a6	0.1569849
22	0xbc7dfdf4	-0.015502442
23	0x3c247f66	0.01004014
24	0xbc0f129a	-0.008732462
25	0x3e437b52	0.19090012
26	0x3e1735b4	0.1476658
27	0x3d84ba99	0.06480903
28	0x3e1fccc3	0.15605454
29	0x3df6f4a4	0.1205838
30	0xbda70b55	-0.08156458
31	0x3db54367	0.088507466
32	0xbd454005	-0.048156757
33	0x3e288d24	0.16460091
34	0xbd01574d	-0.031577397
35	0x3d335a3c	0.043787226
36	0xbc2bfc62	-0.0104971845
37	0x3d0f129c	0.034929857
38	0xbd5f099a	-0.054452516
39	0x3caa04fa	0.020754326
40	0x3d8bffe8	0.068359196
41	0x3c2e36d5	0.01063319
42	0x3d9350dd	0.07193158
43	0x3e0800b3	0.13281517
44	0x3cc30d9c	0.0238102
45	0xbdf1cbf8	-0.11806482
46	0x3e189d80	0.14903831
47	0x3d0adc03	0.033901226
48	0x3d1ebcca	0.038754262
49	0xbd9c8b76	-0.076437876
50	0x3d6ccec4	0.057814375
51	0x3cabd46f	0.02097532
52	0x3cb6ee84	0.02233053
53	0xbdba013f	-0.09082269
54	0x3d7e528f	0.062090453
55	0xbcd1bfbd	-0.025604123
56	0xbd4eadbe	-0.050458662
57	0x3ce8b19b	0.028405001
58	0x3dab78a1	0.083726175
59	0xbdf07aca	-0.1174217
60	0xbdb6be8a	-0.08923061
61	0xbd87d590	-0.06632531
62	0x3d061d95	0.032743055
63	0x3d1c77ab	0.03820006
64	0x3e948130	0.29004812
65	0xbd95e376	-0.07318775
66	0x3dd3e668	0.10346681
67	0x3ce81da4	0.028334446
68	0x3d5c6c10	0.053813994
69	0xbd7cdc5c	-0.06173359
70	0xbe0a1c92	-0.13487461
71	0x3db2d598	0.08732146
72	0xbe06f6cf	-0.13180088
73	0x3c62328f	0.013805999
74	0x3dd8d989	0.105883665
75	0x3e37a58d	0.17934246
76	0x3de19263	0.11014249
77	0x3e3280a8	0.17431891
78	0x3dac6856	0.08418338
79	0xbe08fed7	-0.13378464
80	0x3e05008f	0.12988494
81	0xbc6ba7b2	-0.014383243
82	0x3b33ab34	0.0027415277
83	0xbca2198c	-0.019787572
84	0xbbd23e9f	-0.0064161564
85	0x3dcfa8d1	0.10139621
86	0x3d9c8874	0.07643214
87	0xbdbd3824	-0.092392236
88	0x3d973f3c	0.07385108
89	0x3d7df378	0.061999768
90	0xbdc07afa	-0.09398456
91	0xbda59cfa	-0.080865815
92	0x3e0ed6d7	0.13949142
93	0x3d8e4d15	0.06948296
94	0xbe2d1034	-0.16900712
95	0xbd7650de	-0.060135715
96	0xbd5b9a86	-0.053614162
97	0xbdb9433e	-0.090460286
98	0xbe1c20ae	-0.15246841
99	0x3e3a6f19	0.18206443
100	0xbc4cc23d	-0.012497482
101	0xbd3332bc	-0.043749556
102	0xbe831b8f	-0.25606963
103	0x3e417adf	0.18894528
104	0xbd9d029b	-0.076665126
105	0xbcdec0df	-0.027191577
106	0xbd2c1c9b	-0.042019468
107	0xbc8a0e78	-0.016852602
108	0x3ceb2451	0.02870384
109	0xbe218c58	-0.15776193
110	0x3d87643b	0.06610914
111	0xbd01b53b	-0.031666975
112	0xbe04f46d	-0.12983866
113	0xbe066ba2	-0.13126996
114	0x3d94231d	0.0723326
115	0x3ddaadd6	0.10677688
116	0xbc2bb995	-0.010481258
117	0xbe84d37f	-0.2594261
118	0xbe02cd07	-0.12773524
119	0xbd896c3e	-0.06710099
120	0xbd4c5bf9	-0.0498924
121	0x3c952ad0	0.018208891
122	0xbd9afda3	-0.075679086
123	0xbe167bde	-0.14695689
124	0xbdfdf9f7	-0.12401193
125	0x3d92c53e	0.07166527
126	0x3d33756c	0.043813154
127	0x3d0c8b90	0.034312785
128	0x3d8169db	0.063190185
129	0x3ce8abc8	0.028402224
130	0x3cbc94bc	0.02302014
131	0xbd985630	-0.07438314
132	0xbce0af21	-0.027427258
133	0xbda6080e	-0.08107005
134	0xbd15164b	-0.036398213
135	0xbd5e8179	-0.054322693
136	0xbd934ffb	-0.071929894
137	0x3e0571bb	0.13031666
138	0xbd2402bc	-0.04004167
139	0xbd342dc8	-0.043988973
140	0x3d9fd757	0.07804745
141	0xbcf36498	-0.029711053
142	0x3b1494ab	0.002267162
143	0x3c597897	0.01327338
144	0x3c83c771	0.016086312
145	0xbe6368b2	-0.22207907
146	0xbaae285e	-0.0013287177
147	0xbdbf5422	-0.09342219
148	0x3e31e9b2	0.17374304
149	0x3bedb3ce	0.0072541004
150	0x3d5da492	0.054112025
151	0xbda9575e	-0.08268617
152	0xbdbd290b	-0.09236344
153	0x3b9f61d1	0.0048639555
154	0x3d9eaec6	0.07748179
155	0xbd7b43f7	-0.061344113
156	0x3dc560c7	0.096375994
157	0xbb549693	-0.0032438382
158	0x3d2547c2	0.040351637
159	0xbe3a98f1	-0.18222405
160	0x3e0ffeee	0.14062092
161	0x3da7b725	0.08189229
162	0xbd0c8930	-0.03431052
163	0xbccfc81a	-0.02536397
164	0x3d8a1347	0.06741958
165	0x3e13a06f	0.1441667
166	0xbdd17bde	-0.10228704
167	0x3df73731	0.12071074
168	0xbd8b78d8	-0.068101585
169	0x3cc3b894	0.023891725
170	0xbdc4a625	-0.09602002
171	0x3e350a80	0.17679787
172	0x3cf4d96f	0.029888837
173	0x3dba9d4f	0.091120355
174	0x3acd7062	0.0015673751
175	0x3be978d4	0.0071249995
176	0xbe507a1b	-0.2035908
177	0xbd9127e3	-0.07087686
178	0x3e211f0c	0.157345
179	0xbe1ae795	-0.15127404
180	0xbd7dd16c	-0.0619673
181	0x3d6023c4	0.05472161
182	0x3ba5611f	0.005046978
183	0x3cb87516	0.022516768
184	0x3d6ffdd6	0.058591686
185	0xbdea878c	-0.11451635
186	0x3d78011c	0.060547933
187	0xbda103de	-0.07862066
188	0xbdeee457	-0.11664646
189	0x3d367521	0.044545297
190	0x3e230db9	0.15923204
191	0xbcfb6920	-0.030689776
192	0x3cc3ad4d	0.023886347
193	0xbdd67ed2	-0.10473408
194	0xbd8993b3	-0.067176245
195	0xbd28c98c	-0.041207835
196	0xbd37f89f	-0.044914838
197	0xbbb8ac15	-0.005635748
198	0x3b1de9fc	0.0024095764
199	0x3d954969	0.072893925
200	0x3ceef47c	0.029169314
201	0xbb1f866a	-0.0024341592
202	0x3c5cc678	0.013475053
203	0xbd8656bc	-0.06559512
204	0xbd2455d6	-0.040120922
205	0xbbf0c577	-0.0073477584
206	0xbc245215	-0.0100293355
207	0xbe3fa95b	-0.18716948
208	0xbd87ff6e	-0.06640516
209	0xbc052d27	-0.008128441
210	0x3dd1bcb5	0.10241071
211	0x3db44008	0.088012755
212	0xbc418ac9	-0.011812874
213	0xbda7fa82	-0.082020774
214	0x398ee1e1	0.00027252643
215	0x3d0185cf	0.03162175
216	0xbe72ffd5	-0.23730405
217	0x3d836355	0.064154305
218	0x3e032f1e	0.12810943
219	0x3d7cc1a2	0.0617081
220	0x3e38a3d7	0.1803125
221	0xbce49aa5	-0.027905772
222	0xbd659657	-0.05605158
223	0xbe08895d	-0.1333365
224	0x3d449cdf	0.048001166
225	0xbe3bae72	-0.18328264
226	0x3d5fa99b	0.054605108
227	0x3df5ed54	0.12008157
228	0xbdad03e9	-0.084480114
229	0xbdea8617	-0.11451357
230	0xbd4c3ced	-0.04986279
231	0x3c779ca4	0.01511303
232	0x3ca7c144	0.020477898
233	0x3c40d730	0.011770055
234	0x3c9a05e0	0.01880163
235	0x3c8df100	0.017326832
236	0xbcc3176e	-0.023814883
237	0x3e1e648e	0.15468046
238	0xbd1c0bc6	-0.038097166
239	0xbd682b69	-0.056682024
240	0x3e1dfe6f	0.1542909
241	0xbcb24d93	-0.021765506
242	0x3d1d2a65	0.03837051
243	0xbe5e3dd2	-0.2170327
244	0x3ddab1e4	0.10678461
245	0xbd8740cd	-0.06604157
246	0xbd9f206d	-0.077698566
247	0x3d86203c	0.06549117
248	0xbbce2a2e	-0.0062916493
249	0xbdcb25a7	-0.09919291
250	0x3e488cc8	0.19584954
251	0xbd2e063a	-0.042486407
252	0xbd5b2944	-0.05350615
253	0x3df1947d	0.117959
254	0xbd927c33	-0.07152595
255	0x3ddacee5	0.10683993
