Assets/Basic Example/Brain/MoveToGoal_ImitationLearning.onnx (onnx, 72461 bytes, 7 tensors)

action_model._continuous_distribution.log_sigma f4 [1, 2]
0	0xbf2db3a0	-0.6785221
1	0xbf2d59dc	-0.6771524

action_model._continuous_distribution.mu.bias f4 [2]
0	0x3d2f173b	0.042746764
1	0x3cfd0588	0.030886427

action_model._continuous_distribution.mu.weight f4 [2, 128]
0	0xbd194541	-0.03741956
1	0x3c2470ae	0.010036631
2	0xbd9a49fb	-0.07533642
3	0xbc8a2788	-0.016864553
4	0xbd73eaec	-0.05955021
5	0xbb8dab81	-0.0043234234
6	0xbb6b90b3	-0.0035944402
7	0x3d86c67a	0.06580825
8	0xbdbc68fc	-0.09199712
9	0xbc7ef6f4	-0.015561808
10	0xbbd4eb69	-0.0064977896
11	0xbcb938d7	-0.022610111
12	0xbd351f9a	-0.04421959
13	0xbd16ec2e	-0.036846332
14	0xbcb818a6	-0.02247269
15	0xbd527f6f	-0.05139106
16	0x3c66ea98	0.014094017
17	0x3c976f8c	0.018485807
18	0xbd2731a3	-0.04081882
19	0xbb1a4fa0	-0.0023545995
20	0x3cdf4f57	0.027259512
21	0xbb830f8e	-0.003999657
22	0xbc708570	-0.0146802515
23	0xbc7c2acb	-0.015391062
24	0x3cd62a5c	0.026143245
25	0xbc143921	-0.009046824
26	0x3ca00042	0.019531373
27	0xbd8a5c98	-0.06755942
28	0xbd5b2e19	-0.05351076
29	0xbdb58df3	-0.08864965
30	0xb91d8962	-0.00015023866
31	0x3a30a62e	0.000673863
32	0x3a578cb1	0.0008222564
33	0xbd5ca54b	-0.053868573
34	0xbb862fb6	-0.004095043
35	0x3c7b2060	0.015327543
36	0xbddab300	-0.10678673
37	0xbce8aa12	-0.028401408
38	0xbd3453ec	-0.044025347
39	0x3c23c5cf	0.009995892
40	0xbcfdafc4	-0.0309676
41	0xbca927f7	-0.02064894
42	0xbd1038cd	-0.03521042
43	0x3cc59330	0.024118036
44	0xbd98eba9	-0.074668236
45	0xbd9dff5d	-0.07714722
46	0xbd4ccc69	-0.04999963
47	0xbc9678b4	-0.018368103
48	0xbd9147e1	-0.07093788
49	0x3db9ee48	0.09078652
50	0x3c0795eb	0.008275489
51	0xbb22997d	-0.0024810724
52	0xbcaa4340	-0.02078402
53	0x3b7cc738	0.0038570892
54	0xbd188c90	-0.037243426
55	0xbd5a8a8f	-0.053354796
56	0xbd0aad64	-0.033856764
57	0x3ca0ce67	0.01962967
58	0x3aa480e2	0.0012550617
59	0xbcac0465	-0.02099819
60	0xbd4fc595	-0.05072554
61	0xbc75f920	-0.015013009
62	0xbca6ac5c	-0.02034586
63	0xbb7750fc	-0.003773748
64	0xbc930e53	-0.017951166
65	0x3d183e8a	0.037169017
66	0xbcfa7a2d	-0.030575836
67	0xbd2f6ad3	-0.042826485
68	0xbbc5d6b3	-0.006037557
69	0xba9d936d	-0.0012022086
70	0xbc9e571a	-0.019328643
71	0xbc92bace	-0.017911341
72	0xbb9ddcd5	-0.004817585
73	0xbc929515	-0.017893353
74	0xbca2941a	-0.019846011
75	0x399359e5	0.00028105002
76	0x3cefec00	0.029287338
77	0x3c036ec1	0.008022011
78	0x3d15a836	0.03653737
79	0x3c867b89	0.016416328
80	0x3cd6fddd	0.026244098
81	0xbcb93821	-0.022609772
82	0x3adfb9e8	0.0017068954
83	0xbc60e39a	-0.013726139
84	0xbc988a2d	-0.018620575
85	0xbd1f57b7	-0.03890201
86	0xbdf5039f	-0.11963581
87	0x3ceb7c9e	0.028745946
88	0xbac72615	-0.0015193844
89	0xbd91d03b	-0.07119795
90	0xbd2c5348	-0.04207161
91	0x3c085b32	0.008322524
92	0xbdc86389	-0.0978461
93	0x3d37a3e2	0.044834025
94	0xbbed88e7	-0.007248986
95	0x3cf09057	0.029365702
96	0xbca1ce6a	-0.019751746
97	0xbb712335	-0.0036794667
98	0x3d146ffd	0.036239613
99	0x3c9473c1	0.018121602
100	0x3c76fd9d	0.015075115
101	0xbc168463	-0.009186837
102	0xbcfa5751	-0.030559214
103	0xbd09d033	-0.03364582
104	0xbc4f3c7e	-0.0126487
105	0x3a90dec9	0.0011052723
106	0xbc27828a	-0.010223994
107	0xbd92d501	-0.071695335
108	0xbd32a40f	-0.04361349
109	0xbc93e5bc	-0.018053882
110	0xbd0c8eb8	-0.034315795
111	0xbc130d18	-0.00897529
112	0xbae032ed	-0.0017105021
113	0xbd01abd6	-0.031658016
114	0xbafe7bb1	-0.0019415525
115	0x3b2b0e8f	0.0026101207
116	0xbcfce7e3	-0.030872291
117	0x3c8c0060	0.017090023
118	0x3c99acab	0.018759092
119	0xbd8058c6	-0.06266932
120	0x3cc519d1	0.024060162
121	0x3c920854	0.017826237
122	0x3bd4467d	0.0064781294
123	0xbb769d62	-0.0037630429
124	0x3c8074fc	0.015680782
125	0xb8c9c867	-9.621755e-05
126	0xbd95fc02	-0.07323457
127	0x3a926591	0.0011169185
128	0x3d030cc0	0.03199458
129	0xbc7b3d48	-0.015334435
130	0x3d101465	0.0351757
131	0x3c34b5b1	0.011029647
132	0xbcfad181	-0.030617477
133	0x3cc4a65f	0.024005113
134	0x3c521920	0.012823373
135	0x3d596a62	0.05307997
136	0xbc8acaa8	-0.016942337
137	0xbb4035ac	-0.0029328866
138	0xbaee411e	-0.0018177365
139	0x3d113de7	0.035459425
140	0x3c389791	0.011266605
141	0xbd8969e3	-0.067096494
142	0xbcdc17a6	-0.026866745
143	0x3c85ba86	0.016324293
144	0xbd1fd82a	-0.03902451
145	0xbd23ab2b	-0.03995816
146	0x3b88f61c	0.004179729
147	0x3c0b59ed	0.008505327
148	0xbd537063	-0.051620852
149	0x386b93f1	5.6166147e-05
150	0xbc4b1581	-0.012395264
151	0xbb04471d	-0.0020183988
152	0x38d4e847	0.00010152213
153	0xbdbe097c	-0.09279153
154	0x3c89aa35	0.016804794
155	0xbcfe2d60	-0.031027496
156	0xbd204847	-0.03913143
157	0xbd14a585	-0.036290664
158	0x3c023250	0.007946566
159	0xbc2e8022	-0.010650666
160	0x3b6e1d4a	0.0036333376
161	0x3b95bf29	0.004569907
162	0xbb8dfe61	-0.004333303
163	0x3ca2dcdc	0.019880705
164	0x3d59b565	0.053151507
165	0x3d6915c2	0.056905515
166	0xbd6c9ef7	-0.05776879
167	0xbc78175f	-0.015142291
168	0xbcb59e92	-0.022170339
169	0x3cbae65b	0.02281492
170	0x3ad17595	0.0015980477
171	0x3b1e546d	0.0024159208
172	0xbd6a351f	-0.057179566
173	0xbc2658e3	-0.010153028
174	0xbd1e29f1	-0.038614217
175	0xbd587444	-0.052845255
176	0xbbcc0840	-0.0062265694
177	0x3da1e28a	0.07904537
178	0xbd24fd76	-0.04028078
179	0xbae7ae6b	-0.0017675882
180	0x3c3b1926	0.01141957
181	0x3c7403f2	0.014893519
182	0xbd161763	-0.036643397
183	0x3c8e09cc	0.017338656
184	0x3cde96b6	0.027171474
185	0x3d25c73b	0.040473204
186	0x3bc1ff1f	0.0059203054
187	0x3c95878a	0.018253107
188	0xbb06494b	-0.0020490463
189	0xbc84648d	-0.016161228
190	0xbc214fb6	-0.009845665
191	0x3d095113	0.033524584
192	0x3ca73ca0	0.02041465
193	0xbd3259d6	-0.043542705
194	0xbc5705c3	-0.013123932
195	0xbd514c13	-0.05109794
196	0x3d9c12ac	0.07620749
197	0xbb7d31a4	-0.0038634324
198	0x3d187931	0.037224952
199	0xbb37cdf0	-0.0028046332
200	0xbabf3712	-0.0014588556
201	0xbd2a5137	-0.04158136
202	0xbc6a167c	-0.014287587
203	0xbba3ac25	-0.0049948865
204	0x3c1d175b	0.009588088
205	0x3c52cb8c	0.012865912
206	0xb6fb5ffc	-7.491557e-06
207	0x3bfec5c9	0.0077750427
208	0xbd02b51c	-0.031911
209	0xbd589b37	-0.0528824
210	0xbb94f3f6	-0.004545684
211	0x3d496f67	0.049178507
212	0xbbb131ad	-0.005407533
213	0xbcb8ae78	-0.02254413
214	0xbd24f2e9	-0.04027072
215	0xbd4ec835	-0.0504839
216	0x3ae554f8	0.0017496636
217	0x3d1a4fde	0.037673824
218	0x3d44cb17	0.048045244
219	0xbb5549a5	-0.0032545116
220	0x3d696786	0.056983493
221	0x3dc3fcb2	0.09569682
222	0x3a424632	0.00074109726
223	0x3d041ae7	0.03225222
224	0xbd6c8354	-0.05774243
225	0xbb990344	-0.0046695787
226	0x3d2b50b8	0.041825026
227	0xbd67bdc2	-0.05657745
228	0x3b98214e	0.004642642
229	0x3d0f3581	0.034963135
230	0xbd768204	-0.060182586
231	0xbc1beb25	-0.009516512
232	0xbd40d453	-0.04707749
233	0x3a07ff11	0.0005187849
234	0xbce87744	-0.028377183
235	0x3c4ac55c	0.012376156
236	0xbb06bf30	-0.0020560734
237	0x3cc0ac8f	0.023519782
238	0x3cc1e795	0.023669997
239	0xbb3091c3	-0.002694235
240	0x3c8fe700	0.017566204
241	0xbd22f4d4	-0.039784268
242	0x3bdc17bd	0.006716697
243	0xbc1ba4c0	-0.009499729
244	0xbd8f1458	-0.06986302
245	0xbc9a02e4	-0.018800206
246	0x3cf67b8d	0.03008821
247	0xbd610f52	-0.05494625
248	0xbcdab57b	-0.026697865
249	0xbbb64887	-0.005562845
250	0xbb88dc1e	-0.0041766306
251	0x3ba06114	0.004894385
252	0x3d263ab9	0.040583346
253	0x3c006878	0.007837407
254	0x3a5e409c	0.00084782555
255	0x3b9ae497	0.004726957

network_body._body_endoder.seq_layers.0.bias f4 [128]
0	0xbc11bd2b	-0.008895199
1	0x3d42825a	0.047487594
2	0x3b73d6a4	0.0037206793
3	0xbbaf640e	-0.0053525036
4	0xbd8f4e70	-0.06997383
5	0x3d1c0274	0.038088277
6	0x3c84ae39	0.016196357
7	0xbd065ff0	-0.032806337
8	0xbc2c6396	-0.01052179
9	0xbc9d966e	-0.01923677
10	0x3d5e1441	0.054218534
11	0xbcb4c0e1	-0.022064628
12	0x3b6bad0c	0.0035961298
13	0x3cb17899	0.02166395
14	0x3d495f75	0.0491633
15	0x3d0ba2cf	0.034090813
16	0xbde1af8b	-0.1101981
17	0x3c7a1af4	0.015265215
18	0xbc5589e5	-0.013033365
19	0x3d01e3a7	0.031711247
20	0x3c9acc3b	0.018896213
21	0x3bdd8e70	0.0067613646
22	0xbd094021	-0.033508424
23	0xbd54ff0f	-0.052001055
24	0x3d51777e	0.051139347
25	0xbb3a7d0f	-0.0028455888
26	0xbccaafea	-0.024742085
27	0x3be5a69b	0.0070083863
28	0xbd90e669	-0.07075197
29	0x3d955bb5	0.07292882
30	0x3c17a93c	0.009256657
31	0x3bf0c0f8	0.0073472224
32	0x3c9dc601	0.019259455
33	0x3c880d2e	0.016607847
34	0xbca30e5d	-0.01990431
35	0xbcba7e7f	-0.022765396
36	0xb9634953	-0.00021675722
37	0xbd56b8e0	-0.052422404
38	0xbd5ec13d	-0.054383505
39	0x3d92f63c	0.07175872
40	0x3d9a231c	0.07526228
41	0xbd1fb854	-0.03899415
42	0xbca8cb5b	-0.02060478
43	0xbd20f34f	-0.039294537
44	0x3d7f4eae	0.062330894
45	0x3c8b5e85	0.017012844
46	0xbcd9568c	-0.026530527
47	0xbb05bef3	-0.0020408004
48	0xbb40ad9a	-0.002940035
49	0x3ca30fc2	0.019904975
50	0xbc91702a	-0.01775368
51	0xbc3ad0f8	-0.011402361
52	0xbdc276a0	-0.09495282
53	0x3dabfca9	0.083978005
54	0xbd5b4d21	-0.053540353
55	0xbdcbe3ce	-0.0995556
56	0xbb98b2c4	-0.0046599824
57	0xbd27ffe6	-0.04101553
58	0xbcd1ca64	-0.025609203
59	0xbbd982d8	-0.0066379122
60	0x3c2aa0e7	0.010414339
61	0x3c8b7a67	0.01702614
62	0xbd269cc0	-0.040676832
63	0xbd07cc85	-0.03315403
64	0x3c2e5d49	0.010642358
65	0x3c901f60	0.017593086
66	0xbd5c4730	-0.053778827
67	0xb9ed932f	-0.00045313823
68	0xbd370997	-0.04468688
69	0xbcf89d89	-0.030348556
70	0x3c2c6704	0.010522608
71	0xbd17a483	-0.037022125
72	0x3c0a5e37	0.008445314
73	0xbc526000	-0.012840271
74	0xbd8a9289	-0.067662306
75	0x3d5bfaad	0.05370586
76	0x3d571939	0.05251429
77	0xbcc279cc	-0.023739718
78	0x3c4c0a6e	0.0124536585
79	0x3ce1ab1c	0.027547412
80	0xbc6cc033	-0.014450121
81	0xbd78ac59	-0.06071124
82	0xbd7c2189	-0.06155542
83	0xbd082cc1	-0.033245806
84	0xbd066c02	-0.032817848
85	0x3c29862c	0.0103469305
86	0xbd546960	-0.051858306
87	0x3dced048	0.1009832
88	0x3cbfa70f	0.02339509
89	0x3d56fc24	0.052486554
90	0xbcfedd67	-0.031111432
91	0x3c271355	0.01019748
92	0x3c870ca8	0.016485527
93	0xbb376877	-0.002798585
94	0x3cb97dc3	0.022642976
95	0xbd160db2	-0.036634155
96	0xbca3834f	-0.019960074
97	0xbca24388	-0.019807592
98	0xbd084f33	-0.033278655
99	0xbd521832	-0.051292606
100	0xbccbbb95	-0.02486972
101	0xbd88b430	-0.06674993
102	0x3d171955	0.036889393
103	0x3d32709b	0.04356442
104	0xbcc2bb2c	-0.023770891
105	0x3c517d66	0.012786245
106	0x3d17c3c5	0.037051935
107	0xbcc4a3dd	-0.024003917
108	0x3c2c7aee	0.010527356
109	0x3d03a21a	0.032137014
110	0x3b61525a	0.003438136
111	0xbde6133d	-0.11234138
112	0x3cdc24ac	0.026872955
113	0xbc581fd3	-0.013191181
114	0x3b8dad23	0.004323618
115	0x3d008361	0.031375293
116	0xbd4ab284	-0.049486652
117	0x3cdcf52f	0.026972381
118	0x3ae7c505	0.0017682618
119	0x3b8f4aae	0.004372916
120	0x3bf35a93	0.007426569
121	0xbcf65726	-0.030070852
122	0xbda15462	-0.07877423
123	0x3d7513d0	0.059833348
124	0x3cb796a0	0.02241069
125	0x3d3a50a7	0.045487072
126	0xbce1450b	-0.027498743
127	0xbc48f097	-0.012264392

network_body._body_endoder.seq_layers.0.weight f4 [128, 6]
0	0xbe6c40d8	-0.23071611
1	0x3df29a48	0.11845833
2	0x3d1afdd6	0.037839733
3	0x3deaae62	0.11459042
4	0xbf7e5f7c	-0.9936445
5	0x3f1f3499	0.6218963
6	0x3ee087ec	0.438537
7	0x3d90cdc7	0.07070499
8	0x3e3d1552	0.18465164
9	0xbf21fdb9	-0.63277775
10	0xbe6e2360	-0.23255682
11	0xbf35b471	-0.70978457
12	0xbe0a5018	-0.13507116
13	0x3e54ec33	0.20793228
14	0x3c98d9e3	0.018658584
15	0x3ed5a7d2	0.417296
16	0xbd7c52ee	-0.061602525
17	0x3f13a9bc	0.5768087
18	0x3ed99054	0.42492926
19	0x3ee831a3	0.4535037
20	0xbe99cb75	-0.30038038
21	0xbde160da	-0.11004801
22	0x3d80aa08	0.06282431
23	0xbf0a25ac	-0.5396373
24	0x3eda7cb1	0.42673257
25	0xbea21e30	-0.31663656
26	0xbe9f813e	-0.3115329
27	0xbd88680b	-0.066604696
28	0xbf2dc717	-0.6788191
29	0xbd420940	-0.047372103
30	0xbdd6fe1d	-0.10497687
31	0xbf500190	-0.81252384
32	0xbf21b463	-0.63165873
33	0xbe12d776	-0.14340004
34	0x3ea47687	0.3212168
35	0xbb7bc59a	-0.003841734
36	0x3f2cb9b8	0.67470884
37	0x3ede11ab	0.43372855
38	0x3e83ef07	0.257683
39	0xbf19a37c	-0.6001508
40	0x3e54d27a	0.20783415
41	0x3ebe078e	0.3711514
42	0x3da62e89	0.081143446
43	0x3e7757fd	0.24154659
44	0x3e3ff125	0.18744333
45	0xbeb8118a	-0.3595088
46	0xbf765cb8	-0.9623523
47	0x3e0c284c	0.13687247
48	0x3eed2fe2	0.46325594
49	0x3e72c9d3	0.23709802
50	0xbe866b54	-0.2625376
51	0xbec1b46b	-0.3783296
52	0xbed8c891	-0.4234052
53	0x3f825498	1.0182066
54	0xbe804820	-0.25055027
55	0xbe924f7e	-0.28576273
56	0xbf0f0e06	-0.55880773
57	0xbec9ff82	-0.3945275
58	0x3ee82639	0.45341662
59	0x3e99ecda	0.30063516
60	0xbd7aa07e	-0.061188214
61	0x3f1002dd	0.5625437
62	0x3de20a11	0.11037076
63	0xbe6152ee	-0.22004291
64	0x3e9abeec	0.30223787
65	0x3e32fdb8	0.17479599
66	0xbc580fd1	-0.013187365
67	0x3ed664c3	0.4187375
68	0xbd2c85b1	-0.042119686
69	0xbf02a0b1	-0.51026446
70	0x3ec68e95	0.38780656
71	0x3abeff98	0.0014572022
72	0xbd4ac488	-0.049503833
73	0xbdcba003	-0.09942629
74	0x3f067593	0.52523154
75	0xbdbdf54e	-0.09275304
76	0xbdc82955	-0.097735085
77	0x3f0b730b	0.54472417
78	0xbeed17d4	-0.46307242
79	0xbe876dc8	-0.26450944
80	0x3e85aee1	0.26109985
81	0x3e8ccfbc	0.2750224
82	0x3f787cd3	0.97065467
83	0x3ee15cb9	0.44016054
84	0x3e612d01	0.21989824
85	0xbe55c275	-0.2087496
86	0xbe1e88a3	-0.1548181
87	0xbf5a1bbf	-0.8519859
88	0x3df3ec05	0.119102515
89	0xbba16e02	-0.004926444
90	0x3d80157d	0.062540986
91	0x3e856da6	0.26060218
92	0xbe5757d1	-0.21029593
93	0xbe5e62a8	-0.21717322
94	0xbea3f04b	-0.32019266
95	0x3e022ced	0.1271245
96	0xbec0ca18	-0.37654185
97	0x3f3c08c7	0.73450893
98	0xbdae1d3f	-0.08501672
99	0x3d853e62	0.06506039
100	0xbf122ba7	-0.5709786
101	0xbf214021	-0.6298848
102	0x3ca72bb1	0.020406576
103	0x3ea256b7	0.31706783
104	0x3e8a1845	0.2697164
105	0xbe04f01c	-0.1298222
106	0x3e71efa5	0.23626573
107	0x3ee11ed8	0.43968844
108	0xbf26b66a	-0.6512209
109	0x3e270c91	0.16313387
110	0x3ef6bc27	0.48190424
111	0x3e18003f	0.14843844
112	0x3ef06e4d	0.46959153
113	0xbf0f3fa1	-0.55956465
114	0x3d8f1e72	0.06988229
115	0xbdc257b1	-0.09489382
116	0xbe85c632	-0.26127774
117	0x3ddf1d00	0.10894203
118	0x3ea2d0a5	0.31799808
119	0x3e3d738d	0.1850111
120	0x3e1df027	0.15423642
121	0x3e353626	0.17696437
122	0x3ef22ec9	0.4730132
123	0x3e03f54d	0.12886544
124	0x3deb596b	0.114916645
125	0xbf13fc2b	-0.5780665
126	0xbf03bf7b	-0.5146405
127	0x3ecde00c	0.40209997
128	0xbed96433	-0.42459258
129	0x3dc1f9d5	0.0947148
130	0xbd2c5677	-0.042074647
131	0xbdd7669f	-0.1051762
132	0xbdafc18c	-0.08581838
133	0x3e6809ed	0.22660036
134	0xbecde296	-0.40211934
135	0x3eabb17d	0.3353385
136	0xbebf4cfd	-0.37363425
137	0x3e2d17de	0.16903636
138	0x3ea67054	0.32507575
139	0x3e92b06d	0.28650227
140	0x3e4574ff	0.19282912
141	0x3ebb2b1e	0.36556333
142	0xbd24a3b5	-0.040195186
143	0xbf28b960	-0.6590786
144	0x3f19922c	0.59988666
145	0xbefa857c	-0.48929965
146	0x3edd8045	0.43261924
147	0xbec10e58	-0.37706256
148	0xbd6f4647	-0.05841663
149	0xbe0a55dd	-0.13509317
150	0xbe965798	-0.29363704
151	0xbf143330	-0.57890606
152	0xbcfb5836	-0.03068171
153	0x3cb48cab	0.022039732
154	0x3e90352a	0.2816556
155	0xbf914fb3	-1.1352447
156	0xbed118b1	-0.4083915
157	0x3e2884b7	0.16456877
158	0x3d95e8f7	0.07319825
159	0x3f5175d8	0.8182044
160	0xbd80e464	-0.06293562
161	0x3ef13e64	0.47117913
162	0x3e57f169	0.21088184
163	0x3e2add90	0.16686082
164	0xbd96307b	-0.07333466
165	0xbe13adcd	-0.14421768
166	0x3dc65fd1	0.09686244
167	0xbe2b90fe	-0.16754529
168	0x3e5de2b5	0.21668513
169	0xbe985005	-0.2974855
170	0x3e9fdc85	0.3122293
171	0x3f1b464b	0.60654134
172	0x3d3cef06	0.046126388
173	0xbe7ab5b4	-0.24483377
174	0xbdcef29f	-0.1010487
175	0x3de6e41a	0.11273976
176	0x3d73f3ab	0.05955855
177	0xbe8caabf	-0.2747402
178	0xbee9e723	-0.45684156
179	0xbf29926b	-0.6623904
180	0x3d602de8	0.05473128
181	0xbe134642	-0.1438227
182	0x3e9a8ce5	0.3018562
183	0xbd8426a4	-0.064526826
184	0x3f46023a	0.7734715
185	0x3f1dbb5f	0.6161403
186	0x3e51e2f5	0.20496733
187	0xbe207ed1	-0.15673377
188	0x3f2c9947	0.6742138
189	0xbe0c7feb	-0.13720672
190	0xbdcff549	-0.10154206
191	0x3f405de6	0.7514328
192	0x3f4c469e	0.79795253
193	0xbe1d180e	-0.15341207
194	0xbef00a9e	-0.468831
195	0xbdb0dfc1	-0.08636428
196	0x3f57d288	0.8430562
197	0x3f412a7c	0.7545545
198	0xbd5c38ad	-0.053764988
199	0xbe723db4	-0.2365635
200	0x3ec6e35b	0.38845333
201	0xbeb6ef81	-0.35729602
202	0x3e1bb192	0.15204456
203	0x3ee4856b	0.4463304
204	0x3ed5fe69	0.41795662
205	0xbf5a5d5e	-0.8529872
206	0xbe951cfd	-0.2912368
207	0x3e93cd17	0.2886741
208	0x3e88c896	0.26715535
209	0x3ebf5050	0.3736596
210	0x3f09c999	0.5382324
211	0x3f3c7f78	0.73632
212	0x3e0759f2	0.13217905
213	0x3efc8ebc	0.49327648
214	0xbdfe822f	-0.12427174
215	0x3d8bece2	0.06832291
216	0x3adb59b3	0.0016735106
217	0xbedcaa59	-0.43098715
218	0xbe938fee	-0.28820747
219	0x3e432f61	0.19061042
220	0x3f1709f0	0.5899954
221	0x3e8d3d8a	0.27586013
222	0xbcadcbf3	-0.021215415
223	0x3e124430	0.14283824
224	0x3e249fa4	0.16076523
225	0x3cc6b1ad	0.024254644
226	0x3e804aed	0.25057164
227	0xbe6ee58e	-0.23329756
228	0x3f2396af	0.639018
229	0x3edc5105	0.43030563
230	0x3d459e57	0.048246708
231	0x3dc893cb	0.09793814
232	0x3c74eb70	0.014948711
233	0x3ec5d310	0.3863759
234	0xbf2653e7	-0.64971775
235	0xbee180ea	-0.44043666
236	0xbe092043	-0.13391213
237	0xbe132789	-0.1437055
238	0x3e0d464b	0.13796346
239	0xbeee9d6f	-0.46604487
240	0xbeb4ee2e	-0.35337967
241	0x3e8da15b	0.27662167
242	0x3d97910d	0.07400713
243	0x3e96cf3c	0.29454982
244	0xbef56782	-0.47930533
245	0xbf0825ac	-0.5318248
246	0xbee2fd29	-0.4433377
247	0x3ef0a901	0.4700394
248	0xbcfae872	-0.030628417
249	0xbe866e37	-0.26255962
250	0x3ed06fbc	0.40710247
251	0x3d7005a9	0.058599148
252	0x3e027185	0.12738617
253	0xbf0ad94e	-0.5423783
254	0x3f251606	0.6448673
255	0xbe60e1f4	-0.21961194

network_body._body_endoder.seq_layers.2.bias f4 [128]
0	0x3cb83f85	0.022491226
1	0x3b0d37a5	0.002154806
2	0x3c21665f	0.009851067
3	0xbb4f5973	-0.003163901
4	0x3b33f3fa	0.0027458654
5	0x3b2c81fc	0.0026322594
6	0xbb95f71e	-0.004576578
7	0xbd44c007	-0.048034694
8	0x3a4549f1	0.0007525972
9	0xbcefddf6	-0.029280644
10	0x3bfdb85c	0.0077429246
11	0x3c8032a9	0.015649157
12	0x3bf92c56	0.007604162
13	0xbc25c23d	-0.010117111
14	0xbceca679	-0.028887974
15	0x3bea14eb	0.007143607
16	0xbd012904	-0.031533256
17	0xbc384048	-0.011245795
18	0x3cc4901a	0.023994494
19	0xbcd1e341	-0.025621058
20	0xbd07183a	-0.03298209
21	0xbcb1aceb	-0.021688899
22	0xbd791fc1	-0.0608213
23	0xbd480e31	-0.04884166
24	0x3c7a4565	0.015275334
25	0xbce26874	-0.027637698
26	0x3c87152a	0.016489584
27	0xbd3e35e6	-0.04643812
28	0x3c9cd7e0	0.019145906
29	0x3d661223	0.05616964
30	0xbc7579f6	-0.014982691
31	0xbd3c3361	-0.045947436
32	0x3cc454d8	0.023966238
33	0xbd2cbdce	-0.0421732
34	0xbae978e7	-0.0017812521
35	0x3ca2203e	0.019790765
36	0xbceab247	-0.028649462
37	0x3d42fd78	0.047605008
38	0x3cc7c265	0.024384687
39	0x3cb5e4a0	0.022203743
40	0xbd211f64	-0.039336577
41	0xbafa0c21	-0.0019077101
42	0x3c67e8ca	0.014154622
43	0x3cbc8394	0.02301196
44	0x3cf9b2a6	0.030480694
45	0x3bf28866	0.007401514
46	0x3ce95f3a	0.02848779
47	0x3ce8fd2b	0.028441032
48	0x3d10ae08	0.03532222
49	0xbcf6d8c4	-0.030132659
50	0xb9e904c6	-0.0004444478
51	0xbc8acd16	-0.016943496
52	0x3bce424c	0.0062945243
53	0xbcb26d32	-0.021780584
54	0xbc051e02	-0.00812483
55	0xbc4ebdd7	-0.0126185035
56	0x3cdbe9cc	0.026844881
57	0x3c251363	0.010075423
58	0xbbe9d421	-0.0071358834
59	0xbbe1c8cd	-0.0068903924
60	0xbcf49942	-0.029858235
61	0xbcb7a35f	-0.022416769
62	0x3b03079e	0.0019993554
63	0x3c24feb2	0.01007049
64	0x3b2659d4	0.0025383132
65	0xbc98bf92	-0.018646035
66	0x3af2c1ea	0.0018520926
67	0x3ba1edc4	0.004941674
68	0x3c0eb69a	0.008710528
69	0xbb0810a5	-0.0020761874
70	0x3aec6cc6	0.0018037788
71	0xbd2c38a0	-0.04204619
72	0xbd0c54bb	-0.034260493
73	0xbc2341e4	-0.00996444
74	0xbd485d37	-0.04891702
75	0xbc0f81a6	-0.008758938
76	0x3ccaac7f	0.024740456
77	0xbce224ee	-0.0276055
78	0x3b710c61	0.003678106
79	0x3a18d667	0.0005830288
80	0xbc173900	-0.009229898
81	0xbc6fa700	-0.014627218
82	0xbb05ab0a	-0.0020396137
83	0xbba6057b	-0.0050665713
84	0xbc6a961d	-0.014318016
85	0x3d27a82d	0.04093187
86	0x3c8592ee	0.016305413
87	0xbb9eab55	-0.0048422017
88	0xbc5b6ade	-0.013392178
89	0xbc7e4f63	-0.015521857
90	0x3ce4b4a4	0.027918167
91	0x3c3b6f6b	0.011440138
92	0xbca85993	-0.020550525
93	0xbb4a66da	-0.0030884058
94	0xbd145a31	-0.036218826
95	0x3cc1fb3e	0.023679372
96	0x3bb03d73	0.005378419
97	0x3c002063	0.007820222
98	0xbd0ac499	-0.033878896
99	0xbb926b28	-0.0044683404
100	0x3ccf00e5	0.025268981
101	0x3c39c893	0.0113393245
102	0xbc4ce6cb	-0.012506197
103	0x38666424	5.4929536e-05
104	0xbced5f73	-0.028976178
105	0xbb575561	-0.0032857286
106	0x3c0d2482	0.008614661
107	0xbc93f011	-0.018058809
108	0xbcab1747	-0.020885123
109	0xbccc33b3	-0.024926996
110	0xbbf457c8	-0.0074567534
111	0xba016895	-0.00049365434
112	0xbca3499c	-0.01993256
113	0xbc951205	-0.018197069
114	0x3c7b8470	0.0153514
115	0xbd179b7e	-0.037013523
116	0x3c425e01	0.011863233
117	0xbc96c3c9	-0.018403905
118	0x3d07b643	0.033132803
119	0xbc288e1f	-0.010287791
120	0x3c4556e3	0.012044641
121	0x3c70d27e	0.014698623
122	0x3be10dd1	0.006868102
123	0xbc9f7bb2	-0.019468162
124	0xbc564b22	-0.0130794365
125	0x3b9a3d32	0.004707002
126	0x3c12320f	0.008923068
127	0xbc6ac80d	-0.014329922

network_body._body_endoder.seq_layers.2.weight f4 [128, 128]
0	0xbe0ed679	-0.13949002
1	0xbdbfd959	-0.09367628
2	0xbde46911	-0.11152852
3	0xbd634530	-0.055485904
4	0x3d25f8a0	0.04052031
5	0xbe167c60	-0.14695883
6	0xbdb11bfb	-0.08647915
7	0x3bd190fd	0.006395458
8	0xbc48158d	-0.012212169
9	0x3d4c5f51	0.04989559
10	0xbe23c363	-0.15992503
11	0xbd419315	-0.04725941
12	0xbd1b4170	-0.037904203
13	0x3d225e57	0.03964075
14	0xbbf2375c	-0.0073918533
15	0x3d9d48fb	0.076799355
16	0xbca36a86	-0.019948255
17	0xbca876d8	-0.020564482
18	0xbc9c6e46	-0.019095551
19	0xbe2a522c	-0.16632909
20	0xbe8c980b	-0.2745975
21	0x3da2d94a	0.07951601
22	0x3d2439a8	0.040094048
23	0xbe057399	-0.13032378
24	0x3d1ebe42	0.038755663
25	0xbd92931f	-0.07156967
26	0xbdb6144d	-0.08890591
27	0xbdd1f6e0	-0.10252166
28	0x3d3a9f14	0.045561865
29	0xbda7e2b8	-0.0819754
30	0xbd24f08f	-0.040268477
31	0xbaa96da7	-0.0012926356
32	0x3e3eab9d	0.18620153
33	0x3d334c30	0.04377383
34	0x3d0d6643	0.034521352
35	0xbd08e12b	-0.033417862
36	0xbcf223f3	-0.029558158
37	0x3bf5a644	0.007496627
38	0xbd1b9488	-0.037983447
39	0x3ca9f8ad	0.02074846
40	0xbd8afff7	-0.06787103
41	0x3df2940f	0.11844646
42	0xbd0111f0	-0.031511247
43	0x3a835f95	0.0010022993
44	0x3d178963	0.036996257
45	0xbb61cae5	-0.003445321
46	0x3da14266	0.078739926
47	0xbd3eb328	-0.046557575
48	0x3c1f10e6	0.009708619
49	0xbde23d63	-0.11046865
50	0xbc35732f	-0.011074825
51	0x3dbcf605	0.09226612
52	0x3e5a126f	0.21296094
53	0xbd88daee	-0.066823825
54	0xbd7e073f	-0.06201863
55	0xbd9fb60f	-0.07798397
56	0xbe2aff16	-0.1669887
57	0xbcee5626	-0.029093813
58	0x3e202ec4	0.1564284
59	0x3dac8ee8	0.08425695
60	0x3d0f591e	0.0349971
61	0xbd6a7e20	-0.05724919
62	0xbe147c07	-0.14500438
63	0xbc882d26	-0.016623091
64	0xbe0a38cc	-0.13498229
65	0xbc81d394	-0.015847959
66	0xbe03a6e0	-0.12856627
67	0xbd391990	-0.045190394
68	0xbc4e52e6	-0.012593007
69	0x3d76bdca	0.06023959
70	0xbd3a6484	-0.045506015
71	0xbd7dd72b	-0.06197278
72	0x3db89cc7	0.09014278
73	0xbcadff14	-0.021239795
74	0xbc965be2	-0.01835436
75	0xbdd3da9f	-0.10344433
76	0xbd604438	-0.05475256
77	0x3c4b4185	0.012405758
78	0x3d1d3f61	0.03839052
79	0x3d8a590f	0.06755268
80	0x3e5550a6	0.20831546
81	0x3cf1efc2	0.02953327
82	0xbd3005f2	-0.04297442
83	0x3bd5da0d	0.006526238
84	0xbd8af2b3	-0.067845725
85	0xbdc3acd5	-0.095544495
86	0xbe389d14	-0.1802867
87	0xbe27fb5a	-0.16404477
88	0xbe0bbf6d	-0.13647242
89	0xbd78388d	-0.060600806
90	0xbd27e455	-0.04098924
91	0xbdbf6122	-0.093446985
92	0xbd723b79	-0.05913875
93	0x3b1826fe	0.00232166
94	0xbde8799a	-0.11351319
95	0xbd5bb331	-0.053637687
96	0xbc8c4c57	-0.017126245
97	0x3de476c0	0.11155462
98	0xbd9f1b0b	-0.0776883
99	0x3b5107a4	0.0031895423
100	0x3e04212a	0.12903276
101	0x3debc072	0.115113154
102	0xbcca6029	-0.024704056
103	0x3c8c5533	0.01713047
104	0x3d3a119d	0.045426954
105	0xbd6a1395	-0.05714758
106	0x3d65dc6a	0.056118406
107	0xbadb92fc	-0.0016752179
108	0x3da4108c	0.080109686
109	0xbd4d3bf8	-0.05010602
110	0xbb9850d2	-0.0046483064
111	0x3d9b32cf	0.0757805
112	0x3e4540e7	0.1926304
113	0x3d744f68	0.05964604
114	0x3e3ab65e	0.1823363
115	0xbd4c457e	-0.04987096
116	0x3ddbf9be	0.10740994
117	0x3d917616	0.07102601
118	0xbdf893de	-0.121375784
119	0xbdbca764	-0.09211615
120	0x3d8f4f2d	0.069975235
121	0xbe0e05fd	-0.13869472
122	0x3e1f8f95	0.15582116
123	0xbcb376cf	-0.021907238
124	0x3dc0fb3c	0.09422919
125	0xbcd232f9	-0.025659071
126	0xbd3aa922	-0.045571454
127	0xbe0909ae	-0.13382599
128	0xbd1874b4	-0.03722067
129	0xbe15b57a	-0.14620009
130	0xbd172fb2	-0.03691072
131	0x3e2e44a1	0.17018367
132	0xbd907ac7	-0.07054668
133	0x3dbc6a38	0.09199947
134	0x3d908374	0.07056323
135	0x3e3c5104	0.1839028
136	0xbd8acb4c	-0.06777057
137	0x3d648fdd	0.05580126
138	0x3e131090	0.14361787
139	0xbc842793	-0.016132152
140	0xbde024aa	-0.10944493
141	0xbdce3b13	-0.10069861
142	0x3d584fd1	0.052810494
143	0x3db2adfa	0.0872459
144	0x3e68d838	0.22738731
145	0x3d3ad068	0.045608908
146	0x3e0676d0	0.13131261
147	0x3e21d69a	0.1580452
148	0x3dfa09af	0.12208878
149	0xbb85b0fc	-0.004079936
150	0xbd6b4087	-0.057434585
151	0x3d9e231d	0.07721541
152	0xbdbb3b66	-0.09142189
153	0x3d1d3111	0.03837687
154	0xbd984514	-0.074350506
155	0xbdf87266	-0.12131195
156	0x3cba0827	0.022708965
157	0x3c30c5da	0.010789359
158	0x3da6534b	0.081213556
159	0x3e04a725	0.12954386
160	0xbd83c695	-0.06434361
161	0x3e14aced	0.14519091
162	0x3d299ce8	0.041409403
163	0x3daa7c21	0.08324457
164	0xbd29e143	-0.041474592
165	0x3ca35311	0.01993707
166	0x3e1a0763	0.1504188
167	0x3d550179	0.052003358
168	0xbc3ca00f	-0.01151277
169	0x3cf325d8	0.029681131
170	0xbe573ebd	-0.21020027
171	0x3d8788c6	0.06617884
172	0xbcfd6ba4	-0.030935116
173	0xbb571db1	-0.0032824094
174	0x3de2a2f1	0.11066235
175	0xbe0bf26b	-0.13666694
176	0xbd62aca3	-0.05534042
177	0xbd2b2865	-0.04178657
178	0xbe09a9d9	-0.13443698
179	0x3d8ea557	0.0696513
180	0x3cad3f65	0.021148393
181	0xbd755fc5	-0.059905786
182	0xbd2a0614	-0.041509703
183	0xbc76741c	-0.015042331
184	0x3d37fdef	0.044919904
185	0xbd26479f	-0.040595647
186	0xbc7fecf6	-0.015620461
187	0x3ded1fb8	0.115783155
188	0xbe419c52	-0.18907288
189	0xbe366b69	-0.17814411
190	0xbd8f90db	-0.07010051
191	0x3e4ab5b1	0.19795872
192	0xbdef3d53	-0.116816185
193	0x3d8169c9	0.06319005
194	0x3c8b4246	0.016999375
195	0x3ce087e0	0.02740854
196	0xbdffeb92	-0.12496103
197	0xbd007bc1	-0.03136802
198	0xbe0f0d45	-0.13969906
199	0x3db94fc6	0.09048419
200	0xbc536590	-0.012902632
201	0x3d671ed2	0.056425877
202	0x3cbbf5bd	0.022944326
203	0xbd32f456	-0.04369005
204	0xbd21c62a	-0.039495625
205	0x3e49c46d	0.19703837
206	0xbdd521f5	-0.104068674
207	0xbd1d5833	-0.03841419
208	0xbdb92dc0	-0.09041929
209	0xbdbb7396	-0.09152906
210	0x3c586793	0.013208288
211	0x3cde082b	0.027103504
212	0x3d9d31ae	0.07675491
213	0xb72c33ac	-1.026403e-05
214	0x3dff006d	0.12451253
215	0xbe1adeb2	-0.15124014
216	0x3e22ef98	0.1591171
217	0xbd09320c	-0.033494994
218	0xbd3b0d73	-0.045667123
219	0x3e401361	0.18757392
220	0x3d2d832b	0.04236142
221	0xbe5ca1a8	-0.21546042
222	0xbc9d3195	-0.019188682
223	0x3d3589b3	0.044320773
224	0x3d051313	0.032488894
225	0x3bef6355	0.0073055425
226	0xbcfa4f2f	-0.030555336
227	0xbc8564be	-0.01628339
228	0x3c916a01	0.017750742
229	0xbdc24fc7	-0.094878726
230	0x3dac6979	0.08418555
231	0xbc82d549	-0.015970843
232	0xbd488cc6	-0.048962377
233	0x3bd79b38	0.006579783
234	0x3cbd10b6	0.023079257
235	0xbd487f5b	-0.04894958
236	0x3cf2cbed	0.029638255
237	0x3de3d005	0.11123661
238	0xbe1b5650	-0.15169644
239	0x3d1b8955	0.037972767
240	0x3d728b0c	0.059214637
241	0x3d9bdb18	0.07610148
242	0x3d9c1871	0.07621849
243	0xbdddf88b	-0.108384214
244	0xbe06a5f8	-0.1314925
245	0xbd3acf8e	-0.045608096
246	0x3e0677c1	0.1313162
247	0x3ea3ef62	0.32018572
248	0x3e33ae66	0.17546996
249	0xbd2b8f6f	-0.041884836
250	0xbd55f19f	-0.05223238
251	0x3d4a5952	0.04940159
252	0x3c0fd7e1	0.008779497
253	0xbdb0bdbc	-0.08629939
254	0x3d72b79e	0.059257142
255	0x3dd11bd2	0.102103844
