results/ppo/MoveToHider/MoveToHider-25044.onnx (onnx, 82738 bytes, 7 tensors)

action_model._continuous_distribution.log_sigma f4 [1, 2]
00000000: c519 aa3a e111 f2bb
0.0012977651 -0.0073873852

action_model._continuous_distribution.mu.bias f4 [2]
00000000: 9a14 373b f871 033b
0.0027935863 0.0020056944

action_model._continuous_distribution.mu.weight f4 [2, 128]
00000000: 23f6 a6bc e217 e5bc e7f8 63bc 6c80 663b
00000010: 7919 863c 9ba8 b93c aea5 e3bc b3b9 1e3d
00000020: 348b efbc 453c cc3b 906a 3c3c 7466 ebbb
00000030: ba69 cb3b 1628 a83c 598e 32bd 2ca6 ce3b
00000040: 6722 23bb e199 173d 0b5f bc3b 8031 263d
00000050: 8b5c 9ebc 697f d1bb b408 94ba 61cb 7fbc
00000060: ae9d 793b 8fde 773b 2a29 373d 78f8 9c3b
00000070: 7d6a 9dba b9ea 62bc 1df7 95bc 4355 c53b
00000080: 0a7a b4bb 68ba e1bc ca9d b03c 9faf 00bc
00000090: e4fa b4bb 02cf 553c 7557 e93b 3e70 bcbb
000000a0: 4153 b23c cab8 6a3b d893 8abc 773a ce3c
000000b0: 12a0 bd3b 9cf2 56bc 77ed 98bc 5612 f3b9
000000c0: 896b 9fbb bb24 b83c 3671 a23b 9a4f 2a3c
000000d0: 2b2f 003c e75c a3bc 7968 b1bb e659 213c
000000e0: 5e47 c5bb 9397 ecbb 3491 cf3b a5bf 0bbd
000000f0: 69ae a23b 0fd6 c13c 7598 d53c e8ed 6bbb
00000100: db3b 963b c832 8ebc a7be d03b 45e4 bd3b
00000110: f88f f6ba 4b63 283c 82dd d83c 2ad8 3ebc
00000120: ce8d 0ebc 88de b73b 96ac 0abb 3cbb 2fbc
00000130: e98c b83c 3065 2bbc 9c52 a7bc 47d5 ffbc
00000140: b291 0c3c 843a 49bc 0502 c7ba 8982 923c
00000150: 7c35 4abc d176 6b3c 3f69 a3bc c1f6 a3bc
00000160: 6e29 2c3b 9390 a23c 8989 8e3a 1241 da3c
00000170: a6e3 aabc 37f5 e9bb 93d5 f33a b4fb 52bb
00000180: aca4 8fb9 8b69 c63b 1931 c4bc 9d87 7bbb
00000190: e6aa 14bc 39d5 f6ba bb01 34bc 808d 1fbc
000001a0: 6944 9c3c 5806 b83b 400d 043b 1829 bdb9
000001b0: 6d12 853b 6f0c 4e3c 4c5e 0fbd 516f 44bc
000001c0: 23b7 503b 1876 de3b bc9b 2abc 9df5 fcb9
000001d0: 7ecc a6bb 297d 36bc 90e2 13bd c6e3 763c
000001e0: 4c09 303c f13f 78bc d11c 073c fe4c c9bc
000001f0: 7827 94bc 4a84 1f3c 3084 013c 3ce1 03bc
00000200: 1908 61bc 0d24 1a3c 9c92 8d3b 383b 403b
00000210: fd4f b13c fe9d ed3c 6267 f5bb fe55 ee3c
00000220: ee7f e93b ad17 d1bc 13a9 853a c359 e33c
00000230: a445 69bc 64b0 ed3b 2294 b0bb a6c0 11bc
00000240: ba38 743b 49d1 093d 9abc 60bc 9c1f d53c
00000250: 4c63 743b 79f6 b23b b723 fcbc f0aa a6bc
00000260: 116a f23b 7495 f0bc 290d 403a 2683 de3b
00000270: 8db8 0a3c 77c4 ccbc 3fd5 58b8 c443 893c
00000280: 051b 5d3c 13f2 ca3b de88 f63b 7ab8 893c
00000290: c0d5 76bc bd6c a83c d56f 2c3d 2191 c13c
000002a0: b147 74bc 1918 0f3c 4636 b63c 9e59 00bd
000002b0: 2f38 033c fce0 eb3c a3c9 0dbc dd66 f03b
000002c0: 930a 30bc ff1a 983a 647d 1e3d eeee 8cbc
000002d0: a5ea 0bbd 3733 1fbd 14b3 bcba b378 373c
000002e0: 5682 833c 2ef1 41bc 42ab 72bb 84d3 663c
000002f0: 799a b8bc edf6 ec3c d352 8a39 b834 6ebc
00000300: 76bc b6bc 56a9 5cba a558 f43c 3fcc d03a
00000310: 2a3e 1dbc 2e64 2bbb 69c0 c5bc e7d8 e93b
00000320: 3517 623c 180a 023c 533b 063d da7a a3bc
00000330: 47ee b73c 3a83 e4bc 284c 56bc aa60 a33c
00000340: fcaf a53b 15e2 ed3a c89b 02bc c104 4b3b
00000350: 8bb9 09bc 8382 1f3c a65d 903b 1499 0abc
00000360: 0873 01bc a88f adbc 66af 87bb aafe 373c
00000370: 2744 24bc 5b1f 0b3d 18bf 71bc 0014 ad3c
00000380: 03d9 0e3c 00b4 663b 0b51 103b c791 0dbb
00000390: b868 93bc 7c04 12bc 4c9b 3abc df08 40bc
000003a0: b38b 4c3c 5e78 613c caa3 dabb b1aa 5fbc
000003b0: f45c 4bb9 9c93 62bc 7af4 8f39 bb98 78bc
000003c0: c7f6 143c 7be1 a73c 86d8 5f3c be40 bb39
000003d0: 4ced 2abc 6189 803c 341f 29bb ec3c 4f3c
000003e0: 502e 8fbc a783 ffbb 6855 fbbb 6f9b fe3c
000003f0: 38e2 9e3c e561 773c 02a5 bcbc 8e97 023c
-0.020381039 -0.02796549 -0.013914323 0.003517176 0.016369568 0.022663405 -0.027788963 0.038751315
-0.029241182 0.0062327706 0.011500016 -0.007183844 0.006207672 0.020526927 -0.043592785 0.0063064303
-0.0024892332 0.037011985 0.0057486347 0.04057455 -0.019331237 -0.0063933623 -0.0011294098 -0.015612454
0.003808837 0.0037821864 0.04471699 0.004790362 -0.0012009885 -0.013849908 -0.01830631 0.006022127
-0.0055077123 -0.027554706 0.021559615 -0.007854371 -0.0055230726 0.013049843 0.0071210214 -0.005750685
0.021768214 0.003581571 -0.0169162 0.025174363 0.005786904 -0.013119366 -0.01866792 -0.00046362233
-0.004865114 0.022478452 0.0049573435 0.010394955 0.007823746 -0.01994176 -0.0054140654 0.009848094
-0.0060204705 -0.0072202175 0.0063344482 -0.034118313 0.004964639 0.023661641 0.026073674 -0.0035999957
0.004584772 -0.017358199 0.006370384 0.005795034 -0.0018811217 0.01027758 0.02647281 -0.011648217
-0.008700801 0.0056112446 -0.0021159998 -0.0107257925 0.022528129 -0.010461137 -0.020425133 -0.031229628
0.008579658 -0.012282018 -0.0015183097 0.01788451 -0.012341853 0.01437159 -0.019947646 -0.020015122
0.0026269811 0.019844329 0.0010874729 0.026642356 -0.020860504 -0.0071398276 0.0018603079 -0.0032193484
-0.00027397776 0.006055062 -0.023949193 -0.0038380392 -0.0090739485 -0.0018831856 -0.010986741 -0.009738326
0.01907559 0.0056159906 0.00201495 -0.00036079506 0.0040610344 0.012576207 -0.035002038 -0.0119894305
0.003184744 0.00678898 -0.0104131065 -0.00048248182 -0.0050902953 -0.011138239 -0.03610474 0.015068954
0.010744404 -0.015151964 0.008246616 -0.024572846 -0.018085226 0.00973613 0.007905051 -0.0080493055
-0.013734841 0.009408009 0.0043204557 0.0029332172 0.021644587 0.029006 -0.007489131 0.029093739
0.007125846 -0.025523985 0.0010197483 0.027752763 -0.014237795 0.0072536934 -0.0053887526 -0.008896029
0.0037265257 0.033646856 -0.013716841 0.02601605 0.003729063 0.0054615107 -0.030778749 -0.020345181
0.007397898 -0.02936814 0.000732618 0.0067905365 0.008466852 -0.024996025 -5.1697014e-05 0.016755946
0.0134952115 0.0061934083 0.00752364 0.016811598 -0.01506561 0.020559663 0.04209884 0.023628773
-0.014909671 0.008733773 0.022242676 -0.031335466 0.008009001 0.028793804 -0.008654031 0.007336481
-0.010744709 0.0011604725 0.0386938 -0.017203774 -0.03415932 -0.0388672 -0.0014396631 0.0111982105
0.01605336 -0.011837287 -0.0037028347 0.014088515 -0.022534596 0.028926337 0.0002638312 -0.014538936
-0.022306662 -0.0008417567 0.029827425 0.0015930011 -0.009597341 -0.002615224 -0.0241396 0.0071364525
0.013799478 0.007936977 0.03277142 -0.019956041 0.022452487 -0.027894605 -0.0130796805 0.019943554
0.0050563794 0.0018149043 -0.007971711 0.0030978175 -0.008406053 0.009735706 0.004405695 -0.008459348
-0.007900961 -0.021186665 -0.004140782 0.01123015 -0.010026014 0.03396545 -0.014755033 0.0211277
0.008718732 0.0035202503 0.0022020962 -0.0021601783 -0.01799427 -0.008912202 -0.011389565 -0.011720865
0.012484479 0.013761608 -0.006672357 -0.013651536 -0.00019394216 -0.013829138 0.00027457235 -0.0151731325
0.009092039 0.02049326 0.013662463 0.00035715656 -0.010432553 0.015690507 -0.0025805952 0.012648802
-0.017478138 -0.0077976766 -0.0076700933 0.031079976 0.019394979 0.0150990235 -0.0230279 0.007970704

network_body._body_endoder.seq_layers.0.bias f4 [128]
00000000: 6ce0 733b a22a f63a e1fa 62ba eefa 863b
00000010: 9356 deba ed80 04bc d9b0 6fbb 570d bbbb
00000020: 5718 73ba 8bb8 743b 8eeb c73a 718c 7fba
00000030: 70bd 6fbb 8110 9cbb 8988 813b e476 6c3b
00000040: 428b feb9 7c70 34bb 15e9 ecbb de23 96b9
00000050: faec 1f3b a997 a73b f2fc 3d3b e75a 2abc
00000060: 6a70 413a 6cda fbb9 d529 9c3b c80a ff39
00000070: b9a8 50bb c15b 9a3b 84f3 adbb f74d 343b
00000080: d789 fa3a 36b7 203b 5a10 90bb 4543 7dbb
00000090: 6acf 343c 3292 323b 212a 07bb 66be 99bb
000000a0: 7e6a 513a 5496 173c de08 e039 9ba5 56bb
000000b0: 3ea6 ad39 b1e2 a43a 1ee9 e9bb 27d0 ed39
000000c0: b185 6e3a bd38 4ebb c793 983b db24 f3bb
000000d0: f504 8138 6f98 93ba 832d 943a e306 93bb
000000e0: e442 edbb 777c 953b 7553 04b8 f010 b1bb
000000f0: eff7 a23b 1f1f c53b 00eb 70b9 615f c03b
00000100: f3bd 8fbb b131 373b 248c 6bba c554 80ba
00000110: 9c05 8a3b 9b3f 1a3b bb24 97bb e924 95bb
00000120: 1c60 9dbb 3a0e 153c a84c b33a cc66 343c
00000130: 5a00 78bb 092b fc3a 5810 853b fe36 8ebb
00000140: 1a16 083c dc98 97ba 2b8a 2db8 6719 61ba
00000150: 84ca 2cbb 67fd bcbb ead1 38bc 3efd 04bb
00000160: b252 77bb 0949 993a 1311 f83b 8d8d 13bc
00000170: 3cad 8dbb f098 19bb e3ed b83a 6f56 283b
00000180: a406 d2ba d856 b3bb c46f 883b ec68 e33a
00000190: c224 563b ed0c bb37 8263 14bc 68c6 433b
000001a0: 1026 eb3a f42c 82bb 339e f13b 46c5 40bb
000001b0: 6e31 de3b 66a0 ca3b 77db d139 fec5 ef3a
000001c0: a2c5 8a3a ac25 113c 6f9e 71ba afe8 bab9
000001d0: 4098 89ba b4ab 2a3b 4e02 88bb e0e9 20bb
000001e0: 2663 61bb a177 0a3b 87a5 783b 0c0e c1bb
000001f0: 7c11 843b 3b7c 91bb 224c 193b 176e 6639
0.0037212623 0.0018781016 -0.00086585997 0.0041192686 -0.0016963057 -0.008087379 -0.0036573915 -0.0057083773
-0.0009273341 0.0037341441 0.0015252696 -0.00097484054 -0.003658142 -0.0047627096 0.003953044 0.0036081607
-0.0004855041 -0.0027532866 -0.007229934 -0.00028636953 0.0024402724 0.005114515 0.0028989878 -0.010397649
0.0007379117 -0.00048037188 0.004765729 0.00048645423 -0.0031838848 0.004710645 -0.0053085703 0.002751229
0.0019114566 0.0024523265 -0.0043964805 -0.0038644832 0.0110357795 0.0027247784 -0.0020624476 -0.0046918867
0.0007988586 0.00925215 0.00042731216 -0.0032752517 0.0003312099 0.0012579766 -0.0071383854 0.00045359248
0.0009098901 -0.0031466924 0.0046562883 -0.007420165 6.152123e-05 -0.0011260639 0.0011305067 -0.004486905
-0.00724064 0.0045619565 -3.1548978e-05 -0.0054036304 0.0049734036 0.006015673 -0.00022975728 0.005870745
-0.0043866574 0.0027953202 -0.0008985421 -0.0009790888 0.0042120945 0.0023536447 -0.004612533 -0.004551519
-0.004802717 0.00909763 0.0013679462 0.011010837 -0.0037842006 0.00192389 0.004060786 -0.0043400517
0.008306051 -0.0011565941 -4.1375093e-05 -0.0008586854 -0.0026365826 -0.0057675126 -0.011280516 -0.0020292546
-0.00377385 0.001169474 0.007570395 -0.009005916 -0.0043236297 -0.0023437105 0.0014108982 0.0025686284
-0.0016023708 -0.005472999 0.004163714 0.0017349995 0.0032675718 2.2298156e-05 -0.009056928 0.0029872898
0.0017940421 -0.003972644 0.007373595 -0.002941446 0.006780795 0.0061836718 0.000400271 0.0018293259
0.0010587464 0.008859079 -0.0009217029 -0.00035650047 -0.0010497645 0.0026042284 -0.0041506654 -0.0024553463
-0.0034391372 0.0021128433 0.003794046 -0.005891567 0.0040304046 -0.0044398583 0.0023391326 0.00021975521

network_body._body_endoder.seq_layers.0.weight f4 [128, 26]
00000000: c82e 38bd 23ac 86bd 0fae 63be 629b f73d
00000010: 9f06 9bbd f2de 993e f7ec bebd ff29 303e
00000020: a02d d0bc 101d 273e 6b31 67be 3cc2 aabd
00000030: fedf 043e ff72 e63d 1f07 84be f91c b4be
00000040: d4af b03d 2f38 20be 132c 58be 5876 b1bd
00000050: ae3f 2ebd c4aa d4bd eb15 28be 2a90 db3e
00000060: 5e6a 1abe d4f0 453d a53e f1bd 5281 d13a
00000070: eb7d d13d 7bbe 263c 0a80 3a3e 0627 87bd
00000080: 710b 2abc 3711 2d3e 71c2 7f3a 1cc4 b9bd
00000090: aaf0 0f3e e348 c2bd d803 283e 3474 d7bc
000000a0: 7b8e da3d 38d5 0a3e 9e42 a53e 3332 37be
000000b0: 18c8 263e d78d 7dbe 8836 ab3d b41f 5cbd
000000c0: a272 0b3e db18 c1bc aa01 3dbe a431 e9be
000000d0: d26a c2be 338c 64be 34e6 e73c d8c3 c3be
000000e0: 7da9 1cbd bdc8 56be 950e 92be 17cb a03e
000000f0: c009 cdbe 3af1 a83d 896c ef3d 60b5 773c
00000100: 5cab 36be b91d 60be 9e9f 543e 563c c53d
00000110: db88 b23e 7972 8a3d ad8c 2fbb f997 2fbd
00000120: e75d 583d 8a02 a73c 5bf2 7a3e a38d 093e
00000130: af80 d7bd 26a4 523d 117b a53e 138d db3c
00000140: aded 1abe d36e 203e e58c bd3c b1d5 39be
00000150: dea0 67bc e1b0 0ebd 0f3f 603c 4e30 ed3d
00000160: 3341 3dbd 422a 0b3e 42b7 a9ba 8bbd fc3d
00000170: e5ff 523e f098 343d 0d82 fc3c 0c1c 6bbe
00000180: df60 03be 54ea d5bc 4271 09be 0762 b3be
00000190: f4c6 a83b 30ac 853e 7471 9cbd e7f8 5cbe
000001a0: 5772 0abe a351 593e bdb6 84be 8d6d 5d3c
000001b0: 8c83 5f3c 9be0 7b3b 136d 2a3e b24f 08be
000001c0: 1da0 40bb 1603 be3d 9f63 c03d 6e43 983e
000001d0: 4f40 783e 7eba 88bc f9b6 3abd ce23 1abe
000001e0: 9011 74bd 8f3f d43d f71b e23d 61dc 2a3e
000001f0: 4df8 f83d 8c88 a8bc 1d1a 5ebd f87b 76be
00000200: ab44 1a3e 7ea4 563c 4fa0 18be 1726 9fbd
00000210: 3465 d5bd 11e2 3e3e 9382 d53c 983b 7e3c
00000220: b586 7e3e 7720 2fbe d4f4 4ebe e397 1b3e
00000230: 2878 4fbe 0de6 88be 6575 4c3e f5e0 843d
00000240: 31d2 5a3d 7ffe 3ebe d651 8cbe 00b7 a4bc
00000250: 2142 17be ed93 c4bd f822 4b3d b46a 1fbe
00000260: ee6e 1dbe 642b 833e b479 253e ada8 69bd
00000270: d510 10bd c823 4cbe 9a7f dc3d 7f33 133e
00000280: 05ee 5dbe ba1b aabe e382 a5be 860b c43d
00000290: 7b68 95bd 310d aa3c 180f 593e 0b87 b13d
000002a0: 3ab7 2dbe 29d1 abbe f7a2 e3be 9ba6 56be
000002b0: de96 513e e34b 013d 3c8e 213e 0610 083d
000002c0: 0ba2 8fbd 1ecf 6d3d 3d0b 7d3d 2465 c13d
000002d0: 2341 49be 0032 08bf 2128 edbc 93de 80bc
000002e0: 8ff0 973e d1bd c2bd 7c56 47be 77b6 4b3d
000002f0: 3467 b8bd f3b4 debc 20dd 543e 592b 90bd
00000300: d1e0 ab3c 19bb c2be b3e1 643d 75e1 b9bd
00000310: 8aea a43c 973d ccbd ae51 253e 340a ab3e
00000320: 32d3 6cbe 8074 3ebe ab5d 493d ff0b 7c3e
00000330: 1456 063f e9fb b7bd f560 1dbe fed8 8a3e
00000340: a8de a83e 8af1 d13d 88ad 40bd bcf7 afbe
00000350: cb7a 823d 3c77 0b3c 76e5 e1bc 349c 23be
00000360: c768 29be 7af5 993e 4d77 123e e488 f2bd
00000370: ac6d a7be 921b 9fbe 6739 cf3d 4445 aa3e
00000380: ee65 2a3e 2f4f 143e 7c16 afbe 8f42 113c
00000390: 4e54 523e 356e 593c 93df 543c c75f bc3d
000003a0: 443a 6dbd 310d 303d 5057 e93d 62ca 503e
000003b0: 7e75 443e 2026 133e aad7 31be ab6b 473e
000003c0: 4907 a3bd 79af 03bd f9e9 f0bc 7ca6 1f3e
000003d0: 309a 12be 9a38 153d 3565 bdbd 7842 51bd
000003e0: 501e 06bd 8b6c 52be 0b35 e9bc 98be 373d
000003f0: a959 723e f6eb 15be 03c4 7c3d 3f75 523e
-0.04496649 -0.06575801 -0.22234367 0.12090184 -0.07569622 0.30052906 -0.09322541 0.1720352
-0.02541238 0.1631968 -0.22577445 -0.083378285 0.12976071 0.112524025 -0.25786683 -0.35178354
0.086272866 -0.15646432 -0.21110563 -0.086651504 -0.0425412 -0.103841335 -0.16414611 0.42883426
-0.15079638 0.048325375 -0.117795266 0.0015983975 0.10229095 0.01017725 0.18212906 -0.0659924
-0.010378704 0.16901098 0.0009756452 -0.09070608 0.1405665 -0.09486558 0.16407716 -0.026300527
0.10671707 0.13557899 0.32277387 -0.17890243 0.16287267 -0.24761139 0.083600104 -0.053741172
0.13617948 -0.023571422 -0.18457666 -0.45545685 -0.37972122 -0.22319107 0.028308012 -0.38235354
-0.038247574 -0.20975013 -0.2852675 0.31404945 -0.400465 0.08249135 0.11690623 0.015118927
-0.17838806 -0.21886338 0.20764014 0.09630649 0.34870037 0.06760115 -0.002678673 -0.04286954
0.052823927 0.020386953 0.24506514 0.13432936 -0.10522591 0.051426075 0.32320455 0.026800668
-0.15129729 0.15667276 0.023138473 -0.18147923 -0.014137475 -0.034836654 0.013686909 0.11581479
-0.046204757 0.13590339 -0.0012948292 0.1234084 0.20605429 0.044091165 0.030823732 -0.22959918
-0.12829922 -0.026112713 -0.1342211 -0.35035726 0.00515067 0.2610793 -0.07638827 -0.21579324
-0.1352018 0.21222548 -0.25920668 0.0135148885 0.013642203 0.0038433436 0.16643171 -0.13311651
-0.002939231 0.09277932 0.09394001 0.29738945 0.24243282 -0.016690489 -0.045584653 -0.15052721
-0.05958706 0.10363685 0.1104049 0.1668563 0.121567346 -0.020572923 -0.054224122 -0.24070728
0.15065257 0.013100741 -0.14904903 -0.07770937 -0.104196936 0.18640925 0.02606324 0.015517138
0.24856074 -0.17102228 -0.20210582 0.15194659 -0.2026068 -0.26738015 0.19966657 0.0648822
0.05342311 -0.1865177 -0.27406186 -0.020106792 -0.1477132 -0.09598527 0.049593896 -0.15568048
-0.15374348 0.25619042 0.16159707 -0.057045627 -0.035172302 -0.19935524 0.107665256 0.14375113
-0.21672828 -0.3322428 -0.3232642 0.095725104 -0.07295319 0.020758243 0.21197164 0.086683355
-0.16964427 -0.33558014 -0.4446027 -0.20961992 0.20467708 0.03156651 0.15776914 0.033218406
-0.07013329 0.05805885 0.061778296 0.09443119 -0.19653754 -0.53201294 -0.028949799 -0.015731132
0.2967572 -0.09508861 -0.19466585 0.04973456 -0.090040594 -0.027185893 0.20787477 -0.07039518
0.020981224 -0.3803337 0.055879306 -0.09076206 0.020131368 -0.09972685 0.1614444 0.33406222
-0.2312744 -0.18599129 0.049161594 0.24613951 0.52475095 -0.08983595 -0.15369017 0.27118677
0.32982373 0.10251148 -0.047040492 -0.34368694 0.06371077 0.008512314 -0.027575236 -0.15977556
-0.16543876 0.30070096 0.14303322 -0.11842516 -0.3270086 -0.31075722 0.101183705 0.3325597
0.16640446 0.14483331 -0.34196842 0.008865966 0.20539972 0.013270904 0.012992757 0.091979556
-0.057916895 0.04298133 0.11393607 0.20389703 0.19185445 0.14370012 -0.17367426 0.19474666
-0.07960374 -0.032149766 -0.029408442 0.15590852 -0.1431663 0.036430933 -0.09247819 -0.05108878
-0.032743752 -0.20549218 -0.028467676 0.0448595 0.23667015 -0.14640793 0.06171037 0.20552538

network_body._body_endoder.seq_layers.2.bias f4 [128]
00000000: a7af 8abb 626f 863b ccba 653b 10b2 853b
00000010: 7b11 843a b90b 513b 7440 00bb f9ff 5e3b
00000020: 464a d039 1952 efb9 151b 9939 e6b1 693b
00000030: 3e93 91ba 8419 7a3b f9b7 ebbb 965a cdba
00000040: ddd6 443b 5e82 8e3b 95a2 3cbb 5f76 843b
00000050: b728 e7b9 ab4a a23b 6a13 02bb 3305 08bc
00000060: d3b0 063b 5e7c dfba aa24 bd3b ee0f a43a
00000070: a341 853a 52e8 19bb 928c a839 6de5 0e3b
00000080: d77c aa3a 7b88 d2ba b00d 8e3b fd74 35ba
00000090: 441a 09bb c0e9 c13a ea0d 373b 3a29 6d3b
000000a0: 568f 813b 557e 993a 3c8c 2abb 09c7 313a
000000b0: 1bcc 433b 0f10 9f3a 8d93 f6ba 90f7 abba
000000c0: 488d 3cbb a8bb db3a 643e 083b 72a3 0cbc
000000d0: 3a6d f63b 7e02 1dbb e227 b0bb 4e0a 3b3b
000000e0: 3b8e 193a 3c2a 65bb f77c 153b fb41 eb3a
000000f0: 9284 5639 cd47 453b c809 b13b 337d 7fbb
00000100: 2d1d 7ebb ea70 693b 2238 153b ede9 f1b9
00000110: e11d 80ba 6aa1 b5bb 27e9 1a3c 6c42 aeba
00000120: e978 1e3b ebb4 003b a2bd 803b 89a2 e9ba
00000130: b9f5 173b 7c41 c5ba 814d 0bbb dfe4 943b
00000140: 6b72 b9ba df89 3cbb 3ad3 3dbb 4852 d638
00000150: 8e4f f8ba b54f 513b f0c4 533a d7f8 3abb
00000160: 55a2 17bc 6565 43ba 6081 773b 661b 983b
00000170: a61f acb9 9faf a738 ed4f afbb eb88 303b
00000180: 39ba fa3b 2890 963a 7617 eeba 4677 c2bb
00000190: 7286 6ebb ba58 10bb 55c3 cbba 1b04 b23b
000001a0: 11e1 a8bb b373 0b3b 6160 eb3b 549a 57ba
000001b0: 2b8e 813b c1d8 97b9 7d1b 54ba 321b 22bb
000001c0: e960 bb3b 3cf8 d83a 3e74 61ba ee86 0abb
000001d0: 71c5 88bb cf87 36ba f652 ccbb 8267 b0b8
000001e0: 3c29 8838 5fc7 dbba 11ae e4bb 1d24 4c3a
000001f0: 68dd 9fbb d863 1c3a c27e 13bc b87a 5b3a
-0.004232365 0.0041026333 0.0035053967 0.0040800646 0.001007601 0.0031897856 -0.0019569667 0.0034027083
0.0003972819 -0.000456468 0.00029202612 0.0035659014 -0.0011106504 0.003816218 -0.007193562 -0.0015667256
0.0030035295 0.004349037 -0.002878343 0.0040424312 -0.00044090088 0.004952749 -0.0019847997 -0.008302021
0.0020552173 -0.0017050614 0.005772193 0.0012516954 0.0010166656 -0.002348442 0.0003214819 0.002180423
0.0013007176 -0.0016062403 0.004335128 -0.00069220347 -0.0020920197 0.0014794394 0.0027931877 0.0036187903
0.0039538546 0.0011710624 -0.0026023528 0.0006781673 0.0029876295 0.0012135523 -0.0018812284 -0.0013120044
-0.0028770734 0.00167643 0.002078914 -0.00858389 0.007520345 -0.0023957784 -0.005375848 0.0028540078
0.0005857681 -0.00349678 0.002281008 0.0017948741 0.00020458017 0.003010261 0.0054027773 -0.0038984537
-0.0038774714 0.003562028 0.0022769053 -0.0004614139 -0.000977453 -0.0055429237 0.009455002 -0.0013294942
0.0024180955 0.0019639086 0.003928856 -0.0017824929 0.0023187234 -0.0015049423 -0.0021255913 0.004543885
-0.0014148479 -0.00287687 -0.0028965012 0.00010219641 -0.0018944608 0.0031938378 0.0008078357 -0.0028529668
-0.009255012 -0.00074537686 0.0037766322 0.004641938 -0.00032829976 7.9958925e-05 -0.005350104 0.0026937078
0.007651594 0.0011487054 -0.0018164951 -0.0059346287 -0.0036396054 -0.0022025541 -0.0015545884 0.0054326183
-0.005153783 0.002127868 0.00718312 -0.0008224596 0.0039537153 -0.0002896246 -0.0008091254 -0.0024735448
0.0057183397 0.0016553472 -0.000860039 -0.0021137553 -0.0041739275 -0.0006962986 -0.0062354757 -8.411614e-05
6.492666e-05 -0.0016767791 -0.006978758 0.0007787364 -0.0048786886 0.00059658056 -0.009002389 0.00083724735

network_body._body_endoder.seq_layers.2.weight f4 [128, 128]
00000000: b65a 0fbd ac50 153d 842e 103d 90bb 5cbc
00000010: 5bec 6fbd 7fab 1cbd 51d2 a0bd e32b 4c3d
00000020: a329 0c3d 7bcd 77bd d359 f4bc 04a5 97bb
00000030: 6c06 3a3d f31d b1bb 0089 1cbd 920c 8bbc
00000040: d52f 99bd ca5a 193d d8c2 dd3d 621c 3b3e
00000050: a928 1cbd 7eb4 853d 62db 50bd c7eb 183d
00000060: 2e83 233d ac6c d63d b444 73bd 76e1 d53d
00000070: c64f 6f3d 0978 1c3c 32dc 90bb aaeb 9f3d
00000080: f8a8 ec3d b0f7 0dbe b37d c33b de1e fabd
00000090: ef2e 3cbd 8aae 90bd d360 52be fd07 3dbc
000000a0: a859 0fbe 5b4e c63d 609b 923d a9a5 5c3d
000000b0: 8411 aa3c c9ed 743e f503 523d 295b 38bd
000000c0: 1fd4 bbbc def2 06bd 6822 3abd 48ab 8bbd
000000d0: 266c df3c 3ee5 e4bd 723b 76bd 0ee8 033c
000000e0: f690 293a 1bb2 97bc 4b97 b03c ae1b be3d
000000f0: 9f93 c7bd 6d7f 66bc 651a 8c3d f1d2 e63d
00000100: a95c 533e 5018 a4bc ef11 ab3c 5204 00be
00000110: f511 5fbd 0e92 ab3c 9967 8c3c 6253 e23d
00000120: 56be f63d 1489 cb3c 12db 113d 200c 0abe
00000130: 7230 a6bd 02d1 46bd d08f 7ebd ecc5 863a
00000140: 04b5 82bc 9257 e7bd 44d2 50be 80b9 103e
00000150: 9ea2 01bc ec3f 703d 1996 993e b291 84bd
00000160: 8739 b2bd eb59 22bb 5206 533d bd9e 113e
00000170: d27a 0ebe a70c 1f3e 440f 73bd b02f a33c
00000180: f4fc 13be 80be 9dbd dabc 9ebd 0fbd 22be
00000190: 84b1 2dbe 52cf 403d 8a6b 36bd 13d8 a03d
000001a0: 2045 9dbd afed 6fbe 6ad7 3f3d 501f eebc
000001b0: e71a aebd 04be c83c ea69 c83d 9983 8d3c
000001c0: 47e1 ad3d 2cad a6bc 5e01 3e3d e8f0 553d
000001d0: b604 71bd 8bb2 b5bd aafb e1bd 25ef a93d
000001e0: 01f7 b2bc 1453 96bd 1802 663c 2f6d ccbc
000001f0: a4f0 47bd 3cb1 8fbd 61e5 86bd bf6b b73d
00000200: 98ab 9fbd b33c 18be 1cb6 9e3d 1090 fabb
00000210: 4b3c 12bd f019 39bd fb38 ea3d 02e5 4cba
00000220: 8072 9e3d 5519 193d 583b f8bd 8009 d0bd
00000230: 4dfc 44bd 793e d13c 6d4c e1bd 88dc e43d
00000240: 5c8c ffbc 980a e6bd e58e 0d3d fe44 c5b9
00000250: 2ee3 2dbe 73f4 c8bd daf5 8a3d 166a 463d
00000260: 78c9 cfbd 6f2d a4bd 39c3 703d cc25 cbbd
00000270: de06 7fbd 592a 54bd f3df a9bd 03f8 e53d
00000280: 8b14 34bd d1de 9c3d 3e45 453e 860a 07be
00000290: 5fb0 c93d 66e4 dabc 1327 1cbc 1854 083d
000002a0: af80 cebd 2d0a 38bb c55e 42be 3d05 d23d
000002b0: 9d4a b7bb fc52 f13d 7c82 8cbe 375e 963d
000002c0: 1058 273a 8dd7 6fbd ca9c 803d 9b70 3bbb
000002d0: ff64 bf3b f898 803d 540a 3e3d cb44 66bd
000002e0: 7f80 ae3b ed67 673d 5361 aebc 0b22 5fbc
000002f0: ce6d e2bb e12c 0bbe 4352 2dbd c63f 003d
00000300: 1444 933d 8a9d d7bd 8bf4 c03c ad58 4b3d
00000310: 85fe 023d c77e 72be d494 6ebd 8ffc da3d
00000320: 6bd1 ef3d d916 3dbd 4709 a93c 1496 aa3c
00000330: 2008 f4bd a15d 3abe 6b6c aebd 708a 5abd
00000340: 7a59 8ebc 2ba9 143b c62f dcbb 1567 323d
00000350: ded5 163d a07c 2dbe 1866 80bd 2ab5 debd
00000360: 3477 a73d d0c8 263c 3dac 94be adcd 29bd
00000370: dbd2 213b fccd f0bd 095a 173e 9a17 343d
00000380: e9dd 643c 4c41 03bc f2cc 043e 8a78 3f3e
00000390: 7ba4 e03d 1324 683d 46f7 9c3d 7fca acbd
000003a0: f0d7 3dbd a3db ebbd 445f 0cbc 8537 d73d
000003b0: d284 91bd ef48 c2bc 75fb 2abd 5112 203d
000003c0: 8d70 84bc 570a eb3d 2e14 943d c00c 75bd
000003d0: 37bd 7bbd 9e49 98ba 707d 84bd 31eb 7b3d
000003e0: 08b0 e4bd 39fa ccbd 19b9 6abd 680a 1b3e
000003f0: dfa9 eabc fa24 583e 818e 343d a506 123e
-0.034998618 0.036453888 0.03520061 -0.013472453 -0.058575016 -0.03824949 -0.07852615 0.04984654
0.034219395 -0.060498696 -0.029827988 -0.0046278257 0.04541628 -0.0054051816 -0.03821659 -0.016973767
-0.07479826 0.0374401 0.10828179 0.18272546 -0.038124714 0.06528567 -0.05099047 0.03733423
0.039920025 0.10469946 -0.059391692 0.10443394 0.058425687 0.009550103 -0.0044207806 0.07808621
0.11555666 -0.13864017 0.0059659122 -0.12212919 -0.045943197 -0.07064541 -0.20544748 -0.011537549
-0.13999045 0.09682914 0.07158542 0.053868923 0.020760305 0.23918833 0.051273305 -0.045008812
-0.022928296 -0.03294646 -0.04544297 -0.06819779 0.027273249 -0.11176537 -0.060115285 0.008050932
0.0006468439 -0.018517544 0.021556517 0.09282623 -0.09744953 -0.014068467 0.06840972 0.11270703
0.20640816 -0.020031124 0.020882575 -0.12501648 -0.054460485 0.020943668 0.017139243 0.1105106
0.120480224 0.024845637 0.035609312 -0.13481188 -0.08114709 -0.04853917 -0.06214887 0.0010282374
-0.015955456 -0.112959996 -0.2039271 0.14133263 -0.007912306 0.05865471 0.29997328 -0.06473102
-0.08702379 -0.0024772834 0.0515197 0.1422071 -0.1391404 0.1553217 -0.05934073 0.0199202
-0.14451963 -0.077023506 -0.07750864 -0.15892433 -0.16962248 0.047072716 -0.04453615 0.07853713
-0.076792 -0.23430513 0.046836294 -0.029067665 -0.08501225 0.024504669 0.097858265 0.017274665
0.08490234 -0.020346247 0.046388023 0.0522317 -0.058842383 -0.08871945 -0.11034329 0.08297566
-0.021846296 -0.07340065 0.014038585 -0.024954407 -0.048813477 -0.07016227 -0.06586719 0.08956098
-0.07796401 -0.14866905 0.07749578 -0.007646568 -0.03570203 -0.04519075 0.114366494 -0.0007816107
0.07736683 0.037377674 -0.12120694 -0.10158062 -0.048092175 0.025542485 -0.11000905 0.111748755
-0.031194858 -0.11232489 0.034560103 -0.0003762617 -0.16981193 -0.0981225 0.06785174 0.048441015
-0.10145849 -0.08016478 0.05877993 -0.099193186 -0.06226241 -0.0517982 -0.08294668 0.11228945
-0.043964904 0.07659686 0.19264695 -0.13187608 0.09848093 -0.026720237 -0.0095308 0.033283323
-0.10083138 -0.0028082237 -0.18981464 0.102549054 -0.0055936114 0.11783406 -0.27443302 0.07342189
0.0006383667 -0.058555175 0.06279905 -0.0028601054 0.005840897 0.062791765 0.04639657 -0.05621795
0.0053253765 0.056495596 -0.021286642 -0.013618956 -0.0069100624 -0.13591339 -0.04231478 0.03131082
0.07190719 -0.10528095 0.023554107 0.049645115 0.03198101 -0.23681174 -0.058247402 0.10692703
0.11709865 -0.046164367 0.020634307 0.020823516 -0.11915612 -0.18199779 -0.08516773 -0.05335468
-0.01737665 0.002268384 -0.006719562 0.043555338 0.036825053 -0.16942072 -0.06269473 -0.10874398
0.08177033 0.010179713 -0.29037657 -0.041455913 0.002469233 -0.117580384 0.1478044 0.04396782
0.013968923 -0.008011173 0.12968805 0.18698326 0.10968872 0.056675028 0.07664351 -0.084370606
-0.046348512 -0.11516502 -0.008567635 0.105086364 -0.071054116 -0.023716418 -0.041743714 0.039079968
-0.01616695 0.114765815 0.072304115 -0.059826612 -0.061459746 -0.0011618619 -0.06469238 0.061503593
-0.11166388 -0.10008664 -0.05730543 0.15140688 -0.028645454 0.21107855 0.044081215 0.14260347
