results/ppo/MoveToHider/MoveToHider-345012.onnx (onnx, 126260 bytes, 7 tensors)

action_model._continuous_distribution.log_sigma f4 [1, 2]
0	0xbc81437e	-0.015779253
1	0x3bfc8e53	0.007707396

action_model._continuous_distribution.mu.bias f4 [2]
0	0x3d582aa7	0.05277505
1	0x3c78c137	0.015182785

action_model._continuous_distribution.mu.weight f4 [2, 128]
0	0x3d2741ee	0.04083436
1	0xbd84e8e8	-0.06489736
2	0xbd83a776	-0.06428425
3	0x3d16628b	0.03671507
4	0x3c1b150d	0.009465468
5	0xbd7bba57	-0.061457004
6	0xbd81f7a4	-0.06346062
7	0xbce13adb	-0.027493885
8	0xbd653a06	-0.05596354
9	0x3c3d35e0	0.011548489
10	0x3acf5c2c	0.0015820316
11	0xbdb18da4	-0.08669594
12	0xbb1aeb35	-0.002363873
13	0xbd0206b3	-0.03174467
14	0xbcdabc66	-0.026701164
15	0xbcf35978	-0.029705748
16	0x39ab07a3	0.0003262135
17	0x3d0d8343	0.03454901
18	0xbd3c41d8	-0.04596123
19	0xbca8db8f	-0.020612506
20	0xbd257e4a	-0.04040364
21	0x3dbc6654	0.09199205
22	0x3d19c0be	0.03753733
23	0x3d6227e0	0.05521381
24	0xbd673d54	-0.05645497
25	0xbd4a2d0d	-0.04935937
26	0x3cd8deff	0.02647352
27	0xbcab95d2	-0.020945463
28	0xbd5b349c	-0.05351697
29	0xbd91e2e1	-0.07123352
30	0xbcf01e7c	-0.029311411
31	0x3d3542d5	0.04425319
32	0x3c29a297	0.010353706
33	0x3c3d5d11	0.011557833
34	0xbcf255e3	-0.02958197
35	0x3c9bf2b4	0.019036628
36	0x3cec4a15	0.028843919
37	0x3c712a7f	0.0147196045
38	0x3d108588	0.035283595
39	0x3d1cb884	0.038261905
40	0xbd57a608	-0.052648574
41	0xbd7eef72	-0.06224007
42	0x3b5049ad	0.0031782195
43	0xbd887d9f	-0.06664585
44	0x3d77ae84	0.060469165
45	0xbd898ac2	-0.06715919
46	0xbd62597a	-0.055261113
47	0xbd2516c4	-0.040304914
48	0x3c9b1e53	0.018935358
49	0x3d6133a2	0.05498088
50	0xbd6ed7b4	-0.05831118
51	0xbbf9074b	-0.0075997463
52	0xbd88a162	-0.06671406
53	0xbc9c917c	-0.019112341
54	0x3aea5c75	0.0017880338
55	0xbd47adde	-0.048749797
56	0xbc52eb93	-0.012873548
57	0x3d1f3d5e	0.038876884
58	0x3cff48ae	0.031162586
59	0xbd81f0cf	-0.06344759
60	0xbd8e535b	-0.069494925
61	0x3d1f1ab2	0.038843818
62	0xbd9eb9ba	-0.07750268
63	0x3d0d7b7e	0.0345416
64	0x39f8bc15	0.00047442378
65	0xbd981a9e	-0.07426952
66	0x3d1754eb	0.03694622
67	0x3d1d961e	0.03847324
68	0x3d11ff3f	0.035643812
69	0xbd639672	-0.055563398
70	0xbb2f90d6	-0.002678921
71	0x3d07716e	0.03306716
72	0x3d101a0a	0.035181083
73	0xbd88bdbe	-0.066768155
74	0xbd7664f7	-0.06015488
75	0xbd55bd87	-0.0521827
76	0x3d49d12c	0.049271747
77	0xbce7feea	-0.028319795
78	0x3d796376	0.06088587
79	0xbcf0dbcc	-0.029401682
80	0xbcbebcf5	-0.023283461
81	0xbd115462	-0.035480864
82	0xbd3a4ef5	-0.045485456
83	0x3bab0606	0.005219224
84	0x3d78ec2d	0.06077211
85	0x3d29480b	0.04132847
86	0xbd035d53	-0.032071423
87	0xbd622725	-0.055213112
88	0x3d356e72	0.044294782
89	0xbb1aae13	-0.0023602291
90	0xbca6b608	-0.020350471
91	0xbdd057e9	-0.101730175
92	0xbd1601a4	-0.03662266
93	0xbd867f22	-0.065672174
94	0xbcfac16c	-0.030609809
95	0xbd770cea	-0.06031505
96	0xbd25a3db	-0.040439468
97	0xbcbff58e	-0.02343252
98	0x3d0b025d	0.0339378
99	0xbc08eeb6	-0.008357694
100	0x3d29b4dd	0.04143225
101	0x3c8190f9	0.015816199
102	0xbd8af43f	-0.067848675
103	0xbb48aa79	-0.0030619188
104	0xbc9474d2	-0.01812211
105	0xbb8afc5b	-0.004241509
106	0xbcb10528	-0.021608904
107	0xbd6a8bdf	-0.057262298
108	0xbcbd1324	-0.023080416
109	0xbcf7a8d9	-0.03023188
110	0x3d62205d	0.055206645
111	0x3c57b89e	0.013166575
112	0x3d5c94ea	0.053852953
113	0x3d45010a	0.048096694
114	0x3d0c026f	0.03418201
115	0x3d004d18	0.031323522
116	0xbc08d5aa	-0.008351723
117	0xbc7ab933	-0.015302944
118	0x3d716c21	0.05894101
119	0xbcf73e69	-0.030181127
120	0x3d59fbbc	0.05321859
121	0x3cc2882a	0.023746569
122	0xbd512ffb	-0.05107115
123	0xbd982467	-0.07428818
124	0xbd0378d7	-0.032097664
125	0x3d1c0a1a	0.03809557
126	0x3d60a1a4	0.054841653
127	0xbda50aa9	-0.08058674
128	0x3c24958f	0.010045423
129	0xbc93d76f	-0.018047063
130	0x3ba7b994	0.005118558
131	0x3d0dade9	0.03458968
132	0x3d1be54a	0.038060464
133	0xbcae577c	-0.02128195
134	0xbcd612e7	-0.02613206
135	0x3c07e58e	0.008294476
136	0xbc8ade18	-0.016951606
137	0xbd6447f5	-0.055732686
138	0x3c03e5cd	0.008050394
139	0xbc8eff6d	-0.01745578
140	0x3ca9c92b	0.020725807
141	0x3cc68990	0.024235517
142	0x3c239e53	0.009986478
143	0x3d2366d4	0.039892986
144	0x3d50e826	0.051002644
145	0x3d2dc9fb	0.04242895
146	0xbd07a103	-0.033112537
147	0xbc9bf379	-0.019036995
148	0xbc2bff7d	-0.010497925
149	0x3cc376ce	0.023860361
150	0xbc8e1a2c	-0.017346464
151	0xbcf7098e	-0.030155923
152	0x3b2fb866	0.002681279
153	0xbd043181	-0.032273773
154	0xbcdc1e97	-0.026870055
155	0xbd3aa841	-0.045570616
156	0xbb381bdf	-0.0028092784
157	0xbcfe386b	-0.031032762
158	0x3c943231	0.01809034
159	0xbd0e5c0c	-0.03475575
160	0xbd1d51c3	-0.038408052
161	0xb9e8f13e	-0.00044430228
162	0x3d2d0955	0.042245228
163	0xbcd2b529	-0.02572115
164	0xbbe877af	-0.0070943455
165	0x3c769afe	0.015051601
166	0xbd3fa6ae	-0.046789818
167	0xbd8e1d24	-0.06939152
168	0xbc40fa06	-0.01177836
169	0x3c33fd5f	0.010985701
170	0x3d231acc	0.039820477
171	0xbd30e3b6	-0.043185912
172	0xbd862387	-0.06549745
173	0xbd376b18	-0.044779867
174	0xbca2fe71	-0.019896718
175	0xbd77d1ec	-0.06050293
176	0xbd599b79	-0.053126786
177	0x3b476c90	0.0030429699
178	0xbc20c061	-0.009811492
179	0x3c2f33a8	0.010693468
180	0xbce82d31	-0.028341861
181	0xbd0894d8	-0.033345073
182	0xbd0061ef	-0.031343397
183	0xbd0d1562	-0.03444422
184	0xbd340665	-0.04395141
185	0xb9c81d85	-0.00038168966
186	0x3cbf6c5e	0.023367103
187	0xbc802523	-0.015642708
188	0xbd26b529	-0.04070011
189	0xbd16c384	-0.036807552
190	0xbc765568	-0.015035011
191	0x3d371223	0.04469503
192	0x3c62a2d8	0.01383277
193	0x3b303e55	0.0026892622
194	0xbd8737ea	-0.06602462
195	0x3c6b4e02	0.01436186
196	0xbd01c554	-0.031682327
197	0x3d4c5fa7	0.04989591
198	0x3c3784f2	0.01120113
199	0xbba6c678	-0.0050895773
200	0x3d8b3995	0.06798092
201	0xbb27fe04	-0.0025633583
202	0x3c2f520e	0.010700716
203	0xbce2e586	-0.027697336
204	0xbd803882	-0.06260778
205	0xbd66b541	-0.0563252
206	0xbc87714c	-0.016533516
207	0xbd633c8b	-0.05547766
208	0xbc5ea4f1	-0.01358913
209	0xbd118721	-0.03552926
210	0xbd2f5673	-0.042807054
211	0x3d5cdc30	0.053920925
212	0x3d0e64ac	0.034763977
213	0xbd26a10e	-0.040680937
214	0x3b0a725e	0.0021125297
215	0x3b439af3	0.0029846996
216	0xbd214d71	-0.039380495
217	0x3c104e5b	0.008807744
218	0xbd6ed3e3	-0.05830754
219	0xbdc37834	-0.09544411
220	0xbd0962d5	-0.03354152
221	0xbd29cdd3	-0.041456055
222	0xbcc3d25f	-0.023904024
223	0xbc65bda5	-0.014022266
224	0xbd1591b7	-0.036515918
225	0xbd4ba1c3	-0.049714815
226	0x3cb70eee	0.022345986
227	0xbcb69994	-0.022290029
228	0x3cad0ead	0.021125162
229	0x3d3809ee	0.044931345
230	0xbccc8108	-0.02496387
231	0x3d34720e	0.044054084
232	0xbd2c77ee	-0.04210656
233	0xbce2112d	-0.02759608
234	0xbd319fc1	-0.043365244
235	0xbcf6b654	-0.030116238
236	0x3c15e68c	0.009149205
237	0xbd87a488	-0.06623179
238	0xbc89f1c7	-0.016838921
239	0xbc4a0b3e	-0.012331782
240	0xbc35ee32	-0.0111041535
241	0x3c16ec09	0.009211549
242	0x3c524c18	0.012835525
243	0xbd19b259	-0.0375236
244	0xbd500127	-0.05078235
245	0x3d39ea13	0.045389246
246	0x3cb617f5	0.02222822
247	0x3cbc808b	0.023010513
248	0x3cc44f11	0.023963483
249	0xbcd8ef46	-0.026481282
250	0x3d92412d	0.071413375
251	0xbbdb918f	-0.0067007015
252	0x3d6fb5bd	0.05852293
253	0x3d44605b	0.047943454
254	0x3d3e8144	0.046509996
255	0xbcd0528f	-0.025429992

network_body._body_endoder.seq_layers.0.bias f4 [128]
0	0xbd11fe68	-0.03564301
1	0xbdf3e97e	-0.119097695
2	0xbdc8da58	-0.09807271
3	0x3d79193d	0.060815085
4	0xbdc80d82	-0.097682014
5	0xbc2950cf	-0.010334208
6	0x3d86bfc4	0.06579545
7	0xbde533b7	-0.111915044
8	0x3da2b14c	0.07943973
9	0x3d883b7c	0.06651971
10	0x3c8177d5	0.01580421
11	0xbcd235f7	-0.025660498
12	0xbd6e15e6	-0.058126353
13	0xbd6c7ad9	-0.057734344
14	0x3d0d6a79	0.03452537
15	0x3d8fef21	0.07028032
16	0xbba06f0c	-0.0048960503
17	0xbdb70ec8	-0.08938366
18	0x3d0cc495	0.034367163
19	0x3d884638	0.06654018
20	0x3d98db2f	0.07463681
21	0x3d94c559	0.072642036
22	0x3ab6c083	0.0013942871
23	0xbd378f4c	-0.044814393
24	0x3db35e3e	0.0875821
25	0xbd3c3769	-0.04595128
26	0x3caed3da	0.021341253
27	0xbdcb99a5	-0.09941415
28	0x3d7126cd	0.058874894
29	0x3db582d1	0.08862842
30	0x3d5e15ef	0.054220136
31	0xbc8fe257	-0.017563982
32	0x3d1a090f	0.037606295
33	0x3d4889b1	0.048959438
34	0x3b48620b	0.0030576016
35	0x3da34423	0.079719804
36	0xbdddc452	-0.10828461
37	0x3d7d8b63	0.061900508
38	0x3cce74f9	0.025202261
39	0x3da4b84c	0.08042964
40	0x3c34ae15	0.0110278325
41	0xbbec2b9a	-0.007207346
42	0x3ca9393a	0.02065717
43	0xbda86145	-0.08221678
44	0x3d96ad8f	0.073573224
45	0x3d66688c	0.056252047
46	0x3da4a691	0.080395825
47	0x3d50f9e4	0.051019564
48	0xbdd960f8	-0.106141984
49	0x3d39611b	0.045258623
50	0x3d98b4c1	0.07456351
51	0x3d9da8b1	0.07698191
52	0x3b455c6b	0.00301149
53	0x3d7b4099	0.061340902
54	0x3d33a83b	0.04386161
55	0xbd409745	-0.047019262
56	0x3d8abfe2	0.0677488
57	0xbc535d06	-0.0129005965
58	0xbdc79300	-0.09744835
59	0x3d927325	0.07150868
60	0x3cb59b58	0.0221688
61	0xbdb24ebb	-0.08706423
62	0x3d838463	0.06421735
63	0xbb9701b0	-0.0046083555
64	0x3d4a086d	0.04932444
65	0xbd8c767f	-0.06858539
66	0x3d403593	0.046926092
67	0xbd357418	-0.04430017
68	0xbb72ebf3	-0.0037066906
69	0xbdddd986	-0.10832505
70	0x3bb3f807	0.0054922136
71	0xbdce8693	-0.10084262
72	0x3cbe1f67	0.023208333
73	0xbc7e6c51	-0.015528754
74	0x3d4dd092	0.050247736
75	0x3d51e68b	0.051245254
76	0x3d583ef9	0.05279443
77	0x3d0efaed	0.03490727
78	0xba4c4f75	-0.00077938224
79	0xbdd83475	-0.105568804
80	0xbd9a11c6	-0.07522921
81	0x3d5fe497	0.05466136
82	0xbca67bfd	-0.020322794
83	0x3d7a78af	0.06115025
84	0x3c37cc61	0.011218161
85	0x3d63e651	0.05563957
86	0x3d649f28	0.055815846
87	0xbd9a45d0	-0.07532847
88	0x3d517332	0.05113525
89	0x3d697e9c	0.05700551
90	0x3d3763c9	0.044772897
91	0xbd95ae6a	-0.073086575
92	0x3d974963	0.07387044
93	0x3b30b8ab	0.002696554
94	0x3d81faad	0.06346641
95	0xbdf23383	-0.11826231
96	0x3cfc2f09	0.030784147
97	0xbcdbfa2b	-0.026852688
98	0x3d6c1d2c	0.057645008
99	0xbcb3bb74	-0.02193997
100	0xbdc7430f	-0.09729587
101	0x3d1381ce	0.036012463
102	0xbb494970	-0.0030713938
103	0xbd4b505c	-0.049637184
104	0x3d3daa05	0.04630472
105	0x3bd20345	0.006409081
106	0xbc5b98e0	-0.013403147
107	0x3d213dbd	0.03936552
108	0xbe00175f	-0.12508915
109	0xbdc76fd9	-0.0973813
110	0xbd30832c	-0.043093845
111	0x3d273885	0.040825386
112	0x3cf2949a	0.029611874
113	0x3c637394	0.013882536
114	0xbcf521d2	-0.029923353
115	0x3d272356	0.040805183
116	0x3c6d1d19	0.014472269
117	0x3d88abf6	0.06673424
118	0xbd59a577	-0.053136315
119	0x3d32ff98	0.043700784
120	0xbda9f970	-0.082995296
121	0xbc860b00	-0.016362667
122	0x3cad2f1b	0.021140626
123	0xbac60a5b	-0.0015109287
124	0x3c88ec27	0.016714169
125	0xbd3e9730	-0.046530902
126	0x3d236b67	0.03989735
127	0x3d766131	0.060151283

network_body._body_endoder.seq_layers.0.weight f4 [128, 111]
0	0x3e02eca4	0.12785584
1	0xbdacf1cf	-0.08444559
2	0xb81133f2	-3.461907e-05
3	0x3db07d86	0.08617692
4	0x3de232fe	0.11044882
5	0x3db31f29	0.08746178
6	0x3e194916	0.14969286
7	0xbe0af687	-0.13570605
8	0xbccb963d	-0.024851913
9	0xbd88baf8	-0.066762865
10	0xbcc5b2f4	-0.024133183
11	0xbd948a05	-0.07252888
12	0x3cb7c643	0.022433406
13	0x3c8e0f4c	0.017341278
14	0x3d85d86a	0.06535418
15	0xbc7fc8f2	-0.015611874
16	0xbd482d15	-0.04887112
17	0x3cfcb8e3	0.03084988
18	0x3d403434	0.046924785
19	0xbc9082da	-0.01764052
20	0xbdbdaf63	-0.09261968
21	0xbd367827	-0.04454818
22	0x3e02ccea	0.12773481
23	0xbd2d2400	-0.04227066
24	0x3e396394	0.18104392
25	0x3d2e9014	0.042617872
26	0xbd841b4b	-0.06450518
27	0x3d4aee54	0.049543694
28	0x3bd1b7b9	0.0064000753
29	0x3cb642a6	0.022248577
30	0xbc145ca2	-0.0090552885
31	0xbdba0a60	-0.0908401
32	0x3df2e215	0.11859528
33	0xbd29096e	-0.04126876
34	0x3c0a9b5b	0.008459891
35	0xbc539a6b	-0.012915234
36	0x3d5e3e13	0.054258417
37	0xbd3253af	-0.04353684
38	0x3e00a334	0.12562257
39	0xbdbb0407	-0.091316275
40	0xbd2b4e2f	-0.04182261
41	0xbe38d71c	-0.18050808
42	0xbd03db1f	-0.032191392
43	0xbdad11c6	-0.08450656
44	0x3d4f954a	0.050679483
45	0x3c1d09ee	0.009584887
46	0x3d71e18a	0.05905298
47	0xbe006424	-0.125382
48	0xbe5482ad	-0.20752974
49	0x3d6f44e2	0.0584153
50	0x3e07ef54	0.1327489
51	0xbe4677aa	-0.19381586
52	0x3d915035	0.070953764
53	0x3de24066	0.11047439
54	0xbd4a537c	-0.049396023
55	0xbcae7f0e	-0.021300819
56	0x3cfcf4e5	0.030878494
57	0xbe038e4f	-0.12847255
58	0x3daa1ae8	0.08305913
59	0xbc6ce354	-0.014458496
60	0x3dded2d1	0.10880054
61	0xbd25b924	-0.040459767
62	0xbbdc5c0a	-0.006724839
63	0x3c4fcdad	0.012683314
64	0x3d9afc3c	0.07567641
65	0x3d712dc3	0.058881532
66	0xbe3b3ae2	-0.18284181
67	0xbdd15773	-0.10221758
68	0xbe9005a5	-0.28129306
69	0x3c08899c	0.00833359
70	0xbe490eb9	-0.19634522
71	0xbd15f1e3	-0.036607634
72	0xbe25c778	-0.16189373
73	0x3e04285b	0.1290602
74	0x3d8b4226	0.06799726
75	0x3d19b68e	0.037527613
76	0xbd11bf0b	-0.035582583
77	0x3bf0a45e	0.007343813
78	0x3ddc6e45	0.1076322
79	0x3e48265d	0.19545884
80	0xbd9ca783	-0.07649138
81	0x3e8ae606	0.2712862
82	0xbdac574b	-0.08415087
83	0x3dd6d5c5	0.10489992
84	0xbdb0b0d4	-0.08627477
85	0x3d3f7f0f	0.046752032
86	0x3c1fb3a7	0.009747422
87	0x3d4137ff	0.047172543
88	0xbc0bbb32	-0.008528518
89	0xbe01ac8c	-0.12663478
90	0xbe667cd3	-0.22508554
91	0xbdbdc155	-0.09265391
92	0x3d7de2c5	0.061983842
93	0x3d54e97e	0.051980488
94	0x3e092c44	0.13395792
95	0x3e30c9db	0.17264502
96	0xbdaac2f7	-0.08337968
97	0x3e19162d	0.14949866
98	0xbd2bce9f	-0.041945096
99	0x3e118647	0.14211379
100	0x3db87221	0.09006143
101	0xbc345217	-0.0110059
102	0x3d417f8a	0.04724077
103	0xbd56961c	-0.05238925
104	0xbd85981d	-0.06523154
105	0x3d7bad5a	0.061444618
106	0xbde065a8	-0.109568894
107	0x3d1c8639	0.038213942
108	0xbcc3cdec	-0.023901902
109	0xbdac1b75	-0.084036745
110	0x3e297d8e	0.16551802
111	0xbe13a140	-0.1441698
112	0xbe0c2a2a	-0.1368796
113	0xbe46c2ce	-0.1941025
114	0x3ce67e7b	0.028136482
115	0xbc5fdb89	-0.013663181
116	0x3d088354	0.03332837
117	0xbd61a811	-0.05509192
118	0xbbbdbec7	-0.0057905647
119	0xbcb1191b	-0.021618417
120	0xbc9d168a	-0.019175787
121	0xbc86ae8a	-0.016440649
122	0x3e13e444	0.14442545
123	0xbda071be	-0.078341946
124	0xbd9b7d56	-0.07592265
125	0xbd6614b9	-0.056172106
126	0x3d33699e	0.043801896
127	0x3da49e9c	0.08038065
128	0xbda7e72e	-0.08198391
129	0x3d79eed4	0.06101878
130	0x3d8f9ef8	0.07012743
131	0xbe33565f	-0.17513417
132	0x3cd8e421	0.026475968
133	0xbdf0809e	-0.11743282
134	0xbd82d0c5	-0.06387476
135	0xbd01e62f	-0.03171366
136	0x3da65ffd	0.08123777
137	0x3e0616a3	0.13094573
138	0xbac210dc	-0.001480605
139	0x3d1d6df8	0.038434952
140	0xbe134338	-0.1438111
141	0xbdc9b880	-0.09849644
142	0xbdde2658	-0.10847157
143	0xbd150b2e	-0.036387615
144	0x3e076d6e	0.13225338
145	0xbcf6c11a	-0.030121375
146	0x3df915c8	0.121623576
147	0x3d58d3a9	0.05293623
148	0xbe082f73	-0.1329935
149	0xbc9c52de	-0.019082483
150	0x3dcc5559	0.09977216
151	0x3da61c61	0.081108816
152	0xbd080453	-0.03320725
153	0xbe968b99	-0.2940338
154	0x3e3a77c3	0.18209748
155	0xbe24ab86	-0.16081056
156	0xbe3208f7	-0.17386232
157	0xbdfb2117	-0.12262171
158	0xbd9a9aa7	-0.07549029
159	0xbde9ae42	-0.1141019
160	0xbdb4800d	-0.08813486
161	0x3cbe0219	0.02319436
162	0x3d596386	0.05307343
163	0xbe23f87a	-0.16012755
164	0xbdd9597a	-0.106127694
165	0xbdc57702	-0.096418396
166	0xbd842cd4	-0.06453863
167	0xbdf39ad0	-0.118947625
168	0xbd161836	-0.036644183
169	0x3b7af6d8	0.0038294103
170	0xbda7ea05	-0.081989326
171	0x3d363983	0.04448844
172	0xbe0962b0	-0.13416553
173	0xbe03ef11	-0.12884165
174	0xbe353d83	-0.17699246
175	0x3d97c280	0.07410145
176	0xbe592fd7	-0.21209656
177	0xbddd221e	-0.10797523
178	0xbdf44b02	-0.11928369
179	0x3cc69946	0.024243008
180	0x3d8fe506	0.07026105
181	0xbda752ea	-0.081701115
182	0xbe012138	-0.12610328
183	0xbdd6a609	-0.104808874
184	0xbcea5276	-0.028603774
185	0xbe6b0804	-0.22952276
186	0xbd42daca	-0.047571935
187	0xbe162355	-0.14661916
188	0xbd43cdcf	-0.047803696
189	0x3d3b8c97	0.045788374
190	0xbe52c328	-0.20582259
191	0x3bc61305	0.006044748
192	0xbd64012c	-0.05566518
193	0xbd5e650f	-0.054295596
194	0xbdd6e655	-0.10493151
195	0xbe20bfa2	-0.15698102
196	0x3cabcde7	0.020972205
197	0xbc83d701	-0.016093733
198	0xba281b6d	-0.0006412778
199	0xbe4206c1	-0.18947889
200	0xbe4b803d	-0.19873138
201	0xbcb8f304	-0.022576816
202	0xbd94988e	-0.0725566
203	0xbe169c60	-0.1470809
204	0xbd90435c	-0.07044098
205	0xbd25b55b	-0.040456157
206	0xbceeff8d	-0.02917459
207	0xbd6410bf	-0.055680033
208	0xbe7dd2ae	-0.24787399
209	0x3c0bd13b	0.008533771
210	0x3c02fb33	0.007994461
211	0x3e190597	0.14943539
212	0x3bc8216e	0.0061075008
213	0xbcecc0e3	-0.02890057
214	0x3c2bf1c9	0.010494658
215	0xbccd1421	-0.025034012
216	0xbe06bf34	-0.13158876
217	0x3d96963e	0.07352875
218	0xbdb5fb0e	-0.088857755
219	0x3d45f9a3	0.048333775
220	0xbced26ea	-0.02894922
221	0x3d6a8a8f	0.057261046
222	0x3dd6ec8f	0.10494339
223	0x3d22bc84	0.039730564
224	0x3d93c36e	0.0721501
225	0x3de06fd1	0.10958827
226	0xbe241055	-0.16021855
227	0xbd0bd1c1	-0.034135584
228	0x3c92a068	0.017898753
229	0x3df20a83	0.11818411
230	0x3e11e0df	0.14245938
231	0xbe047dcf	-0.12938617
232	0x3c0756a5	0.008260404
233	0xbd89095b	-0.066912375
234	0x3cfc28dd	0.030781204
235	0x3d99b668	0.07505494
236	0xbdcbf6fe	-0.099592194
237	0xbcc23ae7	-0.023709727
238	0x3dbce3e3	0.092231534
239	0xbc6755f5	-0.014119615
240	0x3d3b0913	0.04566295
241	0x3cbff068	0.023430064
242	0xbdcb9349	-0.09940202
243	0x3cd3895a	0.02582233
244	0x3dda50b3	0.106599234
245	0x3d0ef7c1	0.034904245
246	0xbda3a321	-0.07990099
247	0xbc5a4102	-0.013321163
248	0xbdabcd23	-0.08388736
249	0x3dd1b2f3	0.1023921
250	0xbd9df1b0	-0.07712114
251	0x3c848956	0.016178768
252	0xbd9332d5	-0.0718743
253	0x3da4c0da	0.08044596
254	0xbe6f16d9	-0.2334856
255	0xbd213730	-0.03935927

network_body._body_endoder.seq_layers.2.bias f4 [128]
0	0x3d7514e4	0.059834376
1	0xbdaf50aa	-0.08560307
2	0xbd9daf4f	-0.07699453
3	0x3d508a7a	0.05091331
4	0x3d6ce516	0.05783566
5	0xbd5efcb5	-0.05444022
6	0xbdae170b	-0.08500489
7	0xbd6fbbde	-0.058528773
8	0xbdbca81d	-0.092117526
9	0x3c510555	0.012757619
10	0x3cbc50a2	0.022987667
11	0xbd9ed5b7	-0.077556066
12	0x3c8704e6	0.016481828
13	0x3bbe7c11	0.0058131297
14	0xbd78d759	-0.060752247
15	0xbd0ad939	-0.033898566
16	0x3ca814c6	0.020517718
17	0x3d424ead	0.047438312
18	0xbd8aeaac	-0.06783041
19	0xbd6dbb94	-0.058040217
20	0xbd98fb14	-0.07469764
21	0x3d97439c	0.07385942
22	0x3d4ad9e2	0.049524195
23	0x3d492f1f	0.049117204
24	0xbda640ac	-0.08117804
25	0xbd173259	-0.03691325
26	0x3d02ddbb	0.03194974
27	0xbd1cf4ff	-0.038319584
28	0xbd672dca	-0.056440152
29	0xbda4e739	-0.08051915
30	0xbd32b6cb	-0.043631356
31	0x3d6ef6ac	0.058340713
32	0x3c05def8	0.008170836
33	0x3cf75f38	0.030196771
34	0xbc932595	-0.017962256
35	0x3c48ffd2	0.012268024
36	0x3d50842e	0.050907306
37	0x3d2a3c46	0.041561387
38	0x3d4098ac	0.0470206
39	0x3ce805f7	0.028323157
40	0xbd5373ee	-0.05162423
41	0xbd537ebe	-0.051634543
42	0x3ccb3fd7	0.024810715
43	0xbd46834e	-0.048465066
44	0x3d515b2d	0.051112343
45	0xbd524714	-0.051337317
46	0xbd176da3	-0.036969792
47	0xbcfdf90c	-0.031002544
48	0x3d250130	0.040284336
49	0x3d63edcc	0.055646703
50	0xbdaab4e9	-0.08335287
51	0xbba02295	-0.004886935
52	0xbd33f279	-0.04393241
53	0xbcf79038	-0.030220136
54	0xbab1307a	-0.0013518475
55	0xbd56b16e	-0.052415304
56	0xbc5419dc	-0.0129456185
57	0x3d94eda0	0.07271886
58	0x3d3ba736	0.04581376
59	0xbdbaee79	-0.09127516
60	0xbd7ce158	-0.061738342
61	0x3d2b8a8b	0.04188017
62	0xbda820e8	-0.08209401
63	0x3d5dee84	0.054182544
64	0x3c07d8a6	0.008291399
65	0xbdb31d93	-0.08745875
66	0x3d1aa175	0.037751634
67	0x3d4b125f	0.049578067
68	0x3d900a0d	0.07033167
69	0xbcb23bf9	-0.021757113
70	0x3c96f1bc	0.018425815
71	0x3d78ae9b	0.06071339
72	0x3d75aef3	0.059981298
73	0xbda93bfa	-0.08263393
74	0xbd3bc0fc	-0.04583834
75	0xbd9a5dff	-0.075374596
76	0x3d1d3a7c	0.038385853
77	0xbd25ccc6	-0.04047849
78	0x3d925c30	0.071464896
79	0xbc1b098e	-0.009462727
80	0xbd358920	-0.044320226
81	0xbd228c56	-0.039684616
82	0xbd80712c	-0.06271586
83	0x3c82bcc6	0.015959155
84	0x3d8355b4	0.06412831
85	0x3d17a593	0.03702314
86	0xbd8905cf	-0.06690561
87	0xbd8cc552	-0.06873573
88	0x3d20b2c1	0.039232973
89	0x3cbd6df4	0.023123719
90	0xbc7b9724	-0.015355859
91	0xbd1e4110	-0.038636267
92	0xbd751f5b	-0.059844356
93	0xbd8e367a	-0.06943984
94	0xbd95ba43	-0.07310917
95	0xbdbf32d0	-0.093358636
96	0xbd29a438	-0.041416377
97	0xbcbae158	-0.02281253
98	0x3d78bbc0	0.060725927
99	0x3bd20b80	0.0064100623
100	0x3d817063	0.06320264
101	0x3d06e159	0.032929752
102	0xbdb23c89	-0.087029524
103	0x3c75acab	0.0149947805
104	0xbac30ee4	-0.0014881757
105	0xbb9af463	-0.00472884
106	0xbc9cc568	-0.0191371
107	0xbd775f6d	-0.06039374
108	0xbd1cc332	-0.03827209
109	0xbc82fd9a	-0.015990067
110	0x3d57a2dc	0.05264555
111	0x3d04cd5f	0.03242242
112	0x3d84dfd4	0.06488004
113	0x3d894e5d	0.067044
114	0x3d62176c	0.055198118
115	0x3d225304	0.03962995
116	0xbb91e909	-0.004452829
117	0x3c255760	0.010091633
118	0x3d8c60c9	0.06854398
119	0xbd7180a7	-0.058960583
120	0x3d567444	0.052356973
121	0x3cfd8551	0.03094736
122	0xbc9a7a49	-0.018857138
123	0xbda49f73	-0.08038225
124	0xbc2a8310	-0.010407224
125	0x3d8f5ba5	0.06999902
126	0x3d884350	0.06653464
127	0xbd11d82d	-0.035606552

network_body._body_endoder.seq_layers.2.weight f4 [128, 128]
0	0xbd514b4b	-0.051097196
1	0x3c600084	0.013671998
2	0x3de5a90b	0.11213883
3	0x3d26f4c3	0.040760767
4	0x3ce23f37	0.027618034
5	0x3d7e74ca	0.062123097
6	0x3c883685	0.01662756
7	0xbd928325	-0.0715392
8	0x3c9444c9	0.018099206
9	0xbd648728	-0.055792958
10	0xbd8c2068	-0.068421185
11	0x3d47d10e	0.048783354
12	0x3c43f1f9	0.011959546
13	0xbe4cfa31	-0.20017315
14	0x3da13e64	0.07873228
15	0x3d1baced	0.03800671
16	0xbd2cbb3e	-0.042170756
17	0xbdd384a1	-0.10328031
18	0xbdd9461f	-0.10609078
19	0xbac8ebe7	-0.0015329093
20	0x3e526471	0.20546128
21	0x3d372ebc	0.044722304
22	0x3dcfe07c	0.10150239
23	0xbe062560	-0.13100195
24	0x3e27ae85	0.16375168
25	0xbcad7b1a	-0.021176863
26	0x3daf2a9d	0.0855305
27	0xbdd8a31e	-0.10577987
28	0xbd119589	-0.035543
29	0x3e2d6d47	0.16936217
30	0x3c59dc37	0.013297132
31	0xbcd68a20	-0.02618891
32	0x3e088bf7	0.13334642
33	0x3cc602ce	0.02417126
34	0xbdd860b8	-0.10565323
35	0xbc6c1bda	-0.014410937
36	0xbd257650	-0.040396035
37	0xbc9aa010	-0.018875152
38	0x3d6c18ab	0.057640713
39	0x3e0362ec	0.12830704
40	0x3dbc10a6	0.09182863
41	0xbbfd7434	-0.0077347998
42	0x3dfd6928	0.123735726
43	0xbc9cdef2	-0.019149277
44	0xbe0012ec	-0.12507218
45	0xbc61c123	-0.013778958
46	0x3e0cc505	0.13747032
47	0x3d8be64d	0.06831036
48	0xbdcaa986	-0.09895615
49	0xbdd150c1	-0.10220481
50	0x3d9286a6	0.071545884
51	0x3d4ceade	0.050028674
52	0xbe3205a8	-0.1738497
53	0xbd1d9236	-0.038469516
54	0x3db980ee	0.090577945
55	0xbe364349	-0.17799105
56	0x3cc920ce	0.024551775
57	0xbd5787fe	-0.052619927
58	0x3d8ea1ff	0.06964492
59	0x3d2c08ff	0.042000767
60	0x3ccade17	0.024764104
61	0xbbd109ec	-0.0063793566
62	0xbe236277	-0.1595553
63	0xbd5c8077	-0.05383345
64	0x3dfb6673	0.122754
65	0x3d19ca30	0.037546337
66	0x3e6438a3	0.2228723
67	0x3d9eb395	0.07749096
68	0x3e390a0c	0.18070239
69	0xbce519e9	-0.027966456
70	0xbe20e982	-0.15714076
71	0x3ca4703b	0.020073047
72	0xbd93f616	-0.072246715
73	0x3d0d2b1c	0.03446494
74	0x3d8e7cdd	0.069574095
75	0x3e3833d5	0.17988522
76	0x3da489bc	0.08034083
77	0xbde51e6d	-0.11187444
78	0xbd95dd74	-0.073176295
79	0xbe471bf6	-0.1944426
80	0x3be71f26	0.0070532737
81	0x3de7f426	0.113258645
82	0x3cd89834	0.026439764
83	0xbd34d96b	-0.04415266
84	0xbd0e26fe	-0.034705155
85	0xbde20bb6	-0.1103739
86	0x3d33b3bf	0.04387259
87	0x3cd231c6	0.0256585
88	0xbd0bb6c4	-0.034109846
89	0x3d6d2857	0.0578998
90	0xbd8b1842	-0.06791736
91	0xbe42e59d	-0.19032903
92	0x3e5b1a31	0.2139671
93	0x3dda0de6	0.10647182
94	0x3d9ed6ce	0.077558145
95	0x3d060167	0.03271618
96	0x3b3817c2	0.0028090333
97	0xbd3591e0	-0.04432857
98	0x3d99afeb	0.07504257
99	0xbd802ce2	-0.06258561
100	0xbecb6cc7	-0.39731428
101	0xbdae110a	-0.08499344
102	0x3bfe8c28	0.007768173
103	0x3b4623f5	0.0030233834
104	0xbe322cd8	-0.17399919
105	0x3dee80e1	0.116456755
106	0xbcb9719b	-0.02263718
107	0xbc0c8586	-0.008576756
108	0xbe81d512	-0.25357872
109	0x3d94beb9	0.0726294
110	0xbd0aff74	-0.033935025
111	0xbd5dd363	-0.054156672
112	0x3caa0f31	0.020759197
113	0xbcde3df6	-0.027129155
114	0xbd1a1725	-0.03761973
115	0xbda9e926	-0.08296423
116	0xbceae86a	-0.028675277
117	0x3e02e43a	0.12782374
118	0xbe261166	-0.16217574
119	0xbcd92627	-0.02650745
120	0x3da6a4f0	0.08136928
121	0xbca50e14	-0.020148315
122	0xbdb33ea9	-0.08752186
123	0x3c610211	0.013733403
124	0x3d8f0f9f	0.06985401
125	0xbd1a0244	-0.037599817
126	0xbdc2c2f0	-0.095098376
127	0x3d491ea3	0.049101483
128	0xbd8d7f3b	-0.06909033
129	0xbdb48764	-0.08814886
130	0x3e662f60	0.2247901
131	0x3d5d5dc6	0.054044507
132	0xbde3cffe	-0.11123656
133	0xbd6d23b1	-0.057895366
134	0xbdb74a5e	-0.08949731
135	0x3e02745a	0.12739697
136	0xbe049616	-0.12947878
137	0xbd8eeae5	-0.06978396
138	0xbc676d8c	-0.014125239
139	0xbdfaff38	-0.1225571
140	0x3c3b402f	0.011428877
141	0x3d8942cc	0.067021936
142	0x3be72ca6	0.007054883
143	0xbd451cb9	-0.048123095
144	0x3d2f6932	0.04282493
145	0x3d299c30	0.041408718
146	0x3db473db	0.0881116
147	0xbe515fb1	-0.2044666
148	0xbe0d0a17	-0.1377338
149	0x3e4861c5	0.19568546
150	0xbb817b45	-0.0039514625
151	0xbd0a28b6	-0.03373023
152	0xbd6c918d	-0.057755996
153	0xbdda776b	-0.106673084
154	0xbb79c930	-0.0038114302
155	0x3dedcfac	0.11611876
156	0xbe3e77c3	-0.18600373
157	0x3dc12e1a	0.09432621
158	0xbe294219	-0.1652912
159	0xbdd28b19	-0.10280437
160	0x3dab82c5	0.08374552
161	0xbda54cbe	-0.08071278
162	0xbd7272e0	-0.059191585
163	0xbde57c83	-0.11205389
164	0x3dc74cb0	0.09731424
165	0xbdaa8080	-0.08325291
166	0x3d950929	0.07277138
167	0xbd6cb088	-0.05778554
168	0xbe164672	-0.1467531
169	0x3d95a142	0.07306148
170	0x3d978ee2	0.074002996
171	0xbd7db999	-0.061944578
172	0x3bc987aa	0.0061502056
173	0xbe5f66ae	-0.21816513
174	0xbd6996a7	-0.05702844
175	0x3d4f8926	0.050667904
176	0x3d85591b	0.06511136
177	0x3d5aef23	0.053450715
178	0xbbb1d9d7	-0.00542758
179	0xbe077ccb	-0.13231198
180	0xbdd5e72e	-0.10444485
181	0xbe80482b	-0.2505506
182	0xbd787839	-0.06066153
183	0x3dec038a	0.115241125
184	0xbe3acb86	-0.182417
185	0x3be6a001	0.007038117
186	0x3d94edd9	0.07271928
187	0x3d76ddf3	0.06027026
188	0xbda4ae80	-0.08041096
189	0x3d4014b1	0.046894733
190	0xbd78ad65	-0.060712237
191	0x3cd4f976	0.025997858
192	0xbe1215db	-0.1426615
193	0x3dc6d2ce	0.097081766
194	0x3ddcd81c	0.10783407
195	0xbdf8f816	-0.12156694
196	0xbda5c3a0	-0.08093953
197	0xbc29c2eb	-0.0103614135
198	0xbba8614e	-0.0051385527
199	0x3dbb9237	0.09158748
200	0xbd329061	-0.04359472
201	0xbdfada52	-0.122486725
202	0xbe2d8ff3	-0.16949444
203	0xbe06a8d3	-0.13150339
204	0xbda3d7dc	-0.08000156
205	0x3c8d7c8f	0.017271308
206	0xbd72a223	-0.059236657
207	0x3d4d3b8d	0.05010562
208	0x3c03c982	0.008043649
209	0xbe074962	-0.13211587
210	0x3d949e1c	0.072567195
211	0xbcd10bdb	-0.025518348
212	0x3d88b4bf	0.066750996
213	0xbce67d77	-0.028135998
214	0x3d811ed6	0.063047096
215	0x3d966c1f	0.07344841
216	0xbe1ba7e2	-0.15200761
217	0x3db6ef3c	0.08932349
218	0xbbd25fc4	-0.0064201076
219	0xbc057102	-0.008144619
220	0xbdd06c05	-0.10176853
221	0xbd717902	-0.058953293
222	0xbd253672	-0.040335126
223	0xbe057398	-0.13032377
224	0x3d92e263	0.07172086
225	0x3bdf8d0c	0.006822234
226	0xbcfc69cd	-0.030812168
227	0xbe1d2ab0	-0.15348315
228	0x3da59940	0.08085871
229	0xbe289ea9	-0.16466774
230	0xbdfb1270	-0.12259376
231	0x3dea5040	0.11441088
232	0xbcddd715	-0.027080098
233	0x3cb8360e	0.022486713
234	0x3db70316	0.089361355
235	0x3b1dbf99	0.00240705
236	0xbd65e340	-0.056124926
237	0xbd9de745	-0.07710127
238	0xbdcb50a7	-0.099274926
239	0xbb8e5b4b	-0.004344379
240	0xbdc5b8c1	-0.0965438
241	0x3d6a9505	0.057271022
242	0xbc7810e4	-0.015140746
243	0x3ca1b719	0.019740628
244	0x3c860ecb	0.016364476
245	0x3c703277	0.014660469
246	0xbbab9958	-0.005236786
247	0xbdeb5fb5	-0.11492864
248	0xbd1416f0	-0.036154687
249	0xbd6e8a67	-0.05823746
250	0xbe58f0ed	-0.21185656
251	0xbe1aaae1	-0.15104248
252	0xbdf503e5	-0.119636334
253	0x3da4316f	0.08017241
254	0x3dc8e954	0.09810129
255	0x3db411b1	0.08792437
