results/ppo/MoveToHider/MoveToHider-18561.onnx (onnx, 80178 bytes, 7 tensors)

action_model._continuous_distribution.log_sigma f4 [1, 2]
0.0076081497 0.0030130928
00000000: c94d f93b 4f77 453b

action_model._continuous_distribution.mu.bias f4 [2]
-6.8823165e-06 0.000930615
00000000: a6ee e6b6 84f4 733a

action_model._continuous_distribution.mu.weight f4 [2, 128]
-0.017771741 0.008120177 -0.035032947 -0.026759803 -0.0009006519 0.002387175 -0.005894461 0.00018472015
0.003688161 -0.012868594 0.01657688 0.010232352 -0.009710511 -0.013415519 0.019718062 -0.00072504254
-0.008099244 0.014871386 0.007779903 -0.0107896 0.008357634 -0.01818082 -0.02602309 -0.013948826
0.027870707 0.00841962 0.00928183 -0.018381596 -0.0074972576 -0.024198234 0.049463302 -0.007050377
0.013065728 -0.008227156 -0.020046057 0.017872224 0.008620093 -0.0038676567 0.019387646 -0.0071626827
0.017717784 0.0085683605 0.018585505 -0.004388447 0.0014913002 0.00018818692 0.011318037 -0.017991282
-0.007148783 0.004226361 -0.009412333 -0.031431034 -0.0010514321 -0.010911136 -0.015210145 -0.024946248
-0.008090859 -0.0057551456 0.012362188 0.011692284 -0.01793773 -0.0097347945 0.005178809 0.017354295
0.016857937 -0.0013577722 -0.011900255 0.012187131 -0.013881914 -0.038372103 0.014955696 0.025429094
0.014830846 0.0211694 0.00041875397 0.00531724 0.01193386 0.041357577 -0.011378896 0.0073044696
-0.009008682 -0.01116621 4.3150158e-05 0.021420758 0.010160182 0.0069298167 -0.0038934173 0.007176592
-0.02486221 0.0137369465 0.010085594 0.011073925 -0.008377032 -0.007710027 -0.018965049 0.004447646
-0.010427783 -0.04247433 0.018465653 -0.0069510923 0.00059643795 0.011644042 0.04194518 -0.0029843766
-0.004291415 -0.013455062 -0.0038413836 -0.010333883 0.035128843 -0.02826998 -0.020324478 -0.0042665685
0.0036580202 -0.017816829 0.025836315 -0.028814893 0.0017653366 0.02629033 0.018115006 0.014528005
-0.013090083 -0.0087633 0.0049424386 0.00291456 -0.0074593727 0.009256501 0.0034885928 -0.0034685074
-0.014432654 0.0051574237 -0.014254352 -0.0013561246 0.017817926 -0.009300894 0.02073863 -0.02307011
0.0014502011 0.017074903 0.006379624 -0.02255841 0.010184911 0.027930034 0.0033556533 0.029477313
0.00617904 -0.013765757 0.00987274 -0.008410835 -0.033715118 0.011416181 0.0036652307 -0.041168712
0.042300623 -0.033061348 -0.014848857 -0.003996056 -0.025531337 0.004522653 -0.03944314 0.008639197
0.0071934406 0.019272523 -0.01594997 0.012946537 0.010149206 0.005327956 0.00014684368 0.006940344
-0.00645433 0.0018552418 0.042198505 0.022267628 -0.022866478 -0.0038782088 0.017947683 0.0012452868
0.028488409 -0.036549862 0.0051465873 -0.018948453 -0.02487676 -0.01081877 0.010653039 0.0036279291
-0.03936082 -0.012928023 0.02822348 -0.011764231 -0.01907864 0.012163127 -0.008024255 0.007929586
-0.005321107 0.031119607 -0.0028636113 -0.020718733 0.0010563276 0.001295964 0.02149512 -0.013853123
0.0175309 0.054218832 0.008565948 -0.006046535 0.010760204 -0.012679192 0.012634826 0.0039869063
0.013836264 0.016013328 0.035540264 -0.023541579 -0.011444433 -0.030900635 0.007214698 -0.017070329
-0.018441431 0.007848103 -0.0103244195 0.029125804 0.013351586 0.042239092 -0.005205642 0.033109285
-0.021764092 -0.010583325 -0.01320316 -0.027151069 -0.026472567 -0.0012743118 -0.003565256 -0.024494026
-0.02635953 0.003533121 -0.0011584153 0.01722487 -0.017439017 0.0048829885 -0.00026647365 -0.0033783703
0.016208552 0.021054445 0.021294327 0.001596075 0.01690352 -0.042009562 -3.2859396e-05 0.0012655357
0.002651094 -0.009595555 -0.0077278796 0.026280867 0.0019775159 0.044535384 0.0037801592 -0.0038275986
00000000: 0b96 91bc 7e0a 053c b57e 0fbd 6037 dbbc
00000010: ba19 6cba 2772 1c3b 5326 c1bb 70b1 4139
00000020: 13b5 713b ccd6 52bc 3dcc 873c 98a5 273c
00000030: d618 1fbc c4cc 5bbc c687 a13c c810 3eba
00000040: b1b2 04bc 1da7 733c 8eee fe3b ddc6 30bc
00000050: 75ee 083c f1ef 94bc 602e d5bc 9e89 64bc
00000060: 1c51 e43c 72f2 093c d112 183c 0095 96bc
00000070: 8eab f5bb 603b c6bc 089a 4a3d d906 e7bb
00000080: a311 563c 31cb 06bc a137 a4bc c568 923c
00000090: 4a3b 0d3c 8378 7dbb d7d2 9e3c f0b4 eabb
000000a0: e324 913c 4f62 0c3c a140 983c f6cc 8fbb
000000b0: bb77 c33a 0b54 4539 4a6f 393c 7462 93bc
000000c0: 5740 eabb 497d 8a3b 3036 1abc d4bd 00bd
000000d0: 35d0 89ba 9fc4 32bc f933 79bc 135c ccbc
000000e0: 868f 04bc a995 bcbb c68a 4a3c fe90 3f3c
000000f0: 25f2 92bc b07e 1fbc 00b3 a93b 982a 8e3c
00000100: a819 8a3c 46f7 b1ba 4af9 42bc 88ac 473c
00000110: f870 63bc 112c 1dbd bc08 753c ad50 d03c
00000120: 14fd 723c 736b ad3c 358c db39 3e3c ae3b
00000130: 3d86 433c 9066 293d 8d6e 3abc 555a ef3b
00000140: 2799 13bc 7bf2 36bc 21fc 3438 967a af3c
00000150: e476 263c 8413 e33b b428 7fbb 9e29 eb3b
00000160: d5ab cbbc ee10 613c 0c3e 253c 686f 353c
00000170: d23f 09bc 65a4 fcbb 975c 9bbc 8fbd 913b
00000180: 4bd9 2abc 90f9 2dbd 4845 973c fdc5 e3bb
00000190: 465a 1c3a a7c6 3e3c b6ce 2b3d 8895 43bb
000001a0: 009f 8cbb 9f72 5cbc b9bf 7bbb 724f 29bc
000001b0: 43e3 0f3d 7296 e7bc 857f a6bc 92ce 8bbb
000001c0: 65bb 6f3b 99f4 91bc aea6 d33c 360d ecbc
000001d0: de62 e73a d15e d73c ec65 943c df06 6e3c
000001e0: ca77 56bc f293 0fbc 2ef4 a13b 3402 3f3b
000001f0: c16d f4bb 94a8 173c e0a0 643b e64f 63bb
00000200: f076 6cbc 9bff a83b 168b 69bc febf b1ba
00000210: e6f6 913c c762 18bc 0fe4 a93c 87fd bcbc
00000220: ad14 be3a abe0 8b3c 2a0c d13b 6acc b8bc
00000230: 9dde 263c 87cd e43c 85ea 5b3b 687a f13c
00000240: 8b79 ca3b c589 61bc 46c1 213c 99cd 09bc
00000250: dd18 0abd ef0a 3b3c 5e34 703b 86a0 28bd
00000260: 6b43 2d3d 566b 07bd 9f48 73bc 59f1 82bb
00000270: 1827 d1bc c332 943b 218f 21bd 6b8b 0d3c
00000280: f4b6 eb3b 69e1 9d3c 83a9 82bc b61d 543c
00000290: db48 263c 2296 ae3b 0dfa 1939 d36b e33b
000002a0: d87e d3bb 962b f33a 57d8 2c3d 9a6a b63c
000002b0: 7b52 bbbc 8c29 7ebb 0507 933c e438 a33a
000002c0: 8660 e93c 4fb5 15bd b4a4 a83b c939 9bbc
000002d0: 59ca cbbc 3641 31bc 168a 2e3c 8dc2 6d3b
000002e0: d038 21bd 0fd0 53bc ed34 e73c c3be 40bc
000002f0: cf4a 9cbc da47 473c 2a78 03bc 18eb 013c
00000300: ae5c aebb 8cee fe3c 6dab 3bbb 55ba a9bc
00000310: 7974 8a3a 56dd a93a 8916 b03c 36f8 62bc
00000320: f69c 8f3c 9114 5e3d 3158 0c3c 0322 c6bb
00000330: 914b 303c 63bc 4fbc 4d02 4f3c 98a4 823b
00000340: 7fb1 623c 622e 833c ab92 113d 45da c0bc
00000350: 6e81 3bbc 5423 fdbc 4669 ec3b 13d7 8bbc
00000360: 7c12 97bc 5495 003c c127 29bc 3d99 ee3c
00000370: 9cc0 5a3c e602 2d3d 1794 aabb 9a9d 073d
00000380: 9c4a b2bc af65 2dbc 1152 58bc eb6b debc
00000390: ffdc d8bc cf06 a7ba 12a7 69bb b2a7 c8bc
000003a0: f1ef d7bc ef8b 673b f8d5 97ba 2c1b 8d3c
000003b0: 45dc 8ebc 7a01 a03b 7db5 8bb9 a667 5dbb
000003c0: ccc7 843c 5f7a ac3c 7171 ae3c 6433 d13a
000003d0: 4079 8a3c 3812 2cbd 82d2 09b8 55e0 a53a
000003e0: fabd 2d3b ad36 1dbc 273a fdbb f94a d73c
000003f0: 3699 013b bc6a 363d 8cbc 773b 73d8 7abb

network_body._body_endoder.seq_layers.0.bias f4 [128]
6.067408e-05 -0.00020785339 0.0006709732 0.0037780716 0.001956717 0.00033876498 0.0014257336 0.0053489334
-0.0017013684 -0.00020048869 0.0029704205 0.0022221552 -0.00021741586 -0.00284818 0.0009997307 0.0007090188
0.0055593606 -0.001431003 0.00061496644 -0.0006952506 -0.0020499132 0.00052799785 -0.0006206616 -0.0002863171
-0.0027092905 0.0011430065 -0.003565655 -0.0016205462 0.0007464115 -0.0010419008 0.002044871 -0.00039940514
0.00056179165 0.0025035487 0.00077755854 0.002567975 -0.0004618835 -0.0040010833 0.0005696119 -0.00074498425
0.00045462346 -0.0018985221 -0.003173673 -0.0012134591 -0.00016966219 0.0027192342 0.00045572803 -0.0036763393
0.0021489405 -0.0005306764 0.0008506108 0.000550299 -9.5878626e-05 0.003235747 0.00077207724 -0.0029398077
0.0011370169 -0.0030540826 -0.0015780083 0.0017650173 -0.0008385339 -0.00022724798 0.0010148718 -0.0004923645
0.00093427167 -0.0011381089 0.0023299058 0.0035562748 -0.00064764055 -0.0014166778 0.0022624044 0.00046275082
0.0040740413 -0.0015316309 0.0013884652 0.002641052 -0.002440605 -0.00038336578 -0.0005617064 0.0028281861
0.0024704204 0.0011940409 0.0006305735 0.0019451662 -0.0015164 -0.0009295051 0.000972665 -0.00045696113
-0.0014902921 0.0009528351 -0.0007684953 0.000627273 0.00013577695 -0.0006141974 -0.0020286548 -0.0043685
0.001040208 0.00046317044 -0.0008767924 -0.0009061624 0.0050549866 0.0010169201 -0.005277081 -0.0022776974
-0.0021465174 0.0010447581 -8.1166465e-05 -0.00059175346 0.0007186598 0.0033198786 0.005451924 0.003697785
-0.0009064911 0.001396056 -0.002526452 0.0026196141 0.0009360704 -0.00067430217 0.00073100533 -0.0011261638
0.00073058537 -0.002919859 -0.003892982 0.0004870346 0.004788631 0.0026936177 -0.0005019888 -0.0014440124
00000000: 4c7c 7e38 38f3 59b9 40e4 2f3a 8699 773b
00000010: 443c 003b 449c b139 aedf ba3a 1b46 af3b
00000020: 7300 dfba 463a 52b9 63ab 423b 94a1 113b
00000030: 20fa 63b9 88a8 3abb 6509 833a 72dd 393a
00000040: 4c2b b63b 7e90 bbba b335 213a 7a41 36ba
00000050: d657 06bb 5669 0a3a e5b3 22ba d51c 96b9
00000060: 5a8e 31bb efd0 953a c4ad 69bb 8268 d4ba
00000070: d4aa 433a 6490 88ba 3e03 063b 4067 d1b9
00000080: 3345 133a 9412 243b 12d5 4b3a 794b 283b
00000090: f428 f2b9 851b 83bb 0252 153a 0c4b 43ba
000000a0: 875a ee39 d5d7 f8ba 66fd 4fbb ee0c 9fba
000000b0: 59e7 31b9 2e35 323b c8ee ee39 bdee 70bb
000000c0: 3dd5 0c3b 171d 0bba 86fb 5e3a f141 103a
000000d0: 7212 c9b8 d40e 543b 3a65 4a3a caa9 40bb
000000e0: f507 953a 0127 48bb 2cd5 ceba 2758 e73a
000000f0: 0fd1 5bba 6a49 6eb9 7205 853a 0612 01ba
00000100: e9e9 743a 992c 95ba 55b1 183b 6410 693b
00000110: 6cc6 29ba d2af b9ba d944 143b 5d9d f239
00000120: 897f 853b 01c1 c8ba 29fd b53a 8015 2d3b
00000130: 8ff2 1fbb 7cfe c8b9 7a3f 13ba 1759 393b
00000140: c7e6 213b 5d81 9c3a 124d 253a f2f4 fe3a
00000150: f1c1 c6ba 08aa 73ba 71fa 7e3a 4994 efb9
00000160: e855 c3ba aec7 793a d974 49ba 946f 243a
00000170: 595f 0e39 1702 21ba 2ef3 04bb a225 8fbb
00000180: 9757 883a afd5 f239 8bd8 65ba 878b 6dba
00000190: 4da4 a53b 2d4a 853a 5deb acbb 6c45 15bb
000001a0: 96ac 0cbb 44f0 883a ea37 aab8 e71f 1bba
000001b0: 7164 3c3a 5292 593b 0ea6 b23b 8a56 723b
000001c0: 97a1 6dba defb b63a d592 25bb d5ad 2b3b
000001d0: 9f62 753a a7c3 30ba f0a0 3f3a c99b 93ba
000001e0: c184 3f3a 1b5b 3fbb 6621 7fbb ad58 ff39
000001f0: f3e9 9c3b 6887 303b e697 03ba 0445 bdba

network_body._body_endoder.seq_layers.0.weight f4 [128, 21]
0.24061424 0.08133348 -0.2765982 -0.11258623 -0.32966754 0.030295268 0.0061640665 0.5277468
0.16291831 -0.20896628 -0.22199748 0.4305572 -0.13848372 -0.22331451 0.3328707 -0.05958626
0.42993477 0.1702126 0.1871589 -0.06006325 -0.46234003 -0.15728341 0.23537575 -0.52362794
-0.3079895 0.21712507 0.19764146 -0.00042162795 0.18001077 -0.022653993 0.20271052 0.37525177
-0.2838542 0.018339572 -0.17672527 0.3110957 -0.01924785 0.20169309 -0.2636957 0.3294127
-0.19858806 -0.075747795 -0.16531056 0.19432972 -0.029031936 -0.084204055 -0.23872742 0.35622585
0.23762138 0.26449305 0.10245909 -0.20199244 -0.1423149 -0.11576541 -0.054860774 0.05618432
-0.06442927 -0.02994106 -0.032118935 -0.2514241 -0.047131862 0.20589124 0.14207864 -0.26916352
0.18900731 -0.21474092 -0.14618805 -0.08974326 -0.042179894 -0.21114296 0.027509963 -0.1089008
0.5676857 -0.24975607 -0.12294706 0.33802342 -0.20601392 0.14290696 0.23403533 0.477955
-0.4771996 -0.18478706 0.2845556 -0.17997363 0.0052270303 0.20817058 0.29453182 -0.29553905
0.020852571 -0.07648618 0.053713508 -0.16785404 0.21867527 -0.092234336 -0.20516671 -0.01917762
-0.14177178 0.030172942 0.3068327 0.10268853 0.2720046 0.21997045 0.14025295 0.0024384412
0.05059481 -0.31711483 -0.24755582 -0.0069268784 -0.39555258 -0.11526709 -0.3772339 0.1377383
-0.20592272 -0.32429817 0.0005133515 -0.4067471 -0.019459257 0.24849316 0.04190785 0.00844282
0.27918082 0.12568328 0.017835276 -0.28949615 -0.22093332 -0.20879337 0.039705034 0.15459071
0.11337646 -0.023283504 -0.20749699 0.0786075 0.037881594 -0.027438072 -0.38628754 -0.173647
-0.15414426 0.0046105883 -0.0354518 -0.19631572 -0.06284902 -0.1483158 -0.36618066 0.30663842
-0.024989814 0.18207657 0.2873225 -0.3939611 -0.076799236 0.04700639 -0.55915266 0.048131682
0.21457712 0.2154285 -0.0023159203 -0.0122986585 -0.0719487 -0.32720652 -0.14808558 0.291904
-0.2859909 0.06203921 0.033950403 -0.23119922 0.44960278 0.38610393 0.18389508 -0.32531324
-0.06342103 0.104002126 0.11770783 0.1068296 0.3071273 -0.062220495 -0.07387643 -0.18854891
0.013700621 -0.056004845 0.12633671 0.06661686 -0.019061096 -0.075768165 0.37834555 0.13324633
0.030212646 0.0025296404 -0.1714547 -0.34678686 0.25402367 -0.27122614 0.37014017 0.35795826
0.018995274 0.25893715 0.18210204 -0.42179394 -0.18003798 -0.18350178 0.14757782 -0.06716244
0.056513 0.24151652 0.07111206 -0.13164535 -0.08257206 -0.49713066 -0.5911401 -0.1837295
0.18941799 -0.11708877 -0.19383658 -0.0072628837 -0.54295915 0.14148031 0.03552054 0.22531645
0.035353564 0.31449085 0.074475475 0.6077747 -0.53530747 -0.09186335 -0.03141543 0.18449265
0.08389907 -0.0635603 0.06890823 0.37333038 -0.056422427 0.38712278 -0.20905904 0.11942203
-0.091072485 0.061845273 0.116013825 0.240497 0.25147235 0.13751721 -0.051419437 0.2125658
-0.20792213 0.15784839 0.26041597 -0.082187064 0.027036764 -0.20508635 -0.014397175 0.46931946
0.1974512 0.36100104 0.09196008 -0.010680005 -0.43504572 -0.4373857 -0.42567518 0.329051
00000000: 9463 763e 2b92 a63d 479e 8dbe 9c93 e6bd
00000010: 2fca a8be c82d f83c f0fb c93b 6a1a 073f
00000020: 0fd4 263e 42fb 55be 4f53 63be fe71 dc3e
00000030: adce 0dbe 8fac 64be 076e aa3e b910 74bd
00000040: 6920 dc3e 364c 2e3e 95a6 3f3e e204 76bd
00000050: d5b7 ecbe e70e 21be 5706 713e 7b0c 06bf
00000060: cdb0 9dbe 0956 5e3e 8662 4a3e f20d ddb9
00000070: be54 383e de94 b9bc 5993 4f3e 0021 c03e
00000080: 5655 91be df3c 963c 78f7 34be f047 9f3e
00000090: abad 9dbc a288 4e3e 1f03 87be c8a8 a83e
000000a0: ab5a 4bbe a921 9bbd 2c47 29be 5ffe 463e
000000b0: 62d4 edbc 2d73 acbd f674 74be 3c63 b63e
000000c0: 0553 733e a26b 873e 12d6 d13d 1bd7 4ebe
000000d0: ffba 11be 6a16 edbd b1b5 60bd 8821 663d
000000e0: 7ef3 83bd f446 f5bc 258f 03bd a9ba 80be
000000f0: 570d 41bd 27d5 523e 107d 113e cdcf 89be
00000100: 228b 413e 0be5 5bbe 52b2 15be 50cb b7bd
00000110: d3c4 2cbd dc35 58be 935c e13c 6207 dfbd
00000120: da53 113f 0ec0 7fbe abcb fbbd 6811 ad3e
00000130: 50f5 52be 3456 123e f5a6 6f3e 85b6 f43e
00000140: 8253 f4be d238 3dbe 46b1 913e 024b 38be
00000150: 8247 ab3b ab2a 553e e0cc 963e e550 97be
00000160: 03d3 aa3c c9a4 9cbd b202 5c3d eee1 2bbe
00000170: 69ec 5f3e 5be5 bcbd 3917 52be 621a 9dbc
00000180: 9f2c 11be 3f2d f73c 2d19 9d3e 5d4e d23d
00000190: 3044 8b3e ef3f 613e 789e 0f3e 41ce 1f3b
000001a0: 813c 4f3d e05c a2be 467f 7dbe defa e2bb
000001b0: de85 cabe 2711 ecbd cd24 c1be 450b 0d3e
000001c0: 68dd 52be 690a a6be 7092 063a 2841 d0be
000001d0: 0569 9fbc fe74 7e3e 91a7 2b3d c153 0a3c
000001e0: caf0 8e3e 1eb3 003e 491b 923c d738 94be
000001f0: 583c 62be eecd 55be bfa1 223d 074d 1e3e
00000200: eb31 e83d 0cbd bebc 177a 54be f8fc a03d
00000210: bb29 1b3d cfc5 e0bc 7bc7 c5be 85d0 31be
00000220: fed7 1dbe 6b14 973b e835 11bd fd06 49be
00000230: fdb6 80bd 19e0 17be 087c bbbe b6ff 9c3e
00000240: 70b7 ccbc 4872 3a3e ef1b 933e 45b5 c9be
00000250: eb48 9dbd c689 403d a124 0fbf ba25 453d
00000260: 1bba 5b3e 4a99 5c3e b2c6 17bb 5080 49bc
00000270: d759 93bd 9d87 a7be bfa3 17be 7174 953e
00000280: 666d 92be d41c 7e3d 940f 0b3d 7dbf 6cbe
00000290: 5632 e63e 6aaf c53e fe4e 3c3e 758f a6be
000002a0: e3e2 81bd 11ff d43d ce10 f13d 7ac9 da3d
000002b0: ca3f 9d3e ebda 7ebd 874c 97bd f712 41be
000002c0: 9278 603c 5665 65bd 695e 013e 6c6e 883d
000002d0: 0426 9cbc 572c 9bbd 82b6 c13e ba71 083e
000002e0: 8380 f73c 53c8 253b d291 2fbe 0c8e b1be
000002f0: 640f 823e 27de 8abe 0383 bd3e 4e46 b73e
00000300: fa9b 9b3c 6993 843e f578 3a3e 60f5 d7be
00000310: e05b 38be e4e7 3bbe a41e 173e 768c 89bd
00000320: 2d7a 673d 1b50 773e 33a3 913d 0ace 06be
00000330: 8a1b a9bd e987 febe f554 17bf 9623 3cbe
00000340: caf6 413e 3dcc efbd 197d 46be 7cfd edbb
00000350: 5fff 0abf 37e0 103e fc7d 113d 5bb9 663e
00000360: e6ce 103d f204 a13e 9986 983d 1f97 1b3f
00000370: e909 09bf da22 bcbd 77ad 00bd a4eb 3c3e
00000380: 47d3 ab3d e72b 82bd c21f 8d3d 2925 bf3e
00000390: 341b 67bd f534 c63e 9313 56be 8a93 f43d
000003a0: 3684 babd 7851 7d3d a898 ed3d d844 763e
000003b0: fcc0 803e 50d1 0c3e 309d 52bd d9aa 593e
000003c0: 8ae9 54be 02a3 213e 3e55 853e b151 a8bd
000003d0: 347c dd3c 2802 52be 21e2 6bbc a44a f03e
000003e0: a630 4a3e 21d5 b83e 9155 bc3d 30fb 2ebc
000003f0: 50be debe 05f1 dfbe 19f2 d9be 5f79 a83e

network_body._body_endoder.seq_layers.2.bias f4 [128]
-0.00092089665 -8.8506e-05 3.261163e-05 0.001029316 0.0012704119 0.0029439658 0.0028698486 -0.0019342784
-0.0009164728 -0.0011347797 -0.0009088187 -8.1696035e-06 0.0004514062 0.003401304 -0.0027014823 0.0031897298
-0.00025214418 0.000511961 -0.0017224693 -0.0010152605 -0.0006913454 -0.00049238064 -0.00028949438 -0.00016118132
0.00055044726 0.00089582824 -0.00059264636 0.00010685762 0.0032166806 -0.00028695352 0.00034941218 0.0057207746
-0.0006900516 -0.00042636017 -0.000108366134 -9.835936e-05 -0.00032162352 -0.0001711258 -0.00063429715 -0.00026511782
-0.0038605344 -0.00016578942 0.0034991144 -0.00039771126 -0.0008182656 0.0014649023 0.0008327194 0.0010607081
0.00053938094 -0.00031224563 -0.000120617384 -0.0015023657 -0.0019472826 0.0029732883 8.525583e-05 -0.00033186894
-0.0011041339 -0.00023152365 0.0009913442 -0.0003924027 0.0008712407 0.0025559282 -0.0028747458 -0.0008614336
-0.0027234328 0.0010850782 -0.0005226402 -0.0012297052 -0.0009292004 -0.0002327045 -0.0019490076 -0.00066291756
0.0006998391 0.0018205456 0.0018851899 0.00033309602 0.00049984216 0.0009467845 0.0031821216 -0.002310958
0.0007368818 0.00042502763 0.0030653803 0.0006492759 0.0027008804 0.00016838787 -5.8241887e-05 0.00039189987
0.0017964712 -0.001427192 -0.0003489174 0.000113005495 -0.0021700093 0.0024078302 0.004107642 0.0007220628
-0.001129806 0.00018660103 -0.00021805282 0.0011858147 -0.001911255 0.00012001969 -0.00033644552 -0.0006088152
0.0027373515 -0.00026242557 0.00026314825 -0.0005653651 -0.0004849172 0.00011321144 -0.0010988067 -0.0007415225
-0.0035373212 0.0025077888 0.0010835277 -0.00038862933 0.0012679097 -0.0025534276 1.9596077e-05 -0.0019238846
-0.00015760901 -0.0011963992 0.00069528824 0.0006529345 -0.0003682261 -0.0029532057 0.0004130306 0.0014963207
00000000: 5468 71ba 4c9c b9b8 79c8 0838 1dea 863a
00000010: f383 a63a 8def 403b 1214 3c3b 9d87 fdba
00000020: 733f 70ba e3bc 94ba ca3d 6eba 2e10 09b7
00000030: b7aa ec39 69e8 5e3b 5a0b 31bb c90a 513b
00000040: 3832 84b9 1f35 063a 7bc4 e1ba 7d12 85ba
00000050: 683b 35ba 1b13 01ba 47c7 97b9 c802 29b9
00000060: e44b 103a 04d6 6a3a d35b 1bba bf18 e038
00000070: f2ce 523b 4072 96b9 4f31 b739 5675 bb3b
00000080: 94e4 34ba 1889 dfb9 a042 e3b8 4846 ceb8
00000090: 949f a8b9 3b70 33b9 f646 26ba 83ff 8ab9
000000a0: 0501 7dbb c2d7 2db9 6651 653b e783 d0b9
000000b0: e080 56ba f701 c03a da4a 5a3a 7507 8b3a
000000c0: 3e65 0d3a e6b4 a3b9 f7f3 fcb8 07eb c4ba
000000d0: f63b ffba 80db 423b 60cb b238 b2fe adb9
000000e0: 96b8 90ba 28c5 72b9 feef 813a 66bb cdb9
000000f0: f963 643a 5c81 273b 3b66 3cbb d5d1 61ba
00000100: 9f7b 32bb 2f39 8e3a ca01 09ba 0f2e a1ba
00000110: 9595 73ba 2302 74b9 d875 ffba a5c7 2dba
00000120: 6875 373a 609f ee3a 7a18 f73a 64a3 ae39
00000130: d707 033a a231 783a 248b 503b 7173 17bb
00000140: 4d2b 413a 3ed6 de39 8ce4 483b 2b34 2a3a
00000150: 4101 313b 4691 3039 c048 74b8 e977 cd39
00000160: 9277 eb3a 9e10 bbba e7ee b6b9 5dfd ec38
00000170: b736 0ebb b0cc 1d3b 6699 863b d048 3d3a
00000180: 0016 94ba 55aa 4339 1ca5 64b9 576d 9b3a
00000190: 1383 faba 15b3 fb38 f464 b0b9 e598 1fba
000001a0: 2365 333b 2a96 89b9 29f7 8939 0235 14ba
000001b0: 7c3c feb9 ee6b ed38 d605 90ba bc62 42ba
000001c0: 67d2 67bb b759 243b 2805 8e3a f2c0 cbb9
000001d0: fd2f a63a 6857 27bb 4162 a437 db2a fcba
000001e0: d943 25b9 7fd0 9cba 0144 363a b129 2b3a
000001f0: 780e c1b9 928a 41bb 078c d839 3120 c43a

network_body._body_endoder.seq_layers.2.weight f4 [128, 128]
-0.10957437 0.11317858 0.012903587 -0.08783049 -0.0042802263 0.019812891 0.06771915 -0.04101519
0.121359475 -0.028462363 -0.0077414 0.027957961 0.009749985 -0.01769615 0.0900822 -0.06671126
-0.1572252 0.2497657 -0.1551231 0.14194317 -0.292024 -0.061552793 -0.0070910202 0.11090785
-0.06509482 -0.021017484 -0.013135459 -0.061234485 0.024380265 -0.049745332 0.08205738 -0.027641887
0.08665105 0.051722024 -0.15898752 0.17105493 0.011952277 0.15660697 0.0698169 0.048840575
0.06882067 0.079624385 0.086336076 0.0068524415 -0.039125994 -0.09584002 -0.09048831 0.12011635
0.029552653 0.11398377 -0.062256984 0.11573907 0.04719555 0.17293063 0.19457786 0.024234807
0.18833588 -0.08041686 -0.029914336 -0.13223942 0.07063903 -0.14531355 -0.003820559 -0.011209942
-0.025551554 0.082748055 0.11408143 -0.0722083 0.072791755 0.06565453 0.004534098 0.07750001
0.0071410784 0.033279784 -0.05080311 -0.047744267 0.017701272 0.05629949 0.08028837 -0.048061687
-0.002469291 -0.12614849 -0.05061575 0.031235911 0.03353388 -0.00728206 -0.15731217 -0.09412988
0.13788043 0.098756835 -0.032734837 0.0011250637 0.14816287 -0.03603879 -0.00017860749 0.07149218
-0.015377789 -0.005536039 0.0027836899 0.066766605 0.01292709 0.07831744 -0.103606954 -0.048525676
-0.007643681 0.12905578 0.18040305 0.04415352 0.08321677 -0.020340677 0.027147237 0.019961918
0.02107979 -0.08681534 0.100455485 0.053950574 -0.0019569697 0.07023399 0.01411624 -0.026004495
0.002799202 0.09171759 0.04589 0.04385289 0.10154601 -0.040688053 -0.0152861485 0.014733533
-0.13154659 -0.13384977 -0.059486635 0.06444715 -0.049166847 0.08178387 -0.07252353 0.23877154
-0.072541825 -0.14638813 0.14285111 -0.09844234 0.06582187 0.015497238 -0.006953972 -0.007016271
0.01615904 0.09774707 -0.07495725 -0.14869586 -0.17531347 0.042551458 -0.024822768 0.09727502
-0.03262133 -0.016311895 -0.066359416 -0.09408113 -0.06286224 0.049179107 -0.023689521 0.12168137
-0.0036868523 -0.22211365 0.01775556 -0.065394685 0.0021825635 -0.040745426 -0.014629156 0.01657729
0.07585223 -0.037587848 -0.1274178 0.1049463 0.012016674 0.03675564 0.05813206 0.09785457
0.13138299 0.014752716 0.104275815 -0.021538576 0.042298462 -0.02246217 -0.060746737 0.04857175
-0.11699213 -0.1413856 -0.19998078 0.0016669781 -0.058257062 0.24849358 0.11947096 0.09693492
-0.13143103 0.08305576 0.0036161493 -0.05778031 0.15018351 0.017862892 0.092493065 -0.06735593
0.024777759 -0.051882736 0.09193781 -0.2158737 -0.023300245 0.0071340217 -0.13244419 -0.09806522
0.04319 -0.055077955 0.006073088 0.00739349 0.12719727 0.2047357 0.033254415 0.07954607
-0.09397666 -0.052246995 0.13187605 0.18661487 0.04963183 -0.13598293 0.119479075 0.02790923
0.006318782 -0.03425065 -0.18127178 0.08448898 0.1142467 0.04947511 0.0011665744 -0.001968962
-0.07110935 0.0023059193 0.02380746 0.016103815 -0.08722205 -0.019841548 0.040203013 0.017564988
-0.026989877 0.0021471053 0.010760035 0.004391973 0.118150115 0.10894431 0.043975856 0.07940294
-0.05646045 0.02606806 -0.010562904 -0.012416686 -0.013407523 -0.10393258 0.06622194 0.06921964
00000000: 8768 e0bd 2cca e73d 9169 533c 79e0 b3bd
00000010: 2441 8cbb a54e a23c 56b0 8a3d 8bff 27bd
00000020: 518b f83d e729 e9bc 92ab fdbb 1808 e53c
00000030: 67be 1f3c 84f7 90bc 047d b83d ea9f 88bd
00000040: a5ff 20be 94c2 7f3e 97d8 1ebe 8d59 113e
00000050: 2b84 95be c81e 7cbd ca5b e8bb a823 e33d
00000060: 6f50 85bd dc2c acbc 1c36 57bc 03d1 7abd
00000070: 1fb9 c73c c3c1 4bbd b30d a83d 3d71 e2bc
00000080: 1b76 b13d 79da 533d a0cd 22be 0629 2f3e
00000090: 7cd3 433c 945d 203e 2afc 8e3d 0e0d 483d
000000a0: daf1 8c3d 1c12 a33d f8d0 b03d 728a e03b
000000b0: 9442 20bd c647 c4bd ef51 b9bd 90ff f53d
000000c0: 6818 f23c 5370 e93d 2e01 7fbd 9b08 ed3d
000000d0: 1f50 413d ba14 313e 6b3f 473e 1388 c63c
000000e0: 1fdb 403e 98b1 a4bd e90e f5bc c569 07be
000000f0: 32ab 903d 13cd 14be 5862 7abb e8a9 37bc
00000100: 7e51 d1bc d077 a93d 86a3 e93d f2e1 93bd
00000110: d813 953d e275 863d c592 943b 53b8 9e3d
00000120: b5ff e93b 6250 083d ec16 50bd 7e8f 43bd
00000130: 4202 913c 4b9a 663d 3b6e a43d 55dc 44bd
00000140: d4d3 21bb 122d 01be 7652 4fbd 74e2 ff3c
00000150: d25a 093d 599e eebb 7116 21be 2bc7 c0bd
00000160: 8730 0d3e 0641 ca3d f714 06bd e076 933a
00000170: 02b8 173e 699d 13bd 9548 3bb9 7e6a 923d
00000180: 1ff3 7bbc a967 b5bb 916e 363b eebc 883d
00000190: 25cc 533c e564 a03d e22f d4bd dcc2 46bd
000001a0: d877 fabb 3327 043e 94bb 383e 52da 343d
000001b0: 8e6d aa3d 7ea1 a6bc e263 de3c 2d87 a33c
000001c0: 86af ac3c 3ecc b1bd 9bbb cd3d 47fb 5c3d
000001d0: 8140 00bb d7d6 8f3d cd47 673c 6107 d5bc
000001e0: d172 373b 6fd6 bb3d 27f7 3b3d 179f 333d
000001f0: 5bf7 cf3d 84a8 26bd c172 7abc eb64 713c
00000200: 26b4 06be ea0f 09be 42a8 73bd defc 833d
00000210: 2d63 49bd 4d7e a73d 3787 94bd 8780 743e
00000220: cf90 94bd c5e6 15be 9047 123e 239c c9bd
00000230: 9ecd 863d 21e8 7d3c 25de e3bb bfe8 e5bb
00000240: f75f 843c 9e2f c83d 3083 99bd ba43 18be
00000250: 6085 33be 704a 2e3d 1e59 cbbc 2038 c73d
00000260: f29d 05bd 86a0 85bc 72e7 87bd 9cad c0bd
00000270: ebbd 80bd 0870 493d 8710 c2bc 1534 f93d
00000280: 1e9f 71bb c371 63be 1c74 913c a6ed 85bd
00000290: 5709 0f3b ade4 26bd 21af 6fbc 19cd 873c
000002a0: 6a58 9b3d b7f5 19bd d079 02be 16ee d63d
000002b0: 95e1 443c 158d 163d e21b 6e3d fa67 c83d
000002c0: 4389 063e 60b5 713c 8f8e d53d ab71 b0bc
000002d0: 2741 2d3d 9602 b8bc 92d1 78bd 2cf3 463d
000002e0: 9299 efbd 63c7 10be c3c7 4cbe 817e da3a
000002f0: f59e 6ebd 1a75 7e3e 31ad f43d d185 c63d
00000300: db95 06be 2319 aa3d ebfc 6c3b 0cab 6cbd
00000310: b5c9 193e 3355 923c 016d bd3d e8f1 89bd
00000320: bafa ca3c fe82 54bd e449 bc3d ff0d 5dbe
00000330: 28e0 bebc 83c4 e93b 739f 07be 6bd6 c8bd
00000340: ffe7 303d 6c99 61bd c100 c73b 1745 f23b
00000350: 0040 023e 3ca6 513e c835 083d 0de9 a23d
00000360: d676 c0bd f200 56bd 840a 073e f817 3f3e
00000370: bf4a 4b3d 1c3f 0bbe 72b1 f43d e6a1 e43c
00000380: c90d cf3b 694a 0cbd 4f9f 39be 8f08 ad3d
00000390: 2dfa e93d 6aa6 4a3d bee7 983a b309 01bb
000003a0: c7a1 91bd e81e 173b dd07 c33c 26ec 833c
000003b0: 79a1 b2bd be8a a2bc eaab 243d 73e4 8f3c
000003c0: e019 ddbc 73b6 0c3b dc4a 303c 8aea 8f3b
000003d0: b0f8 f13d 321e df3d 0720 343d 029e a23d
000003e0: 1343 67bd af8c d53c 0810 2dbc 5b6f 4bbc
000003f0: 3aab 5bbc 9bda d4bd 5e9f 873d 07c3 8d3d
